A3/MyTeam/A3/classification/baseline.pth (torch, 7967 bytes, 5 tensors)

conv1.bias f4 [32]
-0.007494914 -0.0033673416 0.0 0.0 -0.01945284 -0.033647154 0.0 -0.037224557
0.0 -0.00092359784 -0.079800695 -0.0214752 -0.006986209 0.0 -0.09754361 0.0
-0.08339673 -0.034270175 0.019700386 -0.0022201207 -0.029625705 -0.018324368 0.030110564 -0.121753626
-0.06896597 -0.021617766 0.0146301575 -0.049526278 -0.025772562 -0.040286034 0.018995943 0.0
00000000: e597 f5bb 9eae 5cbb 0000 0000 0000 0000
00000010: 905b 9fbc 99d1 09bd 0000 0000 c778 18bd
00000020: 0000 0000 9a1d 72ba 8c6e a3bd c2ec afbc
00000030: 92ec e4bb 0000 0000 f2c4 c7bd 0000 0000
00000040: e8cb aabd e25e 0cbd b462 a13c 727f 11bb
00000050: 9bb1 f2bc fc1c 96bc 6eaa f63c f759 f9bd
00000060: 083e 8dbd be17 b1bc 54b3 6f3c 11dc 4abd
00000070: fb20 d3bc f802 25bd 619d 9b3c 0000 0000

conv1.lin.weight f4 [32, 9]
-0.0508904 0.040409364 0.2709917 -0.3119298 0.07803028 -0.122591056 0.26746395 0.3046476
-0.25568885 0.30094185 -0.010117303 -0.12716646 0.140431 0.41925615 -0.13811697 0.24699476
-0.35958263 0.24144821 -0.35261613 0.36918846 0.35616696 -0.12906441 0.13407002 -0.29921675
0.0057137874 0.016776811 -0.17820032 -0.20282426 -0.08413948 0.104496814 -0.17212516 -0.26647672
-0.063994706 -0.17787252 0.13334894 0.16752966 0.058821123 0.3503343 0.10630094 -0.083761215
0.33010527 0.28913042 -0.35666487 -0.5030806 -0.34025294 0.13912974 -0.32787198 0.15034279
0.10896939 0.2539619 -0.017972281 0.2694292 0.1569937 0.27713922 -0.33051765 -0.35725325
-0.23328067 -0.109739475 0.047199238 0.01160643 -0.22292477 0.1745679 -0.3708752 0.067718506
0.3088912 -0.46312165 -0.28552884 -0.52828646 0.6404836 -0.2704453 0.23089968 -0.4175939
-0.3740754 0.2334681 -0.04904972 -0.0792014 0.02528716 -0.114754215 0.05799366 0.23811194
-0.120978214 -0.12478411 0.4203106 0.18961129 0.21666518 -0.30098498 0.12100857 0.22367066
0.13146925 -0.38428536 -0.102551624 -0.4195187 -0.3710281 0.30109844 -0.024416272 0.2171752
0.040788393 0.08956466 0.1324268 0.0049094586 -0.13069022 0.19098848 -0.36467817 0.33538964
0.21012823 0.3655458 -0.33489475 0.1889749 0.07254931 0.43926665 0.11889955 -0.3286048
-0.43501168 -0.357524 0.33585593 0.15873636 -0.05567584 -0.10009776 0.34569556 0.10864897
-0.17249733 0.047350504 -0.10302671 -0.18597049 0.023285871 -0.23186693 -0.0761257 0.15619723
0.30197293 0.025808435 0.021834757 -0.07923753 -0.01748485 -0.51818955 0.14181615 -0.07091952
0.14792363 0.10116684 -0.2911222 0.06692721 -0.27950597 0.2501498 0.21907514 -0.094619654
0.09364001 0.11319683 0.19935599 -0.19018985 0.07717985 -0.38586667 -0.05751452 -0.061491754
-0.2944395 -0.06116863 0.13263842 -0.3037644 0.18108581 0.14987533 0.008918911 0.1465837
-0.17350794 0.27436846 0.04834352 0.23304327 -0.1283009 -0.25796932 0.16797324 -0.50406337
-0.38356653 -0.35550264 0.21584857 -0.049365018 0.2844737 0.35953945 -0.15146609 -0.044197306
0.16790204 0.37705392 -0.108572796 -0.29464042 -0.2616135 -0.42731455 0.2790776 0.04685111
0.39622596 0.0911687 0.20639533 -0.049544185 -0.12765388 0.023525486 0.12328769 0.19344461
-0.30040082 0.28064805 -0.019078294 0.16650915 -0.03276302 0.0356812 0.17493309 -0.1645841
0.0765853 -0.25627324 -0.33230367 -0.038612854 0.023244504 -0.08441557 0.057382643 0.22204545
0.028179232 0.19842494 0.22548065 -0.43548465 0.47315618 0.28103742 0.016761018 -0.44289446
-0.047956157 -0.10051552 -0.08557497 0.25588903 -0.17064881 0.48829 0.20788921 0.056470018
0.23118024 -0.14654431 0.21335296 0.17479795 -0.2729179 0.20951259 0.34682715 0.19592425
0.24813737 0.3562174 -0.06597131 0.32509378 -0.23046938 0.25393742 -0.3651262 -0.2229498
-0.26263547 0.10711831 0.16496514 -0.20526233 0.27295116 0.36197674 0.22554082 -0.49232343
-0.57366705 -0.058659874 -0.16243508 0.15976551 0.06406543 -0.34170246 0.30937675 -0.136387
00000000: 7472 50bd 4a84 253d 6dbf 8a3e 43b5 9fbe
00000010: 57ce 9f3d 0511 fbbd 09f1 883e c5fa 9b3e
00000020: a6e9 82be 0d15 9a3e 0bc3 25bc ed37 02be
00000030: 25cd 0f3e bea8 d63e 896e 0dbe 32ec 7c3e
00000040: 371b b8be 333e 773e 1a8a b4be 4506 bd3e
00000050: 845b b63e 7629 04be a749 093e f032 99be
00000060: b93a bb3b 866f 893c 257a 36be 2ab1 4fbe
00000070: 5251 acbd 6d02 d63d 9441 30be a36f 88be
00000080: a80f 83bd 3724 36be a08c 083e e58c 2b3e
00000090: 6bee 703d 045f b33e 4fb4 d93d 008b abbd
000000a0: 8f03 a93e e708 943e c79c b6be e4c9 00bf
000000b0: a235 aebe 0778 0e3e d6de a7be 76f3 193e
000000c0: 582b df3d 4b07 823e 9b3a 93bc a0f2 893e
000000d0: f5c2 203e 31e5 8d3e 9c39 a9be e6e9 b6be
000000e0: 21e1 6ebe 17bf e0bd fd53 413d e528 3e3c
000000f0: 6446 64be edc1 323e 5be3 bdbe 00b0 8a3d
00000100: fd26 9e3e 481e edbe d630 92be c83d 07bf
00000110: bcf6 233f ce77 8abe f770 6c3e dece d5be
00000120: d086 bfbe 4312 6f3e 5ce8 48bd 5834 a2bd
00000130: 0527 cf3c 4204 ebbd c38a 6d3d 9ed3 733e
00000140: 6dc3 f7bd d08e ffbd f332 d73e 7629 423e
00000150: 7add 5d3e b41a 9abe 57d3 f73d ec09 653e
00000160: e09f 063e 0dc1 c4be 9606 d2bd 28cb d6be
00000170: 65f7 bdbe 9329 9a3e a204 c8bc 2d63 5e3e
00000180: bb11 273d ad6d b73d e49a 073e 86df a03b
00000190: a8d3 05be 7c92 433e 19b7 babe 31b8 ab3e
000001a0: db2b 573e d228 bb3e 5377 abbe a382 413e
000001b0: bc94 943d 8fe7 e03e 9b81 f33d e33e a8be
000001c0: dab9 debe 630d b7be 4ff5 ab3e c98b 223e
000001d0: 590c 64bd 0e00 cdbd 02ff b03e 5a83 de3d
000001e0: 24a3 30be 9af2 413d abff d2bd 0c6f 3ebe
000001f0: 03c2 be3c 866e 6dbe cae7 9bbd 2bf2 1f3e
00000200: 329c 9a3e 366c d33c cede b23c 4947 a2bd
00000210: 633c 8fbc 12a8 04bf 4138 113e 413e 91bd
00000220: 4b79 173e 8f30 cf3d f80d 95be 2211 893d
00000230: 681b 8fbe a213 803e 3c55 603e f3c7 c1bd
00000240: 55c6 bf3d bdd3 e73d fa23 4c3e 21c1 42be
00000250: 7810 9e3d 5190 c5be 5894 6bbd c7de 7bbd
00000260: c6c0 96be f58b 7abd 5ed2 073e 0287 9bbe
00000270: 8f6e 393e eb78 193e a020 123c 0a1a 163e
00000280: 11ac 31be 067a 8c3e db03 463d e5a2 6e3e
00000290: 5061 03be 8e14 84be 2d01 2c3e 4c0a 01bf
000002a0: d562 c4be 7104 b6be 6807 5d3e f932 4abd
000002b0: 89a6 913e 8e15 b83e ed19 1bbe 3c08 35bd
000002c0: 83ee 2b3e 360d c13e 6a5b debd 1cdb 96be
000002d0: 34f2 85be f9c8 dabe 42e3 8e3e f3e6 3f3d
000002e0: 21de ca3e a8b6 ba3d 4c59 533e d8ee 4abd
000002f0: b3b7 02be 85b8 c03c 427e fc3d 5816 463e
00000300: 23ce 99be 1ab1 8f3e 154a 9cbc 6081 2a3e
00000310: 8432 06bd 7326 123d a921 333e bc88 28be
00000320: c1d8 9c3d 3f36 83be b523 aabe 8328 1ebd
00000330: 426b be3c 12e2 acbd 100a 6b3d e25f 633e
00000340: 22d8 e63c e82f 4b3e 66e4 663e d8f7 debe
00000350: 8741 f23e 23e4 8f3e 674e 893c 10c3 e2be
00000360: ad6d 44bd 15db cdbd ee41 afbd e303 833e
00000370: 90be 2ebe 2601 fa3e e9e0 543e 1b4d 673d
00000380: 83ba 6c3e b60f 16be 3379 5a3e 3cfe 323e
00000390: e5bb 8bbe 788a 563e 5493 b13e 5ea0 483e
000003a0: b917 7e3e 2162 b63e f71b 87bd b172 a63e
000003b0: 2a00 6cbe 1604 823e d2f1 babe f44c 64be
000003c0: 2878 86be d860 db3d 9fec 283e 4a30 52be
000003d0: 41c0 8b3e 0455 b93e 2cf4 663e d111 fcbe
000003e0: d8db 12bf 5645 70bd 6255 26be 9299 233e
000003f0: bc34 833d a0f3 aebe a166 9e3e 09a9 0bbe

conv2.bias f4 [32]
0.019818196 -0.0065546865 -0.016824797 0.013314928 -0.02169224 -0.029971138 0.0017474663 0.017981485
-0.02369808 0.008631464 -0.034703325 0.01169026 -0.029482305 -0.012753962 0.0 -0.033538707
-0.01897505 0.0 0.0 -0.0354236 -0.01692448 -0.0268658 -0.029742159 -0.054012217
-0.022441009 0.0 0.0018224862 -0.027215008 0.0 0.025724879 0.01638388 0.0
00000000: c559 a23c b2c8 d6bb 28d4 89bc db26 5a3c
00000010: edb3 b1bc 0886 f5bc 3d0b e53a e84d 933c
00000020: 7a22 c2bc fc6a 0d3c 1325 0ebd 8188 3f3c
00000030: e084 f1bc fef5 50bc 0000 0000 e25f 09bd
00000040: 9071 9bbc 0000 0000 0000 0000 5618 11bd
00000050: 35a5 8abc ab15 dcbc d4a5 f3bc ea3b 5dbd
00000060: 35d6 b7bc 0000 0000 7de0 ee3a 02f2 debc
00000070: 0000 0000 fbbc d23c 7d37 863c 0000 0000

conv2.lin.weight f4 [32, 32]
0.085325815 0.23810795 0.25439358 0.06315396 -0.2993996 -0.21611978 -0.11392109 -0.2231471
-0.1842302 -0.118892714 0.3125528 0.21605448 0.22575083 -0.25963345 0.19191422 0.2826016
0.19904935 0.061570104 0.11945317 -0.19088174 0.019358428 -0.054969598 -0.09697358 -0.01587607
0.022943059 0.2929904 -0.028200911 0.17628367 -0.16290526 0.037304476 0.2917545 -0.27915353
-0.13966252 0.00052328454 0.22358191 0.07691868 0.25340295 -0.21574542 0.22372389 -0.22574793
0.014233489 -0.26912937 0.2763911 -0.20967814 0.056107912 -0.22959912 -0.24482006 0.2655011
0.10910968 0.1761455 -0.1602533 -0.10503265 -0.03686167 0.21471117 -0.0031532643 -0.15060164
-0.320464 0.24794787 0.2188897 -0.038354527 0.2507548 0.11233417 -0.07618634 0.027318023
-0.19652274 0.23504163 0.2578496 -0.2870298 -0.11839448 0.108772874 -0.045233693 -0.0064186654
0.28872716 -0.07303202 -0.036136847 0.07554742 0.25127319 0.103596926 -0.22095087 0.25664756
0.2697751 -0.09035989 -0.30408174 -0.1716616 -0.06359583 -0.20490903 0.12022001 -0.3176389
0.26151472 0.2224239 0.06439519 -0.17171733 -0.059834983 -0.27103126 0.29955146 -0.25012493
0.019196946 -0.056220856 -0.09027631 -0.011538602 -0.15943737 0.23477073 0.04702264 0.0800752
0.21065764 -0.22715007 0.1751095 -0.07578846 0.034116354 -0.05232091 -0.024956563 0.22762421
0.28911737 -0.041706152 0.061835732 0.14829737 -0.058385063 -0.09546211 0.011307216 0.010516847
0.1280568 -0.10793195 -0.19840194 0.10043204 -0.21603698 -0.056837466 0.2030293 0.1370709
-0.11410094 -0.25670868 -0.1308436 0.08293986 0.1732497 0.06347849 0.18325144 -0.06228762
-0.19605543 -0.2830341 0.068990365 -0.24070019 0.011904278 0.011319236 0.21376981 -0.12868147
0.07814919 0.24385999 0.28639543 -0.11498584 0.15372549 -0.03590491 0.11436439 -0.12572587
0.22945929 0.2609148 -0.118104436 0.26347435 -0.011431954 0.118391626 -0.24879004 -0.050552398
0.14492732 0.052063476 -0.02938744 -0.0036744429 0.03327541 -0.28248256 0.08320497 0.06209348
0.24295044 -0.00617669 -0.20836328 0.020598812 0.069014296 0.20395142 -0.23524195 -0.11558707
-0.28801164 0.06534027 -0.015418286 0.09291042 0.18829836 -0.28157195 -0.18883339 -0.18667643
0.1498388 -0.27446368 0.0332264 0.1296089 0.25996572 -0.0591881 0.1728617 0.16500884
-0.015248219 -0.10190869 -0.026887977 -0.025462642 0.074347265 -0.101408206 -0.13447157 -0.34472027
-0.005086601 -0.27619636 0.010875547 -0.042940956 0.058721036 0.007913399 -0.09589649 -0.26770705
0.13946903 0.2535173 -0.04551371 0.16952512 -0.037399538 0.12924941 -0.15973966 0.22447617
0.09554042 0.02528299 -0.24224043 -0.03799081 0.26391274 -0.0019326296 0.5173842 -0.16017719
0.2512421 0.061950352 -0.12000586 -0.05202701 0.17250183 -0.07305895 0.2976495 -0.06146885
-0.19334759 0.12316567 0.2770351 -0.06186441 0.19976494 -0.24249455 0.18580073 0.21330906
-0.112578 0.34670582 0.020819003 0.078551464 0.14409679 -0.05585919 -0.3310653 0.20116472
-0.15739205 -0.036366884 -0.2519584 -0.31109533 0.15361549 0.20395081 0.10203787 -0.19537543
00000000: 4dbf ae3d 92d2 733e e03f 823e dd56 813d
00000010: e84a 99be 814e 5dbe 764f e9bd ac80 64be
00000020: d7a6 3cbe 067e f3bd ec06 a03e 633d 5d3e
00000030: 3a2b 673e adee 84be 2985 443e 28b1 903e
00000040: 98d3 4b3e ef30 7c3d dda3 f43d 8176 43be
00000050: 9195 9e3c cd27 61bd 169a c6bd 880e 82bc
00000060: 15f3 bb3c d602 963e 9905 e7bc b583 343e
00000070: a3d0 26be 94cc 183d d960 953e 36ed 8ebe
00000080: b103 0fbe 082d 093a a8f2 643e 8a87 9d3d
00000090: 08be 813e 5eec 5cbe e017 653e 772a 67be
000000a0: 9433 693c 53cb 89be 2283 8d3e deb5 56be
000000b0: 69d1 653d 081c 6bbe 1cb2 7abe c3ef 873e
000000c0: e574 df3d 7c5f 343e 7119 24be 5c1b d7bd
000000d0: 43fc 16bd 3fdd 5b3e ffa6 4ebb 5137 1abe
000000e0: db13 a4be 0ce6 7d3e 9f24 603e a319 1dbd
000000f0: ef62 803e 750f e63d 9507 9cbd 0cca df3c
00000100: 423d 49be c1ae 703e dd04 843e 92f5 92be
00000110: ce78 f2bd 50c4 de3d f746 39bd ab53 d2bb
00000120: 0cd4 933e d091 95bd 3b04 14bd 9bb8 9a3d
00000130: e1a6 803e a02a d43d f240 62be 4f67 833e
00000140: f61f 8a3e 9b0e b9bd 9ab0 9bbe 0fc8 2fbe
00000150: 883e 82bd acd3 51be e935 f63d 91a1 a2be
00000160: 42e5 853e 17c3 633e a0e1 833d abd6 2fbe
00000170: 8715 75bd 9cc4 8abe cf5e 993e 6010 80be
00000180: ea42 9d3c d747 66bd c9e2 b8bd 680c 3dbc
00000190: 8d43 23be bd67 703e d09a 403d 77fe a33d
000001a0: a3b6 573e 079a 68be e84f 333e fb36 9bbd
000001b0: 97bd 0b3d 734e 56bd b571 ccbc 5216 693e
000001c0: 3107 943e 12d4 2abd 7747 7d3d 44db 173e
000001d0: 2d25 6fbd a481 c3bd e741 393c da4e 2c3c
000001e0: 5221 033e 6d0b ddbd e129 4bbe 50af cd3d
000001f0: cc38 5dbe 67ce 68bd eae6 4f3e 505c 0c3e
00000200: c1ad e9bd 526f 83be ddfb 05be 60dc a93d
00000210: 5f68 313e 0301 823d 44a6 3b3e 4e21 7fbd
00000220: c1c2 48be d8e9 90be d24a 8d3d 1c7a 76be
00000230: 290a 433c 5174 393c 79e6 5a3e 13c5 03be
00000240: af0c a03d 6fb6 793e 6ca2 923e b27d ebbd
00000250: 376a 1d3e 0711 13bd e137 ea3d 48be 00be
00000260: 60f7 6a3e a096 853e bde0 f1bd 1ce6 863e
00000270: 174d 3bbc 4f77 f23d d1c2 7ebe 0810 4fbd
00000280: d467 143e 8340 553d eebd f0bc ecce 70bb
00000290: cc4b 083d 8ea1 90be 5e67 aa3d bc55 7e3d
000002a0: 00c8 783e d565 cabb 2f5d 55be d7be a83c
000002b0: 5e57 8d3d a4d8 503e 44e3 70be eab8 ecbd
000002c0: 4376 93be 1fd1 853d fb9c 7cbc d147 be3d
000002d0: 49d1 403e 332a 90be 8a5d 41be 1b28 3fbe
000002e0: 586f 193e 8186 8cbe 6818 083d 32b8 043e
000002f0: 3a1a 853e 396f 72bd a802 313e 14f8 283e
00000300: aad3 79bc 81b5 d0bd 2d44 dcbc 0897 d0bc
00000310: 6143 983d 1baf cfbd eab2 09be 2d7f b0be
00000320: 80ad a6bb 9c69 8dbe 5a2f 323c dbe2 2fbd
00000330: 7885 703d 33a7 013c 6165 c4bd e610 89be
00000340: f8d0 0e3e 05cd 813e 956c 3abd fe97 2d3e
00000350: 4230 19bd f559 043e cb92 23be 15dd 653e
00000360: b2aa c33d 461e cf3c e00d 78be 409c 1bbd
00000370: 921f 873e 4a50 fdba 4a73 043f 7d05 24be
00000380: cea2 803e a7bf 7d3d a2c5 f5bd 461a 55bd
00000390: 52a4 303e ee9f 95bd 8465 983e c3c6 7bbd
000003a0: e9fc 45be 483e fc3d 8bd7 8d3e 8965 7dbd
000003b0: 2e8f 4c3e 7e50 78be 8c42 3e3e b16d 5a3e
000003c0: 4b8f e6bd 6d83 b13e 9d8c aa3c 97df a03d
000003d0: 1c8e 133e 9bcc 64bd 6481 a9be 20fe 4d3e
000003e0: 622b 21be 71f5 14bd b100 81be e347 9fbe
000003f0: 614d 1d3e 7bd8 503e 3bf9 d03d 7f10 48be

classifier.weight f4 [1, 32]
-0.3094371 -0.080513984 -0.23701456 -0.093113445 0.55413234 0.23776706 -0.0588095 -0.24742948
0.18192708 -0.12842782 0.08227919 -0.11872124 0.09685779 -0.07706957 0.2383762 0.087635875
0.004056249 0.2087262 -0.040408324 0.2566341 0.008442788 0.21554938 0.14874662 0.14938803
0.3744869 -0.13210553 -0.10702543 0.3203777 -0.1694195 -0.23619433 -0.17319724 0.3384586
00000000: 8a6e 9ebe 84e4 a4bd f2b3 72be 43b2 bebd
00000010: 9edb 0d3f 3579 733e 3be2 70bd 275e 7dbe
00000020: 184b 3a3e 9582 03be fe81 a83d 1f24 f3bd
00000030: 615d c63d a7d6 9dbd e418 743e 707a b33d
00000040: 48ea 843b 52bc 553e 3383 25bd 8b65 833e
00000050: 9f53 0a3c fab8 5c3e 0951 183e 2df9 183e
00000060: bfbc bf3e ac46 07be 2630 dbbd 8c08 a43e
00000070: 4e7c 2dbe eddc 71be 9e5a 31be 724a ad3e
