A3/MyTeam/A3/classification/baseline.pth (torch, 9747 bytes, 11 tensors)

conv1.att_src f4 [1, 1, 32]
00000000: 0e11 37be 9498 073e 7d51 b5bc cc10 153f
00000010: 026e 2d3f 6b61 843e 9566 c4bd 4715 9bbd
00000020: 69d2 f2be 2c0a 41be edc7 ecbe 1e1a 89bd
00000030: a2eb 8f3e 8eb9 3dbe 18a9 263e ddec 0fbf
00000040: ead1 93bd ef4f bebe 8fff 9dbe 3223 9dbe
00000050: b94a 1d3d 7e50 813e 30e3 9c3e 1574 8d3d
00000060: 7952 cdbe ea64 48be 7d6e 89bd 71af 023f
00000070: a062 bd3e 574a 55be 2cab ab3e de67 8e3e
-0.178776 0.13241798 -0.022133583 0.58228755 0.67745984 0.25855574 -0.095898785 -0.07572418
-0.47426155 -0.18851537 -0.4624628 -0.066944346 0.2810946 -0.18527815 0.16275442 -0.562208
-0.07217772 -0.3717036 -0.30859038 -0.30690914 0.03840134 0.25256723 0.3064208 0.069069065
-0.40101984 -0.19569746 -0.06710527 0.5104895 0.36989307 -0.2082914 0.3352903 0.2781362

conv1.att_dst f4 [1, 1, 32]
00000000: 935a 08be 0a8d 4b3e d0d6 97be 587b 123e
00000010: 81b7 b63e 9e7b 973e 8f9f 683e 00c5 1e3e
00000020: 991b bcbe 9d9a b3be 532c 8bbe c983 ccbe
00000030: 8601 1c3d b098 ac3e 248c 7dbe f293 93be
00000040: 2ba9 443d 6cf7 a93e 9ab7 05be b76d 913e
00000050: 6e9a 5fbe 7f9c 193c fceb 833e 6239 453e
00000060: a459 90be 9380 88be c3ac 7abe 2f0a 8c3e
00000070: f0ad 0d3e edfa 833d aa15 e7bb f4ee 44be
-0.13315801 0.19878021 -0.29656076 0.14304864 0.35686877 0.295865 0.22717117 0.15504837
-0.36739805 -0.35078898 -0.27182254 -0.39944294 0.03808739 0.3371024 -0.2476049 -0.2882381
0.048012894 0.3319658 -0.1305832 0.28404018 -0.21836254 0.0093756905 0.2576598 0.19260171
-0.2819339 -0.26660594 -0.24479966 0.2735152 0.13835883 0.06444345 -0.007052143 -0.19231778

conv1.bias f4 [32]
00000000: b89e 103d 0000 0000 2fe7 27bc 8091 96bd
00000010: 4e41 15bc aa46 10bd 97a1 79bd 04f6 01bd
00000020: 9edc d3bd 1b9f a5bd c978 c0bd 689d 4bba
00000030: fd6a 593d 3ba8 80bd 6ba3 bcbc 5335 9b3d
00000040: 4d3f a53c a70a ecbb ee1f 1fbd 9b66 6bbd
00000050: 33d7 68bc 7cfc d0bc 2783 093d adb7 47bd
00000060: 14c1 7a3b b701 a6bb f2b2 8abd 6342 153c
00000070: 6160 2bbd 71f3 7ebd 9f80 fabc 147a d4bc
0.035307616 0.0 -0.01024799 -0.07351971 -0.009109808 -0.03522364 -0.06094512 -0.03172876
-0.10344814 -0.080869876 -0.09398038 -0.0007767291 0.053080548 -0.062820874 -0.023027143 0.0757853
0.020171786 -0.0072034183 -0.03884881 -0.0574709 -0.014211464 -0.025511019 0.033572342 -0.04875915
0.0038262056 -0.0050661224 -0.06772412 0.009110066 -0.04183996 -0.062243883 -0.03057891 -0.025937118

conv1.lin_src.weight f4 [32, 9]
00000000: fce7 dabd ca9a 753e d508 83be b95a ba3e
00000010: f67d 9cbe c9de 183e 7689 093e 2056 0dbf
00000020: 0355 90be ef4d 54be 0346 d7bd 85a7 61be
00000030: 1220 35bf e3f5 c43e fa2d 993d 5337 1ebf
00000040: 0f50 643d 1984 a8be 5bb6 82bd 5426 13be
00000050: 609e b03a 1caf e13d dc3b 5a3e a015 233e
00000060: 4f93 bbbe 8025 403e 6503 53be d10d 483c
00000070: 19b8 c7be 5b0b 0ebf 8a69 d4bd e1a1 9cbe
00000080: 97e9 ee3e f606 cc3d 98eb 66be ec55 af3d
00000090: 1c4b edbd 83fc 8dbe bfd9 dcbe 4735 febe
000000a0: df54 80be 07d9 a9bc 28e6 dabd 07ca df3d
000000b0: acad f63d 17c4 13bd 0e38 3bbe 997f bdbe
000000c0: b7df 843e 90c0 223d 0997 11be 7cd9 093e
000000d0: e1f0 443b ef14 64be fc85 eb3d aac3 c1be
000000e0: 75e9 8a3e fb15 a6be a49c 5f3e b4ef 09bf
000000f0: 523d 9cbe 8590 d0bd 7cb1 e73e 0691 8f3e
00000100: 37f8 5a3e f83a b13d 98c6 f03d 9884 f7bd
00000110: 7d22 b03e 4bbd 6ebc 38e7 8dbd ba51 9e3e
00000120: 84c7 663c 2003 b83e 2ef7 e43e c8dd cabe
00000130: 0e87 8fbe ba6d 173e 9f87 bf3d 036c 6a3e
00000140: 6b42 f33c 436f 4abe 8ebb 123f 2345 edbd
00000150: 73a0 093d 6ffa 2b3e b3f6 1abd ce9e a93e
00000160: 5499 d4be b6dd 2c3e bafe 52be 9d79 d7bb
00000170: ee7a d03e 9087 68bd b4ad 86be 1994 d2be
00000180: ddee b43d b25a 123d 1faa 43be a0d7 35be
00000190: 46e5 573e c5ec 4cbe 7a49 e13d 8eb9 e1bd
000001a0: 4e7c b4be b8d2 c43e af06 89be b00d 933e
000001b0: 062c c0be 42c5 6f3e 8e4d 103e 9a52 883e
000001c0: c615 143e 04cf dbbd e513 993e a004 2abe
000001d0: fb39 4fbc e6bf 49be 512a d8bd 8084 67bd
000001e0: 2378 0f3e 5df4 48be 605d 40be 0c26 a63e
000001f0: e2bb 7dbd ca5c ac3d 2d66 6f3e 3d40 7cbd
00000200: 0506 573d d33e 9ebd 793d 87bd d2f6 acbe
00000210: e2b7 4fbe a866 d8be c2f3 61bd 9e57 cdbc
00000220: a990 b7be b165 cc3e 0e4e d5bd 0526 a6be
00000230: 2bef 8abb 1d8a 2b3d e710 ef3e a817 983e
00000240: 9d0e d3bd 7a83 983e 44d5 8bbb fa23 953e
00000250: ad56 d03e 0dc6 af3c 31f4 9dbe 5aa1 64be
00000260: 9c25 443e 7f44 16be a74f 433e e034 c73e
00000270: d8f0 59be 19b7 d4be 1daa debd 4c63 a33e
00000280: eaa2 cf3d 1367 3ebe ab4e 43bd 3b94 22bd
00000290: 2275 ff3d d04f 92be db61 833e e461 d3bc
000002a0: 71fc 3a3e 6b29 b9be 663d 6d3e 539a 7fbe
000002b0: dc82 29bd 2995 153f e733 62be 7a1b cfbc
000002c0: 962a 023c dc29 5b3b 46f4 edbe 38db f7bd
000002d0: 9bcc 8a3e 0453 883d 7e69 07be b138 44bc
000002e0: 599a cfbe 9fed f73e e33a 483e 6a98 1ebe
000002f0: 952a aebe b730 f2bd bdad 9d3e 591f 4fbd
00000300: f996 133d c99c acbe 3bec 193e b868 b13e
00000310: dbed 8fbe 46ef 02be fa5a 55be d45f febc
00000320: 354f 2abf 7272 bbbe 2976 debd ea9a 1e3e
00000330: 88d3 303b 4aa2 64be 0bf3 e2be 5464 d73d
00000340: d786 8ebe 8bf1 34be 2ab8 8e3e 2a3f 8a3e
00000350: 5768 343d 7896 6ebe ac1b 89be e671 54be
00000360: 1b0f 133e b40c 233d 2933 d6bd 7bf8 89bd
00000370: e2af 1abf bf77 c8bd d489 653e 6b1b a0be
00000380: d0cb 22be 982b 823e a4a9 8a3c ebbb 2e3e
00000390: c461 a0bd ebc5 b0be 2b73 453e 9042 80be
000003a0: 1ec6 01be cde6 19be baa1 823e 37ad 373d
000003b0: 6902 9fbd be36 823e 1995 383e 1414 d43d
000003c0: 2e02 6abe 6fec 223e 17d1 ecbd d34b cdbe
000003d0: 0610 8e3e 7cd2 2dbf d823 0cbf 1389 cf3d
000003e0: bbb4 28bc a2f8 88bd 99df e33e 2098 4ebe
000003f0: 311d 42be 14f3 aabe 3e4c 3bbf df35 86be
-0.10688779 0.23984829 -0.25592676 0.3639734 -0.3056485 0.14928736 0.13431343 -0.5520954
-0.2818986 -0.20732854 -0.105114006 -0.2203656 -0.7075206 0.38468847 0.074794725 -0.6180317
0.055740412 -0.32913283 -0.06382438 -0.1437009 0.0013474934 0.110197276 0.21311897 0.15926218
-0.36635825 0.18764305 -0.20606764 0.012210325 -0.39007643 -0.5548608 -0.103716925 -0.30592254
0.4666259 0.09962265 -0.2255081 0.0856131 -0.115865916 -0.27731714 -0.43134877 -0.49650022
-0.25064752 -0.02073337 -0.1068843 0.109272055 0.12044844 -0.036075678 -0.18283102 -0.37011412
0.2595193 0.039734423 -0.14217772 0.1346187 0.0030050802 -0.2227361 0.11500165 -0.37844592
0.2713124 -0.32438645 0.21837097 -0.5388138 -0.30515534 -0.10183815 0.45252597 0.28040332
0.21383749 0.086538255 0.11756629 -0.12085837 0.34401312 -0.014571498 -0.06928867 0.30921727
0.014085654 0.35939884 0.44719833 -0.3962233 -0.28032726 0.14787951 0.093520395 0.22892766
0.029694756 -0.19769005 0.57317436 -0.115854524 0.033600282 0.16794752 -0.037832927 0.3312897
-0.4152323 0.16881451 -0.20604983 -0.0065757767 0.40718788 -0.056769907 -0.263044 -0.41128615
0.08834622 0.035731025 -0.19107865 -0.17758036 0.21083555 -0.20012195 0.11000343 -0.1102172
-0.35251087 0.38442016 -0.26762912 0.2872138 -0.37533587 0.23415092 0.14092085 0.2662552
0.14461431 -0.107328445 0.2989799 -0.16603327 -0.012648101 -0.1970211 -0.10554946 -0.056522846
0.14010672 -0.19624467 -0.1878562 0.32450902 -0.061946757 0.084161356 0.2337882 -0.0615847
0.052495975 -0.077268265 -0.06603522 -0.3378206 -0.2028499 -0.4226582 -0.055164106 -0.025066193
-0.35852554 0.39921334 -0.104152784 -0.32450882 -0.004239937 0.041879762 0.46692583 0.29705548
-0.10305522 0.2978781 -0.0042673666 0.2912901 0.40691128 0.021456743 -0.30850366 -0.22327176
0.19154972 -0.14674567 0.19073354 0.38907528 -0.21283281 -0.41545942 -0.1087229 0.31911695
0.10138495 -0.18594007 -0.047682445 -0.039692145 0.12473513 -0.28576517 0.25660595 -0.025803514
0.18260361 -0.36164412 0.23167953 -0.24961214 -0.041384563 0.58430725 -0.22090112 -0.025281657
0.007944724 0.0033441698 -0.46475428 -0.121023595 0.27109227 0.06656459 -0.13223836 -0.011976407
-0.40547445 0.48423478 0.19553714 -0.15487829 -0.34016863 -0.11825698 0.30796614 -0.050567005
0.03603265 -0.33713368 0.15031521 0.34650207 -0.28111157 -0.12786588 -0.20835486 -0.031051554
-0.6652711 -0.36610752 -0.10862381 0.15488783 0.0026981551 -0.22327533 -0.44326052 0.10517183
-0.2783725 -0.17670266 0.2787488 0.27001315 0.04404482 -0.23299587 -0.26778924 -0.20746574
0.14361231 0.039807037 -0.10458977 -0.06736847 -0.60424626 -0.09788465 0.22415859 -0.31270918
-0.15898061 0.25423884 0.016926594 0.17063873 -0.07831147 -0.34526 0.19282214 -0.25050783
-0.12673232 -0.1502945 0.25514013 0.044842925 -0.077641316 0.2543239 0.18025626 0.10355392
-0.22852394 0.15910505 -0.11563318 -0.40096912 0.277466 -0.678993 -0.54742193 0.10133567
-0.010296996 -0.06688048 0.4450653 -0.20175219 -0.18956448 -0.3338858 -0.7316321 -0.26212975

conv1.lin_dst.weight f4 [32, 9]
00000000: fce7 dabd ca9a 753e d508 83be b95a ba3e
00000010: f67d 9cbe c9de 183e 7689 093e 2056 0dbf
00000020: 0355 90be ef4d 54be 0346 d7bd 85a7 61be
00000030: 1220 35bf e3f5 c43e fa2d 993d 5337 1ebf
00000040: 0f50 643d 1984 a8be 5bb6 82bd 5426 13be
00000050: 609e b03a 1caf e13d dc3b 5a3e a015 233e
00000060: 4f93 bbbe 8025 403e 6503 53be d10d 483c
00000070: 19b8 c7be 5b0b 0ebf 8a69 d4bd e1a1 9cbe
00000080: 97e9 ee3e f606 cc3d 98eb 66be ec55 af3d
00000090: 1c4b edbd 83fc 8dbe bfd9 dcbe 4735 febe
000000a0: df54 80be 07d9 a9bc 28e6 dabd 07ca df3d
000000b0: acad f63d 17c4 13bd 0e38 3bbe 997f bdbe
000000c0: b7df 843e 90c0 223d 0997 11be 7cd9 093e
000000d0: e1f0 443b ef14 64be fc85 eb3d aac3 c1be
000000e0: 75e9 8a3e fb15 a6be a49c 5f3e b4ef 09bf
000000f0: 523d 9cbe 8590 d0bd 7cb1 e73e 0691 8f3e
00000100: 37f8 5a3e f83a b13d 98c6 f03d 9884 f7bd
00000110: 7d22 b03e 4bbd 6ebc 38e7 8dbd ba51 9e3e
00000120: 84c7 663c 2003 b83e 2ef7 e43e c8dd cabe
00000130: 0e87 8fbe ba6d 173e 9f87 bf3d 036c 6a3e
00000140: 6b42 f33c 436f 4abe 8ebb 123f 2345 edbd
00000150: 73a0 093d 6ffa 2b3e b3f6 1abd ce9e a93e
00000160: 5499 d4be b6dd 2c3e bafe 52be 9d79 d7bb
00000170: ee7a d03e 9087 68bd b4ad 86be 1994 d2be
00000180: ddee b43d b25a 123d 1faa 43be a0d7 35be
00000190: 46e5 573e c5ec 4cbe 7a49 e13d 8eb9 e1bd
000001a0: 4e7c b4be b8d2 c43e af06 89be b00d 933e
000001b0: 062c c0be 42c5 6f3e 8e4d 103e 9a52 883e
000001c0: c615 143e 04cf dbbd e513 993e a004 2abe
000001d0: fb39 4fbc e6bf 49be 512a d8bd 8084 67bd
000001e0: 2378 0f3e 5df4 48be 605d 40be 0c26 a63e
000001f0: e2bb 7dbd ca5c ac3d 2d66 6f3e 3d40 7cbd
00000200: 0506 573d d33e 9ebd 793d 87bd d2f6 acbe
00000210: e2b7 4fbe a866 d8be c2f3 61bd 9e57 cdbc
00000220: a990 b7be b165 cc3e 0e4e d5bd 0526 a6be
00000230: 2bef 8abb 1d8a 2b3d e710 ef3e a817 983e
00000240: 9d0e d3bd 7a83 983e 44d5 8bbb fa23 953e
00000250: ad56 d03e 0dc6 af3c 31f4 9dbe 5aa1 64be
00000260: 9c25 443e 7f44 16be a74f 433e e034 c73e
00000270: d8f0 59be 19b7 d4be 1daa debd 4c63 a33e
00000280: eaa2 cf3d 1367 3ebe ab4e 43bd 3b94 22bd
00000290: 2275 ff3d d04f 92be db61 833e e461 d3bc
000002a0: 71fc 3a3e 6b29 b9be 663d 6d3e 539a 7fbe
000002b0: dc82 29bd 2995 153f e733 62be 7a1b cfbc
000002c0: 962a 023c dc29 5b3b 46f4 edbe 38db f7bd
000002d0: 9bcc 8a3e 0453 883d 7e69 07be b138 44bc
000002e0: 599a cfbe 9fed f73e e33a 483e 6a98 1ebe
000002f0: 952a aebe b730 f2bd bdad 9d3e 591f 4fbd
00000300: f996 133d c99c acbe 3bec 193e b868 b13e
00000310: dbed 8fbe 46ef 02be fa5a 55be d45f febc
00000320: 354f 2abf 7272 bbbe 2976 debd ea9a 1e3e
00000330: 88d3 303b 4aa2 64be 0bf3 e2be 5464 d73d
00000340: d786 8ebe 8bf1 34be 2ab8 8e3e 2a3f 8a3e
00000350: 5768 343d 7896 6ebe ac1b 89be e671 54be
00000360: 1b0f 133e b40c 233d 2933 d6bd 7bf8 89bd
00000370: e2af 1abf bf77 c8bd d489 653e 6b1b a0be
00000380: d0cb 22be 982b 823e a4a9 8a3c ebbb 2e3e
00000390: c461 a0bd ebc5 b0be 2b73 453e 9042 80be
000003a0: 1ec6 01be cde6 19be baa1 823e 37ad 373d
000003b0: 6902 9fbd be36 823e 1995 383e 1414 d43d
000003c0: 2e02 6abe 6fec 223e 17d1 ecbd d34b cdbe
000003d0: 0610 8e3e 7cd2 2dbf d823 0cbf 1389 cf3d
000003e0: bbb4 28bc a2f8 88bd 99df e33e 2098 4ebe
000003f0: 311d 42be 14f3 aabe 3e4c 3bbf df35 86be
-0.10688779 0.23984829 -0.25592676 0.3639734 -0.3056485 0.14928736 0.13431343 -0.5520954
-0.2818986 -0.20732854 -0.105114006 -0.2203656 -0.7075206 0.38468847 0.074794725 -0.6180317
0.055740412 -0.32913283 -0.06382438 -0.1437009 0.0013474934 0.110197276 0.21311897 0.15926218
-0.36635825 0.18764305 -0.20606764 0.012210325 -0.39007643 -0.5548608 -0.103716925 -0.30592254
0.4666259 0.09962265 -0.2255081 0.0856131 -0.115865916 -0.27731714 -0.43134877 -0.49650022
-0.25064752 -0.02073337 -0.1068843 0.109272055 0.12044844 -0.036075678 -0.18283102 -0.37011412
0.2595193 0.039734423 -0.14217772 0.1346187 0.0030050802 -0.2227361 0.11500165 -0.37844592
0.2713124 -0.32438645 0.21837097 -0.5388138 -0.30515534 -0.10183815 0.45252597 0.28040332
0.21383749 0.086538255 0.11756629 -0.12085837 0.34401312 -0.014571498 -0.06928867 0.30921727
0.014085654 0.35939884 0.44719833 -0.3962233 -0.28032726 0.14787951 0.093520395 0.22892766
0.029694756 -0.19769005 0.57317436 -0.115854524 0.033600282 0.16794752 -0.037832927 0.3312897
-0.4152323 0.16881451 -0.20604983 -0.0065757767 0.40718788 -0.056769907 -0.263044 -0.41128615
0.08834622 0.035731025 -0.19107865 -0.17758036 0.21083555 -0.20012195 0.11000343 -0.1102172
-0.35251087 0.38442016 -0.26762912 0.2872138 -0.37533587 0.23415092 0.14092085 0.2662552
0.14461431 -0.107328445 0.2989799 -0.16603327 -0.012648101 -0.1970211 -0.10554946 -0.056522846
0.14010672 -0.19624467 -0.1878562 0.32450902 -0.061946757 0.084161356 0.2337882 -0.0615847
0.052495975 -0.077268265 -0.06603522 -0.3378206 -0.2028499 -0.4226582 -0.055164106 -0.025066193
-0.35852554 0.39921334 -0.104152784 -0.32450882 -0.004239937 0.041879762 0.46692583 0.29705548
-0.10305522 0.2978781 -0.0042673666 0.2912901 0.40691128 0.021456743 -0.30850366 -0.22327176
0.19154972 -0.14674567 0.19073354 0.38907528 -0.21283281 -0.41545942 -0.1087229 0.31911695
0.10138495 -0.18594007 -0.047682445 -0.039692145 0.12473513 -0.28576517 0.25660595 -0.025803514
0.18260361 -0.36164412 0.23167953 -0.24961214 -0.041384563 0.58430725 -0.22090112 -0.025281657
0.007944724 0.0033441698 -0.46475428 -0.121023595 0.27109227 0.06656459 -0.13223836 -0.011976407
-0.40547445 0.48423478 0.19553714 -0.15487829 -0.34016863 -0.11825698 0.30796614 -0.050567005
0.03603265 -0.33713368 0.15031521 0.34650207 -0.28111157 -0.12786588 -0.20835486 -0.031051554
-0.6652711 -0.36610752 -0.10862381 0.15488783 0.0026981551 -0.22327533 -0.44326052 0.10517183
-0.2783725 -0.17670266 0.2787488 0.27001315 0.04404482 -0.23299587 -0.26778924 -0.20746574
0.14361231 0.039807037 -0.10458977 -0.06736847 -0.60424626 -0.09788465 0.22415859 -0.31270918
-0.15898061 0.25423884 0.016926594 0.17063873 -0.07831147 -0.34526 0.19282214 -0.25050783
-0.12673232 -0.1502945 0.25514013 0.044842925 -0.077641316 0.2543239 0.18025626 0.10355392
-0.22852394 0.15910505 -0.11563318 -0.40096912 0.277466 -0.678993 -0.54742193 0.10133567
-0.010296996 -0.06688048 0.4450653 -0.20175219 -0.18956448 -0.3338858 -0.7316321 -0.26212975

conv2.att_src f4 [1, 1, 32]
00000000: 2b04 5ebe 3e63 a5be 7a1a 43bf 902e 443f
00000010: d953 f4be 889e 413f 7940 dabc 4913 c0bc
00000020: b6e7 37be 27c1 633e 957e 7f3e 8d48 1a3f
00000030: 3d20 f73d 5419 14bf 8476 c8bd 4830 3b3e
00000040: a8be 223f ed9f e73e 83a9 1f3f 32b9 18bf
00000050: c196 093f 56ed 283f 5a43 30bf 9f97 523f
00000060: 3325 41be 27fc c13e d37b f53e 52cc 85be
00000070: 8ac3 003f eaea 38be 32ad 313f 333d 17bf
-0.21681277 -0.32302278 -0.76212275 0.7663355 -0.4772022 0.75632524 -0.026642071 -0.023446696
-0.17959484 0.2224165 0.24950631 0.60266954 0.12066696 -0.5785115 -0.0978823 0.18280137
0.6357217 0.452392 0.6236803 -0.59657586 0.5374566 0.65987146 -0.6885277 0.82262605
-0.18861847 0.3788769 0.47946033 -0.26132447 0.5029837 -0.18058363 0.694049 -0.5907776

conv2.att_dst f4 [1, 1, 32]
00000000: bb4a a2bc 6cac 023f 9008 fc3e dd48 2e3f
00000010: 4f7d aebd 6e95 dc3e 1881 1abe 8150 1bbe
00000020: 60f8 8cbe ca0a 62be 1916 d3bd ae70 313e
00000030: 8109 abbe dedf 523e d33c 34be 47be d23e
00000040: 020f 383f 4b46 9cbe 9111 383d 3e84 f03e
00000050: 6180 423d f860 afbd 103b 203f 2562 243e
00000060: 729c 9abe 6ad0 57be 3b9b 1dbf 6c2b 50be
00000070: 86ac 1ebd 7743 1fbf 8f6f 213e 0f48 113e
-0.019811025 0.51044345 0.49225283 0.6807993 -0.085199945 0.43082756 -0.15088308 -0.15167429
-0.27533245 -0.22074428 -0.10306949 0.1732814 -0.33405688 0.20593211 -0.17601328 0.41160795
0.718979 -0.3052238 0.044938628 0.46975893 0.047485713 -0.08563417 0.6259012 0.16053064
-0.30197483 -0.21075597 -0.6156499 -0.20329064 -0.03873875 -0.6221232 0.15765212 0.14187644

conv2.bias f4 [32]
00000000: 7322 c2bc 0000 0000 bb11 40bd 0a12 85bd
00000010: d9de bfbd 8fbf 30bc f2a0 6ebd 35a9 5d3d
00000020: e466 a3bd debf 1fbd 8d58 53bd 477a 42bd
00000030: 9cb0 23ba 0000 0000 7436 9f3c 0909 c0bc
00000040: 8127 353a da07 0abe 1151 e93b efe1 97bc
00000050: 6990 98bc f5f7 8b3c 1492 85bc d641 cabd
00000060: 04e1 f0bd d2b0 70bd 3b33 a7bc be24 e4bc
00000070: c717 b9bd f0bf 6b3c 3e90 983b aa57 1a3c
-0.023698067 0.0 -0.04689191 -0.06497581 -0.09368677 -0.010787859 -0.05825896 0.054116447
-0.07978609 -0.03900134 -0.05159812 -0.047479894 -0.00062442734 0.0 0.019435145 -0.023441808
0.00069104886 -0.13479558 0.0071202596 -0.01854035 -0.018623548 0.017086009 -0.016305007 -0.098758385
-0.11761668 -0.05876238 -0.02041017 -0.027849551 -0.09037738 0.014389023 0.004655867 0.009420315

conv2.lin_src.weight f4 [32, 32]
00000000: 4ac3 f4be d3cc 1abe fbaa 883e e7d0 973c
00000010: 97d0 a7bd 0fbb cbbe f657 933e 6749 48be
00000020: 3008 a03e e68e 0b3e 2fa1 c7bd 8ad5 3a3c
00000030: fd86 653e 54d4 edbd 4cb9 98be 2bfd 0f3e
00000040: 4d7e 583d c13e 073e 8a11 833e 400b 92bd
00000050: ed9a 57be a4c3 9ebd 4e0b ba3d cd9c 4bbe
00000060: 33a5 133e b1ca 64be bb71 7c3e 1f79 89bd
00000070: 7c2d 8d3e b3f7 6f3e 9e1e 9cbe d9b5 993d
00000080: e8ec c8be e613 373e c93a 853e 0b27 8a3d
00000090: 6dc9 7a3e 5c12 21bf 23b5 933e 20d1 9fbe
000000a0: a0ab e83e 626f 7cbe d8d8 0f3e 12ff 983b
000000b0: 5cba 073f 7233 7dbe 76f5 7dbe 6199 fb3d
000000c0: 346c 5a3e e33c 3d3e 2273 4abe 4283 15be
000000d0: 519c 10bf 335d 4cbe 5372 5fbe 6eb6 d4be
000000e0: a001 303e 79dd dbbe 0159 b0be 46db 243e
000000f0: 0735 813e 6512 13bf b849 803e 8913 d7bd
00000100: 30e3 c5be 9935 9fbd 4b91 e3bd 28d8 32bc
00000110: 020b 8e3e 541a 0f3e 65df a5bd a28e 943d
00000120: 1094 6ebe 1bcc a93d af9f c03d 4e94 af3c
00000130: 9a73 bb3e 6eae 49be 3102 533e bf95 1dbe
00000140: 8f3a e43d 55f6 8abd 3817 dc3d 8ec2 1abc
00000150: 8649 883c 4ada a0be 4f3a febb 9f28 89be
00000160: 3193 143e 6347 a9be c6ff 103e e092 f8bc
00000170: 0440 813e 65c8 10be 7e2b 68bc 9d54 a23c
00000180: 1612 033e 2c32 8cbe f51e 1f3e 4446 20bd
00000190: eb10 c83c 9618 043f 79c6 c6bd 2fd7 e2bd
000001a0: c070 1fbe 3efa 673c 4a18 2f3e 85da ca3d
000001b0: 7bc8 0bbf 7e3c 203e 6063 90bd 8109 dfbe
000001c0: cd90 10bf 62d7 803e f9b0 db3d 3d15 733e
000001d0: 7c92 2b3e 4a14 46bd f1b4 8d3e b328 9a3d
000001e0: 5568 2cbe 45ae b53b 513f dabe f9ce bf3d
000001f0: 50cd 843e a3b5 9bbe 8ee8 9abd 9791 ea3d
00000200: 290f 24be 3cc9 673e 4ee9 683e f3a5 133c
00000210: 6583 2c3e e80b 27bd ea4d 2b3e ad1a 413e
00000220: 7fe4 d4bb b701 ffba 723c 5cbe 7b6e d83d
00000230: 83a2 0e3e 310b bbbb e8da c5bd ee89 bb3d
00000240: 6b71 563e 3ddf e53d dcec 3d3e 1289 50be
00000250: 2118 6f3e cfac a2be d683 e53d f2a2 7fbe
00000260: 887c 41be 5ee9 71be 009f 3bbe 7f9f 2cbe
00000270: 2d6f 613e 6468 5dbe 1ad6 3c3e 6a7e 6abd
00000280: a22b fe3e 0f5f d03d e6de 03bc c4ef 96be
00000290: cdf3 97be bb18 133f ca97 c8be bf50 a8bd
000002a0: 3e04 41bc 8a7a 173d f944 69be a92e 113e
000002b0: be00 30bf 1b66 34be e18d 9b3b 338b d23c
000002c0: a88c 89be bab7 7bbd 2d14 20bd 1c77 fe3d
000002d0: c19b ecbd 6d41 d1bd 71a1 943e 59b7 acbe
000002e0: 77df 123e ae55 cd3d 7c95 87be 712b 443a
000002f0: e264 6e3e d341 8c3e 7fb8 443e 4828 94be
00000300: a3c6 7c3d 6d7a 953d 11b5 aabe 0c00 2a3e
00000310: 32f3 9b3c d84a 143e 4ce6 b5bd fb22 b33d
00000320: 7a95 2cbe ee04 04bc d028 1ebe 38d5 5c3d
00000330: d4fe 50be b364 013e d982 9ebe 6a98 e3be
00000340: f78c fc3c bc58 11bd bb68 183d c6c5 2ebc
00000350: ca0f 693d 6ef4 8c3e 0cd2 9ebd f60d 15be
00000360: 5608 143e fba1 6c3e c45f 063e 9c09 7cbe
00000370: 1d8f 7dbd cb40 8dbd 08a5 eb3d 55c4 083e
00000380: 5b7f 043e 5473 7b3e 308b ebbd 1747 4e3e
00000390: 8d51 f5bb 7721 5f3e 765a bf3c b5ae dc3d
000003a0: d535 1bbe 6a93 6dbd 89f8 dabd ff26 6cbc
000003b0: e8fe c8be e523 7e3e 0ac8 843e 6a03 cbbe
000003c0: da6a 413e d899 c6bd 07d4 9dbe 5cbd aabd
000003d0: db9e 62bc b91c a63e 6da8 bf3b 66e2 883e
000003e0: a6a0 92bd 59ff b6bb 7f0c 69be da0d 0cbe
000003f0: ce73 4dbe 2a85 cbbd 17f1 6abe 641e 6ebd
-0.47805244 -0.15117197 0.26692948 0.01853223 -0.08194082 -0.39791152 0.28778046 -0.19559251
0.31256247 0.1362873 -0.0974754 0.011403451 0.22414775 -0.11612764 -0.2982887 0.1406142
0.052854825 0.13207532 0.2559932 -0.07131052 -0.21055193 -0.07752159 0.090841874 -0.19884034
0.14418487 -0.22342946 0.2465276 -0.06712555 0.27573764 0.23434334 -0.3049211 0.07505388
-0.39243245 0.17878684 0.26021412 0.06745728 0.244909 -0.6291864 0.28849134 -0.31214237
0.4544344 -0.24651864 0.14047563 0.0046690786 0.53018737 -0.24726656 -0.24800667 0.12285114
0.21330339 0.18480258 -0.19770482 -0.14600852 -0.5648852 -0.19957428 -0.21820955 -0.41545433
0.1718812 -0.42942408 -0.34442905 0.16099271 0.2523577 -0.5744994 0.25056243 -0.10501773
-0.38649893 -0.07773895 -0.11111697 -0.0109157935 0.27742773 0.13974887 -0.0809925 0.072537675
-0.23298669 0.08290883 0.09405457 0.021433022 0.36611634 -0.19695446 0.20606305 -0.15389155
0.11143982 -0.06785265 0.10746616 -0.0094457995 0.016636621 -0.3141654 -0.007758416 -0.26788804
0.14509274 -0.33062276 0.1416007 -0.030343473 0.25244153 -0.14138944 -0.014170526 0.019815737
0.12799868 -0.27382028 0.15539153 -0.03912951 0.02442213 0.51600015 -0.097058244 -0.11076199
-0.15570354 0.0141587835 0.1709911 0.099049605 -0.54602784 0.15648076 -0.07050204 -0.43561938
-0.5647095 0.25164324 0.10727114 0.2373857 0.16755098 -0.048359193 0.2767711 0.07527294
-0.16836675 0.005544456 -0.42626432 0.09365649 0.2593789 -0.30412015 -0.075638875 0.1145355
-0.16021408 0.22635359 0.22745249 0.009011733 0.16846998 -0.04078284 0.1672894 0.18857832
-0.0064969654 -0.0019455467 -0.21507433 0.105679475 0.13929181 -0.005708121 -0.09660894 0.091571674
0.20941703 0.1122422 0.18547386 -0.20364788 0.23349048 -0.31772467 0.11206786 -0.24964502
-0.18895161 -0.23624179 -0.18322372 -0.16857718 0.22015066 -0.21621853 0.18441048 -0.057249464
0.49642664 0.10174381 -0.008048749 -0.29479802 -0.29678193 0.5745961 -0.39178306 -0.08218526
-0.011780797 0.036982097 -0.22780217 0.14177956 -0.6875113 -0.17617075 0.004747138 0.025701141
-0.26865125 -0.061454512 -0.03908174 0.12425062 -0.11553145 -0.10217557 0.2902942 -0.33733633
0.14343058 0.10026108 -0.26481235 0.000748328 0.23280671 0.2739397 0.19211005 -0.28936982
0.061712872 0.072987415 -0.33341268 0.1660158 0.019036863 0.14481676 -0.08881816 0.08746906
-0.16853896 -0.008057816 -0.15445256 0.05391428 -0.20409709 0.1263607 -0.30959204 -0.4445222
0.030828936 -0.035485014 0.037209254 -0.01066727 0.056899823 0.27530235 -0.07754907 -0.14556107
0.14456305 0.23108666 0.13122469 -0.2461304 -0.06190406 -0.06897124 0.115060866 0.13356145
0.12939207 0.24555713 -0.11501157 0.20144306 -0.0074865283 0.2179011 0.023358565 0.1077551
-0.15157254 -0.058001913 -0.106919356 -0.014413594 -0.39256978 0.2481838 0.25933868 -0.39651042
0.18888417 -0.09697312 -0.30825827 -0.08336899 -0.013831819 0.3244379 0.0058489353 0.26735228
-0.071595475 -0.005584639 -0.22758673 -0.13677159 -0.20063707 -0.099375084 -0.22943531 -0.05813445

conv2.lin_dst.weight f4 [32, 32]
00000000: 4ac3 f4be d3cc 1abe fbaa 883e e7d0 973c
00000010: 97d0 a7bd 0fbb cbbe f657 933e 6749 48be
00000020: 3008 a03e e68e 0b3e 2fa1 c7bd 8ad5 3a3c
00000030: fd86 653e 54d4 edbd 4cb9 98be 2bfd 0f3e
00000040: 4d7e 583d c13e 073e 8a11 833e 400b 92bd
00000050: ed9a 57be a4c3 9ebd 4e0b ba3d cd9c 4bbe
00000060: 33a5 133e b1ca 64be bb71 7c3e 1f79 89bd
00000070: 7c2d 8d3e b3f7 6f3e 9e1e 9cbe d9b5 993d
00000080: e8ec c8be e613 373e c93a 853e 0b27 8a3d
00000090: 6dc9 7a3e 5c12 21bf 23b5 933e 20d1 9fbe
000000a0: a0ab e83e 626f 7cbe d8d8 0f3e 12ff 983b
000000b0: 5cba 073f 7233 7dbe 76f5 7dbe 6199 fb3d
000000c0: 346c 5a3e e33c 3d3e 2273 4abe 4283 15be
000000d0: 519c 10bf 335d 4cbe 5372 5fbe 6eb6 d4be
000000e0: a001 303e 79dd dbbe 0159 b0be 46db 243e
000000f0: 0735 813e 6512 13bf b849 803e 8913 d7bd
00000100: 30e3 c5be 9935 9fbd 4b91 e3bd 28d8 32bc
00000110: 020b 8e3e 541a 0f3e 65df a5bd a28e 943d
00000120: 1094 6ebe 1bcc a93d af9f c03d 4e94 af3c
00000130: 9a73 bb3e 6eae 49be 3102 533e bf95 1dbe
00000140: 8f3a e43d 55f6 8abd 3817 dc3d 8ec2 1abc
00000150: 8649 883c 4ada a0be 4f3a febb 9f28 89be
00000160: 3193 143e 6347 a9be c6ff 103e e092 f8bc
00000170: 0440 813e 65c8 10be 7e2b 68bc 9d54 a23c
00000180: 1612 033e 2c32 8cbe f51e 1f3e 4446 20bd
00000190: eb10 c83c 9618 043f 79c6 c6bd 2fd7 e2bd
000001a0: c070 1fbe 3efa 673c 4a18 2f3e 85da ca3d
000001b0: 7bc8 0bbf 7e3c 203e 6063 90bd 8109 dfbe
000001c0: cd90 10bf 62d7 803e f9b0 db3d 3d15 733e
000001d0: 7c92 2b3e 4a14 46bd f1b4 8d3e b328 9a3d
000001e0: 5568 2cbe 45ae b53b 513f dabe f9ce bf3d
000001f0: 50cd 843e a3b5 9bbe 8ee8 9abd 9791 ea3d
00000200: 290f 24be 3cc9 673e 4ee9 683e f3a5 133c
00000210: 6583 2c3e e80b 27bd ea4d 2b3e ad1a 413e
00000220: 7fe4 d4bb b701 ffba 723c 5cbe 7b6e d83d
00000230: 83a2 0e3e 310b bbbb e8da c5bd ee89 bb3d
00000240: 6b71 563e 3ddf e53d dcec 3d3e 1289 50be
00000250: 2118 6f3e cfac a2be d683 e53d f2a2 7fbe
00000260: 887c 41be 5ee9 71be 009f 3bbe 7f9f 2cbe
00000270: 2d6f 613e 6468 5dbe 1ad6 3c3e 6a7e 6abd
00000280: a22b fe3e 0f5f d03d e6de 03bc c4ef 96be
00000290: cdf3 97be bb18 133f ca97 c8be bf50 a8bd
000002a0: 3e04 41bc 8a7a 173d f944 69be a92e 113e
000002b0: be00 30bf 1b66 34be e18d 9b3b 338b d23c
000002c0: a88c 89be bab7 7bbd 2d14 20bd 1c77 fe3d
000002d0: c19b ecbd 6d41 d1bd 71a1 943e 59b7 acbe
000002e0: 77df 123e ae55 cd3d 7c95 87be 712b 443a
000002f0: e264 6e3e d341 8c3e 7fb8 443e 4828 94be
00000300: a3c6 7c3d 6d7a 953d 11b5 aabe 0c00 2a3e
00000310: 32f3 9b3c d84a 143e 4ce6 b5bd fb22 b33d
00000320: 7a95 2cbe ee04 04bc d028 1ebe 38d5 5c3d
00000330: d4fe 50be b364 013e d982 9ebe 6a98 e3be
00000340: f78c fc3c bc58 11bd bb68 183d c6c5 2ebc
00000350: ca0f 693d 6ef4 8c3e 0cd2 9ebd f60d 15be
00000360: 5608 143e fba1 6c3e c45f 063e 9c09 7cbe
00000370: 1d8f 7dbd cb40 8dbd 08a5 eb3d 55c4 083e
00000380: 5b7f 043e 5473 7b3e 308b ebbd 1747 4e3e
00000390: 8d51 f5bb 7721 5f3e 765a bf3c b5ae dc3d
000003a0: d535 1bbe 6a93 6dbd 89f8 dabd ff26 6cbc
000003b0: e8fe c8be e523 7e3e 0ac8 843e 6a03 cbbe
000003c0: da6a 413e d899 c6bd 07d4 9dbe 5cbd aabd
000003d0: db9e 62bc b91c a63e 6da8 bf3b 66e2 883e
000003e0: a6a0 92bd 59ff b6bb 7f0c 69be da0d 0cbe
000003f0: ce73 4dbe 2a85 cbbd 17f1 6abe 641e 6ebd
-0.47805244 -0.15117197 0.26692948 0.01853223 -0.08194082 -0.39791152 0.28778046 -0.19559251
0.31256247 0.1362873 -0.0974754 0.011403451 0.22414775 -0.11612764 -0.2982887 0.1406142
0.052854825 0.13207532 0.2559932 -0.07131052 -0.21055193 -0.07752159 0.090841874 -0.19884034
0.14418487 -0.22342946 0.2465276 -0.06712555 0.27573764 0.23434334 -0.3049211 0.07505388
-0.39243245 0.17878684 0.26021412 0.06745728 0.244909 -0.6291864 0.28849134 -0.31214237
0.4544344 -0.24651864 0.14047563 0.0046690786 0.53018737 -0.24726656 -0.24800667 0.12285114
0.21330339 0.18480258 -0.19770482 -0.14600852 -0.5648852 -0.19957428 -0.21820955 -0.41545433
0.1718812 -0.42942408 -0.34442905 0.16099271 0.2523577 -0.5744994 0.25056243 -0.10501773
-0.38649893 -0.07773895 -0.11111697 -0.0109157935 0.27742773 0.13974887 -0.0809925 0.072537675
-0.23298669 0.08290883 0.09405457 0.021433022 0.36611634 -0.19695446 0.20606305 -0.15389155
0.11143982 -0.06785265 0.10746616 -0.0094457995 0.016636621 -0.3141654 -0.007758416 -0.26788804
0.14509274 -0.33062276 0.1416007 -0.030343473 0.25244153 -0.14138944 -0.014170526 0.019815737
0.12799868 -0.27382028 0.15539153 -0.03912951 0.02442213 0.51600015 -0.097058244 -0.11076199
-0.15570354 0.0141587835 0.1709911 0.099049605 -0.54602784 0.15648076 -0.07050204 -0.43561938
-0.5647095 0.25164324 0.10727114 0.2373857 0.16755098 -0.048359193 0.2767711 0.07527294
-0.16836675 0.005544456 -0.42626432 0.09365649 0.2593789 -0.30412015 -0.075638875 0.1145355
-0.16021408 0.22635359 0.22745249 0.009011733 0.16846998 -0.04078284 0.1672894 0.18857832
-0.0064969654 -0.0019455467 -0.21507433 0.105679475 0.13929181 -0.005708121 -0.09660894 0.091571674
0.20941703 0.1122422 0.18547386 -0.20364788 0.23349048 -0.31772467 0.11206786 -0.24964502
-0.18895161 -0.23624179 -0.18322372 -0.16857718 0.22015066 -0.21621853 0.18441048 -0.057249464
0.49642664 0.10174381 -0.008048749 -0.29479802 -0.29678193 0.5745961 -0.39178306 -0.08218526
-0.011780797 0.036982097 -0.22780217 0.14177956 -0.6875113 -0.17617075 0.004747138 0.025701141
-0.26865125 -0.061454512 -0.03908174 0.12425062 -0.11553145 -0.10217557 0.2902942 -0.33733633
0.14343058 0.10026108 -0.26481235 0.000748328 0.23280671 0.2739397 0.19211005 -0.28936982
0.061712872 0.072987415 -0.33341268 0.1660158 0.019036863 0.14481676 -0.08881816 0.08746906
-0.16853896 -0.008057816 -0.15445256 0.05391428 -0.20409709 0.1263607 -0.30959204 -0.4445222
0.030828936 -0.035485014 0.037209254 -0.01066727 0.056899823 0.27530235 -0.07754907 -0.14556107
0.14456305 0.23108666 0.13122469 -0.2461304 -0.06190406 -0.06897124 0.115060866 0.13356145
0.12939207 0.24555713 -0.11501157 0.20144306 -0.0074865283 0.2179011 0.023358565 0.1077551
-0.15157254 -0.058001913 -0.106919356 -0.014413594 -0.39256978 0.2481838 0.25933868 -0.39651042
0.18888417 -0.09697312 -0.30825827 -0.08336899 -0.013831819 0.3244379 0.0058489353 0.26735228
-0.071595475 -0.005584639 -0.22758673 -0.13677159 -0.20063707 -0.099375084 -0.22943531 -0.05813445

classifier.weight f4 [1, 32]
00000000: 39f3 23bd e73f 0000 eaed 843d 862e 883b
00000010: e081 6ebb 0e23 10bc 605e b9bc 6620 b1bd
00000020: 6e0d 28bd 2033 bbbd 0699 efbc c230 cebb
00000030: 6182 0cbc 40b6 3ab3 08b5 b6bd 5385 d73d
00000040: 711d 2cbc 26e9 e0bb e7ca a2bc 6b4f 0080
00000050: 2896 31bd 6017 463d 55ac d7bc 99c5 173b
00000060: b024 a93b 8a94 61bb d1e5 ca3c 9ea3 c93d
00000070: 7d53 a7b8 de08 c13d 1d57 99ba 0c9a 58bd
-0.040026877 2.2924e-41 0.06490691 0.0041559367 -0.003639333 -0.00879742 -0.02262801 -0.08648758
-0.041028433 -0.09140611 -0.029247772 -0.0062924335 -0.008576007 -4.3472255e-08 -0.08921248 0.105234765
-0.010505066 -0.006863731 -0.019872142 -2.849e-41 -0.04335609 0.048362136 -0.026327292 0.002315855
0.005161844 -0.0034420812 0.024767788 0.098456606 -7.9787314e-05 0.094255194 -0.0011698935 -0.052881286
