A3/MyTeam/A3/classification/custom.pth (torch, 9147 bytes, 11 tensors)

conv1.att_src f4 [1, 1, 32]
00000000: cf6f 713e a9bc ccbe 21fc 52be 6361 01be
00000010: ec5a bf3e 3b4b acbd d6b3 82be dfb4 983d
00000020: 20ef a93e 9526 e83d 3447 cbbe 4e16 bd3e
00000030: 1975 6b3b 691e 7fbc f842 8c3e 1a97 91be
00000040: 2fb0 963e 94e4 923d f703 3ebe dec5 d5bd
00000050: cacd c33e d185 3ebe 9704 60be 7bd3 d33d
00000060: 9476 9ebe b331 a6be 12cd a8be c4a0 ebbb
00000070: cea4 8fbe c56c dc3d 01c6 9dbd 4e28 aabd
0.23577808 -0.39987686 -0.20603992 -0.12634806 0.37374055 -0.084127866 -0.2552783 0.074563734
0.3319025 0.11335484 -0.3970276 0.3693108 0.003592795 -0.015571215 0.27394843 -0.28435594
0.29431292 0.07172504 -0.185562 -0.10438131 0.38242942 -0.18605734 -0.21876751 0.10343071
-0.30949843 -0.32459792 -0.32968956 -0.0071907956 -0.28055423 0.10762934 -0.07703782 -0.08308469

conv1.att_dst f4 [1, 1, 32]
00000000: f058 11be 5576 0f3e 8c71 823e 4b3b 81be
00000010: d67d a7bb 88a2 723e ce7d c63e 16ff 563e
00000020: 6eb0 753e 87e0 843e 3860 80be db7e a43e
00000030: 5fe5 12be 5da7 81be 51bd d93e 9700 29bd
00000040: 010c 07be 33c6 a33e 2f89 333d c423 923e
00000050: 681d d43e 91f2 223e 7cd5 b9bc 457a aabd
00000060: a16f 873e bf3b f9bd a4ac 4fbd 6a62 b5be
00000070: 47ad 46be 791b 5bbc 927c bebe f553 073e
-0.14194083 0.14009984 0.25477254 -0.2524055 -0.0051114364 0.23694813 0.38767856 0.20995745
0.23993084 0.2595255 -0.2507341 0.32128033 -0.1434531 -0.25323 0.4252725 -0.04126033
-0.13188173 0.31987152 0.043832 0.28542912 0.41428685 0.15912844 -0.022684805 -0.08324102
0.26452354 -0.12169599 -0.050701752 -0.35426646 -0.19402038 -0.013373249 -0.37204415 0.13215621

conv1.bias f4 [32]
00000000: 0000 0000 e38d 73bc 2daa 08bc d43a 0fbc
00000010: 0000 0000 fab8 36bc 3463 5e3c 6626 5abc
00000020: 24f3 a7bc b5ad b5bc c102 23bd d5db 323c
00000030: e17e c9bc 0000 0000 0000 0000 065c 94bc
00000040: b2e0 dabc 0000 0000 0000 0000 bfc9 3c3c
00000050: ec83 423c 2b3d dfbc 84f5 d6bb 6f7e 2dba
00000060: 4c56 e2bb 834f 8fbc 0000 0000 0000 0000
00000070: 0000 0000 ee02 42bc 4527 58bc 4257 90bc
0.0 -0.014865371 -0.008341354 -0.008742053 0.0 -0.0111525 0.013573457 -0.013314819
-0.02050168 -0.022177557 -0.03979755 0.01091667 -0.024596633 0.0 0.0 -0.018110286
-0.026718471 0.0 0.0 0.011522709 0.011872273 -0.027250847 -0.0065600295 -0.00066182663
-0.00690726 -0.017493969 0.0 0.0 0.0 -0.011841519 -0.013192956 -0.017619733

conv1.lin_src.weight f4 [32, 9]
00000000: 4143 bfbc 3c44 173e 4d47 90be 2417 9fbe
00000010: 41e3 c7bc 271a b03d b947 90be b85b 9e3d
00000020: e2b5 a6be 369e 1d3e 0414 ac3e 3b47 38be
00000030: 8012 96bb 2eb3 17be 641f 9c3d f5f7 873e
00000040: b6c3 a73e a43e 863e 617e aabd 8d5d b13e
00000050: 63d1 9d3e 715e 13be f48f 6f3e 753c 4e3e
00000060: bcfa 9bbe 5cc9 1abe 582c b3be b698 033e
00000070: 40fe bcbe 5137 d6bd c8ea 0abe d28b ad3e
00000080: 94ff 373c ebee c4bd 2106 9bbe a7cc bd3e
00000090: f93f bbbd 6f19 533e cc4e 88be 39a9 ec3d
000000a0: b1e3 65be fc72 28bd da95 82be 0f60 343e
000000b0: 52be cb3d a1fc 05be aefc 8e3e 36d1 c7be
000000c0: 0964 b43e 605c 59be 5bdc e3bd 43dd 25be
000000d0: ff88 353e 1933 623d efbf 373d c16b 813e
000000e0: 7e39 0cbe dd12 943e 3dfd 783e 4c06 323e
000000f0: 6f50 9bbd 0436 70be 09d2 973e d6f6 c8bd
00000100: 0415 0a3e e55b 853e 8bbc dd3d 242b 943e
00000110: e462 c43e ecd3 1e3e 2a32 293e e32a 8b3e
00000120: 7a35 133e 4730 75be 66b0 a03e 68ec 9cbc
00000130: e066 1abd 31d9 b7bd d36f b63e c468 893e
00000140: 7704 813d 8ac2 a8be 5ba5 b53d a75b 893e
00000150: 3945 b23e 7e5c ae3e 085e 3bbe 95f6 a73e
00000160: 37bd b13d a0a2 693e b709 a23e af91 b43e
00000170: 7d59 873e 7734 8fbe d0f8 183e f06f 4d3d
00000180: 85f9 8a3d a412 a9be 0be9 59bd 2f77 a33e
00000190: 172e 063d 1262 893e fa3e 373e e326 4abd
000001a0: ca89 ee3d 3135 b93e fb14 8bbe db84 903e
000001b0: 770d 2cbe aeae 76be 3ba8 d93d 725d 1e3e
000001c0: f576 c0be b00f a9be 6091 7cbe 3058 a8be
000001d0: 5435 07be ce1e 55bd a035 81be c38a 5bbe
000001e0: 85d9 ffbd e3bb 40bd 45bd d3bd 5d14 cdbd
000001f0: 8649 a53e 3c66 a1be 6312 aebe 34b8 9ebe
00000200: 9bff 253e 8e67 1dbe ac11 92be bc98 e0bd
00000210: 990d f83d 913b b83e 3c6e 903e 3602 553e
00000220: a02f f3bd fd58 23be fdf3 9a3e f421 27bd
00000230: b7a1 ba3e af77 a03e 5b9b bfbe 570c 9a3e
00000240: 1c5e 463e 4503 b5be c491 86be 07fb c1bd
00000250: f043 c3be b405 23be 23b4 8c3d f683 a4be
00000260: 36af 92be 4663 9fbd 5299 b83e 466c dd3d
00000270: cb95 c4be e61e 31be d39d a33d 836a 8c3d
00000280: 712a 9c3d 891b ab3d 115f 8bbe 2cb3 f2bd
00000290: 82d8 acbe b61b b1be 528b 293e ccee aa3e
000002a0: f156 a73e 418c a4be eda8 5cbd 6b8c 793e
000002b0: 53ef 21be d943 8a3e 11e0 71be e579 b8be
000002c0: facf 803e 67d6 8c3e 26f0 13be ebb0 afbd
000002d0: 5cfa 79be b476 0b3c f6f6 10be e92c a7bd
000002e0: f80f 9fbd 7a71 863c ee13 313e bc7e 97be
000002f0: ec2e 373e f279 83be b035 97bd 9be5 d53d
00000300: e863 a73e 0b21 973e af23 113e 0f95 983e
00000310: d4d0 9ebe de8c 273c c7e5 a0be 60e9 3f3c
00000320: a9bf 843e c260 193e 93c8 07be 9238 89be
00000330: e245 dc3d 7d43 bdbd 8f29 c5be 524e 8fbe
00000340: 8faa bc3e 6c60 27be a35a 0b3e 484f b8be
00000350: bd35 413e 330b 483c 4419 ecbd ed04 14be
00000360: ccc1 5dbe 76af a13e 1a93 e3bd 8483 10be
00000370: 54ce 003e e06e 613e b91e a63e 7802 c83b
00000380: 6046 7cbd 524b 94bd dc9a 603e 8644 923d
00000390: 6f45 033e bbae 8dbe 2400 5c3c 8108 ce3d
000003a0: 987e 923e 53a0 4abe 8bbc 33bc c1e5 6fbe
000003b0: dca6 773e 48ef 82be a8d7 443e efd0 a6be
000003c0: b0be 8dbe 06bf bc3d e923 8b3e eaf1 d2bd
000003d0: 45b2 6c3e 1e4c 37be 2c9d 73be 573e ea3d
000003e0: fdc8 f9bd 543a 703e 287d 41bd 3ea2 103e
000003f0: e07c 25be bdcb 58be 3068 8dbe 621d 71be
-0.023347499 0.14772123 -0.28179398 -0.31072342 -0.024400355 0.08598738 -0.2817972 0.07732338
-0.3256064 0.15392384 0.3360902 -0.17995922 -0.004579842 -0.14814445 0.07623175 0.26556364
0.32766503 0.26219666 -0.08324886 0.34641686 0.30823812 -0.14391495 0.23394758 0.2014025
-0.30464733 -0.15115875 -0.3499477 0.12851223 -0.36912727 -0.104597695 -0.13566124 0.33895737
0.011230368 -0.096158825 -0.30278113 0.370702 -0.09143061 0.20615171 -0.26622617 0.11555714
-0.22450139 -0.041125283 -0.25504953 0.17614768 0.0994841 -0.13084652 0.27927154 -0.39026803
0.3523257 -0.21226645 -0.11126014 -0.16197686 0.17728041 0.05522451 0.044860777 0.25277522
-0.13693807 0.28920642 0.24315353 0.17385215 -0.07583701 -0.23458105 0.29652432 -0.09812705
0.1348458 0.26046672 0.10826977 0.28939164 0.38356698 0.1551053 0.16523042 0.27181157
0.14375868 -0.23944198 0.3138458 -0.019155696 -0.037695765 -0.08976973 0.3563219 0.26837742
0.0629968 -0.32960922 0.0886943 0.26827738 0.34818438 0.3405494 -0.18297589 0.32805315
0.08678668 0.22815943 0.31648037 0.35267398 0.26435462 -0.27969715 0.14938664 0.05015558
0.06785873 -0.33022034 -0.053200763 0.31926867 0.0327588 0.26832634 0.17895117 -0.04935349
0.11647375 0.36173394 -0.27164444 0.2822636 -0.16802011 -0.24090073 0.106277905 0.15465334
-0.37590757 -0.3301978 -0.24664831 -0.32879782 -0.13203937 -0.05203133 -0.25236225 -0.21439652
-0.124926604 -0.047054183 -0.10338835 -0.100136496 0.32282656 -0.3152331 -0.33998403 -0.3099991
0.16210787 -0.15371534 -0.28529108 -0.10966632 0.121119685 0.35982946 0.28209102 0.20801625
-0.11874318 -0.15951915 0.30264273 -0.040803865 0.36451504 0.3134131 -0.37423214 0.3008754
0.19371837 -0.35354057 -0.26283085 -0.09471708 -0.3813777 -0.15920144 0.06870296 -0.32131928
-0.286493 -0.07782607 0.36054474 0.10811667 -0.38395533 -0.17296943 0.07989087 0.06856253
0.076252826 0.08354861 -0.27220967 -0.118505806 -0.33758932 -0.34591454 0.16557053 0.33385313
0.3268352 -0.32138255 -0.053872038 0.24369971 -0.15813951 0.2700489 -0.23620631 -0.36030498
0.25158674 0.27507326 -0.14447078 -0.08578666 -0.24411911 0.008512188 -0.14156708 -0.08162863
-0.07766718 0.016411532 0.17292759 -0.29588878 0.17888993 -0.25678974 -0.07383287 0.104441844
0.3269341 0.29517397 0.14173768 0.29801223 -0.31018698 0.010226456 -0.31425306 0.011713356
0.25927475 0.14978316 -0.13260107 -0.26800972 0.107555166 -0.09241388 -0.3850827 -0.2798944
0.36848876 -0.16345376 0.13608794 -0.35997987 0.18868156 0.012209701 -0.115282565 -0.14455004
-0.21655959 0.3157918 -0.11112042 -0.14112669 0.12578708 0.22014952 0.32445315 0.00610381
-0.061590552 -0.07240929 0.21934074 0.07141976 0.12819456 -0.2767237 0.013427768 0.10060216
0.28612208 -0.19787721 -0.010970245 -0.23427488 0.24184746 -0.25573182 0.19222891 -0.3258128
-0.27684546 0.09216122 0.27175835 -0.10300048 0.2311488 -0.1790013 -0.23790425 0.11437672
-0.121965386 0.2345975 -0.0472385 0.1412439 -0.16160917 -0.2117147 -0.2761855 -0.23546365

conv1.lin_dst.weight f4 [32, 9]
00000000: 4143 bfbc 3c44 173e 4d47 90be 2417 9fbe
00000010: 41e3 c7bc 271a b03d b947 90be b85b 9e3d
00000020: e2b5 a6be 369e 1d3e 0414 ac3e 3b47 38be
00000030: 8012 96bb 2eb3 17be 641f 9c3d f5f7 873e
00000040: b6c3 a73e a43e 863e 617e aabd 8d5d b13e
00000050: 63d1 9d3e 715e 13be f48f 6f3e 753c 4e3e
00000060: bcfa 9bbe 5cc9 1abe 582c b3be b698 033e
00000070: 40fe bcbe 5137 d6bd c8ea 0abe d28b ad3e
00000080: 94ff 373c ebee c4bd 2106 9bbe a7cc bd3e
00000090: f93f bbbd 6f19 533e cc4e 88be 39a9 ec3d
000000a0: b1e3 65be fc72 28bd da95 82be 0f60 343e
000000b0: 52be cb3d a1fc 05be aefc 8e3e 36d1 c7be
000000c0: 0964 b43e 605c 59be 5bdc e3bd 43dd 25be
000000d0: ff88 353e 1933 623d efbf 373d c16b 813e
000000e0: 7e39 0cbe dd12 943e 3dfd 783e 4c06 323e
000000f0: 6f50 9bbd 0436 70be 09d2 973e d6f6 c8bd
00000100: 0415 0a3e e55b 853e 8bbc dd3d 242b 943e
00000110: e462 c43e ecd3 1e3e 2a32 293e e32a 8b3e
00000120: 7a35 133e 4730 75be 66b0 a03e 68ec 9cbc
00000130: e066 1abd 31d9 b7bd d36f b63e c468 893e
00000140: 7704 813d 8ac2 a8be 5ba5 b53d a75b 893e
00000150: 3945 b23e 7e5c ae3e 085e 3bbe 95f6 a73e
00000160: 37bd b13d a0a2 693e b709 a23e af91 b43e
00000170: 7d59 873e 7734 8fbe d0f8 183e f06f 4d3d
00000180: 85f9 8a3d a412 a9be 0be9 59bd 2f77 a33e
00000190: 172e 063d 1262 893e fa3e 373e e326 4abd
000001a0: ca89 ee3d 3135 b93e fb14 8bbe db84 903e
000001b0: 770d 2cbe aeae 76be 3ba8 d93d 725d 1e3e
000001c0: f576 c0be b00f a9be 6091 7cbe 3058 a8be
000001d0: 5435 07be ce1e 55bd a035 81be c38a 5bbe
000001e0: 85d9 ffbd e3bb 40bd 45bd d3bd 5d14 cdbd
000001f0: 8649 a53e 3c66 a1be 6312 aebe 34b8 9ebe
00000200: 9bff 253e 8e67 1dbe ac11 92be bc98 e0bd
00000210: 990d f83d 913b b83e 3c6e 903e 3602 553e
00000220: a02f f3bd fd58 23be fdf3 9a3e f421 27bd
00000230: b7a1 ba3e af77 a03e 5b9b bfbe 570c 9a3e
00000240: 1c5e 463e 4503 b5be c491 86be 07fb c1bd
00000250: f043 c3be b405 23be 23b4 8c3d f683 a4be
00000260: 36af 92be 4663 9fbd 5299 b83e 466c dd3d
00000270: cb95 c4be e61e 31be d39d a33d 836a 8c3d
00000280: 712a 9c3d 891b ab3d 115f 8bbe 2cb3 f2bd
00000290: 82d8 acbe b61b b1be 528b 293e ccee aa3e
000002a0: f156 a73e 418c a4be eda8 5cbd 6b8c 793e
000002b0: 53ef 21be d943 8a3e 11e0 71be e579 b8be
000002c0: facf 803e 67d6 8c3e 26f0 13be ebb0 afbd
000002d0: 5cfa 79be b476 0b3c f6f6 10be e92c a7bd
000002e0: f80f 9fbd 7a71 863c ee13 313e bc7e 97be
000002f0: ec2e 373e f279 83be b035 97bd 9be5 d53d
00000300: e863 a73e 0b21 973e af23 113e 0f95 983e
00000310: d4d0 9ebe de8c 273c c7e5 a0be 60e9 3f3c
00000320: a9bf 843e c260 193e 93c8 07be 9238 89be
00000330: e245 dc3d 7d43 bdbd 8f29 c5be 524e 8fbe
00000340: 8faa bc3e 6c60 27be a35a 0b3e 484f b8be
00000350: bd35 413e 330b 483c 4419 ecbd ed04 14be
00000360: ccc1 5dbe 76af a13e 1a93 e3bd 8483 10be
00000370: 54ce 003e e06e 613e b91e a63e 7802 c83b
00000380: 6046 7cbd 524b 94bd dc9a 603e 8644 923d
00000390: 6f45 033e bbae 8dbe 2400 5c3c 8108 ce3d
000003a0: 987e 923e 53a0 4abe 8bbc 33bc c1e5 6fbe
000003b0: dca6 773e 48ef 82be a8d7 443e efd0 a6be
000003c0: b0be 8dbe 06bf bc3d e923 8b3e eaf1 d2bd
000003d0: 45b2 6c3e 1e4c 37be 2c9d 73be 573e ea3d
000003e0: fdc8 f9bd 543a 703e 287d 41bd 3ea2 103e
000003f0: e07c 25be bdcb 58be 3068 8dbe 621d 71be
-0.023347499 0.14772123 -0.28179398 -0.31072342 -0.024400355 0.08598738 -0.2817972 0.07732338
-0.3256064 0.15392384 0.3360902 -0.17995922 -0.004579842 -0.14814445 0.07623175 0.26556364
0.32766503 0.26219666 -0.08324886 0.34641686 0.30823812 -0.14391495 0.23394758 0.2014025
-0.30464733 -0.15115875 -0.3499477 0.12851223 -0.36912727 -0.104597695 -0.13566124 0.33895737
0.011230368 -0.096158825 -0.30278113 0.370702 -0.09143061 0.20615171 -0.26622617 0.11555714
-0.22450139 -0.041125283 -0.25504953 0.17614768 0.0994841 -0.13084652 0.27927154 -0.39026803
0.3523257 -0.21226645 -0.11126014 -0.16197686 0.17728041 0.05522451 0.044860777 0.25277522
-0.13693807 0.28920642 0.24315353 0.17385215 -0.07583701 -0.23458105 0.29652432 -0.09812705
0.1348458 0.26046672 0.10826977 0.28939164 0.38356698 0.1551053 0.16523042 0.27181157
0.14375868 -0.23944198 0.3138458 -0.019155696 -0.037695765 -0.08976973 0.3563219 0.26837742
0.0629968 -0.32960922 0.0886943 0.26827738 0.34818438 0.3405494 -0.18297589 0.32805315
0.08678668 0.22815943 0.31648037 0.35267398 0.26435462 -0.27969715 0.14938664 0.05015558
0.06785873 -0.33022034 -0.053200763 0.31926867 0.0327588 0.26832634 0.17895117 -0.04935349
0.11647375 0.36173394 -0.27164444 0.2822636 -0.16802011 -0.24090073 0.106277905 0.15465334
-0.37590757 -0.3301978 -0.24664831 -0.32879782 -0.13203937 -0.05203133 -0.25236225 -0.21439652
-0.124926604 -0.047054183 -0.10338835 -0.100136496 0.32282656 -0.3152331 -0.33998403 -0.3099991
0.16210787 -0.15371534 -0.28529108 -0.10966632 0.121119685 0.35982946 0.28209102 0.20801625
-0.11874318 -0.15951915 0.30264273 -0.040803865 0.36451504 0.3134131 -0.37423214 0.3008754
0.19371837 -0.35354057 -0.26283085 -0.09471708 -0.3813777 -0.15920144 0.06870296 -0.32131928
-0.286493 -0.07782607 0.36054474 0.10811667 -0.38395533 -0.17296943 0.07989087 0.06856253
0.076252826 0.08354861 -0.27220967 -0.118505806 -0.33758932 -0.34591454 0.16557053 0.33385313
0.3268352 -0.32138255 -0.053872038 0.24369971 -0.15813951 0.2700489 -0.23620631 -0.36030498
0.25158674 0.27507326 -0.14447078 -0.08578666 -0.24411911 0.008512188 -0.14156708 -0.08162863
-0.07766718 0.016411532 0.17292759 -0.29588878 0.17888993 -0.25678974 -0.07383287 0.104441844
0.3269341 0.29517397 0.14173768 0.29801223 -0.31018698 0.010226456 -0.31425306 0.011713356
0.25927475 0.14978316 -0.13260107 -0.26800972 0.107555166 -0.09241388 -0.3850827 -0.2798944
0.36848876 -0.16345376 0.13608794 -0.35997987 0.18868156 0.012209701 -0.115282565 -0.14455004
-0.21655959 0.3157918 -0.11112042 -0.14112669 0.12578708 0.22014952 0.32445315 0.00610381
-0.061590552 -0.07240929 0.21934074 0.07141976 0.12819456 -0.2767237 0.013427768 0.10060216
0.28612208 -0.19787721 -0.010970245 -0.23427488 0.24184746 -0.25573182 0.19222891 -0.3258128
-0.27684546 0.09216122 0.27175835 -0.10300048 0.2311488 -0.1790013 -0.23790425 0.11437672
-0.121965386 0.2345975 -0.0472385 0.1412439 -0.16160917 -0.2117147 -0.2761855 -0.23546365

conv2.att_src f4 [1, 1, 32]
00000000: b173 91be 6504 883a ea65 a7bd 29f0 033e
00000010: ea23 363d ebe2 b7be 6ccb 5ebc e98e 95be
00000020: 8719 a73c 0309 633e 0b7e 46be 15a7 9e3e
00000030: 474a d63e 4b44 923e 1ef9 773e 085a 3e3e
00000040: 86df 04be 109a 86be bc87 1b3e b993 41be
00000050: 263b 753e 4b28 2cbe fae5 32be f2a3 a9be
00000060: 29db 33be 1a37 5cbe 3725 cbbe 770f 9b3e
00000070: 9059 223e 3bfb 95bc e500 a6be ef5a bd3e
-0.28408578 0.0010377286 -0.081737354 0.12884583 0.044467844 -0.35915312 -0.013598304 -0.29210594
0.020397915 0.22171406 -0.19384019 0.30986848 0.41853544 0.28567728 0.24216124 0.18589032
-0.12975892 -0.26289415 0.15188497 -0.18904008 0.23948345 -0.16812246 -0.17470542 -0.33132893
-0.17564072 -0.21505395 -0.3967683 0.30285236 0.15854478 -0.018308273 -0.32422557 0.3698344

conv2.att_dst f4 [1, 1, 32]
00000000: fde5 a0be 5b3f c8be db68 603e 6b67 b5be
00000010: a58f 5d3d c85c 23be 270d 1e3e ad20 673e
00000020: 3058 753e df7c 95be 1588 cc3e 4cf0 8ebe
00000030: 3056 b0bc 2998 e63d eda3 27bd 6dcc 23bd
00000040: 9eb9 123e 38fb b6be fea8 abbe 05f1 38be
00000050: 85a2 0e3e fec1 163e e6c3 a43e 2e0b d7bd
00000060: 6339 45be 57c2 653c 7b04 d83d e512 4b3e
00000070: fff6 b83e 5923 633e 4898 07be 797b b2be
-0.31425467 -0.39110836 0.21914999 -0.35430464 0.05409207 -0.15953362 0.15434705 0.22571059
0.23959422 -0.29196832 0.39947572 -0.27917707 -0.021525472 0.11259491 -0.040927816 -0.039989877
0.1432862 -0.3573854 -0.33527368 -0.18060692 0.13929184 0.1472244 0.3218071 -0.10500179
-0.19260173 0.014023385 0.105477296 0.19831426 0.36125943 0.22181453 -0.13241684 -0.34859827

conv2.bias f4 [32]
00000000: 1843 5cbc 5437 543c 0000 0000 0000 0000
00000010: f285 3d3c 469f b0bc cb52 66bc 0000 0000
00000020: 0000 0000 0000 0000 fd45 60bc 3271 533c
00000030: 67bf 0f3d 0000 0000 0000 0000 0f5e d5bb
00000040: 072c abbc 2eb0 64bc 0000 0000 55cc 69bc
00000050: f58c 5cbc 0000 0000 0000 0000 fa1f bbba
00000060: 75d6 f1bb eb70 d3bb 2278 84bb 0000 0000
00000070: 0000 0000 a9a9 69bc b1e4 5ebc 4be4 b0bb
-0.013443731 0.012952644 0.0 0.0 0.01156758 -0.021560322 -0.014057825 0.0
0.0 0.0 -0.0136885615 0.012905406 0.035094645 0.0 0.0 -0.006511457
-0.020895017 -0.01395802 0.0 -0.014269908 -0.013461341 0.0 0.0 -0.0014276498
-0.0073803016 -0.00645267 -0.0040426413 0.0 0.0 -0.014261642 -0.013604329 -0.0053983084

conv2.lin_src.weight f4 [32, 32]
00000000: 6209 89bd 5306 49be 3e4c d53d 65b0 f03d
00000010: ac92 8dbd 152a 05be b1ec 83be d20c 9d3c
00000020: fefe 4abe b0e5 023e 0288 603e 6940 cb3d
00000030: 6f79 2dbe 74eb 8a3c 7243 a2bd 6210 113e
00000040: a1b8 6d3e 4f11 bd3d 62fe 803e f362 4f3e
00000050: f64d 4fbe 164a 763e c1bc abbc 3133 48be
00000060: dbaf c83d 8943 83bd 881a efbd f429 b53d
00000070: e0b4 d3bc c734 8a3e 4754 5a3d abab 47be
00000080: 47fa 44be fe20 e3bd 26a6 083c 908f a23d
00000090: 1a6e 55be 7ed4 62be 9d90 5e3e 301f 3ebe
000000a0: 70e0 213e 75a3 a93d 5c1b 4abe 3bd6 183e
000000b0: f0b7 913d c487 733d 22cf eebd 8e95 583e
000000c0: bef0 113e 7100 f83d ef89 3fbe 9f9c 8e3e
000000d0: 41c5 9ebe bcc9 043e 7739 7e3c c914 be3d
000000e0: 3117 8fbe 34cb c13d f398 8a3e af7c 40be
000000f0: c031 67be e811 363e 8068 bbbc 78cc 8a3d
00000100: 8ed0 49be a802 9c3e 4f3f d53d fe74 933d
00000110: 0266 86be 9bc3 a1bd 0cbd 03be 9a9b c2bc
00000120: 9530 2e3e 4067 90be 2231 a03d 2503 c63d
00000130: 97d4 4a3d 4da1 703d 21e5 573e eb03 8cbe
00000140: 5b0b 00be 3d3f b2bc fd19 c4bc b289 64be
00000150: 579c 1ebe 916a b83b 76c0 c13c 2d29 66bd
00000160: 9c7d 67bd d95a 653d f8fd 393e 4a2b 60be
00000170: 4bee f8bd a56a 63be fccd 6dba 5376 d8bd
00000180: f1f7 94be eeb8 063e 506c 623e cce4 65bd
00000190: 10e6 12bd 656e 033e a332 2f3d b893 073e
000001a0: b545 55be e51b 9a3d eae9 97be fc9b 9fbe
000001b0: baba 1c3e 3d16 61be 982b 963e ae3e 273d
000001c0: 26e8 3bbe bc1a 10be 5eb8 503e 8013 903d
000001d0: 71e0 813e 52a0 1b3d ac76 82be 8035 663e
000001e0: d031 0e3e e6b9 80be 46ba a13d 4286 82bc
000001f0: 33b9 7e3e 3c81 9fbe ab1d 023e 239b 9a3c
00000200: 467d 0b3d a9a1 113e 1bcf 433c 8a54 61bd
00000210: 453f 863e 0ccf 17be 26dc c3bb d47f c5bd
00000220: c528 9d3e 0c2d 513d 3768 973e bb55 4dbe
00000230: 0954 8b3e a72d 78be ffde 0dbe cb6a 903e
00000240: 6833 3fbe 9556 f3bd 6486 1dbe 6620 183e
00000250: 7fe5 28be 87b1 33be 5ea8 213e 4523 9bbd
00000260: 7e40 00be 366d 76be 4123 853d 5be5 473e
00000270: a3c8 5c3d f40b 4abc e108 8f3e 3237 653e
00000280: 0ae8 3cbe 74ae 833d 1b69 eb3d 9659 613e
00000290: 85a3 0f3e 9f7b 843e 6f36 55be c633 053d
000002a0: af20 853e 0d49 593e a55a d53d 591b 98be
000002b0: 3c9c 863c 0b39 093e 0af5 b4bd 7f7d 44be
000002c0: 499e 4f3e e724 d83d 7bcf 76bd eeda 61be
000002d0: 6963 e2bd f449 4b3e 0bd0 b13c a13a 113e
000002e0: d2f4 72be 234c 8d3b c1ab 4ebe 9185 e43d
000002f0: f74b 1abe 5212 a0be 8569 6f3e a61a bc3d
00000300: 05b6 623d cb5a 4b3e a439 13bc 264d 6f3e
00000310: 47de 6d3e 2fc4 3e3e 6703 533e cc48 1abd
00000320: 4853 c33d 72c9 96bc 888d 9cbd 9684 393d
00000330: 0f70 813d 8eae 763e 960d 8e3d 3209 20bc
00000340: e065 78be 0a59 3dbe 57d0 2bbd 864b 68bd
00000350: 5e15 a83d e8bc 6dbe 1ef9 e9bd 116d 273e
00000360: 418f 893e e035 9dbd 12b8 33be e43f c93d
00000370: e430 673e 7a29 d8bd 046f 21ba c49b f73d
00000380: aa4d 6cbe 4344 7ebe 11ce 67be 88e3 053e
00000390: e768 0a3e 034f 793e ce19 273e ac12 9cbd
000003a0: c4a6 01be c4fc 50be b17f 72be b5c0 b73c
000003b0: 90d3 dfbd 42ae 3fbe 6a09 81be 0463 3abc
000003c0: b158 103e 7442 7b3e 6eb1 d13d f37e bc3d
000003d0: 2585 7c3e 1f75 98be 7614 063e 8800 8e3e
000003e0: d392 22be b3f2 c73b 7db6 86be 231f fabd
000003f0: cf2e af3d d4a0 d2bd b6a2 8dbe 7291 953e
-0.06691243 -0.19631319 0.10414933 0.117523946 -0.06912741 -0.13004334 -0.2576652 0.019171152
-0.19823834 0.12782931 0.21926883 0.09924395 -0.16940854 0.016957976 -0.079230204 0.14166406
0.23214962 0.09231817 0.2519408 0.2025259 -0.20244583 0.24051699 -0.020964028 -0.19550778
0.09799167 -0.06409366 -0.11674982 0.088458925 -0.025843084 0.2699339 0.05330303 -0.1949908
-0.19236098 -0.11090277 0.008340394 0.079375386 -0.20842782 -0.22151372 0.21734853 -0.18566585
0.15808272 0.0828313 -0.19737 0.14925472 0.071151614 0.059455648 -0.11660601 0.211508
0.14251992 0.12109459 -0.18704961 0.27853867 -0.31009868 0.1296758 0.01551663 0.09281308
-0.2794738 0.09462586 0.27069816 -0.18797563 -0.22577572 0.17780268 -0.022876978 0.067772806
-0.19708464 0.30470777 0.10412466 0.07200049 -0.262497 -0.07898637 -0.12865084 -0.023755837
0.1701072 -0.28203773 0.07821871 0.096685685 0.049519148 0.05874758 0.210835 -0.2734674
-0.12504332 -0.02175867 -0.023938173 -0.22318152 -0.15489326 0.005627938 0.023651343 -0.056191612
-0.056516275 0.055994842 0.18163288 -0.21891513 -0.12154826 -0.2220865 -0.00090715266 -0.105694436
-0.29095414 0.13156483 0.2211163 -0.0561264 -0.035863936 0.12835081 0.0427729 0.13239944
-0.20827372 0.07524852 -0.2967065 -0.31173694 0.15305606 -0.2198114 0.29330134 0.04083126
-0.18350276 -0.14072698 0.2038283 0.07034969 0.25366548 0.03799469 -0.25481164 0.22481346
0.1388619 -0.2514183 0.07896857 -0.01593316 0.24875335 -0.31153286 0.1270663 0.018872803
0.034055017 0.14221825 0.011951233 -0.055012263 0.26220146 -0.14825076 -0.0059771715 -0.09643522
0.30695167 0.05106835 0.29571697 -0.20052235 0.2721255 -0.24236165 -0.13854598 0.28206477
-0.18671954 -0.118817486 -0.15383297 0.14856109 -0.16493796 -0.1754819 0.15786883 -0.075750865
-0.12524602 -0.24065098 0.06500865 0.19521086 0.05390228 -0.012331951 0.27936462 0.22384337
-0.18447891 0.06429759 0.11494657 0.2200683 0.14027222 0.25875565 -0.20821546 0.032520078
0.26001498 0.21219273 0.1041768 -0.29708365 0.01643192 0.13400666 -0.088358 -0.19188498
0.20275225 0.105539136 -0.060256463 -0.22056171 -0.11054117 0.1985243 0.021705648 0.14182521
-0.23726204 0.0043120547 -0.20182706 0.11158288 -0.15068041 -0.31263977 0.23380096 0.0918477
0.05534937 0.19858854 -0.008985911 0.23369274 0.23229323 0.18629526 0.20606767 -0.03766708
0.09537369 -0.018406603 -0.076441824 0.04529246 0.063202016 0.24090025 0.06936185 -0.009767817
-0.24257612 -0.18490997 -0.041946735 -0.05671265 0.082072005 -0.23216593 -0.114244685 0.163502
0.26867107 -0.076762915 -0.17550686 0.09826639 0.22577244 -0.10554786 -0.0006158205 0.12090257
-0.23076501 -0.24830727 -0.22637202 0.13075078 0.1351658 0.24346547 0.16318437 -0.07620749
-0.12661272 -0.20408922 -0.23681523 0.022430757 -0.10929024 -0.18718818 -0.25202495 -0.011376146
0.14096333 0.24537069 0.1023892 0.09203901 0.24660166 -0.29776856 0.13093743 0.2773478
-0.15876321 0.00610193 -0.26311103 -0.1221297 0.0855385 -0.10284582 -0.276632 0.29212528

conv2.lin_dst.weight f4 [32, 32]
00000000: 6209 89bd 5306 49be 3e4c d53d 65b0 f03d
00000010: ac92 8dbd 152a 05be b1ec 83be d20c 9d3c
00000020: fefe 4abe b0e5 023e 0288 603e 6940 cb3d
00000030: 6f79 2dbe 74eb 8a3c 7243 a2bd 6210 113e
00000040: a1b8 6d3e 4f11 bd3d 62fe 803e f362 4f3e
00000050: f64d 4fbe 164a 763e c1bc abbc 3133 48be
00000060: dbaf c83d 8943 83bd 881a efbd f429 b53d
00000070: e0b4 d3bc c734 8a3e 4754 5a3d abab 47be
00000080: 47fa 44be fe20 e3bd 26a6 083c 908f a23d
00000090: 1a6e 55be 7ed4 62be 9d90 5e3e 301f 3ebe
000000a0: 70e0 213e 75a3 a93d 5c1b 4abe 3bd6 183e
000000b0: f0b7 913d c487 733d 22cf eebd 8e95 583e
000000c0: bef0 113e 7100 f83d ef89 3fbe 9f9c 8e3e
000000d0: 41c5 9ebe bcc9 043e 7739 7e3c c914 be3d
000000e0: 3117 8fbe 34cb c13d f398 8a3e af7c 40be
000000f0: c031 67be e811 363e 8068 bbbc 78cc 8a3d
00000100: 8ed0 49be a802 9c3e 4f3f d53d fe74 933d
00000110: 0266 86be 9bc3 a1bd 0cbd 03be 9a9b c2bc
00000120: 9530 2e3e 4067 90be 2231 a03d 2503 c63d
00000130: 97d4 4a3d 4da1 703d 21e5 573e eb03 8cbe
00000140: 5b0b 00be 3d3f b2bc fd19 c4bc b289 64be
00000150: 579c 1ebe 916a b83b 76c0 c13c 2d29 66bd
00000160: 9c7d 67bd d95a 653d f8fd 393e 4a2b 60be
00000170: 4bee f8bd a56a 63be fccd 6dba 5376 d8bd
00000180: f1f7 94be eeb8 063e 506c 623e cce4 65bd
00000190: 10e6 12bd 656e 033e a332 2f3d b893 073e
000001a0: b545 55be e51b 9a3d eae9 97be fc9b 9fbe
000001b0: baba 1c3e 3d16 61be 982b 963e ae3e 273d
000001c0: 26e8 3bbe bc1a 10be 5eb8 503e 8013 903d
000001d0: 71e0 813e 52a0 1b3d ac76 82be 8035 663e
000001e0: d031 0e3e e6b9 80be 46ba a13d 4286 82bc
000001f0: 33b9 7e3e 3c81 9fbe ab1d 023e 239b 9a3c
00000200: 467d 0b3d a9a1 113e 1bcf 433c 8a54 61bd
00000210: 453f 863e 0ccf 17be 26dc c3bb d47f c5bd
00000220: c528 9d3e 0c2d 513d 3768 973e bb55 4dbe
00000230: 0954 8b3e a72d 78be ffde 0dbe cb6a 903e
00000240: 6833 3fbe 9556 f3bd 6486 1dbe 6620 183e
00000250: 7fe5 28be 87b1 33be 5ea8 213e 4523 9bbd
00000260: 7e40 00be 366d 76be 4123 853d 5be5 473e
00000270: a3c8 5c3d f40b 4abc e108 8f3e 3237 653e
00000280: 0ae8 3cbe 74ae 833d 1b69 eb3d 9659 613e
00000290: 85a3 0f3e 9f7b 843e 6f36 55be c633 053d
000002a0: af20 853e 0d49 593e a55a d53d 591b 98be
000002b0: 3c9c 863c 0b39 093e 0af5 b4bd 7f7d 44be
000002c0: 499e 4f3e e724 d83d 7bcf 76bd eeda 61be
000002d0: 6963 e2bd f449 4b3e 0bd0 b13c a13a 113e
000002e0: d2f4 72be 234c 8d3b c1ab 4ebe 9185 e43d
000002f0: f74b 1abe 5212 a0be 8569 6f3e a61a bc3d
00000300: 05b6 623d cb5a 4b3e a439 13bc 264d 6f3e
00000310: 47de 6d3e 2fc4 3e3e 6703 533e cc48 1abd
00000320: 4853 c33d 72c9 96bc 888d 9cbd 9684 393d
00000330: 0f70 813d 8eae 763e 960d 8e3d 3209 20bc
00000340: e065 78be 0a59 3dbe 57d0 2bbd 864b 68bd
00000350: 5e15 a83d e8bc 6dbe 1ef9 e9bd 116d 273e
00000360: 418f 893e e035 9dbd 12b8 33be e43f c93d
00000370: e430 673e 7a29 d8bd 046f 21ba c49b f73d
00000380: aa4d 6cbe 4344 7ebe 11ce 67be 88e3 053e
00000390: e768 0a3e 034f 793e ce19 273e ac12 9cbd
000003a0: c4a6 01be c4fc 50be b17f 72be b5c0 b73c
000003b0: 90d3 dfbd 42ae 3fbe 6a09 81be 0463 3abc
000003c0: b158 103e 7442 7b3e 6eb1 d13d f37e bc3d
000003d0: 2585 7c3e 1f75 98be 7614 063e 8800 8e3e
000003e0: d392 22be b3f2 c73b 7db6 86be 231f fabd
000003f0: cf2e af3d d4a0 d2bd b6a2 8dbe 7291 953e
-0.06691243 -0.19631319 0.10414933 0.117523946 -0.06912741 -0.13004334 -0.2576652 0.019171152
-0.19823834 0.12782931 0.21926883 0.09924395 -0.16940854 0.016957976 -0.079230204 0.14166406
0.23214962 0.09231817 0.2519408 0.2025259 -0.20244583 0.24051699 -0.020964028 -0.19550778
0.09799167 -0.06409366 -0.11674982 0.088458925 -0.025843084 0.2699339 0.05330303 -0.1949908
-0.19236098 -0.11090277 0.008340394 0.079375386 -0.20842782 -0.22151372 0.21734853 -0.18566585
0.15808272 0.0828313 -0.19737 0.14925472 0.071151614 0.059455648 -0.11660601 0.211508
0.14251992 0.12109459 -0.18704961 0.27853867 -0.31009868 0.1296758 0.01551663 0.09281308
-0.2794738 0.09462586 0.27069816 -0.18797563 -0.22577572 0.17780268 -0.022876978 0.067772806
-0.19708464 0.30470777 0.10412466 0.07200049 -0.262497 -0.07898637 -0.12865084 -0.023755837
0.1701072 -0.28203773 0.07821871 0.096685685 0.049519148 0.05874758 0.210835 -0.2734674
-0.12504332 -0.02175867 -0.023938173 -0.22318152 -0.15489326 0.005627938 0.023651343 -0.056191612
-0.056516275 0.055994842 0.18163288 -0.21891513 -0.12154826 -0.2220865 -0.00090715266 -0.105694436
-0.29095414 0.13156483 0.2211163 -0.0561264 -0.035863936 0.12835081 0.0427729 0.13239944
-0.20827372 0.07524852 -0.2967065 -0.31173694 0.15305606 -0.2198114 0.29330134 0.04083126
-0.18350276 -0.14072698 0.2038283 0.07034969 0.25366548 0.03799469 -0.25481164 0.22481346
0.1388619 -0.2514183 0.07896857 -0.01593316 0.24875335 -0.31153286 0.1270663 0.018872803
0.034055017 0.14221825 0.011951233 -0.055012263 0.26220146 -0.14825076 -0.0059771715 -0.09643522
0.30695167 0.05106835 0.29571697 -0.20052235 0.2721255 -0.24236165 -0.13854598 0.28206477
-0.18671954 -0.118817486 -0.15383297 0.14856109 -0.16493796 -0.1754819 0.15786883 -0.075750865
-0.12524602 -0.24065098 0.06500865 0.19521086 0.05390228 -0.012331951 0.27936462 0.22384337
-0.18447891 0.06429759 0.11494657 0.2200683 0.14027222 0.25875565 -0.20821546 0.032520078
0.26001498 0.21219273 0.1041768 -0.29708365 0.01643192 0.13400666 -0.088358 -0.19188498
0.20275225 0.105539136 -0.060256463 -0.22056171 -0.11054117 0.1985243 0.021705648 0.14182521
-0.23726204 0.0043120547 -0.20182706 0.11158288 -0.15068041 -0.31263977 0.23380096 0.0918477
0.05534937 0.19858854 -0.008985911 0.23369274 0.23229323 0.18629526 0.20606767 -0.03766708
0.09537369 -0.018406603 -0.076441824 0.04529246 0.063202016 0.24090025 0.06936185 -0.009767817
-0.24257612 -0.18490997 -0.041946735 -0.05671265 0.082072005 -0.23216593 -0.114244685 0.163502
0.26867107 -0.076762915 -0.17550686 0.09826639 0.22577244 -0.10554786 -0.0006158205 0.12090257
-0.23076501 -0.24830727 -0.22637202 0.13075078 0.1351658 0.24346547 0.16318437 -0.07620749
-0.12661272 -0.20408922 -0.23681523 0.022430757 -0.10929024 -0.18718818 -0.25202495 -0.011376146
0.14096333 0.24537069 0.1023892 0.09203901 0.24660166 -0.29776856 0.13093743 0.2773478
-0.15876321 0.00610193 -0.26311103 -0.1221297 0.0855385 -0.10284582 -0.276632 0.29212528

classifier.weight f4 [1, 32]
00000000: 4792 b6be ed54 913e 4f31 31be 3247 86bb
00000010: 9dfb 473d e1c4 88be 9777 e1bd 25cc 1433
00000020: e540 d43d de41 95b8 d78e 50be 7f04 803e
00000030: 9b25 8a3e 3139 08be 7702 55bc ad9a 113e
00000040: e1ae 19be b874 1dbe f2b4 80bc ede2 ecbc
00000050: 49d8 cbbe e692 acbe acc9 3a3a e702 cc3b
00000060: ab6a 7c3d 7252 d1bd 5847 f03c 207b e6bd
00000070: 70d8 3a3d d647 1ebe 6fc9 85be a191 f1bd
-0.35658476 0.28385106 -0.17303966 -0.0040978426 0.04882394 -0.26712707 -0.11009138 3.4644604e-08
0.1036394 -7.1171424e-05 -0.20366989 0.2500343 0.26981816 -0.13303067 -0.013001076 0.1421916
-0.15008117 -0.15376556 -0.015711281 -0.0289168 -0.3981345 -0.33705825 0.00071253884 0.006225932
0.061625164 -0.10220803 0.029330894 -0.11253953 0.045616567 -0.1545709 -0.26130244 -0.11795355
