A3/MyTeam/A3/classification/custom.pth (torch, 165185 bytes, 13 tensors)

conv1.att_src f4 [1, 1, 256]
00000000: 808d 84bb eef3 89bd ce82 2dba d2d0 883b
00000010: 1ad7 2f3c 8a69 c43d ac28 033d 82d2 d5bd
00000020: 1a17 9f3a 7a92 bc3d 11ea 93bd dc31 c639
00000030: 8af2 603b 03e8 9f3d 4244 29bd 8232 26b9
00000040: 3979 b1bb 437f a1bd 5b72 843e a0f5 01ba
00000050: 2628 3fbd c625 afbb a254 8fbd 701f 96ba
00000060: e523 9dbb 5b22 e7bb ec3c bc3b fb42 4fbd
00000070: 313c febd d8c1 a439 9f86 2f3e 7eb5 4b3b
00000080: 4f4e 083e c33a be3b 5a55 153d f570 933b
00000090: 3a55 883a f7eb 2ebb bf13 04be 5f2a 8e3b
000000a0: a8d4 1e3b ca71 1a3b ce4e 47bb 48f2 293e
000000b0: eaaf 083d 5bb6 17bd 5f6f 983e 804b 0b3e
000000c0: 32d9 d5bb b168 00be 8395 0c3e 5e51 45b9
000000d0: ca97 fb3c 6e8f 2f3b ca94 8e3e 86a2 be3b
000000e0: be67 cbbb 3fc4 c63d da2d 8b3e a633 193a
000000f0: 63f8 a1bc f34d 52bd 149f eabc 7662 79bb
00000100: b7d6 2f3d 31b9 5c3e 1d92 213b 4af1 c439
00000110: 5d5c a3bd cc2f 523b 2c05 4639 028d d0bd
00000120: 9b15 983b e3cc 123e 1e49 8fbd 0a65 8cbb
00000130: a621 07ba b5ee 043e 81a0 44bc bcc9 6e3d
00000140: 46be 713b 171b 2a3c 6823 413c 16e0 afbd
00000150: e8b0 273b 150d 1dbe ad82 cd3a ef4d 83bb
00000160: cfd6 dcbd 045f 233b 231d cc3a f40d 2ebe
00000170: 6e40 33bc 6cbc 92ba 1f51 0bbb e445 7a3e
00000180: 106a a5b9 eef8 94bb afff 90bb 670f 24bc
00000190: eec0 143e db25 333d beff 193e 31db 673c
000001a0: 6e52 923b 035a 8c3e 4db7 b3bb 1863 d63d
000001b0: 6e0e 3bba de85 813b 2bc5 54be 5bbd 11ba
000001c0: b1f9 693b 7f24 12be f9e7 a0bb d673 6cba
000001d0: 0efb 3c3e ce93 2c3b 2cb8 90bb 0b74 133c
000001e0: e89c abbd 5974 9a3b 83b3 ed3a 7945 e33b
000001f0: bbe9 43bb 2543 c1bd d6b1 0d3e 5204 2fbb
00000200: 2b17 4abe 6637 4abb 6061 643b 520c bc3b
00000210: bbba 9e3b f04a 36b8 7ae1 373e b8c2 1bbc
00000220: 1e58 a63d f0a4 c93b e4e8 2fbe 3eff 233a
00000230: 3db7 86bb 9e4b 00bd a91a 14be 457f 91ba
00000240: a260 d13a 5efb bb3d 3b57 dd3a d0a9 cf3c
00000250: 8f16 92bd fe47 f8bb 3bae e13c aa05 b93b
00000260: f8e1 a33b ff53 00be 1f6e 6c3e aa49 32be
00000270: 0c35 2d3e 3c76 933b e5c4 09be 3d3d 823c
00000280: b2ff bd3b c7cf 8cbb 3105 323e 8eeb ab3b
00000290: 6111 75ba 62de b23b 8572 abbc fa18 f9bb
000002a0: 90ad ab3b 76bc b13b c71a 03be 38a4 9b39
000002b0: 9b87 a4bd a8a1 513e 52a9 c63d 7acc abba
000002c0: e4ca 083b 763b b43b 9beb 4b3c 5f45 93bc
000002d0: 92ba 08bb 834a 06ba 3c91 27bd b337 8d3d
000002e0: 511a 943b b308 c93b d10a 7b3d 9935 f13b
000002f0: 7c6a f73d 115a 83bc 2106 4e3b 3875 41be
00000300: 4111 0d3b 6e55 fdbc 28f6 af3c 6c48 b4b9
00000310: 6dd0 4a3c f1d1 033b 3e4e 123b 52c2 073e
00000320: 5684 ee3b 26a8 493e b4f3 ceba 3704 8c3c
00000330: 5049 90bd 61ba 6ab9 583c 2abd 145c 11be
00000340: b986 c53a 3959 8e3d 042e 0cbe cad1 57bb
00000350: f302 1dbb cf4b b93a 5bac 22bc 159f 54bd
00000360: cd16 673e 9c94 0cbb 380e 903e 8c85 b63a
00000370: be74 913c dae0 dcbb a4fa 633c 946f 973d
00000380: e195 1e3d 4e8a 953c bd0c 5d3b 9bc7 0f3b
00000390: 10a0 e5bd 6ac9 0e3d fb9d 263a 960b 46bd
000003a0: 5b4c d13a 7e12 713b bf77 02ba 7929 fbbb
000003b0: d8e7 6cbd 3069 cd3a 75c9 013b 0e65 74bb
000003c0: 9eb8 b4bc 8308 253b e438 f5ba 23e7 a8bc
000003d0: 346e e5bd 067e 9538 a84a 0abe 17ef 883b
000003e0: bc39 03be 4bbb 033c 8501 353e 03a4 28bd
000003f0: 230f 52bb f29c 13bd 91f4 cfbd 26b7 62bd
-0.0040451884 -0.06735979 -0.00066189177 0.004175284 0.010732437 0.095904425 0.03202121 -0.10440542
0.0012137622 0.09207626 -0.07222379 0.0003780265 0.0034324252 0.078079246 -0.04132486 -0.0001584981
-0.005416062 -0.07885601 0.25868496 -0.00049575604 -0.046669148 -0.005345079 -0.06998564 -0.0011453461
-0.0047955387 -0.007053656 0.005744567 -0.050600987 -0.12413824 0.00031424942 0.17141198 0.003108352
0.13311122 0.005805345 0.03645835 0.0044995495 0.0010401376 -0.002669094 -0.12898158 0.004338547
0.002423564 0.0023566359 -0.0030411961 0.16596329 0.03337089 -0.037039142 0.2977247 0.1360302
-0.006526136 -0.12539937 0.13728909 -0.00018817696 0.030712027 0.0026788372 0.27847892 0.005817714
-0.0062074354 0.097054 0.2718342 0.0005844183 -0.01977176 -0.05134387 -0.028640307 -0.0038053072
0.042929377 0.2155502 0.002465374 0.00037563808 -0.07976601 0.0032071946 0.00018884678 -0.10183145
0.0046412474 0.1433597 -0.06996368 -0.0042845057 -0.00051548553 0.12981685 -0.012001158 0.058297858
0.0036887093 0.010382435 0.011788227 -0.08587663 0.0025587622 -0.15337022 0.0015679203 -0.004007093
-0.10783159 0.002492846 0.0015572648 -0.1699751 -0.010940654 -0.001119507 -0.0021258069 0.24440724
-0.00031550275 -0.0045462763 -0.004425011 -0.010013438 0.14526722 0.043737274 0.15038964 0.01415138
0.004465393 0.27412423 -0.0054844976 0.104681194 -0.0007135634 0.003952726 -0.20778339 -0.0005559527
0.0035701806 -0.14271735 -0.004910466 -0.00090199464 0.18455145 0.0026333216 -0.0044164862 0.008999835
-0.08379537 0.0047135768 0.0018135164 0.006935772 -0.0029893953 -0.09436635 0.1383737 -0.0026705456
-0.197354 -0.0030855774 0.003484808 0.0057387734 0.0048440374 -4.3461972e-05 0.17957106 -0.009506874
0.08122276 0.0061536953 -0.17178684 0.00062559906 -0.004111199 -0.031322114 -0.14463295 -0.0011100551
0.0015974233 0.09178804 0.0016886959 0.025349528 -0.07133209 -0.0075769415 0.0275489 0.005646427
0.005001303 -0.12532042 0.23088883 -0.17410913 0.16914767 0.0045001786 -0.13454016 0.015898341
0.0057983035 -0.00429723 0.17384793 0.005246586 -0.0009348598 0.005458639 -0.02092863 -0.0076018544
0.005239196 0.0054240776 -0.12803183 0.00029686256 -0.08033677 0.20471823 0.09700264 -0.0013107203
0.0020872885 0.0055002524 0.012446309 -0.017977415 -0.0020863158 -0.00051227974 -0.04090999 0.068953894
0.0045197387 0.00613507 0.061289612 0.0073611257 0.12080857 -0.016034158 0.0031436759 -0.18892372
0.0021525177 -0.030924525 0.021479681 -0.00034386234 0.012378794 0.0020114149 0.0022324468 0.13257721
0.0072789593 0.1969305 -0.0015789182 0.017091854 -0.07045233 -0.0002238541 -0.041561455 -0.14195281
0.0015070058 0.069506116 -0.13689429 -0.003293144 -0.0023958057 0.0014136973 -0.009928788 -0.051909525
0.22567292 -0.0021450883 0.28135848 0.0013925298 0.017755862 -0.0067406716 0.013914738 0.07394329
0.038717154 0.018254425 0.0033729516 0.0021939042 -0.1121217 0.034860052 0.00063559384 -0.048350893
0.001596819 0.0036784704 -0.000497695 -0.007664856 -0.05783829 0.0015671607 0.0019803916 -0.0037291679
-0.022060689 0.0025182075 -0.0018708971 -0.020618027 -0.1120266 7.128347e-05 -0.13505042 0.0041788924
-0.12814993 0.00804026 0.17676361 -0.04117204 -0.003205248 -0.036038347 -0.10154069 -0.055350445

conv1.att_dst f4 [1, 1, 256]
00000000: fe06 783d 12f8 473e 9a15 5bbe ba68 36be
00000010: 2bf8 253e 07ca 3abe 847d 293c ccac f23d
00000020: 6be3 4ebe e9bd e3bd 9c5e d93d 38b5 79be
00000030: 6a58 14be 9c3c e0bd 32b7 ae3d 391d 42be
00000040: 585f 08be a159 12be 73c0 79be ceb1 803e
00000050: 5a23 dabd a237 efbd c57b 19bd c005 febb
00000060: 712f 77be f938 43be 73cb 7bbe db61 d83d
00000070: e3a3 7e3e 4334 1abe 175c 90be ddf2 c4be
00000080: 2dc2 e0bd 448a 81be e6b3 d5bc 27f1 15be
00000090: db99 1f3e 618a b7be 2430 5c3d 4d75 bbbc
000000a0: 7df0 13be 49f6 7cbe df48 4f3e 9838 2abe
000000b0: 4e94 9abe a961 983e b9e3 a0be de93 9bbe
000000c0: d406 a0bd 462f 1e3e f7c1 9fbe e8a3 683e
000000d0: ebe9 a2bc c038 94be c61c a0be 9be6 65be
000000e0: 87ef 78be 5fa3 c63d 7f50 94be bb23 143e
000000f0: ed04 cc3d 85da ff3d b00c 8d3e b478 79bd
00000100: 1131 8dbd bf6e 16be ca82 05be 5065 b2bc
00000110: 8240 6f3e 5700 90be e1e0 7dbe 2088 5d3c
00000120: b659 3dbd 1f72 6b39 e2d5 a63e 2124 d5bc
00000130: 3cac 8fbe 4299 e2bc 74d6 2b3e 63a3 6f3e
00000140: a7aa 0d3d 354f 03be 8f08 30be e202 0e3e
00000150: fd34 40bd 6a98 1e3d 9a9a a6bc ded8 f4bd
00000160: d61e 5e3e e097 12be 728a 11be ba7a bdbc
00000170: 99a5 e53c 9d9b 54bc 33e7 743e 7958 98be
00000180: ff3d 0cbe c5ec dabc 4e9d f7bc 4ebb 61be
00000190: 8b08 7ebe b539 87be 360c a0be 5a39 2fbd
000001a0: 67eb 383e 7403 98bd 2ddc 483e 223a a1bd
000001b0: 110b 2dbc 79a6 dabd 7a5c 6dbd 2f6d 10bd
000001c0: e81d 22be 6d72 863e f3ad bd3d 6b5e 0ebe
000001d0: 209f 92be d555 91be f443 263d eca4 5bbe
000001e0: 69a8 473e 6082 d8be 67b7 5bbe 0297 7bbe
000001f0: ce8a a7be 8bdb 053d 17ed 673e 009d a7be
00000200: 0fa2 003d 0c9c 9ebd 4c27 8bbd 2ee6 2cbd
00000210: ddde 123e b001 433e fb3b 85be 06da 85be
00000220: dfbd 47be 039c 13be cc33 423e 98d8 edbd
00000230: be10 363e 9db4 d13d 4819 a13e 9941 1cbe
00000240: 379d 03be a91c 17bd 2584 46be 286c 56be
00000250: ed4f 97bd d741 05bd 655f 303d 4582 e7bd
00000260: 5637 dabd eadc 583d 6f94 1cbe 1099 983d
00000270: 4e8c acbe 22d9 6bbd d691 16be e09a 033e
00000280: 652e 5dbe 46ea b2bd 90a2 a1be 31ce 39be
00000290: 08d4 d43d 17b9 74be 1492 70be f55f a13d
000002a0: 1d46 7abe 9b15 92bd 5fab 083e 0f77 86be
000002b0: bc6d 133e 1986 85be 6102 d33d d3c3 e0bc
000002c0: d5a3 46be 965d a63b 7bce 47bc 1fa3 5e3d
000002d0: ffc7 a13d 0e49 3cbe e6f2 80bd d3ff 4bbd
000002e0: 5a0d df3d 6734 8a3d 5be8 f53d 1b98 123d
000002f0: b146 0abe b755 523d 5182 803d 39e2 c8bc
00000300: 146f 3d3e b4fd 40be 26d6 7fbe 207c 233e
00000310: e473 06be d56f 6cbc 3cab 343c 52ba aabe
00000320: 5c3f 8ab7 5ac3 adbe 4f07 843e a674 493e
00000330: 191c 003d 1dce 9bbe 411c d9bd 2d35 813e
00000340: fea0 a0be ffdb f93d edf6 2cbc ed4c f2bc
00000350: d305 a9be 4315 00be 8499 10be ed50 c93c
00000360: a690 abbe 8278 56bc 7029 acbe 024b 57bd
00000370: 6f20 11be fc9b 89be 289f 6c3e 46cd debd
00000380: 17ba e2bd 1c64 dfbc b40e 69bb 7f9f 94be
00000390: 8bd0 bfbc 2112 933d 330e 86be 42ed 3e3c
000003a0: 5605 c3bd 1028 78bd a45d 25be 33ab d63d
000003b0: 63e2 863e b3f4 853e 19c2 25be 79d7 c93d
000003c0: 3b5e 853e 0938 a33d e84d e63d 71e0 f73d
000003d0: b938 6cbd 624d aaba 76ad ef3d 5ab2 b8bd
000003e0: 3049 88bc fab3 10be 662c 98bd 7c6e c03d
000003f0: b905 5b3d 4519 3ebe cc14 773e 2732 f53d
0.060553543 0.19528225 -0.21394959 -0.17813388 0.1620795 -0.1824113 0.010344867 0.11849365
-0.2020394 -0.11120207 0.106137484 -0.24385536 -0.14486852 -0.1094906 0.085310355 -0.1895646
-0.13317621 -0.14292003 -0.2438982 0.25135654 -0.10651274 -0.11680533 -0.03747155 -0.0077521503
-0.24139191 -0.19064702 -0.24589328 0.105655394 0.24867205 -0.15058999 -0.2819526 -0.3846654
-0.10974536 -0.253008 -0.026086759 -0.14642774 0.15586035 -0.35847762 0.053756848 -0.022883082
-0.14447208 -0.24703325 0.20242642 -0.16623151 -0.30191272 0.2976201 -0.3142374 -0.3038625
-0.07813802 0.15447721 -0.3120267 0.22718775 -0.019886931 -0.28949547 -0.31271952 -0.2245125
-0.24310122 0.09699129 -0.28967664 0.14466755 0.09961877 0.12492851 0.27548742 -0.060906127
-0.06894124 -0.14690684 -0.13038173 -0.021776825 0.23364452 -0.2812526 -0.24792816 0.013521224
-0.046228133 0.0002245386 0.32585055 -0.026018204 -0.28061092 -0.02766097 0.16781026 0.23402171
0.034586575 -0.12823184 -0.17190765 0.13868287 -0.046925534 0.038719572 -0.020337392 -0.11955427
0.2169145 -0.14315748 -0.14212969 -0.02312981 0.028033065 -0.012976554 0.2391632 -0.29755
-0.13695525 -0.026724229 -0.030226376 -0.22044107 -0.24807946 -0.26411214 -0.31259316 -0.042779304
0.18058549 -0.07422534 0.1961524 -0.07872416 -0.0105617205 -0.106762834 -0.05794952 -0.035260376
-0.15831721 0.26259175 0.09261694 -0.13903205 -0.28637028 -0.28385797 0.04059215 -0.21449631
0.19497837 -0.42286968 -0.21456681 -0.24569324 -0.32723087 0.032680076 0.22649036 -0.3273697
0.03140455 -0.07744607 -0.06794605 -0.042211704 0.14342828 0.19043612 -0.26022324 -0.261429
-0.19506024 -0.14414982 0.18965071 -0.116135776 0.17779824 0.102395274 0.314646 -0.15259399
-0.12852941 -0.036892567 -0.19386347 -0.20939696 -0.073882915 -0.032533493 0.043059725 -0.11304144
-0.10655086 0.052945055 -0.15290998 0.07451069 -0.33700794 -0.05758012 -0.1470407 0.12852049
-0.2159973 -0.0873609 -0.31569338 -0.18145062 0.10392004 -0.23898731 -0.23493224 0.078796305
-0.24440809 -0.07133027 0.13346623 -0.2626271 0.14397329 -0.2607887 0.10303188 -0.027437126
-0.19398434 0.0050770743 -0.012195225 0.054354783 0.07899474 -0.18387243 -0.06296329 -0.04980452
0.108912185 0.06748276 0.12007209 0.03578959 -0.13503529 0.051351275 0.06274856 -0.024521934
0.18499404 -0.1884678 -0.24984035 0.15965319 -0.13130146 -0.01443096 0.011027154 -0.33345276
-1.6480386e-05 -0.33938104 0.25786826 0.19673404 0.031276796 -0.3043069 -0.10601092 0.25235882
-0.31372827 0.12200164 -0.010556919 -0.029577697 -0.33012256 -0.1250811 -0.14121062 0.024574721
-0.33508795 -0.013090255 -0.33625364 -0.052561767 -0.14172529 -0.2687682 0.23107588 -0.108789966
-0.1107065 -0.027269416 -0.0035561742 -0.29027936 -0.02341487 0.07181192 -0.26182708 0.011653246
-0.09522502 -0.06058508 -0.16149002 0.104818724 0.26344594 0.26163253 -0.16187324 0.09855551
0.26048455 0.07969672 0.11245328 0.12103356 -0.057671282 -0.0012993033 0.11703007 -0.09018393
-0.016636461 -0.14131156 -0.07430343 0.09396073 0.053472254 -0.18564327 0.24129027 0.119724564

conv1.bias f4 [256]
00000000: af9e a3bd 6176 113d af60 f4bc 0000 0000
00000010: 88a8 153d 98f7 19bb edba 99bd 37dd 3f3b
00000020: 0000 0000 d1b1 22bb 4914 843d b8cd 64bd
00000030: b490 e3bd b367 7b3d cbc3 a1be 1987 413e
00000040: 72c9 063d 15b3 a5bd 0000 0000 2593 2dbe
00000050: c700 41bc 1c4c 5a3e bec1 3dbc fe70 1a3e
00000060: 2570 543c df2a 59bd bc93 293d 0eae 40bd
00000070: acc3 71bd f805 01be 3763 b33b 704c 403d
00000080: 0000 0000 3cfc 17bc 1cd8 c23c 2c8b 06bc
00000090: e142 3dbe 0b01 773d 2d04 c8bd 5110 45bd
000000a0: 0cc6 17be 9fa8 98bd 11ec 48be 0000 0000
000000b0: 0000 0000 1dfc 21bd 38fc 623c 0000 0000
000000c0: 75c5 753c 5f67 d93d 875c b33b 10f5 32be
000000d0: 7d4d 82bd 0ada 533d 0000 0000 8427 77bd
000000e0: 5fa2 a63e c6df ce3d 0000 0000 71a4 89bd
000000f0: 76e0 92bd d4ed 3ebd e4b3 26be e9e8 bebd
00000100: ea1b acbc 5021 b93d 55cc abbd a136 c3bd
00000110: 65e9 833d ecfc c83c 68db 3fbd 37df 14be
00000120: 2f2e d53c f467 d93d 72a5 7fbd 57ae 083d
00000130: 94cd 9f3c 8902 0a3d 04f4 04bd 2cd1 debc
00000140: b4ae 75be e067 823d 2981 28be 9cd8 08bd
00000150: 6b2c a8bc efc6 be3d 5533 2bbe 575c cd3d
00000160: cd8f e9bd b393 ccbd dbe2 0bbe 2c04 73bc
00000170: 4157 d5bd cf78 1abc 2ca8 14be 0000 0000
00000180: 0000 0000 24da b2bd c338 91bd 8c90 cd3d
00000190: 0000 0000 ae0f a33b 0000 0000 98bc 6f3d
000001a0: 7cc8 43be 0000 0000 ddd1 3bbe fb49 763d
000001b0: 722d a43e 8c8b 9ebd 6248 efbd bfdc 20bd
000001c0: fb7a 17be b443 0abe 3574 01be 9b50 2bbe
000001d0: c775 b83d e350 463c 29a8 eebd 52b7 dd3c
000001e0: 4450 00be 3f00 40bc 41b8 7f3c 5f2b 303d
000001f0: 74d3 3ebe d23e 0dbe 353b bb3d 8bac 683d
00000200: ed7d 41bb 7a23 9b3b 38f0 90bc 65bf 59bd
00000210: a785 ebbd bc3c c5bd 0000 0000 7f81 173d
00000220: 3717 f93d 2f66 1fbd 0aef 17bd e8a0 9dbd
00000230: f404 3cbe 3a70 9fbd f953 ff3b 1e10 df3d
00000240: 9316 18be 6330 583d 0dff b8bc 7ac3 60bc
00000250: 325f b03d 6091 a23e bba0 74bd f33e 68be
00000260: fc3a f0bd eab8 f7bd dacd 353c 1ea4 33bd
00000270: dc53 b3bb 21e5 ee3d bf95 54bc 7597 153d
00000280: 3aaf 0c3d 27e7 3fbd 53a9 d83b 586d a7bc
00000290: 4bfc dd3e 7059 e8bd 5d48 c43c c66e cbbd
000002a0: 0000 0000 2030 38bd 8a22 83bd acab e03d
000002b0: ef3c 82be 0000 0000 eccf 22bd e69d 13be
000002c0: e66f babd 5c81 23be 5cd4 1a3c b8f5 06bd
000002d0: 7363 c6bd 9871 8dbc c2de 86bc 458b 64bb
000002e0: b834 43bd 9f1a 14be c833 3b3d 4fe9 51be
000002f0: 0000 0000 95d2 1e3d 0053 90bd 7cfe 38bd
00000300: 9ae9 1abe bfdc 7c3b cfcd 043e bb03 11be
00000310: 7759 833d cdf9 16be 7089 8ebe 0000 0000
00000320: ac8c 21be 8263 b3bb 163c 3cbe ae1a cbbd
00000330: 4218 d2bc a885 c3bd 6edb 68bd 4c11 4abe
00000340: c2d3 ed3c 2d3b f4bc 502a 9bbd 52d5 35bd
00000350: dd55 48be 108a fcbd c5b0 35bd ba14 70b9
00000360: 0000 0000 f978 ccbd 0000 0000 71ea f7bd
00000370: af33 b93d 42bf 43bd 611e 19bd 9542 7f3d
00000380: 5f1f b63c 1aa0 313d bdfc dbbd 185d 98bd
00000390: 5982 4b3d 3501 5fbd 7cb6 eebd 7017 573d
000003a0: ca2d a03d 2d86 59be ae5a 393e dc99 65be
000003b0: 7782 59be cdc6 3fbd 105a e7bd 758b c3bd
000003c0: 899b 5ebe 287f fbbd 00d3 29be e467 4c3c
000003d0: 9036 88bc dc68 22be 3bba 3abd 031b e9bc
000003e0: 1c78 19be a7b0 df3d de27 223f 7f62 d13b
000003f0: c4e1 4cbc 45f3 603d 879c 48be 5b78 37bb
-0.07989251 0.035513286 -0.029831259 0.0 0.036537677 -0.0023493525 -0.075063564 0.0029276141
0.0 -0.0024825225 0.064491816 -0.05586025 -0.11111584 0.061378192 -0.3159469 0.18899192
0.032906957 -0.08090798 0.0 -0.16950662 -0.0117799705 0.21318096 -0.011581836 0.15082166
0.01296619 -0.0530194 0.041400656 -0.04704099 -0.059024498 -0.12599933 0.005474474 0.046947896
0.0 -0.009276446 0.02378469 -0.008211892 -0.18482544 0.06030373 -0.097664215 -0.048111264
-0.14821643 -0.07454037 -0.19621302 0.0 0.0 -0.039547075 0.013854079 0.0
0.015000691 0.106154196 0.0054736766 -0.17476296 -0.06362436 0.05172161 0.0 -0.06034042
0.32545754 0.10101275 0.0 -0.06720818 -0.07171719 -0.04661353 -0.1627956 -0.09321768
-0.021009404 0.09039557 -0.083885826 -0.09531904 0.06441001 0.024534665 -0.0468401 -0.14538275
0.026022999 0.106155306 -0.06241364 0.03336939 0.019507207 0.033693824 -0.032459274 -0.02719935
-0.23992425 0.06367469 -0.1645552 -0.0334097 -0.020528993 0.09315287 -0.167188 0.10027378
-0.11404381 -0.09989109 -0.13660757 -0.014832538 -0.10417033 -0.009428217 -0.14517277 0.0
0.0 -0.08733013 -0.070909046 0.10037336 0.0 0.0049762344 0.0 0.058529466
-0.19119447 0.0 -0.18341775 0.060129147 0.32065922 -0.0774146 -0.11683728 -0.03927302
-0.14793007 -0.13502389 -0.12641986 -0.16729967 0.09006839 0.012104246 -0.11653168 0.027064953
-0.12530619 -0.011718809 0.015607894 0.043010112 -0.1863535 -0.13793495 0.09142152 0.056805175
-0.002952452 0.0047344537 -0.01769267 -0.053161044 -0.115001015 -0.09630725 0.0 0.03698873
0.12162631 -0.03891581 -0.0370932 -0.07696706 -0.18361264 -0.077850774 0.0077919927 0.10891746
-0.14852361 0.05278052 -0.022582555 -0.01371848 0.08611907 0.31751537 -0.059723597 -0.22680263
-0.117300004 -0.120958164 0.011096442 -0.043857686 -0.0054726433 0.116647966 -0.012975155 0.036521394
0.034346797 -0.046851303 0.006611982 -0.020437881 0.43356547 -0.11345184 0.023960287 -0.09933238
0.0 -0.04496777 -0.06403072 0.10970244 -0.25437114 0.0 -0.03974907 -0.14415702
-0.09103374 -0.15967315 0.0094500445 -0.03294918 -0.09686937 -0.01726608 -0.016463641 -0.003487305
-0.0476577 -0.1446328 0.04570368 -0.20499156 0.0 0.038775045 -0.07047081 -0.04516457
-0.15128174 0.0038583723 0.12969135 -0.1416158 0.064135484 -0.14743729 -0.27839231 0.0
-0.15776318 -0.0054745087 -0.18382296 -0.09917198 -0.025646333 -0.09546977 -0.05684989 -0.1973316
0.029031638 -0.029813373 -0.0757643 -0.04439289 -0.19564004 -0.12331021 -0.044358034 -0.00022895905
0.0 -0.09984011 0.0 -0.12105263 0.09043061 -0.04778982 -0.037382487 0.062319357
0.022231756 0.043365575 -0.107415654 -0.07439631 0.049684856 -0.05444451 -0.116559 0.052512586
0.078212336 -0.2124259 0.18100998 -0.22421974 -0.21241175 -0.04682045 -0.11296475 -0.09548084
-0.2173902 -0.122801125 -0.16584396 0.012475941 -0.01662758 -0.15860313 -0.04558776 -0.028455263
-0.14987224 0.10922366 0.6334208 0.0063899155 -0.012504999 0.0549195 -0.1959096 -0.0027995321

conv1.lin_src.weight f4 [256, 9]
00000000: 6192 8bbd f354 d73b 0f01 afbd 2a99 cc3c
00000010: 2558 e53a 427a 53be 0d72 843d 911e 64bb
00000020: dbed f63c 688d a5bd 46ce 183e 2d6b 853d
00000030: 7e4d d13d 96b7 86bf 797f 46be ff3c 51bc
00000040: 6e84 da3c d807 cf3e 3ee7 a4bd 6382 993c
00000050: 7f8b dbbd f3f2 273d df6f 28bc 0acf fabc
00000060: 3d20 ad3d 081f b93d 800d 74bc 4b6a c4bd
00000070: dea6 1e3d faeb 02be 04a5 5abe 9947 cfbb
00000080: e663 f13e 932f a63d d68a 333e f6b6 58bd
00000090: d405 54be 7dc4 233d fe10 5d3e 4a2f 353e
000000a0: e275 9dbc 9451 043d be49 78be 1a3a e53d
000000b0: f158 fbbc a419 1fbe e357 8e3d 16cf 4cbe
000000c0: 0c05 a4be f40c 11be 2c88 103f e0c3 de3d
000000d0: f6d9 563e 7bcc ffbd 54ab 65be f371 5bbe
000000e0: 6402 3e3e 7cbd f8bc 618b e53e d63f 803d
000000f0: c8ea 0e3e 9dda ae3e 0090 d33e c3c3 c83d
00000100: a71f d8be bb5b 4e3e ba39 d5bd c84b 893d
00000110: 3e78 7ebf 72ad c4be b14b 8d3e 8e8e 2b3e
00000120: 00a5 0cbe 5384 343d 7a15 39be 2e5e 0ebe
00000130: 3d34 bebb 83ee 013f dc17 ed3d a85b 1a3e
00000140: 2810 e6bc 15be d33d 7257 b23c 8c97 d0be
00000150: dd2d 41be 7616 2c3b fd40 093f 4d0e a93c
00000160: 11fc d13e 85f4 25be a789 40be b7ca 80bd
00000170: 416d 963e 9cac 163e 8300 a43d efeb 87bd
00000180: eb23 aebe 7211 443e ec4b ccbd 6a44 e2bc
00000190: 21ee 3a3c 515f 10bd 179f 9fbc 85c9 83bb
000001a0: 61ae 5cbe 8268 d13c edc1 db3c 4649 b1ba
000001b0: a4f0 aabc be46 9a3c fdf1 e2bc c97c 9cbd
000001c0: 2bec ea3a 6904 1cbe 7103 163c 566a 0f3d
000001d0: 88bf c2bb e561 d83c 93b8 163e 00b5 cfbe
000001e0: 65ac 3d3e ab2a 84be fff4 643e 5cf0 14be
000001f0: ce67 58bd 1c47 22be cda6 383c 292e 52bd
00000200: 1d9c b43d 98ac 1abd 989a 24be 421f c9be
00000210: 0533 07be f2a2 84be 9062 b63c 6449 b2bd
00000220: 33d6 c03c 2333 f2bd 88bf 0fbc 4866 dcbb
00000230: 7dcc 913e 38b1 b43d 7a64 c83d bf01 9ebb
00000240: f5d8 23be cb21 ef3b cdc3 44be 6dcb d43d
00000250: df27 ccbc 3d15 4b3d bf92 413e 82ab 2b3e
00000260: 3baa d9bd 40c8 fa3d 7967 0c3d a9de 163e
00000270: 1f78 42be 7481 4e3d 8c96 8ebf 6894 12bf
00000280: 2a28 a0be 73fc 873d 23d5 35be 3f2f 1cbd
00000290: 88e7 76be cb34 d9be c3bd bfbd 912d 1b3f
000002a0: e790 8f3b 8fec c13e 6f83 febd 63d0 6c3c
000002b0: 4df7 d53c 66e8 40bd a953 21be 5eb2 aabc
000002c0: 5ef1 3c3f ec1f b33d b8c8 f53d f27e 333d
000002d0: 43c7 123e f53d e53d 4516 21bb f3ae 83be
000002e0: 8749 92bd 95d3 bebf 6b16 15bf ea11 86be
000002f0: 4d57 f33d 771e 10be 0347 a7bb ab59 36be
00000300: 9b36 cebb 7c7a 88bb f698 dc3e a5ad 423e
00000310: 4eae 873d 2397 fb3b 9761 efbd 7838 4d3d
00000320: 248d 7e3e dfd9 3c3d c05f 11bf bf66 8fbe
00000330: 3ac8 8b3e b722 d5bb a0e6 45be 4375 c4bd
00000340: 58e5 d53c 2bf3 05be 0d54 183d b968 1cba
00000350: 3a78 d13c 4a35 9a3d ef66 973d ea96 ba3c
00000360: ada7 1cbd f46b 8a3b 9caf 4fbd 1e0c 97b8
00000370: 72aa 3dbb a644 ef3d fd1f 213d cc7e d8bc
00000380: 0157 003d 43bf 78bd 6cc2 4ebc 10ed 93bd
00000390: 64fd e63c d288 8c3c 476c 81be 4d4a 8d3d
000003a0: 7aa3 c9bd 9c05 ab3d 252f 8d3c 72cf f23b
000003b0: b4ce 5d3d 7eba 2abe b74a 123d d469 adbf
000003c0: 2bd7 0fbe 8302 1dbe 71c2 1c3d ab60 033d
000003d0: f499 d63d e9c4 bcbe c80d 423e b615 8b3d
000003e0: 15e4 c9bd 9fb1 8bbe 0782 0cbf 49dd 253d
000003f0: e562 6f3d 58fb f83e 48fe 94be 0e7b 053e
-0.06815029 0.006571406 -0.08545124 0.024975378 0.0017497583 -0.20652106 0.06467066 -0.0034808258
0.030142715 -0.08083612 0.14922437 0.06514583 0.102198586 -1.0524776 -0.19384564 -0.01277089
0.026674476 0.40435672 -0.080519184 0.018738931 -0.10719966 0.04100318 -0.010280578 -0.030616302
0.084534146 0.09039122 -0.014895797 -0.09590586 0.038733356 -0.1278533 -0.21352011 -0.006325674
0.4714653 0.08114543 0.1753343 -0.05290886 -0.20705348 0.039982308 0.21588513 0.1769382
-0.01922125 0.03230436 -0.2424688 0.111927226 -0.030682059 -0.15537125 0.06950357 -0.20000872
-0.320351 -0.14165097 0.5645778 0.10877204 0.20981583 -0.124901734 -0.22428638 -0.21430187
0.185556 -0.03036379 0.448329 0.06262176 0.1395675 0.34151164 0.413208 0.098029636
-0.4221165 0.2015218 -0.10411401 0.06703907 -0.99402225 -0.38413578 0.2759681 0.16753599
-0.13734818 0.044071507 -0.18074599 -0.13903114 -0.005804567 0.50754565 0.115768164 0.15074027
-0.028083876 0.1033899 0.021770213 -0.4074062 -0.18865152 0.0026258505 0.5361479 0.020636702
0.41012624 -0.16206558 -0.1880251 -0.06288665 0.2938023 0.14714283 0.0800791 -0.06636798
-0.34011778 0.1914728 -0.099754184 -0.027620513 0.011409313 -0.03524715 -0.01948504 -0.0040218257
-0.21550895 0.025562529 0.02682587 -0.0013525866 -0.0208667 0.01883256 -0.02770328 -0.076409884
0.0017923167 -0.15236057 0.009156094 0.03501352 -0.0059432425 0.026413867 0.14718847 -0.4056778
0.18522795 -0.25813803 0.22359084 -0.14544815 -0.05283337 -0.15847439 0.011270237 -0.051313553
0.08818839 -0.037762254 -0.16074598 -0.3928166 -0.13203056 -0.25905567 0.022263795 -0.087054044
0.023539638 -0.1182616 -0.008773692 -0.00672606 0.28476325 0.08822864 0.097847894 -0.0048219855
-0.16000731 0.0072977296 -0.19215317 0.10390363 -0.024921356 0.0495808 0.18903635 0.16764644
-0.10628172 0.12245226 0.034278367 0.14733376 -0.18991135 0.050416425 -1.1139693 -0.572577
-0.31280643 0.06639948 -0.17757086 -0.038130995 -0.2411176 -0.4242309 -0.09362366 0.60616404
0.0043812874 0.37875792 -0.12427413 0.01445398 0.026118899 -0.047096632 -0.1575457 -0.020837005
0.738058 0.08746323 0.12001175 0.043822236 0.14333825 0.11193458 -0.0024579924 -0.25719413
-0.071429305 -1.490832 -0.5823733 -0.26185542 0.11881886 -0.14074121 -0.005104901 -0.17807643
-0.0062931306 -0.004164992 0.4308545 0.19011553 0.06625043 0.007677929 -0.11688536 0.05010268
0.24858528 0.046106216 -0.5678673 -0.28008077 0.27301198 -0.0065043825 -0.19326258 -0.095926784
0.026110336 -0.13081042 0.037189532 -0.00059665326 0.025570024 0.07529695 0.0739268 0.02277704
-0.038245846 0.004224295 -0.050704584 -7.202498e-05 -0.0028940705 0.116830155 0.039337147 -0.026427649
0.031332973 -0.060729276 -0.012619596 -0.072229505 0.028196998 0.017155085 -0.25277922 0.068989374
-0.09845634 0.08350679 0.017234394 0.0074099833 0.054152206 -0.16672704 0.035715785 -1.3547921
-0.14046924 -0.1533299 0.03827137 0.03207461 0.10478583 -0.3686898 0.1895057 0.067912504
-0.09857956 -0.27283952 -0.54885906 0.040494237 0.058443923 0.4862926 -0.2910025 0.13035223

conv1.lin_dst.weight f4 [256, 9]
00000000: 6192 8bbd f354 d73b 0f01 afbd 2a99 cc3c
00000010: 2558 e53a 427a 53be 0d72 843d 911e 64bb
00000020: dbed f63c 688d a5bd 46ce 183e 2d6b 853d
00000030: 7e4d d13d 96b7 86bf 797f 46be ff3c 51bc
00000040: 6e84 da3c d807 cf3e 3ee7 a4bd 6382 993c
00000050: 7f8b dbbd f3f2 273d df6f 28bc 0acf fabc
00000060: 3d20 ad3d 081f b93d 800d 74bc 4b6a c4bd
00000070: dea6 1e3d faeb 02be 04a5 5abe 9947 cfbb
00000080: e663 f13e 932f a63d d68a 333e f6b6 58bd
00000090: d405 54be 7dc4 233d fe10 5d3e 4a2f 353e
000000a0: e275 9dbc 9451 043d be49 78be 1a3a e53d
000000b0: f158 fbbc a419 1fbe e357 8e3d 16cf 4cbe
000000c0: 0c05 a4be f40c 11be 2c88 103f e0c3 de3d
000000d0: f6d9 563e 7bcc ffbd 54ab 65be f371 5bbe
000000e0: 6402 3e3e 7cbd f8bc 618b e53e d63f 803d
000000f0: c8ea 0e3e 9dda ae3e 0090 d33e c3c3 c83d
00000100: a71f d8be bb5b 4e3e ba39 d5bd c84b 893d
00000110: 3e78 7ebf 72ad c4be b14b 8d3e 8e8e 2b3e
00000120: 00a5 0cbe 5384 343d 7a15 39be 2e5e 0ebe
00000130: 3d34 bebb 83ee 013f dc17 ed3d a85b 1a3e
00000140: 2810 e6bc 15be d33d 7257 b23c 8c97 d0be
00000150: dd2d 41be 7616 2c3b fd40 093f 4d0e a93c
00000160: 11fc d13e 85f4 25be a789 40be b7ca 80bd
00000170: 416d 963e 9cac 163e 8300 a43d efeb 87bd
00000180: eb23 aebe 7211 443e ec4b ccbd 6a44 e2bc
00000190: 21ee 3a3c 515f 10bd 179f 9fbc 85c9 83bb
000001a0: 61ae 5cbe 8268 d13c edc1 db3c 4649 b1ba
000001b0: a4f0 aabc be46 9a3c fdf1 e2bc c97c 9cbd
000001c0: 2bec ea3a 6904 1cbe 7103 163c 566a 0f3d
000001d0: 88bf c2bb e561 d83c 93b8 163e 00b5 cfbe
000001e0: 65ac 3d3e ab2a 84be fff4 643e 5cf0 14be
000001f0: ce67 58bd 1c47 22be cda6 383c 292e 52bd
00000200: 1d9c b43d 98ac 1abd 989a 24be 421f c9be
00000210: 0533 07be f2a2 84be 9062 b63c 6449 b2bd
00000220: 33d6 c03c 2333 f2bd 88bf 0fbc 4866 dcbb
00000230: 7dcc 913e 38b1 b43d 7a64 c83d bf01 9ebb
00000240: f5d8 23be cb21 ef3b cdc3 44be 6dcb d43d
00000250: df27 ccbc 3d15 4b3d bf92 413e 82ab 2b3e
00000260: 3baa d9bd 40c8 fa3d 7967 0c3d a9de 163e
00000270: 1f78 42be 7481 4e3d 8c96 8ebf 6894 12bf
00000280: 2a28 a0be 73fc 873d 23d5 35be 3f2f 1cbd
00000290: 88e7 76be cb34 d9be c3bd bfbd 912d 1b3f
000002a0: e790 8f3b 8fec c13e 6f83 febd 63d0 6c3c
000002b0: 4df7 d53c 66e8 40bd a953 21be 5eb2 aabc
000002c0: 5ef1 3c3f ec1f b33d b8c8 f53d f27e 333d
000002d0: 43c7 123e f53d e53d 4516 21bb f3ae 83be
000002e0: 8749 92bd 95d3 bebf 6b16 15bf ea11 86be
000002f0: 4d57 f33d 771e 10be 0347 a7bb ab59 36be
00000300: 9b36 cebb 7c7a 88bb f698 dc3e a5ad 423e
00000310: 4eae 873d 2397 fb3b 9761 efbd 7838 4d3d
00000320: 248d 7e3e dfd9 3c3d c05f 11bf bf66 8fbe
00000330: 3ac8 8b3e b722 d5bb a0e6 45be 4375 c4bd
00000340: 58e5 d53c 2bf3 05be 0d54 183d b968 1cba
00000350: 3a78 d13c 4a35 9a3d ef66 973d ea96 ba3c
00000360: ada7 1cbd f46b 8a3b 9caf 4fbd 1e0c 97b8
00000370: 72aa 3dbb a644 ef3d fd1f 213d cc7e d8bc
00000380: 0157 003d 43bf 78bd 6cc2 4ebc 10ed 93bd
00000390: 64fd e63c d288 8c3c 476c 81be 4d4a 8d3d
000003a0: 7aa3 c9bd 9c05 ab3d 252f 8d3c 72cf f23b
000003b0: b4ce 5d3d 7eba 2abe b74a 123d d469 adbf
000003c0: 2bd7 0fbe 8302 1dbe 71c2 1c3d ab60 033d
000003d0: f499 d63d e9c4 bcbe c80d 423e b615 8b3d
000003e0: 15e4 c9bd 9fb1 8bbe 0782 0cbf 49dd 253d
000003f0: e562 6f3d 58fb f83e 48fe 94be 0e7b 053e
-0.06815029 0.006571406 -0.08545124 0.024975378 0.0017497583 -0.20652106 0.06467066 -0.0034808258
0.030142715 -0.08083612 0.14922437 0.06514583 0.102198586 -1.0524776 -0.19384564 -0.01277089
0.026674476 0.40435672 -0.080519184 0.018738931 -0.10719966 0.04100318 -0.010280578 -0.030616302
0.084534146 0.09039122 -0.014895797 -0.09590586 0.038733356 -0.1278533 -0.21352011 -0.006325674
0.4714653 0.08114543 0.1753343 -0.05290886 -0.20705348 0.039982308 0.21588513 0.1769382
-0.01922125 0.03230436 -0.2424688 0.111927226 -0.030682059 -0.15537125 0.06950357 -0.20000872
-0.320351 -0.14165097 0.5645778 0.10877204 0.20981583 -0.124901734 -0.22428638 -0.21430187
0.185556 -0.03036379 0.448329 0.06262176 0.1395675 0.34151164 0.413208 0.098029636
-0.4221165 0.2015218 -0.10411401 0.06703907 -0.99402225 -0.38413578 0.2759681 0.16753599
-0.13734818 0.044071507 -0.18074599 -0.13903114 -0.005804567 0.50754565 0.115768164 0.15074027
-0.028083876 0.1033899 0.021770213 -0.4074062 -0.18865152 0.0026258505 0.5361479 0.020636702
0.41012624 -0.16206558 -0.1880251 -0.06288665 0.2938023 0.14714283 0.0800791 -0.06636798
-0.34011778 0.1914728 -0.099754184 -0.027620513 0.011409313 -0.03524715 -0.01948504 -0.0040218257
-0.21550895 0.025562529 0.02682587 -0.0013525866 -0.0208667 0.01883256 -0.02770328 -0.076409884
0.0017923167 -0.15236057 0.009156094 0.03501352 -0.0059432425 0.026413867 0.14718847 -0.4056778
0.18522795 -0.25813803 0.22359084 -0.14544815 -0.05283337 -0.15847439 0.011270237 -0.051313553
0.08818839 -0.037762254 -0.16074598 -0.3928166 -0.13203056 -0.25905567 0.022263795 -0.087054044
0.023539638 -0.1182616 -0.008773692 -0.00672606 0.28476325 0.08822864 0.097847894 -0.0048219855
-0.16000731 0.0072977296 -0.19215317 0.10390363 -0.024921356 0.0495808 0.18903635 0.16764644
-0.10628172 0.12245226 0.034278367 0.14733376 -0.18991135 0.050416425 -1.1139693 -0.572577
-0.31280643 0.06639948 -0.17757086 -0.038130995 -0.2411176 -0.4242309 -0.09362366 0.60616404
0.0043812874 0.37875792 -0.12427413 0.01445398 0.026118899 -0.047096632 -0.1575457 -0.020837005
0.738058 0.08746323 0.12001175 0.043822236 0.14333825 0.11193458 -0.0024579924 -0.25719413
-0.071429305 -1.490832 -0.5823733 -0.26185542 0.11881886 -0.14074121 -0.005104901 -0.17807643
-0.0062931306 -0.004164992 0.4308545 0.19011553 0.06625043 0.007677929 -0.11688536 0.05010268
0.24858528 0.046106216 -0.5678673 -0.28008077 0.27301198 -0.0065043825 -0.19326258 -0.095926784
0.026110336 -0.13081042 0.037189532 -0.00059665326 0.025570024 0.07529695 0.0739268 0.02277704
-0.038245846 0.004224295 -0.050704584 -7.202498e-05 -0.0028940705 0.116830155 0.039337147 -0.026427649
0.031332973 -0.060729276 -0.012619596 -0.072229505 0.028196998 0.017155085 -0.25277922 0.068989374
-0.09845634 0.08350679 0.017234394 0.0074099833 0.054152206 -0.16672704 0.035715785 -1.3547921
-0.14046924 -0.1533299 0.03827137 0.03207461 0.10478583 -0.3686898 0.1895057 0.067912504
-0.09857956 -0.27283952 -0.54885906 0.040494237 0.058443923 0.4862926 -0.2910025 0.13035223

conv2.att_src f4 [1, 1, 128]
00000000: 1228 89bd e445 62bc cca5 81bc df0f 993e
00000010: 5a7e c5be f01f 073e 14f4 253f f099 f6be
00000020: eb1d abbe ceaa b93b 0898 353d edb6 043f
00000030: 1328 033f d9a8 ac3e 4299 52bc 8cdc 0e3e
00000040: c9de 993e 32f6 22bc 92b5 75bd 5acf 343e
00000050: ba5b 9b3d 6a3f c2b8 1ab4 e1be a021 0dbe
00000060: eac8 f2be 1255 b7bc 083e 15bc 0c60 6bbc
00000070: 7920 5bbc 7265 b8bd 58a8 72bb 406c 873d
00000080: 665a f0bb cf88 28be 617d 7d3f 5bf5 bbbe
00000090: b901 86bc e5f9 613f 63d9 5bbf 2c6a 113e
000000a0: f4f8 953e 50a0 db3e 1e07 e6bc cfd1 713c
000000b0: 6b1d 7d3c 222c 00bc 8b27 10bd 700b 4abf
000000c0: 6bfa ffbe 29d2 27bf 3517 f83e 0277 8dbe
000000d0: ea9f 8d3e bfef 63bd 216b c13d 0adb 563f
000000e0: 4776 e83e e593 a63e 45a2 a7bc c9b3 133e
000000f0: 4311 0dbe 8725 683f 45c1 463d 8d14 e8ba
00000100: 8cda 80be 590e 123f 1ad4 1d3d 3a5b 2abd
00000110: 9edd abbe 0cc3 94be a0ef 9cbd feb0 81be
00000120: 9a69 a53b 8053 193f c6df 66bf 496b 6f3e
00000130: fb6b 27bb 3173 523f db1c c9be 601b d53e
00000140: fac6 233f 388b 103d 06c2 8c3e 7e63 4f3f
00000150: 7370 903b e110 423f 6a96 4a3f b39b 9a3e
00000160: 280a 06be 5e8f 423f 8967 983d d651 3abd
00000170: 003c e43b 6278 0abf bb22 05bf 3d5e 96bc
00000180: 2251 58bd 453d d43e 48f7 bebd 699d ad3e
00000190: 8b1d 483f 96ea 763e f410 503f b933 e13c
000001a0: d9b9 63be db63 303f 9a95 c43e 809e 66bd
000001b0: 5073 91bd 0a89 2dbd f614 11bf b8e6 0e3f
000001c0: 6b20 dc3d d5c6 ec3c f67c 623f f910 74bd
000001d0: 404d d9b8 e398 56bd c4d8 b73e bf58 8bbc
000001e0: 2a4e 61be 6566 e8bd ab95 a9bd add6 0bbb
000001f0: d7c4 aa3e dce3 8abc 0ad7 e1be 5066 443c
-0.06697096 -0.013810609 -0.015826128 0.2989492 -0.3857296 0.13195777 0.6482556 -0.4816432
-0.33421263 0.0056661135 0.04433444 0.5184162 0.51233023 0.3372257 -0.012853922 0.1395132
0.30052784 -0.009946393 -0.059987612 0.17657223 0.07585855 -9.262453e-05 -0.4408272 -0.13782358
-0.4741891 -0.022379432 -0.009109028 -0.014366161 -0.013374441 -0.09003724 -0.003702661 0.06612444
-0.007334995 -0.16458438 0.9901944 -0.3671063 -0.016358243 0.88271934 -0.8587858 0.14200658
0.292915 0.42895746 -0.028079566 0.014759495 0.015448908 -0.007823022 -0.03519396 -0.789237
-0.4999574 -0.65555054 0.48455206 -0.27629858 0.27661067 -0.05564856 0.09444261 0.8392798
0.45402738 0.3253471 -0.020463118 0.14424051 -0.13776116 0.9068226 0.04852416 -0.001770632
-0.25166738 0.5705314 0.038532354 -0.041590907 -0.33567518 -0.2905506 -0.07662892 -0.25330347
0.005047989 0.59893036 -0.901852 0.2338077 -0.002554654 0.8220702 -0.39279827 0.41622448
0.6397549 0.03528902 0.27491778 0.8101119 0.0044079362 0.75807005 0.79135764 0.30196914
-0.13089812 0.7600001 0.07441623 -0.0454882 0.0069651604 -0.5408994 -0.5200612 -0.018355483
-0.05281175 0.41452995 -0.09324509 0.33909157 0.7817008 0.24112925 0.8127587 0.027490484
-0.22238864 0.6890237 0.38395387 -0.0563035 -0.07102072 -0.04236702 -0.5667261 0.558208
0.10748371 0.028903404 0.88471925 -0.0595865 -0.00010361755 -0.052391898 0.35907567 -0.01701009
-0.22002473 -0.11347655 -0.082805 -0.0021337674 0.33353302 -0.016954355 -0.44109374 0.011987284

conv2.att_dst f4 [1, 1, 128]
00000000: 6695 1bbf ef91 16bf 54fc 1dbf 3f1e dfbe
00000010: 87f6 3d3f fadf 42bd 1230 39bf 3656 09be
00000020: 42cf 7f3e cb74 febe d974 1ebd eba6 773e
00000030: b576 d5be 1cc4 56bd 4ffc d9be 3143 aabe
00000040: 405d a9be edf3 f2bd 77f3 64bf 4366 31bf
00000050: 1bbd c63d ee06 55bf 63bc 93be 352d 64bf
00000060: d4ab 643e 0eb9 c4be 56e4 ed3d 7c6f 8abe
00000070: b3c7 e0be 46b4 adbe 4d80 bbbe e24e ca3c
00000080: e23e 0cbe 1011 833e 6afc 4bbf 96bc 623d
00000090: ae65 aebe e466 55bf 2d3f f3bd 07e8 e2bd
000000a0: ed72 c1be f4b2 0ebf 3a99 60bf 5271 b43d
000000b0: d972 80be c56e 2dbf ff3b 3dbf 6029 0a3f
000000c0: ebb0 513e 8103 7b3e 1e75 f5be 9da6 e13d
000000d0: 6d61 dfbe 4d94 02bf 5802 abbe a2ce c7be
000000e0: d735 11bf 370f e4be d84f 05bf 8ba9 e53d
000000f0: 3e6b 86bd 59cd eebe 1d11 86be 300b 49bf
00000100: 07b5 f4bd 3911 b6be 8a86 f7be 97d2 0a3d
00000110: 140c 9b3e ebd9 cdbd 6f54 a13d 2dc9 85be
00000120: 1118 cebe 2236 00bf 66eb 323e 04e8 91be
00000130: d55d 10bf 93cb 0dbf d8ce eebe db86 d5be
00000140: 06ad fcbe 9724 49bf ee46 19bf e2df bcbe
00000150: 8fe0 e5be 4fca 4bbf 0911 46bf b648 c3be
00000160: fcf2 01bf 1dd8 cfbe d4d0 dabe 934a bbbe
00000170: 821c 75bc 4850 96bd e723 cbbe 278e 0ebf
00000180: 68b9 af3e fc25 b8bd fd18 94be 4907 f4be
00000190: 0532 16bf 8881 26be 07a5 40bf db56 2bbf
000001a0: 9cae be3e c8fe 49bf c9bf 003d 0106 7fbf
000001b0: f252 2e3f 84ae e8bd c24e 27bf 3dc7 f3be
000001c0: 0d01 0cbf 82a2 20bf 0d24 ebbe b2f6 adbe
000001d0: 47ac 3abe 63cd 483f 95f5 c8be 2c90 c9be
000001e0: e99b 28bf e338 a83d 3a1a 37bf 7e79 3bbc
000001f0: e529 72be 22ac b63e f171 5abf f8f0 08bf
-0.6077484 -0.58816427 -0.6171315 -0.43577763 0.74204296 -0.047576882 -0.72338974 -0.13411793
0.24981406 -0.4969848 -0.038685653 0.24184768 -0.4169213 -0.05243312 -0.4257531 -0.33254388
-0.33078957 -0.118629314 -0.89434 -0.69296664 0.09704038 -0.832137 -0.28854665 -0.8913148
0.22331172 -0.38422436 0.11615817 -0.2703818 -0.43902358 -0.339266 -0.36621323 0.024695817
-0.13695863 0.25598955 -0.7968203 0.05535563 -0.3406195 -0.83360124 -0.11877284 -0.11079412
-0.37782994 -0.5574181 -0.87733805 0.08810677 -0.25087622 -0.67747146 -0.7391967 0.53969383
0.20477645 0.24513055 -0.47940916 0.11018107 -0.43629017 -0.5100754 -0.33400226 -0.39024836
-0.5672278 -0.44542858 -0.52074957 0.112139784 -0.065634236 -0.46641043 -0.2618493 -0.78532696
-0.11948591 -0.35560015 -0.48344833 0.03389224 0.30282652 -0.1005133 0.078774326 -0.26130047
-0.40252736 -0.500826 0.1747261 -0.28497326 -0.56393176 -0.55388755 -0.46642184 -0.4170445
-0.49350756 -0.78571457 -0.59873855 -0.3688956 -0.44897887 -0.79605573 -0.77369744 -0.38141412
-0.5076139 -0.4059457 -0.42737448 -0.36580333 -0.01496041 -0.07339531 -0.3967583 -0.5568566
0.3432114 -0.0899162 -0.28925315 -0.47661808 -0.58670074 -0.1626035 -0.7525181 -0.66929406
0.3724259 -0.7890439 0.0314329 -0.99618536 0.68095315 -0.11361411 -0.6535455 -0.47612944
-0.54689103 -0.6274797 -0.45925942 -0.33977276 -0.18229781 0.78438395 -0.39249864 -0.39367807
-0.658629 0.08213975 -0.71524394 -0.01144254 -0.23648794 0.35678202 -0.8533011 -0.5349269

conv2.bias f4 [128]
00000000: 6d69 883c a123 8cbd bf24 20bd 56a3 42be
00000010: 924a d03d 3e98 c5bb d695 05be b88e 74be
00000020: 7e8b 41be 761c 70be 3869 1ebe 73c5 ad3d
00000030: 3480 51be f427 113c dd47 6cbe 0515 3dbe
00000040: 22a5 f3bc b96c 37be 200e 4e3c 526e 21be
00000050: 050e adbd 56a3 13be 1fe4 833c 30dc 013b
00000060: 3856 bdbd 7568 aebe 2d8d 2abe 90d8 42be
00000070: f530 36be 82ee 5abe 0c58 06be 2c01 85bd
00000080: ee1a 3abe f231 99bc cb1c dd3d 3db9 c13b
00000090: 1a72 223e b201 0a3e b054 71be 21c1 163e
000000a0: 417b 55bd 6842 be3c f03c 4abe cecc a6bd
000000b0: 14f1 113c 623f 54be 4254 a4be 60d9 133d
000000c0: 240b 313d e9ce 38be f593 45bd a114 0a3d
000000d0: 5347 5cbd de8d 34bd 3b7d 40bd bfe0 47be
000000e0: 1743 98bc 2ec6 9abd 1296 2fbe f695 97bd
000000f0: de95 1b3e 2c36 ca3d a44b b1be 8765 f0bd
00000100: f79b 45be d75d 54be 9c3e e1bd 08ac 4cbe
00000110: 385c 2bbe a6e0 46bd 5060 953d c46f 49be
00000120: 7006 ecbd 81b6 e83d 9a0f b0be 27e5 d0bd
00000130: 6377 30be ff63 a33d fe72 e5bd 7c54 96bd
00000140: bcda 083c e546 fbbd e76a 2fbd 3c31 d6b9
00000150: ea9a 28be 652a 8bbc da76 11be a5ab 92bd
00000160: a79a 63be f27c ebba 3b7a 31bd 2ccf a5be
00000170: bdac 53bd b764 dabd 5868 81be 737b 98be
00000180: 0de0 27bd 087e de3d 0b24 f9bd f148 87bd
00000190: 156c 9bbd 53b8 573e 3543 95bd b847 0fbe
000001a0: 969b c13d 7516 79bd 0563 3a3e 96f1 13be
000001b0: 5fd1 2d3e 4ca2 c53d 3dec 5ebe 43d2 aebd
000001c0: 070b b4bc 4f0e 36be e6f1 ad3d fdac bbbe
000001d0: 6d54 ecbd 65b6 0e3e 53c2 e33d 9659 25be
000001e0: 7773 6dbc 6667 53be 3c12 69be 295e 50be
000001f0: 017a 853d afa0 efbd 0367 6bbe 1b71 49be
0.016651833 -0.06842733 -0.039097544 -0.1900762 0.10170473 -0.0060301116 -0.13045439 -0.23882568
-0.18900868 -0.23448357 -0.15469825 0.08484926 -0.20459062 0.008859623 -0.23074289 -0.1846505
-0.029741827 -0.17912568 0.01257661 -0.1576474 -0.0844994 -0.14417776 0.016099988 0.001981508
-0.092449605 -0.3406407 -0.16655417 -0.19027925 -0.17792113 -0.21380046 -0.13119525 -0.06494364
-0.18174335 -0.018700574 0.107965074 0.0059119747 0.15863839 0.13477209 -0.23567462 0.1472211
-0.052119497 0.023225024 -0.19749808 -0.08144532 0.008907575 -0.20727304 -0.32095534 0.036095977
0.043223515 -0.1804768 -0.048236806 0.03371108 -0.053778958 -0.044080608 -0.04699443 -0.19519328
-0.018586678 -0.07557331 -0.17147091 -0.0740165 0.15193889 0.09873614 -0.34628022 -0.11738115
-0.19297777 -0.20738922 -0.1099827 -0.199875 -0.16734397 -0.048554085 0.07293761 -0.19671541
-0.11524665 0.11362935 -0.34386903 -0.10199957 -0.17233042 0.07978057 -0.11203574 -0.07340333
0.008352932 -0.122693814 -0.04282656 -0.00040853943 -0.16465345 -0.016987989 -0.14205495 -0.07161645
-0.22226964 -0.0017966314 -0.04332946 -0.32384622 -0.051678408 -0.10663741 -0.2527492 -0.29781684
-0.040985156 0.10863882 -0.12165078 -0.06605709 -0.075889744 0.21066408 -0.07288209 -0.13992202
0.09453504 -0.060812432 0.18201835 -0.14447626 0.169744 0.09650096 -0.21769805 -0.08536198
-0.021977914 -0.17778896 0.08493404 -0.36655417 -0.115395404 0.13936765 0.11121049 -0.16147456
-0.014492861 -0.20644912 -0.22760862 -0.20348419 0.06517411 -0.1170057 -0.22988515 -0.19672053

conv2.lin_src.weight f4 [128, 256]
00000000: 0070 9abd 0020 04be d7dc 2d3d aeb2 9bbd
00000010: ffee ce3d 7360 3a3d 5851 51be 0375 61be
00000020: cab4 a43d 7b15 2fbe f69f 723e cf5f 403c
00000030: 114a 1f3e 6efa 7f3e ca01 853d b635 53be
00000040: 6991 403e 692b 39be 4ade d53d 2c5c 613d
00000050: 0902 50bf 35bb 803d ed6e 663e 9a94 72bd
00000060: a02b 3dbd 6027 263e 2da3 58bb dd7d da3e
00000070: f19c 683c e867 59bd e6b4 d2bd 9b2a b8bd
00000080: ccd7 173d 5114 a0bd e54b e93c 9c1d 023e
00000090: 58e1 f1bc e730 503e 6f9a acbb 87f9 1dbf
000000a0: 6b9f 65bd 81dd d5bd ad88 ce3c ba1c b8bd
000000b0: 2654 bb3d d22b 5ebd c189 f9bd 28c6 b73d
000000c0: a79e 3d3c 5ffe ff3d 8b93 813d d9f1 073d
000000d0: 3812 a33c 6714 56bf da44 efbd 7d5d 5f3d
000000e0: 13db dabb e0f8 edbe b417 123d 642b 62be
000000f0: 180c 4fbe ffcf 95be 729a 2d3e 0cfb 0dbe
00000100: 4389 e83d e6d9 06be ac7d d03d e46d 68bd
00000110: bf65 fa3d 54b8 143d 5095 533d 96f9 41be
00000120: 6028 0fbe eca2 8ebd 8390 a3bd 8334 8c3d
00000130: c12a b53d 4438 00bf 1eb4 65be ca00 6c3d
00000140: 428a 633d 5986 233d 6aa1 2f3d c8b2 d1bc
00000150: 924e bc3d 6f3b 883e bfc4 1ebe 790e 8fbd
00000160: a352 a3bd 2796 9f3b a558 b73c 41e0 8ebe
00000170: dde5 bebd 3238 9dbc c2e6 2ebe 9e10 99bd
00000180: 56e2 b2bd 8bb9 a83c e2e2 0d3d b3e9 ae3d
00000190: f0e6 afbc a16e 573e 1092 3abd e507 183e
000001a0: c8da b53d 00d6 c5bd d6b2 6d3d a8f9 d5be
000001b0: 8e63 88bd 20c8 47bd 23a4 d5bd 4dc1 a4bd
000001c0: 47ea a93d 5340 efbb 4115 febc c83d 2cbd
000001d0: 721a 813d 42e5 d43d 2692 cdbc 6f98 6fbe
000001e0: d12c 52bc 62ee f83d f286 c63d a7fd 91bd
000001f0: 97cb d9bc 5926 133d d197 3b3e 2dd8 a93d
00000200: a543 bf3d ffc2 883c 87f5 cd3d b24e 9dbe
00000210: 1a24 603c 4b4f c73c 784a 13bd ffe2 403b
00000220: 3f13 3abd 6165 2abe 07c9 793d a7d0 ddbd
00000230: 6bb6 cb3d 51e9 c9bd 17eb e5bc a7d6 aebd
00000240: 4ac7 e3bd 25fc 47bd 28f3 dd3c 730e 613e
00000250: 34ff d03d 4485 863e 2cb0 bcbe e780 60bd
00000260: 0b7a afbd 972f adbc dd2c 11bc 058c 8fbd
00000270: d641 e53d 78c6 e73e e3d7 a93e a897 3ebe
00000280: 6256 ee3d 105f 36bd 307a 01be ce15 31be
00000290: 2f27 2bbe 7f39 a8bd 4763 dfbd 0857 cabd
000002a0: 682e 373d 8a5e a7bd f8d8 7cbe b390 afbe
000002b0: 89dd 7cbd 5ce6 643d 0b44 9ebd 67ce 06bc
000002c0: 31fc 323c cbe9 0a3e a746 0bbf 631b 68bd
000002d0: b8fd 413d 2bfd 9abd b92d b9bd 50f6 73bc
000002e0: 6306 b4bd 0e88 ac3c 8cc5 e1be cc07 da3d
000002f0: c840 e2bd 94bd 6a3d 71d8 c6bc 5837 013e
00000300: 0db0 cbbd b4d0 7c3e 16e2 c73d 214d e33c
00000310: 814a 90be 319d ce3d f28d c43b d8a4 f4bc
00000320: 2e34 a13e e9c3 54bd fb14 673c 470d 55bd
00000330: 0a29 ffba 7541 583d 15cb 873d 3e5d 63be
00000340: f718 44bd 15b2 6bbd 28ca 083f b3cc c2bc
00000350: b67b 8e3c 415b ea3c d5e4 633d 61ab a3be
00000360: 7a39 9bbd 9d39 33bd 6009 c1bd 3d7a 3ebd
00000370: e12b 203e a417 b73d 869e a6bd 1a6b 3e3e
00000380: 73e4 34be 3fdb c7ba 3a3c 9d3d 00d2 013e
00000390: df99 973e 06a0 1bba 1dc0 3dbb e628 253e
000003a0: 88da 99bd 38d6 cc3c 6e45 e5bc 8f3e 93be
000003b0: e8aa 1f3d 2750 3e3b 769e babc a520 dabd
000003c0: 28d3 e13d b9c4 263c 27e3 d13d 4c4c bbbc
000003d0: c6a9 a63e 8c69 2cbb 4912 73be 76ed e23d
000003e0: 19ee 97bd 450c 05be c0b7 113e 0ab1 89be
000003f0: 7c14 343d a76a dd3d 8f61 5dbe 6db0 66be
-0.075408936 -0.12902832 0.042446937 -0.0760244 0.10104179 0.045502137 -0.20441186 -0.22017293
0.08042295 -0.17098038 0.23693833 0.011741593 0.15555598 0.24997875 0.06494482 -0.20625958
0.1880547 -0.18082966 0.10442789 0.055019543 -0.81253105 0.06285707 0.22503252 -0.05922375
-0.046184182 0.16225958 -0.0033056245 0.4267415 0.014197574 -0.05307761 -0.1028841 -0.08992501
0.037071034 -0.07816375 0.028478572 0.12706608 -0.029526398 0.20331155 -0.0052674334 -0.61708874
-0.056060236 -0.10442639 0.025211656 -0.08989854 0.091469094 -0.05424101 -0.121844776 0.08973342
0.01157347 0.12499689 0.0632697 0.03318963 0.019906148 -0.8362488 -0.11683054 0.054532517
-0.0066789477 -0.4647894 0.035667136 -0.22086865 -0.20219457 -0.2926025 0.16953447 -0.13865298
0.113543056 -0.13169059 0.1018022 -0.056745425 0.12226438 0.0363086 0.051656067 -0.18942866
-0.13980246 -0.06964669 -0.07986548 0.06845953 0.08846045 -0.50085855 -0.2243199 0.05761794
0.055551775 0.039923046 0.042878546 -0.025597945 0.091946736 0.26607844 -0.1550474 -0.06985182
-0.07974746 0.0048701945 0.022381136 -0.27905467 -0.09321187 -0.019191835 -0.17080215 -0.074738726
-0.087345764 0.020596286 0.0346402 0.08540668 -0.021472424 0.21038295 -0.045549452 0.14846762
0.0887962 -0.09659958 0.05803188 -0.41792035 -0.066596135 -0.04877484 -0.10431697 -0.08044682
0.08296638 -0.007301369 -0.031015994 -0.042051107 0.06303872 0.1039529 -0.025094103 -0.23397993
-0.012828068 0.12154843 0.096937075 -0.071284585 -0.026586337 0.035925243 0.18319632 0.082931854
0.09339074 0.016694544 0.10056596 -0.30724102 0.013680482 0.024329802 -0.03595969 0.0029432175
-0.04542851 -0.16640235 0.06098273 -0.10830813 0.09946903 -0.09858955 -0.028066201 -0.085370354
-0.11121996 -0.04882445 0.027093485 0.21978168 0.10204926 0.2627355 -0.36853158 -0.05481043
-0.085682 -0.021140857 -0.008860794 -0.070091285 0.11194198 0.45268607 0.3317252 -0.1861254
0.1163757 -0.044524252 -0.12644267 -0.17293474 -0.16714166 -0.082140915 -0.109076075 -0.09879881
0.04472199 -0.08172329 -0.24692142 -0.34290084 -0.06173471 0.05588375 -0.07727822 -0.008227921
0.010924385 0.13565747 -0.5440468 -0.056666743 0.047361106 -0.07567819 -0.09041924 -0.014890268
-0.08790281 0.02106097 -0.4409603 0.106460184 -0.11047512 0.057309702 -0.02427313 0.12618768
-0.099456884 0.24688989 0.09759919 0.027746739 -0.28181842 0.10088576 0.0059983665 -0.02986376
0.31485122 -0.051944647 0.014104123 -0.052014615 -0.0019467187 0.0527968 0.06630532 -0.22203538
-0.04787537 -0.05754288 0.53433466 -0.023779249 0.017392974 0.028607966 0.055638153 -0.3196669
-0.07579322 -0.043756116 -0.09425616 -0.046503294 0.15641738 0.08940056 -0.08135705 0.18595544
-0.17665271 -0.0015247836 0.07677503 0.12677765 0.29609582 -0.0005936626 -0.002895362 0.16128883
-0.07512385 0.025004491 -0.027987208 -0.28758666 0.03898135 0.0029039474 -0.022780638 -0.10650758
0.11026603 0.010178738 0.10248404 -0.02286353 0.32551402 -0.0026308028 -0.23737444 0.11080448
-0.074184604 -0.12992962 0.14230251 -0.26892883 0.043964848 0.10811358 -0.21619247 -0.22528239
