A3/MyTeam/A3/classification/custom.pth (torch, 19043 bytes, 13 tensors)

conv1.nn.0.weight f4 [32, 9]
000000 00 4a 34 bb 5f 04 8f 3e cb ce bc bd 0a 38 a2 be
       -0.0027509928 0.27933022 -0.0921913 -0.3168338
000010 86 12 ea 3d 2b 5f 2a bc fe 10 50 3e 20 70 19 3e
       0.11429314 -0.010398666 0.20318982 0.14984179
000020 16 42 a9 bc 79 7d 99 be 70 a7 7e be ac e5 e5 3e
       -0.020661395 -0.2997854 -0.2486856 0.44901788
000030 0f 49 1c bd b3 00 8d bd 42 38 bc bc 98 d1 aa 3e
       -0.03815561 -0.06884899 -0.022976045 0.33363032
000040 af 59 2d 3e 85 78 4b 3d d6 1d a4 bd c6 b0 80 3e
       0.16928743 0.049675483 -0.08013503 0.25134867
000050 ab ae 89 be 2b e7 bf bd d6 80 02 be b0 46 cf bd
       -0.26891074 -0.09370264 -0.1274446 -0.101209044
000060 fb e5 bd bd f6 be 50 3d 63 2c 09 be 1a 75 c8 bb
       -0.09272381 0.050963365 -0.13395838 -0.006117475
000070 29 d8 46 bd 0c 3a 4a be b0 f3 a0 3e ab b3 e9 be
       -0.04854599 -0.19748706 0.3143592 -0.45644888
000080 e1 d6 04 bf bc 2c 0d 3e 3f a7 1d bf e5 20 03 3e
       -0.5189038 0.13786596 -0.6158332 0.12805517
000090 ca 27 8d be e0 85 1b 3e ae 14 4a 3e 38 e2 8e be
       -0.2756942 0.15187788 0.19734451 -0.27906966
0000a0 f6 64 d9 bd 0b ec 8f 3d 66 4b 1c be 00 04 a4 3b
       -0.1061496 0.070274435 -0.15263137 0.0050053596
0000b0 4c 0f 90 3e ab e6 ab bc 58 d8 00 3e 9e 2c 81 be
       0.2813667 -0.020984014 0.12582529 -0.25229353
0000c0 83 0c 90 be 90 40 4d be 0b f6 03 be 26 54 4a 3e
       -0.28134546 -0.2004416 -0.12886827 0.19758663
0000d0 d6 a0 e9 bd 3b b0 fa 3d b4 62 b5 be 24 8c d4 3e
       -0.1140763 0.122406445 -0.35426867 0.4151317
0000e0 e6 8f 05 be 7d 7f d9 3d 1d 4a 8c 3d 8a ad 8e be
       -0.13043174 0.106200196 0.068500735 -0.27866775
0000f0 d7 a2 94 3e 40 ea 3a be 3d 60 b0 3b d8 3b a1 be
       0.29030487 -0.18253422 0.0053825662 -0.3149097
000100 e7 9b 95 3e 06 9d b9 bd a0 26 31 3d 30 e7 ac 3d
       0.29220507 -0.09063153 0.043249726 0.08442533
000110 88 0c 47 be b2 3c 95 be f6 b4 37 bd ee 50 14 be
       -0.19438374 -0.2914787 -0.044850312 -0.14483997
000120 da 4d 97 be e0 f8 f7 3d 76 b9 98 bd e6 b6 47 be
       -0.29551584 0.12108016 -0.07457249 -0.19503364
000130 1e 0b a0 3e cb 4c 93 be 76 a5 14 be 56 b5 47 3a
       0.31258482 -0.28769526 -0.14516243 0.0007618269
000140 fb b8 97 3d a0 6e 2c be 8b 81 34 be 8b e4 85 be
       0.07408329 -0.16839075 -0.17627542 -0.26150927
000150 c0 31 20 3d f8 5d 9f be ff 9a 9b 3e eb 08 95 bd
       0.039109945 -0.3112638 0.3039169 -0.072770916
000160 da 95 a3 be ab 45 96 bc 8e d0 7c 3d d8 d3 28 3e
       -0.31950265 -0.018343767 0.06172233 0.16487062
000170 cf 52 e8 be 52 2b 1b 3e 1e 45 b1 bb e3 b0 56 be
       -0.45375678 0.15153244 -0.0054098507 -0.20965914
000180 27 ba 12 3e a5 f9 39 bf 61 6f 7d 3e 7f ec eb bc
       0.14328824 -0.7264655 0.24749519 -0.028799294
000190 d7 15 ec bd 84 1c 71 3e 4e d7 8d be 55 9f aa 3d
       -0.11527603 0.23546034 -0.27703327 0.083311714
0001a0 d3 13 a9 3d 73 32 0c 3d 11 1c d2 bd b9 60 84 3e
       0.08255734 0.0342278 -0.102592595 0.25855044
0001b0 09 00 f9 3d 9a 47 15 3f 4c 2e b5 3d ae 2e 21 be
       0.1215821 0.5831238 0.08846721 -0.15740463
0001c0 41 36 ae 3b e0 75 8d 3e 01 a1 46 bd 97 95 86 3d
       0.005316526 0.27628994 -0.04849339 0.06571501
0001d0 04 22 c1 bd 97 b1 8e 3e 34 3d 2a 3f 47 aa c5 be
       -0.09430316 0.27869865 0.6649964 -0.38606474
0001e0 36 9c 05 be 27 42 b1 bf 49 59 f5 3e 1e db 95 3c
       -0.13047871 -1.3848313 0.47919682 0.01829296
0001f0 f8 56 63 bf 7a c5 2e be f8 5f 06 3e a6 e3 1a be
       -0.8880458 -0.17067519 0.13122547 -0.15125903
000200 38 56 29 3e 32 b1 87 be 44 1b 72 be e4 7f b7 bf
       0.16536796 -0.26502377 -0.23643214 -1.4335904
000210 be 5b be 3e aa c8 bb bf cb 6b 9f be 70 3d 0b be
       0.3717937 -1.4670613 -0.31136927 -0.13597655
000220 60 f9 2e be 26 eb b3 bd a6 18 8e 3d 76 f3 0b be
       -0.17087317 -0.087850854 0.06938295 -0.13667092
000230 36 50 79 3e c0 88 44 be 46 06 71 be 5b 1d ce bd
       0.24347004 -0.19192791 -0.2353755 -0.10064193
000240 76 52 11 bd 6a c9 63 be 99 33 08 be 1e 7a 12 be
       -0.03547903 -0.22244802 -0.13300933 -0.14304397
000250 7f 19 26 3d 08 a3 49 3f a8 d1 47 3e 3c 5d 5e be
       0.04055166 0.7876439 0.19513571 -0.21715254
000260 7c 68 80 be e8 9e eb 3d 8e c1 40 bf 7f c7 56 3e
       -0.25079715 0.11504918 -0.7529534 0.20974539
000270 0f 99 fe bd 4a 8b 42 bd 22 ec e8 be 6f 7e 0f 3e
       -0.12431537 -0.047496118 -0.45492655 0.14013074
000280 9b 08 f2 3e 71 6a 2d bd 22 0d 25 bd af 62 f9 bf
       0.4727219 -0.04233784 -0.040295728 -1.9483241
000290 81 e7 62 3d 1b 6e 09 be 44 47 25 be 8e ef 8f bb
       0.05539656 -0.13420908 -0.16140467 -0.004392571
0002a0 2f c6 c5 3e 0d a2 d2 3d 1a a2 2b 3f ab 02 88 ba
       0.38627765 0.10284815 0.6704422 -0.0010376772
0002b0 00 e2 83 bb 02 86 8b be d0 26 af bd e6 94 91 3d
       -0.004024744 -0.27250677 -0.08552325 0.07108478
0002c0 c0 39 0b be f6 0e 47 bd c0 a6 57 be 6b 14 6f 3d
       -0.13596249 -0.048598252 -0.21059704 0.05836908
0002d0 49 56 7f 3e 32 38 91 3e e6 40 7a 3d d6 08 4d be
       0.24935259 0.28363186 0.06109705 -0.20022902
0002e0 40 98 6a bf 30 84 0b 3f fb 97 18 3d 6c 9a 10 3e
       -0.91638565 0.5449858 0.037254315 0.14121407
0002f0 d6 c9 b8 3e 23 21 ed 3d 51 7f 8d 3e 16 ea c8 3e
       0.3609149 0.11578586 0.27636197 0.39241093
000300 98 f3 a9 be 77 31 1c 3f 54 18 14 3e e8 7b c5 be
       -0.3319366 0.6101298 0.14462405 -0.38571095
000310 ba f5 e1 be 66 92 bd 3e 30 42 6b 3e 9d 91 f4 3c
       -0.44132787 0.37025756 0.22974467 0.02985459
000320 01 b3 0b 3c 91 40 54 be c3 84 ab be 8f 5a 01 bf
       0.008526565 -0.20727755 -0.33499727 -0.50528806
000330 bc d0 36 3e 6e e2 a3 bd 5f a9 61 3e 57 7b 64 be
       0.17853063 -0.080021724 0.22037266 -0.22312675
000340 70 bc 3b bf 01 e8 a6 3d ff 79 83 3e ce 4f 28 be
       -0.7333441 0.0814972 0.25679013 -0.16436693
000350 b6 3e dc be 09 4e 42 be 7a 63 28 3f e1 2b 03 3e
       -0.43016595 -0.1897508 0.6577679 0.12809707
000360 03 17 13 3e 42 72 83 3f 97 61 de be 10 86 41 3e
       0.14364247 1.0269244 -0.4343383 0.18898797
000370 73 84 1a 39 ff 5d f1 3c c6 8e fc bd c3 1f 59 bd
       0.00014735926 0.029463766 -0.12331919 -0.053008806
000380 11 85 e4 be 92 a0 be bd 5b b5 30 3e cb d9 51 be
       -0.44632772 -0.0930797 0.17256682 -0.20493238
000390 e2 9a 46 be 9c 14 42 3e 5e a8 77 3e 96 3a 0c 3e
       -0.1939502 0.18953174 0.2418532 0.13694224
0003a0 2c 36 40 3e 4d bc 2b 3e d2 d6 b0 3d 74 f9 95 bd
       0.18770665 0.1677105 0.08634724 -0.0732297
0003b0 69 1d 3e 3e 5d c4 f1 3d d2 37 91 be 4a 74 80 bd
       0.18565907 0.118050314 -0.283629 -0.062721804
0003c0 c1 95 1c bf 20 5f 87 3e 17 e6 77 3e 90 96 d1 3b
       -0.61166006 0.26439762 0.24208866 0.0063961223
0003d0 91 0b a0 3c cc ef 3f 3e 61 05 58 3e 7e 2b 6c be
       0.019536765 0.18743819 0.21095802 -0.23063466
0003e0 e6 3b 8a bf 53 6f d8 be fd 73 c4 3c c1 b1 58 bf
       -1.079953 -0.42272434 0.023981089 -0.8464623
0003f0 27 c7 9f be 47 8a 18 3e c6 29 0d be 5a 27 40 3e
       -0.3120663 0.14896499 -0.13785467 0.18765011

conv1.nn.0.bias f4 [32]
000000 d3 6e 3a 3e 86 7d 81 bb 7b fc c1 bd d3 0f b8 be
       0.18206339 -0.003951731 -0.09471985 -0.35949573
000010 9b 13 21 3e 90 1d e6 bd 56 b9 6b 3e 18 2b 84 be
       0.15730135 -0.11236107 0.23019919 -0.25814128
000020 46 6c 71 3e cb 1c 9f 3d 0b 25 82 3d 0a d9 03 bd
       0.2357646 0.07769164 0.06354722 -0.032189406
000030 3e 24 4e be 32 1a d2 3d ad 89 bc bd 5c 62 a6 be
       -0.20131013 0.102589026 -0.09205947 -0.32496917
000040 8f 62 37 3e 13 0b 18 bf e7 24 4a be 30 1a d8 3d
       0.17908691 -0.593919 -0.1974064 0.1055187
000050 b2 bc 65 be 24 a1 0e 3f 65 a8 67 be 64 b5 01 3f
       -0.22435263 0.5571463 -0.22622831 0.50667405
000060 bb 30 b2 3d 34 55 11 3e 96 c2 81 be a5 8c 82 3e
       0.08700701 0.14192659 -0.2534377 0.25497928
000070 a5 6e aa 3e ba 05 54 3c c3 24 27 3e 5e 5b 2a be
       0.3328754 0.012940818 0.16322617 -0.16636416

conv1.nn.2.weight f4 [32, 32]
000000 1c d6 28 be 78 62 bc 3e b7 c5 20 3e c3 a4 65 be
       -0.16487926 0.36793876 0.15700422 -0.22426133
000010 a4 81 d7 3d d9 18 8d bd 38 0a ad be 2c f2 03 3e
       0.10522774 -0.06889505 -0.3379686 0.1288535
000020 21 29 0a 3d 16 c8 03 3e f9 e2 e2 be 86 a6 68 bd
       0.03373063 0.12869295 -0.4431379 -0.056799434
000030 ee 9a 10 3e 9f e0 0c 3f e6 5c 90 bd d2 d7 53 3d
       0.14121601 0.55030245 -0.07048969 0.051719494
000040 56 9d 78 be c2 e3 06 3e 11 4f a6 3d 44 da b7 3d
       -0.24278769 0.1317282 0.081205495 0.08977178
000050 2b 72 30 bd 9a ff 42 3e 25 7a 18 3e ff 42 e0 bc
       -0.04307763 0.19042817 0.14890344 -0.027375696
000060 b9 be d8 bd a3 a9 ef bd 48 3b 3c 3e 2a e5 de 3d
       -0.105832525 -0.117022775 0.18381989 0.10883553
000070 d0 8b 87 be ea 6d 86 bd 32 f9 5a be 25 48 42 bd
       -0.26473856 -0.06563933 -0.21384123 -0.047432084
000080 7f 3e 51 3d 37 c5 4b be 06 98 e4 3c 8a 09 38 bd
       0.05108499 -0.1989945 0.027904522 -0.044930972
000090 41 65 23 be 54 11 06 3e ce 77 c2 bd fb 49 70 3d
       -0.15956594 0.13092548 -0.09495507 0.058664303
0000a0 88 98 f5 bd b2 5a 96 3d 26 14 3c bd 0b ee f1 3d
       -0.11991984 0.073415175 -0.045917653 0.11812981
0000b0 db 5d 2d 3c 6e c7 9c be 6b 5a 32 be c3 67 cf 3c
       0.010581459 -0.30620903 -0.17417304 0.025318032
0000c0 9a 4e 9f 3d bc b1 30 be b1 37 05 be e8 bb 7e 3d
       0.07778664 -0.172553 -0.13009526 0.06219092
0000d0 78 e9 59 bf 37 ec 91 3c dc d4 fb ba a0 d7 54 3d
       -0.8512187 0.017812831 -0.0019213217 0.05196345
0000e0 0e b0 37 3e 9c 30 c4 3d 2e 76 ac 3e 6c f0 86 3e
       0.17938253 0.09579584 0.33683914 0.26355302
0000f0 78 d1 2a be 62 c5 ff bd 29 8d a6 be 15 6b f3 3d
       -0.16681468 -0.1248882 -0.32529572 0.11885659
000100 5f dd fc bc 85 a6 a2 be a2 07 ea bd a6 f5 1d 3e
       -0.030867277 -0.3176767 -0.11427237 0.15425739
000110 a6 fc ac 3d c1 d7 8b bd f4 c8 08 be 96 3b 2d be
       0.08446626 -0.06828261 -0.13357908 -0.16917261
000120 57 65 12 3e 3f 17 12 3e a4 f0 58 3d 8d 8f be bd
       0.1429647 0.1426668 0.052963868 -0.09304724
000130 16 54 a6 3d a7 b1 8a 3e 8d 22 5d 3e 64 dc 0d be
       0.08121507 0.27088663 0.21595211 -0.13853604
000140 16 f5 39 3e 4b fc 2f 3e 67 22 ed 3e 56 f8 9e bc
       0.18159899 0.17186086 0.4631531 -0.019405525
000150 b9 b2 58 be e7 0a 08 bf 34 02 43 bd 7b 29 12 be
       -0.21161927 -0.53141636 -0.047609523 -0.14273636
000160 21 07 30 3e 70 a2 c9 bd 75 2a 06 be af 94 74 3e
       0.1719022 -0.098454356 -0.13102134 0.23884843
000170 a5 2b f3 bd ed 8d 7f 3d e7 b6 3e 3d b4 af 14 3c
       -0.11873559 0.06239121 0.046561148 0.009075094
000180 85 e0 14 be 83 43 7c 3e 10 fa a8 3d 2d f8 66 3d
       -0.14538772 0.24635129 0.08250821 0.056389023
000190 d8 6a 73 bd df bf 52 bd 62 1c 9f 3e 8b 04 01 be
       -0.059428066 -0.051452514 0.31076342 -0.1259939
0001a0 19 b7 93 3d bd 1e f8 bd 63 8e b3 3c d4 e7 9e 3d
       0.072126575 -0.12115238 0.021918481 0.077590615
0001b0 e6 9e 28 be 42 26 1f bf 7f 52 40 be e3 ff 02 bd
       -0.16466865 -0.6216775 -0.1878147 -0.031982314
0001c0 ef e0 46 3e f0 62 7d be 7a 45 08 3d 83 c9 96 3d
       0.19421743 -0.24744773 0.033269383 0.07362654
0001d0 47 34 1a be ed b6 76 be 8c 96 12 be b2 14 ec bc
       -0.15059005 -0.24093218 -0.14315242 -0.028818462
0001e0 9f 91 f0 bd 4f aa 6c 3d ad 11 8a be 85 ed 3b 3c
       -0.11746525 0.057779606 -0.2696661 0.011470203
0001f0 d8 a2 a8 3d 53 2c 99 3d 79 d2 a6 3d ce 09 0d be
       0.08234185 0.07479157 0.08145613 -0.13773271
000200 82 a5 0a 3e 9d 8b ea bd bf a1 16 be b5 26 9a 3d
       0.13539699 -0.1145241 -0.14710139 0.07526914
000210 cc b9 88 3d 66 0d bc 3d 2b 3b 14 be 6d a2 15 3e
       0.06676063 0.09182243 -0.14475696 0.14612742
000220 e7 9d 14 3d f2 94 89 3c 9a a4 a5 3d 78 32 14 be
       0.0362834 0.016794655 0.08088036 -0.14472377
000230 a1 8a 96 be 05 82 ab 3e b5 81 ed bd 9c 49 0a 3e
       -0.2940264 0.33497635 -0.11597005 0.13504642
000240 c7 77 e5 3d 6e 60 3d 3e f7 74 35 3e a6 1c ce 3d
       0.11204486 0.18493816 0.177204 0.10064058
000250 bb 29 8a be 3d 25 ce be 2a 7c 62 be 87 4e 97 3e
       -0.26984963 -0.40262786 -0.22117677 0.295521
000260 a0 08 75 be 22 af a8 bc 4a 9f 11 3e 21 30 36 be
       -0.23929071 -0.020591322 0.1422092 -0.17791797
000270 73 85 18 be b4 38 96 3d a9 10 8e 3e 74 0c cf bd
       -0.14894657 0.07335034 0.27747086 -0.10109797
000280 b2 8f 94 bd 5f 1e a6 3e c5 e6 c4 bd 13 de 73 3e
       -0.0725397 0.32445046 -0.09614328 0.23815183
000290 7f 28 c3 3c 8f 23 41 3c 88 80 c9 be a7 63 22 3e
       0.023823021 0.011788263 -0.39355874 0.15858327
0002a0 43 37 f9 3d ec 8c 33 3e 31 88 ba 3e 03 2d 1a 3e
       0.121687435 0.17534226 0.3643203 0.15056233
0002b0 da 47 33 bd ca 03 70 bf 8c 87 84 be db e9 e3 3c
       -0.043769695 -0.9375578 -0.25884664 0.027821472
0002c0 8c 83 12 be 30 ed 5f be 18 0d 0e bf ea ec f6 bd
       -0.14307994 -0.21867824 -0.5548873 -0.120569065
0002d0 ac c3 16 bf 68 27 83 bf b1 15 78 be 91 89 66 3e
       -0.5889232 -1.0246401 -0.24227025 0.22513415
0002e0 cc d6 af 3e 8d 3d 15 3e 1e 74 1c be 86 bb 1d 3e
       0.34343565 0.14574261 -0.1527867 0.15403566
0002f0 87 b0 be be 7d c2 2e 3e 56 38 ae 3c ae 2a 9d be
       -0.37244055 0.17066379 0.021267097 -0.30696625
000300 1a 84 62 3d ca 3c 22 be 29 d3 0d 3e b2 18 47 be
       0.055301763 -0.15843502 0.13850082 -0.19443014
000310 ce 9d 1e bd 27 88 cc bc f4 bf 85 3d 9e 52 26 be
       -0.038724713 -0.024967266 0.06530753 -0.16242453
000320 a2 ab 19 3e d0 03 0e 3e 85 13 25 3d 2d 79 ad 3d
       0.15006879 0.13868642 0.04030182 0.08470378
000330 1d 6b 85 be 8a af 1e be ec 65 a0 bd b6 f6 46 3d
       -0.26058283 -0.1549665 -0.0783194 0.048575126
000340 23 91 4e be 97 15 b1 bd a1 1f aa bc 40 b0 20 be
       -0.20172553 -0.08646696 -0.020767035 -0.15692234
000350 b3 6e b4 bd f3 24 9f 3d 8d 7a 74 bd 4b 88 f7 bd
       -0.08810177 0.077707194 -0.059687186 -0.12086543
000360 6e 7a 20 bd d9 ba 33 3d 0b b2 f9 bd e5 50 7a be
       -0.039179258 0.043879364 -0.12192162 -0.24444921
000370 d4 ca d5 bc a5 2f 0a 3d 49 a1 28 bc bc 83 1b be
       -0.026097693 0.033736844 -0.01029236 -0.15186971
000380 12 ca 1b 3e cf 95 20 bf 3a 60 f7 bd 26 d2 a5 bd
       0.15213802 -0.6272859 -0.12078901 -0.08096723
000390 20 ef 18 be 74 5e 26 3c f1 10 85 3d 86 5d 08 3e
       -0.14934969 0.010154355 0.06497372 0.13316926
0003a0 39 3e 1a 3e f8 a0 29 3e 8e 6d 0d bc ab aa 81 3d
       0.15062799 0.16565311 -0.008632077 0.063313805
0003b0 d4 33 1b 3e f2 f0 e0 be 15 05 be bd 25 ca fc bd
       0.1515649 -0.43933827 -0.09278313 -0.123432435
0003c0 75 0a b5 3e 70 3a 27 3e 60 27 ae be 36 3c 14 bd
       0.3535954 0.16330886 -0.34014416 -0.036190234
0003d0 f7 27 3e 3e c6 60 40 be f3 6e 20 3e e3 0f d5 bc
       0.18569933 -0.18786916 0.15667324 -0.026008552
0003e0 7e 60 9a 3e a2 ab 19 bc bf 68 72 3e a9 43 f5 3d
       0.30151743 -0.009379299 0.2367277 0.11975796
0003f0 98 6c b6 3e e1 51 bc 3d 09 a2 49 3e 8c cd 14 3e
       0.35629725 0.09195305 0.19690718 0.14531535

conv1.nn.2.bias f4 [32]
000000 d2 51 c3 3d ac fd ba 3e 72 9e 31 3d f3 ae 23 bd
       0.0953709 0.3652166 0.043363996 -0.039961766
000010 23 81 54 3e b5 8c 89 bd 13 86 02 be 6f 8e 66 3e
       0.20752387 -0.06716291 -0.12746458 0.22515272
000020 4b fa d9 3e 57 33 17 bd 78 95 e4 3e 4a 2f 69 be
       0.4257377 -0.036914196 0.44645286 -0.22771946
000030 67 8a 8a be fa 8f 6c be 94 36 0b be e1 f6 93 bc
       -0.27058718 -0.23101798 -0.13595039 -0.018062057
000040 45 08 94 be ad ba 8d 3e da f8 d4 bd b1 90 0d be
       -0.2891256 0.27681485 -0.10399027 -0.13824727
000050 2e a6 d5 bd c8 bc 56 bc 7b c4 ab bd 0c 95 f4 bc
       -0.10432087 -0.013106532 -0.08387085 -0.029856227
000060 c6 4d de 3d a1 fa 0d 3e 75 44 72 bd 62 3b e2 3d
       0.10854678 0.13865139 -0.059147317 0.110464826
000070 ed 74 85 bd 80 71 9d 3d 82 b8 8d 3e 53 63 86 be
       -0.065164424 0.07687664 0.2767983 -0.26247653

conv1.lin.weight f4 [9, 3]
000000 04 e1 36 bf 02 b5 8d 3d 0f b6 8f be 4b 03 64 be
       -0.71437097 0.0691929 -0.28068587 -0.22266881
000010 de f5 f8 be 96 4a 95 3d 25 17 01 bf 16 93 2c 3e
       -0.48625082 0.07289617 -0.5042594 0.16852984
000020 2b 92 56 3e fc 5a ad 3d 87 72 49 3f 63 e1 92 be
       0.20954196 0.084646195 0.7869038 -0.2868758
000030 64 e4 ad bf 28 8d 24 be fb 21 39 bf ae 14 3a bc
       -1.3585324 -0.16069472 -0.72317475 -0.0113574695
000040 4b ab c4 be 33 48 70 3f 74 ca 0f 3f 79 4f 0d bf
       -0.38411936 0.9386017 0.56168294 -0.5519939
000050 58 39 26 3d 30 1f f7 3e 16 0a 8d bd 05 18 1c 3e
       0.04058203 0.48265982 -0.06886689 0.15243538
000060 73 92 9b bc f8 8d 06 3e 7e c2 c1 be
       -0.01899073 0.13140094 -0.37843698

conv1.lin.bias f4 [9]
000000 28 4e 40 bf e8 8d 58 bc bc 38 38 bf a8 48 20 bf
       -0.75119257 -0.013217427 -0.7196157 -0.62610865
000010 85 3e d3 3d 3d 16 15 bb d8 81 c8 3e 0b 26 ae ba
       0.10314659 -0.002274885 0.39161563 -0.0013286484
000020 7d 97 75 bc
       -0.014989731

conv2.nn.0.weight f4 [32, 32]
000000 3a bc ad 3c e8 00 15 bf 48 c0 b7 3e 23 c0 72 bd
       0.021207917 -0.5820451 0.35888886 -0.059265267
000010 01 92 59 3c 23 e7 45 bd cb a4 01 be 4c 4b 9b 3d
       0.013279439 -0.048316132 -0.1266052 0.07582721
000020 9c 69 af be 5b d6 8c be 97 a0 06 3e e8 38 b6 3e
       -0.3426026 -0.2750729 0.13147198 0.3559029
000030 6f cf 8a bf e4 3d b1 be fb 3e 98 3e 32 99 95 3e
       -1.0844554 -0.3461753 0.2973555 0.2921844
000040 51 56 aa bd 4e c8 0a be 99 e0 af bd 28 c5 23 bc
       -0.08317245 -0.13552973 -0.085877605 -0.009995736
000050 bb 83 81 3e bd fb 3f 3e 3a de 1a 3e 94 1b 0e 3e
       0.25295815 0.18748374 0.15123835 0.13877708
000060 6c 77 ae be 0c 59 e5 be 40 60 14 3e 47 94 14 bf
       -0.34075487 -0.447945 0.14489841 -0.58038753
000070 01 2a ef bd 2f f9 9e be 25 5e 35 3e bb 21 7b bd
       -0.116779335 -0.31049487 0.17711695 -0.061311465
000080 83 40 dd 3d 0b e3 58 3e 5a 66 8e bd 9d 23 a7 bd
       0.1080332 0.2118036 -0.06953116 -0.081610896
000090 ed 33 69 be 52 56 9f be ed 10 f4 3d d2 d2 f3 3d
       -0.22773714 -0.31120545 0.11917291 0.11905445
0000a0 fb c6 ab 3e 75 4e 03 bc af 76 c2 3b 7b 54 cd 3c
       0.33550248 -0.008014311 0.0059345583 0.025064697
0000b0 05 f3 27 bf 42 22 de bd 93 b9 0a be 62 6a e7 be
       -0.65605193 -0.10846378 -0.13547353 -0.4519835
0000c0 2e 26 d1 bd 09 3a 93 bd ed ab 19 3e 60 40 de 3d
       -0.1021236 -0.07188804 0.1500699 0.10852122
0000d0 9d a9 ed bc 67 89 9c 3d f0 f8 9c bd 5b e2 d3 be
       -0.029011542 0.07643395 -0.076646686 -0.41383633
0000e0 88 e5 88 bc a0 db 7e be 47 77 91 be 50 02 49 3e
       -0.016711012 -0.24888468 -0.28411314 0.19629788
0000f0 41 4d a8 bd 5d a7 37 be cd e0 c7 3d 69 ab 58 3c
       -0.0821786 -0.17934938 0.09759674 0.013224461
000100 9f cb f5 be 6e 9c 10 3e bb 74 1c 3d ce d4 58 be
       -0.48006913 0.14122173 0.03819726 -0.21174929
000110 6b f3 18 3e 1f 04 05 3f 06 5f 7b bf f4 c2 00 be
       0.14936607 0.51959413 -0.9819187 -0.12574369
000120 51 14 94 3e 3d c5 67 be 83 2d 21 3e a6 9e db 3d
       0.2892175 -0.22633834 0.15740018 0.10723619
000130 9a d3 d3 bd c9 09 a2 bd 94 17 24 be 12 e2 0e 3e
       -0.10343094 -0.079120226 -0.1602462 0.13953426
000140 6a 56 59 be ad 7c 54 bb d1 41 a3 bd c2 1d 86 be
       -0.2122437 -0.0032422945 -0.07971538 -0.26194578
000150 ab ea 6a be 9c 3a c8 be 2e 7f 9f be f7 cf 3f 3e
       -0.22941081 -0.39107215 -0.31151718 0.18731676
000160 f5 b4 20 be e1 96 70 be 2b 24 01 bf 45 9b 83 3e
       -0.1569403 -0.23495056 -0.5044581 0.257044
000170 51 3c b0 be 42 6c 6f bd 5c de 68 bf 3c 28 9c bd
       -0.34421018 -0.058452852 -0.90964293 -0.076248616
000180 ff ac 13 be f1 60 5f 3d 54 c6 a7 bd 47 2d 64 bd
       -0.14421462 0.05453581 -0.08192125 -0.055707242
000190 86 08 6c be a7 47 f7 3d ea 24 1e 3e 36 92 ff bd
       -0.23050126 0.120742135 0.15443769 -0.124790594
0001a0 a6 5e e0 bd ef ff 7f bd 23 c0 85 39 95 16 1b be
       -0.10955553 -0.062499937 0.0002551089 -0.15145333
0001b0 f9 77 28 be 44 6e 87 3d d4 46 27 be b0 3e b7 bd
       -0.16452016 0.066128284 -0.16335613 -0.089475036
0001c0 2c c7 17 bd 4c 2f 50 bd f7 8c 83 3d 9f 23 c3 3c
       -0.03705518 -0.050826356 0.06423371 0.023820696
0001d0 18 20 0d be ef 78 8f bd fe c6 1e be 33 a3 59 bb
       -0.13781774 -0.07005488 -0.15505597 -0.0033208847
0001e0 d1 bf 57 3d 39 28 d8 3d 58 da e6 bd 5b 60 8a 3d
       0.052673165 0.10554547 -0.112721145 0.067566596
0001f0 b9 8a 4c be bf c0 83 bb ec d1 34 be d3 01 64 3c
       -0.19974793 -0.00402078 -0.17658204 0.013916451
000200 0c ad b0 be b9 5a 14 be e1 67 97 be ef 0a 58 3e
       -0.34507024 -0.14487733 -0.2957144 0.21097921
000210 91 4a 99 3d c3 d2 7e bd 77 ec b8 bd 61 ca 98 be
       0.074849255 -0.062212717 -0.09029477 -0.29841903
000220 dc 9b 70 bd 73 87 76 3d 1d 10 8f 3d ef 65 47 bd
       -0.05874239 0.06018777 0.06985495 -0.048681196
000230 9e da 54 be 50 73 6f 3e 81 a4 54 be 2e 07 28 be
       -0.20786521 0.23383832 -0.20765878 -0.16408989
000240 d0 b8 b1 be 7e 35 87 bd 7d 50 b7 bc b1 87 af 3c
       -0.34711313 -0.06602 -0.022377247 0.021427007
000250 93 75 80 bc 3f db 5d 3d a9 b9 6c 3e b2 73 b2 3d
       -0.015681064 0.054164167 0.23117699 0.087134734
000260 f2 e0 26 be a8 dc 73 be 17 54 52 be cc 98 32 bc
       -0.16296747 -0.23814642 -0.2053989 -0.010900687
000270 74 ad ac bd d1 e2 c3 bd 96 f9 7e 3d ea e8 03 3d
       -0.08431521 -0.09564746 0.062249742 0.032204546
000280 4e b4 9b 3d bd b0 4a be 25 7f a1 bc fc 3b 97 3c
       0.0760275 -0.19793983 -0.019713948 0.01846122
000290 7c c9 bb bd da 2a 3a 3f d6 9e 80 3e 00 50 1b 3e
       -0.091692895 0.72721636 0.25121182 0.15167236
0002a0 22 55 3c 3e 12 9f 2f 3e 7e 0e fc bd 52 c7 05 3d
       0.1839185 0.17150524 -0.12307452 0.03266079
0002b0 5e 3e fe 3e 09 b4 41 bc a0 a4 92 3e e5 01 95 bc
       0.49656957 -0.011822709 0.28641224 -0.01818938
0002c0 53 e6 58 3d 47 bd cb bd 0a bc cd 3d e2 d9 c5 3d
       0.05295403 -0.09948211 0.10045631 0.096606985
0002d0 cf 18 3c 3e e3 07 50 3e ed 32 8e 3e 3d ca ae 3d
       0.18368839 0.20315509 0.27773228 0.08534668
0002e0 71 d1 d7 bd a1 e6 16 3e 38 1e dd 3d 4c 55 95 3d
       -0.10537995 0.14736415 0.107967794 0.0729166
0002f0 54 d3 c3 bc cd 3e 4f 3d 85 a6 62 3e 43 3b b5 bd
       -0.02390448 0.050597 0.22133835 -0.08849194
000300 b9 25 8c bd 91 63 48 3d c5 90 46 bc 80 fe 1b 3e
       -0.068431325 0.04892308 -0.012119477 0.15233803
000310 ca 2c 9c 3d 5b 76 a6 be 9e 9e 11 3e 8f 17 82 3e
       0.0762573 -0.32512173 0.14220664 0.254086
000320 23 bc 05 3f 6b 1a 89 b9 69 bf 9b 3e ed b6 1e bf
       0.522402 -0.0002615036 0.30419472 -0.6199787
000330 7e c8 91 be bb e7 bd be 61 35 20 3e 2c c0 12 bf
       -0.28473276 -0.3709086 0.15645362 -0.5732448
000340 4a e7 87 3e a3 99 a6 3d d4 11 13 3d 7d 26 a3 be
       0.26543647 0.08134773 0.035905674 -0.31865302
000350 28 97 0f be b1 15 81 be 99 b2 17 bf e3 58 38 bf
       -0.14022505 -0.25211862 -0.59256893 -0.7201063
000360 4a d3 ae bd 64 a7 84 bd e1 08 47 3e 52 01 61 be
       -0.08536394 -0.0647724 0.19436981 -0.2197316
000370 2a 77 37 be 25 6d 5b bb 9f de 03 be 4b d0 05 3e
       -0.17916551 -0.0033481803 -0.12877892 0.13067739
000380 a5 9f 35 be 3d 02 14 be af a3 9c bc a7 98 7d be
       -0.17736681 -0.14453979 -0.01912102 -0.24765263
000390 33 4e 17 be ae 9d b3 3d fa e6 fc 3b 65 c6 6b bd
       -0.14775924 0.087703094 0.0077179642 -0.05756225
0003a0 27 b4 1b be 30 cd 2f 3d c0 4b 17 be 1f 38 be 3d
       -0.15205441 0.04292029 -0.1477499 0.09288048
0003b0 83 51 22 bc f2 3c af 3c a9 f5 16 3d 65 3e 13 be
       -0.009907129 0.021391366 0.036855374 -0.1437927
0003c0 68 ea 55 3d a0 c3 8c bd a3 a2 10 be 13 af 0a be
       0.0522255 -0.0687325 -0.14124541 -0.13543348
0003d0 f1 89 ba 3b 58 a3 8e 3c 75 72 4d be 31 c6 bd bc
       0.0056927134 0.017411873 -0.20063193 -0.023165794
0003e0 a1 07 88 be 63 a9 ed 3d 4e 3c 01 bd cd a9 05 be
       -0.2656832 0.116045736 -0.03155165 -0.13053055
0003f0 25 a0 c4 bd 6e 2a 30 be 41 b7 f6 3d 37 0a 28 be
       -0.09600858 -0.17203686 0.12046672 -0.16410147

conv2.nn.0.bias f4 [32]
000000 0c d1 02 be 5c 16 3f 3f 84 15 e2 3d 62 52 75 be
       -0.12775058 0.7464349 0.1103926 -0.23957208
000010 34 f8 4c be df 31 ad be a8 27 10 3e b5 a1 b3 bd
       -0.20016557 -0.3382711 0.14077628 -0.087710775
000020 00 10 34 bc 75 32 a9 3d 23 fb 52 be f3 c0 a3 3e
       -0.010990143 0.08261577 -0.20603614 0.31983146
000030 2c cc 0d 3f ec 18 1f bd 80 37 33 be 5a c6 a0 bd
       0.55389667 -0.038842127 -0.1750164 -0.078503326
000040 7f 87 03 3d 2b 89 20 bd 40 d6 66 3e b0 7e bc 3d
       0.03211164 -0.039193314 0.22542667 0.09203851
000050 d8 9d a2 be 05 5b 3b be 68 c3 14 3d d9 11 81 bd
       -0.3176105 -0.1829644 0.036319166 -0.06302232
000060 ca 1b 8a 3d 8b 56 bc bd b4 a7 8b bd 46 20 b5 bd
       0.067435816 -0.09196194 -0.06819096 -0.08844046
000070 1e 35 d2 bd 7b 22 ba bd 7d 56 87 be 71 d6 05 be
       -0.102640375 -0.09088608 -0.26433173 -0.13070084

conv2.nn.2.weight f4 [32, 32]
000000 71 60 d2 3d 09 45 4f be 79 17 81 bd e6 3c 07 3d
       0.10272301 -0.20241179 -0.06303305 0.03301706
000010 57 d0 e3 bd 9e 91 04 be 45 b8 13 3f b8 5e dd 3d
       -0.11123722 -0.12946174 0.5770305 0.10809082
000020 5e 0b 09 3d c2 19 ed be df 2f 24 3e a6 d8 da be
       0.033458106 -0.46308714 0.16033886 -0.42743415
000030 24 57 07 bc 09 de b4 bd 8d 40 36 be 19 f3 38 be
       -0.008260522 -0.08831412 -0.17798062 -0.18061484
000040 85 56 05 be f0 2e 9f bd 85 35 4f 3b cb be 43 be
       -0.13021286 -0.077726245 0.0031617593 -0.1911575
000050 d6 ac 85 3e 5b de d7 bd 6e 04 19 be 69 51 42 bf
       0.26108426 -0.10540458 -0.14943096 -0.7590547
000060 84 bc 12 bf 30 85 fa bd 45 ec ff 3b 34 66 a3 3d
       -0.573189 -0.12232435 0.007810148 0.07978478
000070 88 bd fb 3d 7c 45 35 3d c9 0e aa bc ce 71 c2 bd
       0.122920096 0.04425572 -0.020759003 -0.09494363
000080 87 24 73 bd a5 e5 65 be a1 ce ba 39 e1 94 e6 3d
       -0.059361007 -0.22450884 0.00035630635 0.11258865
000090 fe a3 e8 bd 1c 29 22 bd cf 91 4e 3d 95 c9 16 3e
       -0.11359404 -0.039589986 0.050432023 0.14725335
0000a0 ac 9c 56 be a1 35 c9 bd f7 53 5e be 19 84 a0 bc
       -0.20958203 -0.09824682 -0.21711718 -0.01959424
0000b0 57 bb bd bb ab 7e d9 3d 11 70 69 3b 9d c4 1b be
       -0.005790155 0.10619863 0.0035619775 -0.15211721
0000c0 c3 d9 e7 3b bd 92 0b 3e 3c a6 8a 3d 55 07 ae 3e
       0.0070755198 0.13630195 0.06769988 0.3398997
0000d0 46 cc 7b be 16 f7 af bd 4c b4 18 3d e9 ee cb be
       -0.24589643 -0.0859205 0.03728132 -0.3983071
0000e0 c5 a8 76 bd 72 6c df be 25 e4 1d 3d 78 c8 eb bd
       -0.060219545 -0.43637425 0.038547654 -0.11512846
0000f0 3a 41 dd 3a b6 d5 38 be 55 ec e7 3d b6 6f cc bd
       0.0016880401 -0.18050274 0.11324374 -0.09982245
000100 67 d7 88 bf 93 64 60 be 42 72 95 3f d9 43 df 3d
       -1.0690736 -0.21913366 1.1675494 0.10901613
000110 5e e9 31 3e f2 9e 45 3e 62 fc 93 be 22 9d a8 bd
       0.17374179 0.19298914 -0.2890349 -0.08233096
000120 e2 65 a1 bf d8 7d 3a bf 96 c2 92 be f5 42 75 3e
       -1.2609217 -0.7284827 -0.28664082 0.23951323
000130 30 e3 08 be c4 6b 47 3e a9 fb 05 3e 39 df ce 3e
       -0.13367915 0.19474703 0.13084282 0.4040468
000140 9e 45 7a 3c 8c fb 45 bc 38 53 56 3f 20 32 b7 3d
       0.015275387 -0.012083899 0.8372073 0.089451075
000150 09 6d e8 bd 49 71 e0 3d 91 dc 94 bd b2 a3 06 bf
       -0.11348922 0.109591074 -0.07268632 -0.5259353
000160 74 cd 65 bd 61 88 81 3f 1d b1 49 bc 87 9f 05 bd
       -0.05610414 1.0119745 -0.0123102935 -0.03262284
000170 c4 a8 a3 3c fe b3 ef bd 5c 1f 1f 3e 13 cf 8d 3d
       0.019977935 -0.11704253 0.15539306 0.06924262
000180 e4 7e aa bb cb 06 58 3d d9 67 e7 bc 01 b2 8f bd
       -0.005203115 0.052740853 -0.02824776 -0.070163734
000190 21 f9 26 be 77 06 29 be 41 bb 65 bd 59 ed 06 3e
       -0.16305973 -0.16506372 -0.056086782 0.13176478
0001a0 0c b9 84 3d 1b 1b b2 3d 2b db 46 be 8b 99 13 bd
       0.064806074 0.08696576 -0.19419543 -0.0360351
0001b0 c9 24 33 be 1a 39 4e 3d 30 18 2e be 6d 5f b1 3d
       -0.17494501 0.050347425 -0.17001414 0.08660779
0001c0 00 14 78 3c ee ed 06 3d 6a c1 2a 3e 8a fc ed bd
       0.015141487 0.03294175 0.16675344 -0.11620434
0001d0 5b 6b 6f 3c 11 10 ce 3c dc 59 99 bc cb 32 9d bd
       0.014612998 0.025154145 -0.018719606 -0.076757036
0001e0 7e b4 a3 3d 90 aa 4b 3d a7 c8 25 3e 0d d1 fa 3c
       0.079934105 0.049723208 0.16189824 0.030617261
0001f0 1f 63 1f be db 1a 60 bc 1a 48 83 bd cf 9a f2 bd
       -0.15565155 -0.013678278 -0.06410237 -0.11845934
000200 1e 7b 86 be 0d d1 88 bc 98 cb 08 bf cb 91 bf 3d
       -0.26265806 -0.016701246 -0.5343566 0.0935398
000210 7c 9c 82 be 65 dd 25 3e 30 02 77 be fb 9d ca 3d
       -0.25510013 0.16197737 -0.24121928 0.09893414
000220 d9 22 b4 3c d2 d9 10 3e 38 83 02 be 89 89 5f bf
       0.021989273 0.14145592 -0.12745368 -0.87319237
000230 07 1f f7 be ab f5 07 3e fd fe e6 bd e3 0d 6a 3e
       -0.4826586 0.13277309 -0.11279104 0.2285686
000240 dc 90 b7 bd 9c 06 82 bd b2 ea 18 3f c6 98 4e bf
       -0.089631766 -0.06348917 0.59733117 -0.80701864
000250 7a 50 01 be e8 1d 1a 3c 3b 0f 8f 3d 57 c7 96 3d
       -0.12628356 0.009406544 0.06985327 0.0736224
000260 5b 59 7c be 3b ba 56 bf d2 4e da 3d fe 3b 2d be
       -0.24643461 -0.83877915 0.10659565 -0.16917416
000270 d9 be aa 3d 92 33 07 3e 95 47 83 3e 44 70 4f 3d
       0.083371826 0.13203266 0.2564055 0.050644174
000280 6a ca c7 3c 96 5e bb 3d 44 27 de be aa d9 aa bd
       0.02438851 0.091489 -0.43389332 -0.083422974
000290 c7 d0 86 be 9c 86 e7 bd f1 d8 86 be 42 a5 27 3e
       -0.2633116 -0.113049716 -0.26337388 0.16371635
0002a0 b1 eb 4f be d6 58 1b bf 93 44 34 3e 37 25 dd 3e
       -0.20304753 -0.6068243 0.17604284 0.43192455
0002b0 e7 2d 59 3f e0 41 22 3e 39 9a 39 bd 37 a7 9c bc
       0.84835666 0.15845442 -0.045313094 -0.019122703
0002c0 55 2a 7f 3e bc 65 c9 3d b7 f1 01 bf ac ef d1 3d
       0.24918492 0.098338574 -0.5075945 0.10250792
0002d0 7a f4 21 bf 76 e2 56 3d 01 a3 96 3d 3f 7a 8c bf
       -0.63263667 0.052462064 0.07355309 -1.0974807
0002e0 7b 95 be 3e a5 fb cc bd 0b be 33 3d b6 7a 2b 3d
       0.3722342 -0.10008935 0.04388241 0.041865073
0002f0 88 6a 99 bd b8 f6 44 3d 5c db 0a bf 74 9a 79 be
       -0.07491022 0.04808685 -0.54240966 -0.24375325
000300 d3 f7 49 bc 1c e6 0d 3e c6 cf bc bd 6f 03 2f 3e
       -0.012327152 0.13857311 -0.09219317 0.17091154
000310 59 af 17 be b1 c6 3d be 07 88 12 3e ec fd 1f 3c
       -0.14812984 -0.18532826 0.14309703 0.00976513
000320 d7 93 06 3e b3 1f d0 bd 93 8d 11 be 83 aa 67 3d
       0.13142334 -0.10162296 -0.14214163 0.056559097
000330 c9 6d 39 be 65 ef a3 bd 86 15 bd bd ba d8 e8 bd
       -0.18108286 -0.08004645 -0.09232621 -0.11369462
000340 6b 29 03 be 87 3e 9b bd c7 2a 47 3e 37 99 9d bd
       -0.12808768 -0.075802855 0.19449912 -0.07695239
000350 3e 42 40 be 74 0f 9a 3d 34 2f 45 3c 60 28 3b bd
       -0.1877527 0.07522479 0.01203518 -0.0456928
000360 93 ac d1 bc 0a 38 52 bd 64 8b 15 3e cd 55 8b bd
       -0.025594985 -0.051322974 0.14603955 -0.068034746
000370 f2 67 63 3d 1b 8e 70 3c 4b 18 2d 3d 8e be 29 be
       0.05551905 0.014682318 0.042259496 -0.16576597
000380 2c 01 24 3e 98 3c b6 bd 0a 33 a1 be 30 95 4f bd
       0.16016072 -0.08898276 -0.31484252 -0.050679386
000390 48 09 ec be fb 7b 94 be c1 04 5f bf fb 94 10 3e
       -0.4610083 -0.2900084 -0.8711663 0.14119332
0003a0 81 01 1d 3e 8d 80 2a bf 80 9e d4 3e 08 58 8d 3e
       0.15332605 -0.666024 0.41527176 0.27606225
0003b0 e6 a0 93 3e 4a ae c0 3d fa eb 2f be 2f 1f 89 bd
       0.28833693 0.09408243 -0.17179862 -0.06695401
0003c0 1c c9 fc bd 25 3a e4 3c 35 9b bc be 50 e9 b8 3e
       -0.12343046 0.027859757 -0.36837164 0.36115503
0003d0 93 a4 93 be a3 78 97 bd da 5c fd bd 05 b0 15 be
       -0.28836498 -0.073960565 -0.12371226 -0.14617927
0003e0 f8 ec 33 bf 42 0b 66 be 27 fe 31 be 5d ac c7 3b
       -0.7028346 -0.22465232 -0.17382108 0.0060935454
0003f0 ef a0 06 3e 03 67 7a bd ed 2d 1b 3d c3 58 4e be
       0.13147329 -0.061133396 0.037885595 -0.20151047

conv2.nn.2.bias f4 [32]
000000 82 b7 81 bd e2 b9 ba bd 30 f4 6b be 7a ab 7a be
       -0.063338295 -0.091174856 -0.23042369 -0.24479476
000010 c8 5f 56 3e 4d d9 1a 3e 0a ba 4d be fc 65 b6 3e
       0.20934975 0.15121956 -0.200905 0.35624683
000020 5d a2 f6 bb b9 55 15 be 6c 26 86 3d 1d 54 1e be
       -0.0075266794 -0.14583482 0.06550297 -0.15461774
000030 d2 58 9b 3e c0 db a2 be 90 63 06 3e a9 3a 85 3e
       0.30341202 -0.3180828 0.13123918 0.26021317
000040 2c e4 17 be 68 5d b4 3d 7f 93 8a 3e cd b0 79 be
       -0.14833134 0.08806878 0.27065656 -0.2438385
000050 a3 60 2a 3c 97 e0 fb bd aa 73 07 be 67 c9 ee bd
       0.010399017 -0.122986965 -0.13227716 -0.11659508
000060 67 3c 2a 3d 75 50 4a 3e 1e 1a 57 3d 17 be b4 3d
       0.04156151 0.19757254 0.05251514 0.08825319
000070 1a f0 19 be 58 7f c1 3d ed d3 b8 bc 3a 10 21 bf
       -0.15032998 0.09448117 -0.022561992 -0.62915385

conv2.lin.weight f4 [32, 3]
000000 ca d5 a8 3e 55 60 c4 3d f2 99 f1 be 9e f3 42 bf
       0.32975608 0.095886864 -0.47187763 -0.7615298
000010 b7 a6 73 bd a5 60 36 3d 3f 7e 4d bf 44 e0 20 bf
       -0.059485164 0.04452576 -0.8027076 -0.628422
000020 08 76 22 3f 6a 57 d7 3e b4 1b f3 3d be 24 0b bf
       0.6346135 0.4205888 0.11870518 -0.5435294
000030 be aa f7 be 61 5b 17 bf 17 e6 88 bf 2d d2 cc 3d
       -0.48372453 -0.5912381 -1.0695218 0.10001025
000040 43 bd 1b bf 60 a4 ed bd c9 a2 4e be 43 1f 88 3e
       -0.60835665 -0.11603618 -0.20179285 0.2658635
000050 34 92 d8 bd d7 2f 33 be d3 33 ee be d7 f0 a5 bd
       -0.10574761 -0.17498718 -0.46523914 -0.08102577
000060 19 86 60 be bc b9 03 bf ad 95 11 3f ea 31 d3 3e
       -0.21926154 -0.51455283 0.5686901 0.4124902
000070 c7 f5 15 be fc f6 34 3e b9 03 08 bf 43 85 da 3c
       -0.14644538 0.17672342 -0.5313068 0.026674872
000080 ef 11 78 bf d2 38 68 3e 3d 7e d8 be ed 27 4c 3e
       -0.96902364 0.22677925 -0.42283812 0.19937105
000090 8d 5e f0 bc a7 df a3 3f 34 c0 15 3e cb da f0 3e
       -0.02934196 1.2802628 0.14624101 0.47041926
0000a0 69 88 4c bf 21 d2 d8 3d 8c f5 3e bf 25 ae c0 3c
       -0.79895645 0.10586954 -0.74593425 0.023520539
0000b0 36 f4 34 3f 57 b1 39 3f ee 62 11 3f e0 92 39 3e
       0.70685136 0.72536224 0.5679158 0.18122435
0000c0 43 9a e5 bf 89 38 ac be 25 dc db bf af ab e6 3d
       -1.7937702 -0.33636883 -1.7176558 0.11263215
0000d0 be b1 9d 3e a2 72 03 bf 01 65 e7 3d 71 8b 31 3d
       0.3079967 -0.5134679 0.11298562 0.043345872
0000e0 38 cb e5 be 1d d7 b5 be db 18 db bd 66 dd b1 be
       -0.44881606 -0.3551568 -0.106981 -0.34739226
0000f0 ce d2 80 bf 08 2e d8 be ee 0a bf 3e 2a da 13 bf
       -1.0064332 -0.4222262 0.37313026 -0.57754767
000100 5a 8f a3 bd 4f 21 f4 be f7 fa 3e bf f1 9b 6e 3d
       -0.079863265 -0.47681662 -0.7460169 0.058254186
000110 f7 52 23 bf 4d be c4 bf ac 4a 9e 3d 8d 49 c4 3e
       -0.6379847 -1.5370575 0.07729086 0.38337365
000120 ac 05 83 3e 62 c1 a4 3d e2 bb 3f bf 50 14 e3 3e
       0.25590265 0.08044697 -0.7489606 0.44351435
000130 7c f2 c5 be fc ed 47 be 36 a4 86 be f2 e7 13 3e
       -0.38661563 -0.19524378 -0.26297158 0.14443949
000140 b0 73 b6 3e 6f 57 5c 3e d4 2f 0a be 29 30 93 be
       0.35635138 0.21517728 -0.13494807 -0.2874768
000150 01 2c db bd 72 51 22 3f 80 c9 6d bf e0 19 83 3e
       -0.107017525 0.63405526 -0.9288559 0.2560568
000160 a2 5c 99 bd ec aa c6 3d 1c cd a1 be e9 63 fb 3e
       -0.074883714 0.097005695 -0.316018 0.49099663
000170 05 39 fb 3e 5e 56 94 3e 13 f4 36 bf ec 68 9c be
       0.4906694 0.28972143 -0.7146618 -0.305488

conv2.lin.bias f4 [32]
000000 de dd 7b bb f6 64 7f be 01 4d 4e bc 59 b8 f4 3c
       -0.0038431804 -0.24940857 -0.012591601 0.02987306
000010 25 9d 6e be 86 04 5d bd fe ba cb 3e 88 92 ad 3d
       -0.23302133 -0.053959392 0.397911 0.08475214
000020 e6 a7 b8 be 4f 13 a1 3e 1c 9c f5 bd df 9f 7c be
       -0.36065596 0.31460044 -0.11992666 -0.24670361
000030 39 95 26 be 92 83 7f be 89 91 ed 3e f0 fa 3e bf
       -0.16267861 -0.24952534 0.46400097 -0.7460165
000040 a1 cc 21 bf e6 b2 9f 3e 6a 47 7d 3e bc 50 ae 3e
       -0.63202864 0.31191176 0.24734274 0.3404597
000050 8e 30 11 3f 6b a5 0f 3f 11 a2 20 3f 09 69 fd be
       0.56714714 0.5611178 0.62747294 -0.49494198
000060 9f 27 c1 3e db 68 5e 3e af 2f d2 be e3 ca 88 be
       0.3772554 0.21719687 -0.41052005 -0.2671729
000070 4d d0 b5 3e d1 45 84 bc 05 db 19 3f 5e 95 91 bc
       0.35510483 -0.016146572 0.6009982 -0.01777142

classifier.weight f4 [1, 32]
000000 a4 8b 6e 3e 16 88 85 3e 5a a0 95 be df 74 ec b9
       0.23295456 0.26080388 -0.292239 -0.00045100503
000010 49 6c 8c 3e 68 7e 3c 3f d8 7d 3d bd ec 63 64 3f
       0.27426365 0.7363038 -0.046262592 0.8921497
000020 9b e3 ce bd c8 cb 95 3e 76 e0 7d be 5e 9c a9 3e
       -0.10102006 0.29257035 -0.24792656 0.3312711
000030 22 9e a3 bf 9e 2e 34 3f 3d 77 0c bf 50 8f 66 bf
       -1.2782633 0.7038363 -0.54869443 -0.9006243
000040 81 d6 97 3d 32 58 52 be 2e ce 38 be 5c fb 8b bc
       0.0741396 -0.20541456 -0.18047401 -0.01708763
000050 14 30 89 be 33 0a da bd 44 38 50 3e f6 4d 2c 3f
       -0.26794493 -0.106464766 0.20333964 0.6730646
000060 af aa 9d 3e c3 6f f4 be a5 35 16 bd 9b df cc 3e
       0.30794284 -0.47741517 -0.036672253 0.40014347
000070 dd 24 a2 3d 7b 03 a7 be 67 1a 4b 3d 28 a8 25 bf
       0.07917187 -0.32619843 0.049585726 -0.6470971
