A3/MyTeam/A3/classification/custom.pth (torch, 360340 bytes, 23 tensors)

conv1.nn.0.weight f4 [16, 9]
00000000: fdd5 823d 7327 03be 9fe9 b5be a72a 923e
00000010: 72e5 29bf 9377 433d 33fa 423e ac8d b0be
00000020: c10e 1bbd 2ef8 60bd 23b6 d43e 89b5 d73e
00000030: 91b7 9d3d 4fa6 3dbe f8ba 4c3d 7c98 bd3c
00000040: e7a8 8ebe 6022 59be 2677 80bd 964e 673e
00000050: 207f a0bd a0a4 39bd b687 183d 4bb3 20bd
00000060: a00f 80be ee4a 11be d335 3f3e e8e2 99be
00000070: b6b6 3a3e 3f15 5b3e ed46 81bd 17a0 ec3e
00000080: 7986 443e 7b0e 713e 0ee4 8cbe 26dd 15be
00000090: 15c0 abbe bb66 8a3e 92be 1f3e 00c8 8f3c
000000a0: f49c 2bbe 95b2 cdbe 8d06 023e f3c6 11bf
000000b0: 9669 b23e 8877 80be d6ab c8bc 7ba4 cd3d
000000c0: 9d70 02be 0076 bebc c627 f03d 3600 143e
000000d0: bbd9 3cbe d670 e23d f67b 6abe 24b4 49bf
000000e0: 37bc cabd 682b a33e eba8 4f3e cf74 693e
000000f0: 3725 d3bc 21af 41be 34a4 293f cb43 373e
00000100: b1cd 74be d00a 36be c345 983d 8407 1d3e
00000110: 4930 ae3d dc8f 6cbe 42c2 67bf 0d86 c13c
00000120: 1e64 9ebe 607f b23d 965b 2c3d fe71 1dbe
00000130: 5a49 96be 16e5 d0bc 187f 7fbe 4438 92be
00000140: 1821 203e cc68 cebe c030 b33e 35ff 00be
00000150: b731 3c3e 06c4 68be dd5f 823e 3ff5 b83e
00000160: 43ad edbd 36db 87be 3736 c13d ede5 f7be
00000170: c9c4 7e3e b996 cabc d24f 523e fe60 d3be
00000180: 5cca 1bbf 00fa c93d c377 f93e cc6f cc3d
00000190: 9897 b3bd f7af fcbe d259 533e 8d36 61bf
000001a0: a85b e63e 2a99 c7be 1966 24be 4fcc 453c
000001b0: 6748 7fbe f110 f9be 7230 2e3d 627f ad3e
000001c0: 8f3d fabe c0ad ab3e ba9a 833e cf1a 963e
000001d0: 1a65 9cbe bc2b 1c3d 3d68 cfbe ef9f 36be
000001e0: ce35 8b3e 4045 f2bf 3945 c1be 0c39 e9be
000001f0: 5549 933c 6e84 063f 178b 5b3e cf9e a93e
00000200: d108 113e 0ebe 8bbe 4976 1cbe dc4c 02bc
00000210: 6110 b5be 723a ab3e 9f81 f43e 699d cc3d
00000220: 9fc3 cabe 6d08 76be b56f 54bd 44ea 73bf
00000230: a35d 2a3f 5368 35be a8ce 60bf 561b fc3d
0.06388471 -0.12808017 -0.355298 0.28548166 -0.6636573 0.047721457 0.19040756 -0.34483087
-0.037855867 -0.054924183 0.4154521 0.42130688 0.07701028 -0.18520473 0.049982995 0.023144
-0.27863237 -0.2120452 -0.06272726 0.22588572 -0.07836747 -0.045323014 0.0372388 -0.039233487
-0.2501192 -0.1418874 0.18672876 -0.30055928 0.18233761 0.21394823 -0.06312356 0.4621589
0.19191922 0.2354068 -0.27517742 -0.14635143 -0.33544984 0.27031502 0.1560004 0.017551422
-0.16759092 -0.4017531 0.12697811 -0.569442 0.3484618 -0.25091195 -0.024496 0.10041138
-0.12738271 -0.023249626 0.11726336 0.14453205 -0.18442433 0.11056678 -0.2289885 -0.787905
-0.098991804 0.31869054 0.20279281 0.22798465 -0.025774581 -0.18914463 0.6626618 0.17896955
-0.2390659 -0.17777562 0.07435181 0.15334898 0.085053034 -0.23101753 -0.9053079 0.02362349
-0.30935758 0.08715701 0.04207953 -0.15375516 -0.29352838 -0.025499862 -0.24950826 -0.28558552
0.15637624 -0.4031433 0.3499813 -0.12597354 0.1837834 -0.22731027 0.25463763 0.36124608
-0.11605313 -0.26534432 0.09434169 -0.48417607 0.24879755 -0.024730073 0.20538262 -0.41284937
-0.6085565 0.09862137 0.48724183 0.09982261 -0.087691486 -0.49353 0.20639732 -0.8797386
0.44991803 -0.38984042 -0.16054572 0.012072637 -0.24929963 -0.48645738 0.04252667 0.33886248
-0.4887509 0.33530998 0.25703984 0.29317328 -0.30545884 0.038127646 -0.40509215 -0.17834447
0.27189487 -1.8927383 -0.37748125 -0.45551336 0.017979303 0.5254582 0.21439777 0.33128974
0.1416352 -0.27293438 -0.15279497 -0.007952895 -0.3536406 0.33443028 0.47755143 0.09990961
-0.39602372 -0.24026652 -0.051864345 -0.95279336 0.6654913 -0.17715578 -0.8781533 0.123099014

conv1.nn.0.bias f4 [16]
00000000: 743b 153e da16 d9be 200d ecbd 6b3a 223d
00000010: 2120 e1bd 5b10 00be 7296 b73e 581d 28bf
00000020: 20a0 9c3d f59b a6be c3d7 a53d 7c8e 453e
00000030: 6a2e 9d3e 4ed9 36be 87f9 5fbd 87c7 3cbe
0.14573461 -0.42400247 -0.11525941 0.039606493 -0.10992456 -0.12506239 0.35856968 -0.65669775
0.07647729 -0.3254086 0.08097794 0.19292635 0.30699474 -0.17856333 -0.054681327 -0.18435489

conv1.nn.2.weight f4 [32, 16]
00000000: 1331 4f3d 5af7 033e 9878 2ebe 8875 20be
00000010: 4ae4 91bc 985c 82be 39f4 06be 44b3 883e
00000020: 982b 093d 0291 0a3b ab1c 193e b8f9 6fbe
00000030: c7ea 02be e1c2 2d3e a93b b3bd e1f1 e5bd
00000040: 8f29 3e3d 89d8 4dbe 0a92 55be b022 ac3c
00000050: 4bf3 1b3e 58e3 29be 28dd 82be cb8a 0e3e
00000060: 90e0 c0bd c3da 0e3e 141c 873d 6699 e6be
00000070: 7650 a63c 42b1 14bf da25 39bf a5f1 b7be
00000080: 15ab cdbe 5ed0 28be ceda 2fbe 344f 373c
00000090: 2ed7 78bd b020 c5bc 95ff 463e 07d1 2dbb
000000a0: 12dd 193e 7283 93be 354f 0c3f f355 eabd
000000b0: c6be 1ebe 8da1 0e3f ba13 97be 9367 913e
000000c0: 4a17 1e3e 15d2 0dbe f65f 183e 60e8 fbbd
000000d0: af4f 5cbe d214 b63d ce30 2fbe d020 653e
000000e0: 6010 abbd 6fc0 2e3d 0ec4 e7bc 490d 5dbe
000000f0: f3b7 c9be 89bc f73e 049e 3f3d a84c a1be
00000100: 5ca5 23be dd0e 5a3e c055 4bbc 5622 f9bd
00000110: 7963 c3bd fd12 2b3e 5577 1bbd 93ad babe
00000120: 205a 713c e48a fabe f00b c03d 0417 5cbe
00000130: 81ff 8f3e d4f0 2abf a743 5dbe b702 50be
00000140: 4dfa 2fbf ef7a 633e 68fc 9a3d 82f7 c63e
00000150: 3d99 65bc 6824 793e bc84 61be 7bb6 913d
00000160: 74bb 71be f60e be3e b39b 45bd b363 7d3b
00000170: 466c 80bd 29ae cd3d 1d53 a03e b09b 6dbe
00000180: 1ef9 413b 4211 5e3d 705a c9bd 1a40 c5be
00000190: 7026 663e 46ba 0abe 67a4 5abe 86dd 033e
000001a0: 9ea1 16be d7e8 94bd f389 353e c860 02bf
000001b0: 39f0 87bf 6ae9 1fbe ee11 913d cae4 fabd
000001c0: 7fea 9fbe 17c5 513e 308a 5e3d 9159 11bd
000001d0: c60f 413e 558b de3d cfdc ba3e 7ca6 333e
000001e0: f057 26bd a2cd 653e ffa8 243e 9177 11be
000001f0: b207 92bd 7d31 d43e 965c 963d 15a8 32be
00000200: f0ac 11be 4152 0f3d 800c 1cbd 2761 203e
00000210: afc5 acbe a49b 0fbe 12bd 16bf 29bd 26be
00000220: 00ae 1b3e 59be 11bf a68e ba3d 532e 05be
00000230: 8299 fcbe f774 84be ebfe 7f3e fad1 23bd
00000240: a1c2 683e ccf1 6a3e a267 2abe d256 92be
00000250: 395f 07bd e0cd 09bc aeae f1bc 778a 49bd
00000260: ba04 15be 2e20 eebd f2e5 cabe bd55 22be
00000270: e1de e23d 12eb 1d3f dc67 dcbe 7572 79bd
00000280: c94d d83c 00ce 84be d44b c73d ea71 3b3e
00000290: 0042 733a 560f 6abe 879f 31be 420c 0fbe
000002a0: a214 3ebe 000b ea3b e5d0 15be e3c9 95be
000002b0: 892e f2be 6f18 22be 990a e23a 661f 4bbc
000002c0: 94f4 c1bc 2f30 5d3b c6cc 703e d4d5 5cbe
000002d0: 8a8d 803e e07a 873d 2e15 9bbe c006 0fbe
000002e0: c075 693d a6b2 1abd 0cb7 8abe 847a 2bbe
000002f0: fbb1 ecbd f0c8 7abe 8523 f4be a48c f5bd
00000300: e871 82be 0c46 97bc a0c2 1dbd 7349 e5be
00000310: 6994 2bbe b2d6 78be 90a5 b13d ea90 143e
00000320: 128d 2cbe 9536 e33d 1de4 803e e96a 013e
00000330: b486 e7be 0e79 a5be 50ca 80be 5339 3a3e
00000340: 3bfc eabd b8fc 3bbe c6e3 52be 0b9f 6d3c
00000350: c493 c3bd 56f9 7bbd e0f3 e83d 3438 83be
00000360: 0c55 743e a1e0 1bbd 3519 fe3a 48ee c2bd
00000370: 6d60 bcbd 4c4e 223e 9fff 36bd 2095 793c
00000380: dce5 8ebe f55c 5d3e 8cfe de3d 712c 6abf
00000390: a102 93be f21d 453e 13bd 53be 1934 40be
000003a0: 10df 48bd adba 65be aeb1 2e3d 5941 cc3c
000003b0: 8d41 83bc f4f6 b73c 3afd e23e e24d 6f3d
000003c0: 2559 593d 3f1b 04bf a813 e03d 2dfd bd3d
000003d0: 94d0 1b3d 7bb8 083e 7ba9 95be f1df 8cbd
000003e0: 2077 303e ee28 67be 19b6 77be caed 2d3e
000003f0: c1bc 2ebe b469 d4b9 dae6 bdbd 495f c93d
0.05058391 0.12887326 -0.1703819 -0.15669835 -0.017809052 -0.25461268 -0.13179101 0.2669927
0.03348884 0.002114356 0.14952342 -0.23435104 -0.12784873 0.16968872 -0.08751614 -0.11227775
0.046426352 -0.20102133 -0.2085649 0.021012634 0.15229528 -0.16590631 -0.25559354 0.13920133
-0.09417832 0.13950638 0.06597152 -0.4503891 0.020302039 -0.58082974 -0.7232338 -0.35926548
-0.40169588 -0.16485736 -0.17173311 0.011188317 -0.060752086 -0.024063438 0.19433434 -0.0026522295
0.15025738 -0.28811222 0.5480836 -0.11442175 -0.15502462 0.55715257 -0.29507238 0.28399333
0.15438572 -0.13849671 0.14880356 -0.123001814 -0.21514772 0.0889069 -0.17108461 0.22375798
-0.08352733 0.042663988 -0.028291728 -0.21587099 -0.39398155 0.48386028 0.046781555 -0.31503797
-0.15981048 0.21294732 -0.012410581 -0.12164752 -0.09540457 0.16706462 -0.0379556 -0.36460552
0.01473096 -0.4893409 0.09377277 -0.21493155 0.28124622 -0.66773725 -0.21607839 -0.20313536
-0.68741304 0.22214864 0.07567674 0.38860708 -0.014013586 0.24330294 -0.2202329 0.071148835
-0.23606664 0.3712079 -0.04824419 0.0038664162 -0.062706515 0.10042984 0.3131341 -0.23203921
0.0029597948 0.054215677 -0.09831703 -0.38525468 0.224756 -0.1354762 -0.21351777 0.12877473
-0.1471009 -0.07270973 0.17728405 -0.50928926 -1.0620185 -0.15616384 0.07083498 -0.12250669
-0.31233594 0.2048534 0.054331005 -0.035485808 0.18853673 0.10866419 0.3649659 0.17543977
-0.040611207 0.22441724 0.16080092 -0.14205767 -0.07130374 0.41444007 0.07341878 -0.1744693
-0.14226127 0.034990553 -0.03809786 0.1566206 -0.3374457 -0.14024216 -0.5888225 -0.16283096
0.15203094 -0.5693107 0.09109239 -0.13005953 -0.49335867 -0.25870487 0.24999587 -0.03999517
0.22730495 0.229438 -0.16641095 -0.28581864 -0.033049796 -0.008410901 -0.02950224 -0.049204316
-0.14552584 -0.116272315 -0.3962856 -0.15853019 0.11077667 0.61686814 -0.43047988 -0.06090017
0.026404278 -0.25938416 0.0973126 0.18305174 0.0009279549 -0.22857413 -0.17346011 -0.1396952
-0.18562558 0.0071424246 -0.14630468 -0.2925559 -0.47301129 -0.15829633 0.001724559 -0.012397623
-0.023676194 0.0033750643 0.23515615 -0.21565944 0.25107986 0.066152334 -0.30289596 -0.13967419
0.05699706 -0.03776803 -0.2709278 -0.16745955 -0.115573846 -0.24490714 -0.4768335 -0.11989716
-0.2547753 -0.018466018 -0.038515687 -0.447826 -0.16755833 -0.2430065 0.08674157 0.14508405
-0.16850689 0.11094395 0.25174037 0.12638439 -0.45219958 -0.3231892 -0.25154352 0.1818593
-0.114738904 -0.18358123 -0.20594701 0.014503251 -0.095496684 -0.061517082 0.113746405 -0.25628817
0.23860568 -0.03805602 0.0019386174 -0.09518105 -0.09198079 0.1585018 -0.044677373 0.015233308
-0.27909744 0.21617492 0.10888395 -0.9147406 -0.28712943 0.19249704 -0.20677595 -0.18769874
-0.049040854 -0.22434492 0.042649917 0.024933504 -0.016022468 0.022456624 0.44333822 0.058423884
0.05306353 -0.51604074 0.10941249 0.09276805 0.038040712 0.13351624 -0.29230866 -0.06878651
0.17232943 -0.22574207 -0.24190558 0.1698524 -0.17064191 -0.00040514546 -0.09272547 0.09832627

conv1.nn.2.bias f4 [32]
00000000: 694e 0bbe 09f4 b73e 8a21 b03e 1e03 103e
00000010: c8ad 9ebc 01d1 0ebe 13f3 413e 1c3a 4d3d
00000020: 1787 af3d 9fe9 e4be 69f0 d2bd fcf6 6cbd
00000030: 33cc 80bc 8886 1fbd 5cca 5cbe 6132 ebbe
00000040: cb07 9cbe 86d1 11bd 0240 c4be f2fa 15bf
00000050: 2af3 5f3d 7b77 1b3e c63c a73c fa3d f83d
00000060: 5d1f 00bf 84ee 0ebf dde5 66be 1d23 92be
00000070: 54f5 91be bb05 e1be 557c 963d 6f96 a4bd
-0.1360413 0.35928372 0.34400588 0.14063689 -0.019369975 -0.13946916 0.18940382 0.050104246
0.08570688 -0.4470949 -0.10299761 -0.05785273 -0.01572237 -0.03894666 -0.21561569 -0.45936874
-0.30474696 -0.035600208 -0.38330084 -0.5858604 0.05467526 0.15182297 0.020414721 0.12121196
-0.50047857 -0.55832696 -0.22548623 -0.28542414 -0.28507483 -0.43949685 0.07347933 -0.080365054

conv1.lin.weight f4 [9, 3]
00000000: 53ae 063c 8405 07bf 9abb bfbe 973b 073f
00000010: d2c4 27bf fa43 ecbe 8bb3 b1be 4065 2bbf
00000020: c222 8cbc 1539 13bf 4e9a cebd 3487 15bf
00000030: 2776 d03e 0438 bd3c d262 0bbf c43b b43e
00000040: 2d1f 06bf 1ca6 34be c34b e73d 3ade e3bd
00000050: 6a51 9bbe 344f c23e 1a9e ccbe bf94 af3e
00000060: 05ca 6d3e 3b8d c53e 0cbd 31bf
0.008220273 -0.5274279 -0.37447816 0.528253 -0.655347 -0.46145612 -0.34707293 -0.6695137
-0.017106418 -0.57508975 -0.10088025 -0.5840943 0.40715143 0.023098 -0.5444766 0.35201848
-0.5239132 -0.1764149 0.11293747 -0.11126371 -0.30335552 0.37951052 -0.39964372 0.34293172
0.23221596 0.38584313 -0.6942909

conv1.lin.bias f4 [9]
00000000: c27e 2dbf 7148 4c3e 6840 7ebe e318 293e
00000010: 017f 80be ad72 d43d 4fe0 ea3e d593 14bd
00000020: 78a1 a9be
-0.6777154 0.19949509 -0.24829257 0.165134 -0.25096896 0.10373435 0.4587426 -0.036273796
-0.33131003

conv2.nn.0.weight f4 [64, 32]
00000000: 2b62 cebe 5c49 4a3e 2d13 8fbe 797e e6be
00000010: 04ea febd 8679 bf3d 7a24 9ebe 5519 d8bd
00000020: c968 b13b a6f9 15bd 54c3 c6bd a0e0 b13d
00000030: 453e 833a 2d01 8dbe f4c6 49bd f52d a7bd
00000040: 4c23 57bd 9dee 36be 6139 9abd 17df 98bc
00000050: c3ce 8bbe ecee a4be e3f1 00bd 15cc 5cbd
00000060: fd60 033e f828 a7be a08d 60be f648 35bd
00000070: 821c 67be 551c 1f3e 233c bbbd 3666 dfb9
00000080: 06e6 4d3d 5ad0 14bd 990c 75be 4f59 3fbe
00000090: 5808 99bd ddc2 f63d dea6 3f3d 7e25 37be
000000a0: b3f4 69be b3de 15be 360b 2f3c b96c 54be
000000b0: 3be6 4e3d fc50 8abd 2f51 2abc 92b3 a23d
000000c0: ee4b 883d 0ed3 9abd 1326 0cbe f6fd 083c
000000d0: e048 31be 4de5 02be 748e 4cbd 3ba2 ae3d
000000e0: 8362 0ebe 1242 3cbe 7e1b f23d 54ca b8bd
000000f0: bca3 413d 6a08 3e3d 499a febd 79ab 8d3c
00000100: 4a1a f1bd 1d9b 153d 3e3d 98bd 01a8 f1bd
00000110: 14c1 ac3d 00da 47be 2b2a 8a3d 1912 38be
00000120: 88c9 21be 1bc2 c73c eeec 2cbe 109b 8c3b
00000130: 59c9 0139 c224 2c3c 210d 23be d1b7 813d
00000140: 3356 0b3e 3c3c 873d 8319 4a3d b559 17be
00000150: 5b1d 2cbd c63a 26be 3dc7 edbd 4a53 09be
00000160: f18b 0abe c0a6 7c3d b698 fe3c aaa0 2d3e
00000170: 1859 633d aef7 d73c 0c74 d33c 3146 cc3d
00000180: d8e2 87be 70eb cbbd 2b32 bbbd e0b8 2fbe
00000190: c45e 90bd 5eb8 893d eeae 7fbd 0aad aebe
000001a0: 8b2f 26be 89a9 80bd 9b99 6ebe bb2b 5ebe
000001b0: 6864 0d3e aff4 49bd 92f1 363d d123 e3bd
000001c0: 78c6 e03d 2bf5 4cbd a449 5e3e acf3 9ebc
000001d0: 4c48 06bd 7d7f 4abe da38 edbd af62 0a3d
000001e0: a277 553e aded 9cbe 9cf9 053d 6dc8 5a3c
000001f0: 5b73 d8bc de38 953d 2737 32bd 0484 f4bc
00000200: 79c2 32bd b461 593e 4cf2 14bc 142c 833d
00000210: 40b2 21bd 5f28 1cbe 2a96 b53c f874 383d
00000220: 180f b5be 7484 56bf 71f8 d2be 7af4 4fbd
00000230: 5850 8f3e eebc 86be dc16 9abe 6802 6ebe
00000240: 4c30 1d3c bbfd 6abe 076c d2bd 7d1c e7bd
00000250: 6ecd 6ebe d321 a6bd 7235 e0be 12c5 863d
00000260: 9aa3 2d3e 0f06 20be a7e7 fcbd 08de 263e
00000270: ff74 dcbe cbd4 ea3d ca1d b6be d9d0 023e
00000280: 8cc1 92be faf2 1ebe 81ad a9bd 44d8 0ebd
00000290: f057 32be 8e10 3a3c 7ede 243c 521f 1dbd
000002a0: 32d6 553d 2f67 ebbd 5c04 10be 6ed0 0cbe
000002b0: 8389 ebbc 82bd cdbd 8911 2c3d ac2c 3fbe
000002c0: ad1e b53d 2d14 cbbc 3303 e7bd 0684 19be
000002d0: 8749 d5bd 379f 30be 8006 4d3c 1f2e ffbd
000002e0: 8ccc a23c 6530 8abc a158 4c3c 40fa 453c
000002f0: 5ab3 1dbe 45e3 ba3c 5ece 1fbe 34fc 0b3e
00000300: dc98 253e 4328 c3bd 3a08 cb3e 810d 1bbe
00000310: 47ab 94be 09ee 91be 6134 883e 2d78 96bd
00000320: 7d27 fe3d 0c76 4d3e fb4f 263e 46f2 74bf
00000330: 6231 1fbf 8198 2b3e 60fb 36bf 9387 7bbd
00000340: 57c6 a53d 44e5 2ebe 6204 b6be 2137 5fbe
00000350: 2235 a33c 74e7 babe b42b 5abd 03ce 723d
00000360: 2f54 813e 8c5c a5be 1b3b 3cbf 86b0 84be
00000370: f75c 823d 3341 bdbe fdb3 d8bd e344 333d
00000380: e317 af3d 000a c4bc 5f7c a5be e927 b9bd
00000390: e267 20bd 7b93 c0be 2a68 1d3e fc24 67bf
000003a0: c3ad d4bd 1c0a 4f3e d0ed 04be 242b 0fbd
000003b0: 1ebd f9bc 7cba 23bd 2ab1 0fbe 3107 20be
000003c0: 758b 293d 74b0 19be fea3 723e c57f e23d
000003d0: 312d 24be 681f 313d 345f 88be a3c2 f13c
000003e0: 86a8 283e 0d3d 12bd eca4 8bbc 7342 823a
000003f0: bdcb 1c3d 30bc c5be 59f6 003e f353 f9bc
-0.4030927 0.19754547 -0.27944317 -0.45018366 -0.12446979 0.09349351 -0.30887204 -0.10551707
0.0054141027 -0.036615036 -0.09705225 0.08685422 0.0010013065 -0.2753996 -0.049262002 -0.081630625
-0.052523896 -0.17864461 -0.075304754 -0.018661065 -0.27306184 -0.32213533 -0.03148068 -0.053905565
0.12829967 -0.32648444 -0.21929026 -0.044259034 -0.22569469 0.15538152 -0.091423295 -0.00042610028
0.050268196 -0.036331512 -0.23930587 -0.18686412 -0.074722946 0.12048886 0.046789996 -0.17885396
-0.22847252 -0.14635734 0.010683825 -0.207446 0.050512534 -0.06753728 -0.010395332 0.079444066
0.066551074 -0.07559787 -0.13686399 0.00836133 -0.17312956 -0.12782784 -0.04994054 0.08527037
-0.13904767 -0.18384579 0.1182165 -0.09022966 0.04727529 0.046394743 -0.12431771 0.017293679
-0.11772592 0.03652488 -0.07433556 -0.11799622 0.08435264 -0.19516754 0.06746324 -0.17975654
-0.15799534 0.024384549 -0.16887257 0.004290946 0.00012377407 0.010506811 -0.15922977 0.06333888
0.13607101 0.06603286 0.049340736 -0.14780314 -0.042020183 -0.16233358 -0.11610267 -0.13410679
-0.13529946 0.061682463 0.031078678 0.1695582 0.05550489 0.02636322 0.025812171 0.099743254
-0.26540256 -0.099570155 -0.09140428 -0.17160368 -0.07049325 0.067246184 -0.062422685 -0.34116393
-0.16229074 -0.06282336 -0.23300783 -0.2169637 0.13807833 -0.049305614 0.044663973 -0.11090816
0.10975355 -0.050038498 0.21707779 -0.019403301 -0.03278379 -0.19775195 -0.11583109 0.03378552
0.20846418 -0.30650082 0.03270875 0.013353449 -0.026422193 0.07286237 -0.04350963 -0.029848106
-0.043642495 0.21228677 -0.009090971 0.064048916 -0.039476633 -0.15249775 0.02216633 0.045033425
-0.35363078 -0.8379586 -0.4120517 -0.05077026 0.27990985 -0.26316017 -0.30095565 -0.23243105
0.009594034 -0.22948353 -0.10274511 -0.112847306 -0.23320553 -0.0811192 -0.43790776 0.06580557
0.1695694 -0.15627311 -0.12348872 0.16295636 -0.4305801 0.11466368 -0.35569602 0.12774982
-0.2866329 -0.15522376 -0.08285046 -0.034874216 -0.17416358 0.011356486 0.010062812 -0.038359948
0.052206226 -0.1149429 -0.14064163 -0.13751385 -0.028752094 -0.10045911 0.04200891 -0.18669385
0.088437416 -0.024789894 -0.11279907 -0.14991769 -0.10414415 -0.17248236 0.012513757 -0.12459969
0.019872926 -0.01686878 0.012472303 0.01208359 -0.15400448 0.022813449 -0.15606067 0.13670427
0.16171592 -0.09529164 0.39654714 -0.1514187 -0.29036924 -0.2850192 0.26602462 -0.073471405
0.124098755 0.20064563 0.16241448 -0.9568218 -0.6218473 0.16757394 -0.7147732 -0.06140859
0.08094471 -0.17079645 -0.3555022 -0.21798374 0.019922797 -0.3650471 -0.053264335 0.0592785
0.2525954 -0.3229717 -0.7352769 -0.25915927 0.06365388 -0.36963806 -0.10581205 0.043766867
0.08549478 -0.02393055 -0.3232145 -0.090408154 -0.03916157 -0.3761252 0.15371767 -0.9029081
-0.10384705 0.202187 -0.12981343 -0.03495325 -0.030485686 -0.039972767 -0.14032426 -0.15627743
0.041392762 -0.15008718 0.2369537 0.11059526 -0.16032864 0.043242842 -0.26635134 0.029511755
0.16470537 -0.035702754 -0.017046414 0.0009938016 0.038280237 -0.38620138 0.12593974 -0.030435538

conv2.nn.0.bias f4 [64]
00000000: 0b55 563e 5324 8ebd d5b9 ecbd d322 993c
00000010: 2a5a d03d b122 91be 7dad 5cbe 9ec1 4d3d
00000020: 235b 6b3d b170 ba3e 9fe1 523e 9afd c23d
00000030: a7ac 2e3e 0015 cebe 407a 4abe 3f4a 4abe
00000040: a7a8 893e c28f bb3b 8276 e5bd 1af0 22bf
00000050: 5619 25be f75b 55be 53c1 c93d 81a8 d23d
00000060: 9a63 743e a2b6 82bb d8ac ebbe a050 ed3d
00000070: 86ef 47be 15fe 15be 21eb f2bd 21ce 80be
00000080: c991 853e 24b0 343e 7d45 353d d1a1 34be
00000090: 763a 58bf 9102 5ebe c8e9 b53e c1ca 64be
000000a0: 7ea9 113e 8919 0c3d 9938 d43d 9300 43be
000000b0: d5e9 223a 06f8 54be fa68 06be b2ba 84be
000000c0: c071 80bc 04c7 b13d 7a93 a5bd 3c5a 2f3e
000000d0: db31 04bf e642 523e e684 a3be 5b3f bf3e
000000e0: 752c efbd a442 f6bd e0e4 ccbd 7fbd a7bc
000000f0: b3d0 2c3e c4b5 1ebe b571 2abe 9113 183e
0.20930879 -0.06940522 -0.11558882 0.018693363 0.101734474 -0.2834678 -0.21550556 0.050233476
0.05745996 0.36414102 0.2059388 0.09521027 0.17058049 -0.40250397 -0.19773197 -0.19754885
0.26886484 0.0057239244 -0.11204244 -0.63647616 -0.16122946 -0.20835863 0.09851327 0.10286046
0.2386612 -0.0039890567 -0.46030307 0.115876436 -0.19524965 -0.14647706 -0.118612535 -0.25157264
0.26087788 0.17645317 0.044255722 -0.17639853 -0.84464204 -0.21680667 0.35529923 -0.2234297
0.14224812 0.03420404 0.10362358 -0.19043188 0.0006214653 -0.20797738 -0.13125983 -0.25923687
-0.01567924 0.08680537 -0.080847695 0.17124265 -0.51638573 0.20533332 -0.3193733 0.37353024
-0.116784014 -0.120244294 -0.10004592 -0.020476101 0.16876487 -0.15499026 -0.16644938 0.14851214

conv2.nn.2.weight f4 [128, 64]
00000000: 504e 3abd b3bc 703d 337a 54bd 707e 29bc
00000010: 1969 39bc 3687 ba3d 5ee4 41be 3d7f e93d
00000020: 079a d93d d8c1 13bd c7a6 2e3e efaa 9ebe
00000030: 95b7 0a3d 9a88 703e ddad 0ebe f0fc 5b3d
00000040: 5973 8abb 2c3c e43d 7db7 0dbe 5b76 0f3d
00000050: facb eebd 9441 37bb 143c 9a3c 29e9 f5bd
00000060: 844a 893d d344 01be b896 8b3c 9e3b 20bc
00000070: 47c9 33bd 16e0 b33d 3969 0dbe a11d fc3d
00000080: cf10 c73a dda1 d83d e8a6 4c3e 84ff d4bd
00000090: 587a b53d 00b3 0eba e04e 6cbe 00c0 bebc
000000a0: c5ad 083e 0b94 873e 10a4 d0bd c0cf 19bc
000000b0: 2bc7 aabd d636 cdbc 1cc3 b9bd 839f 3c3e
000000c0: c0ca da3d 31a7 12be c232 a83d 64a8 bfbc
000000d0: 72ef 7abe 2325 af3d 5544 a6ba 602e 8dbd
000000e0: 2bf1 26be a88a cd3d f065 3cbd ec99 82be
000000f0: e850 85bd 9ec8 963c 7e6b 38be f33c c8bd
00000100: edfd 193d 1e2b 2cbe 73cd 72bb ac7c 88bd
00000110: 013e 0e3d 644e 19bd 9eee a03c c0c8 94bd
00000120: 62ed fc3e a8ef f23c 14de f33d 780f 01be
00000130: 2412 fe3d 78e4 243e 8008 963c 6842 c2bd
00000140: eb68 d53e f83e ab3d 5ef0 4bbe 3a61 263d
00000150: 92d0 e83d ab6b a73d fb78 eebd 92b5 4fbe
00000160: 5ae6 163e b2a4 a53c 4bf6 96bd 3561 023e
00000170: d87d 773d fc2f 073e ebe1 5c3e 56c9 f6bb
00000180: ba26 25be 0707 17be 7da6 783d 00f6 8d3a
00000190: f822 8dbd 1c12 913d beef 8abe 5823 4ebd
000001a0: e0c5 263e d463 2db9 aa8a c2bb 7cb8 bfbd
000001b0: 97f5 b6bd 1cc9 3f3c 4804 a03d f599 833e
000001c0: 3a0a 62bd 4204 10be 45fe 433e 866c 753e
000001d0: db4c 08be bbc9 e4bd 8e6f 6bbe 4b82 843e
000001e0: 5cf7 f8bb 1c4f 8abd 540c 7d3d 0707 92be
000001f0: 7aa4 a1bc d224 32be 755a 263e 3b1a 36be
00000200: ddcf cb3d ca2b 1dbd f2b6 a73d e8f6 373e
00000210: c9b6 ac3e c7f0 5d3d 7836 44bc 6da8 aabd
00000220: 4953 eabd eb50 b03d f257 b0ba 11b9 0c3d
00000230: 15b1 33be 5c41 f4bc ed1e 0abe 6273 0f3d
00000240: bb5e 283c 6358 343e 1726 e0bd 1d92 ff3d
00000250: 0ac1 84bd 3df2 bbbc bd91 9dbe 5935 bcbd
00000260: 45eb a93e 278d 59be 6b80 403e 01d6 f6bd
00000270: 7136 6f3d 5c63 693d c2c5 2fbc 00c7 263c
00000280: 3daf 91be 9250 683e fbc9 633e d0d6 c3bd
00000290: ca71 1dbe 2099 cabb 1198 a63d fc96 1a3d
000002a0: 3789 ef3c dc81 c73d e6b3 963c 177d 4b3d
000002b0: 38b9 88be c383 ac3e 9641 e23d ba11 193d
000002c0: 30b5 b83d 7ebb cabd 7537 943e b7e2 413e
000002d0: 1924 94be ca22 9e3d eb85 b6be 3370 0dbe
000002e0: df1d aebd 913e b93d 541c 493c 42fb e1bc
000002f0: 072d 09be 25b9 3cbd aab0 f8bd ee41 1abe
00000300: 37f1 e43d 40c4 cb3c 0459 88bd 9fbc fb3c
00000310: a4d7 a1be e833 73bb 5d25 1cbe e1cc c0be
00000320: 9617 94be 5f26 afbd 84f7 96be 65bc 59bf
00000330: 8efe f7bd ae15 00bf d4fc 5b3d a62b 0abe
00000340: d6df e7be ffd7 96bd 8ba5 f4be 3a60 353d
00000350: 873d a93d 33e7 02bc 0f0d 38be eb3c 813e
00000360: 3936 573e 7c6f 14be 34a3 f3be b3b4 2a3e
00000370: b9c7 44bc 1b17 30be 69f5 dc3d 9b3a 24be
00000380: 26a5 5d3d ba2f 21bd 6553 a03d f65b eb3d
00000390: 5a1f 34be 240f cb3d 6424 c93d 6d8e 13bb
000003a0: 9f5b 07bf f916 b3be 8cd5 d1be 4cbb 8d3d
000003b0: 03cc 8ebe 14c2 9dbd 3183 243e 747f 8dbd
000003c0: e648 bab8 3622 a73d ae39 1dbb be09 c6be
000003d0: 2390 86be 1a61 6d3d e8ed 83be dd28 233f
000003e0: 9bd1 dfbd 2a25 f83d e597 4dbc 378e 19bf
000003f0: cd8b fabd 9690 84bd ac9e a1be 1824 c7bd
-0.04548484 0.058773708 -0.05187435 -0.010345086 -0.011316561 0.09107821 -0.18934771 0.11401222
0.106250815 -0.036073536 0.17055808 -0.30989787 0.033866484 0.2348961 -0.13933511 0.053708017
-0.0042251763 0.111442894 -0.13839526 0.035024982 -0.11659999 -0.0027962672 0.018827476 -0.120073624
0.06703666 -0.1262391 0.017039642 -0.009779839 -0.043893125 0.087829754 -0.1380967 0.12310339
0.0015187504 0.10577748 0.19985545 -0.10400298 0.08861226 -0.0005443543 -0.23076963 -0.023284912
0.13347538 0.26480135 -0.101875424 -0.00938791 -0.083387695 -0.025050562 -0.09070417 0.18420224
0.10683203 -0.14321591 0.08212806 -0.023395725 -0.24505404 0.08552005 -0.001268516 -0.06893611
-0.16302936 0.10036212 -0.045995653 -0.25508058 -0.06509572 0.018406209 -0.18009755 -0.0977725
0.037595678 -0.16813323 -0.0037048727 -0.06664404 0.0347271 -0.037428275 0.019645032 -0.072648525
0.4939986 0.029655293 0.119075924 -0.12603557 0.12405804 0.16102779 0.0183146 -0.09485322
0.4168161 0.0836162 -0.19915912 0.040620066 0.11367907 0.08174833 -0.11644169 -0.20284107
0.1473631 0.020220134 -0.073711954 0.12732394 0.06042275 0.13201898 0.21570556 -0.0075313253
-0.16128054 -0.14748774 0.06070565 0.001083076 -0.068914354 0.07083532 -0.27136034 -0.050326675
0.16286421 -0.00016535755 -0.00593694 -0.093613595 -0.08933561 0.011705663 0.078133166 0.25703397
-0.055185534 -0.14064124 0.19139965 0.2396718 -0.13310568 -0.111712895 -0.22991773 0.25880656
-0.007597847 -0.0675337 0.061779335 -0.28520986 -0.019731749 -0.17396858 0.16245444 -0.17783444
0.09951756 -0.03837184 0.08189191 0.17965281 0.33733204 0.0541847 -0.011975877 -0.08332906
-0.11441667 0.08609184 -0.0013453944 0.03435618 -0.1754802 -0.029816322 -0.1348836 0.035022147
0.010276492 0.17611842 -0.10944765 0.12479041 -0.06482132 -0.022942657 -0.30775252 -0.09189863
0.3318731 -0.21245252 0.18798988 -0.12052537 0.05840153 0.056979522 -0.0107283015 0.010179281
-0.2845401 0.22686985 0.22245018 -0.095624566 -0.15375438 -0.0061828047 0.08134473 0.037741646
0.029240234 0.097415656 0.01839633 0.04967984 -0.2670381 0.33694276 0.11047666 0.03737042
0.09018934 -0.098990425 0.2894856 0.18934141 -0.2893379 0.07721479 -0.35649046 -0.13812332
-0.08501791 0.09045137 0.01227482 -0.02758563 -0.13396083 -0.046075005 -0.12143071 -0.15064213
0.111788206 0.024873853 -0.066576034 0.03072959 -0.31609833 -0.0037109796 -0.15248628 -0.3765631
-0.28924245 -0.085522406 -0.29485714 -0.8505309 -0.12109099 -0.5003308 0.053707913 -0.13493213
-0.4528796 -0.07365417 -0.4778255 0.044281222 0.082636885 -0.0079896925 -0.17973731 0.2524179
0.21016778 -0.14495653 -0.47585452 0.16670494 -0.012010508 -0.17196314 0.10788996 -0.16037981
0.054112576 -0.039352156 0.07828406 0.114921495 -0.17590085 0.09914997 0.09821394 -0.0022515312
-0.5287418 -0.34978464 -0.40983236 0.0692049 -0.27890024 -0.07703033 0.1606567 -0.069090754
-8.8827495e-05 0.08160822 -0.0023990679 -0.38679308 -0.26281843 0.05795393 -0.25767446 0.6373423
-0.10928651 0.121164635 -0.0125484215 -0.5998263 -0.12233696 -0.0647289 -0.3156637 -0.09723681

conv2.nn.2.bias f4 [128]
00000000: 938f 5fbe cc84 1dbe 855f c8bc f2f8 ec3d
00000010: d928 87be 990d e2bd 2408 61be 8bbd 9abd
00000020: 50ec dfbd 8320 a9be c2b6 b7bd e2b3 81be
00000030: 0ecc 11be 0cbf 80bd 0869 82bd 24c0 1c3e
00000040: 2461 55be 927f 34be a1c8 03be 8a5c 53bc
00000050: 4800 b3be ba3b 78bd cb78 3a3d c48a 03bb
00000060: cfce 31bd 91f4 1f3e 4720 703c 1f99 9ebd
00000070: 3072 5dbe 8604 893d 9c1e eb3d b02b 82be
00000080: 6799 9abd 755c 03be 0e37 4abe 116b b7be
00000090: af07 a3be ee57 43be b7c0 1d3e 6a9d 7bbe
000000a0: a784 5abe f427 fcbd 01c4 8cbe b247 09be
000000b0: d489 16be 4dd1 04be 6973 4a3e c8c2 f53d
000000c0: 9bba 1bbe 0eb3 38be ccc3 b5bd fea7 3dbe
000000d0: 382d a23d a8d4 50be 43f7 04be 45ff 253d
000000e0: 49b5 38be 9e9d 2dbe b79a edbd 404e 283e
000000f0: d948 dabd bf75 c33d 5905 2cbe 2479 2dbe
00000100: 98e3 22be e0a9 71be b59b 79be 4567 87be
00000110: c08f 6037 ac71 bcbc 5ad9 75be 20b3 fdbc
00000120: c24d 02be 9526 5bbe 5544 40be 32aa b8bd
00000130: ae38 42be f18c 47be 3fd9 62be 50f2 56be
00000140: 5e9e 7cbd de81 d9bd 75ad 4b3e d23a 0abf
00000150: 3b8c 28be 02e2 37be a4ec 16be 277c efbd
00000160: 1e75 853c c169 1dbe 3a15 5dbe 31fb 7abc
00000170: 3ff5 b2bd 6de3 b2be 1c83 54be 5e3d 1c3e
00000180: be7d 39be 40f0 1ebe 899a cbbe aba0 b03d
00000190: 7541 38be 9f9c 4ebe 63bd e2bd bcbe 1abe
000001a0: ba23 08be a9e3 2e3d 4577 27be e49b e0bd
000001b0: 8371 1ebe a8bd 183e 2f37 8cbe 8e6b 10be
000001c0: 75bf e7be 7b5b a83b eca5 1cbe 4eed 00be
000001d0: e188 84be 93f4 6bbe 0e72 5cbe c424 b7bd
000001e0: 327b 35be 95e9 4ebe 9e3d 76be 2c2a cbbd
000001f0: e534 0d3d f996 bcbd c3c4 62be e340 fbbe
-0.21832113 -0.15382689 -0.02445961 0.1157092 -0.26398352 -0.1103775 -0.21975762 -0.07555684
-0.10933745 -0.33032617 -0.08970405 -0.25332552 -0.14237997 -0.06286439 -0.06367689 0.15307671
-0.20837837 -0.17626789 -0.12869503 -0.012900481 -0.34961152 -0.060603835 0.045525353 -0.0020071724
-0.04341012 0.15620638 0.014656133 -0.07744049 -0.2162559 0.06690316 0.11480448 -0.25423956
-0.075487904 -0.12828238 -0.19747564 -0.35823873 -0.318418 -0.19076511 0.15405546 -0.24571767
-0.21339665 -0.12312308 -0.2749329 -0.13406256 -0.14701015 -0.12970467 0.19770588 0.12000042
-0.15207903 -0.18037054 -0.08875236 -0.18521115 0.07918781 -0.20393622 -0.12984948 0.040526647
-0.18037905 -0.16954657 -0.11601775 0.164361 -0.10658426 0.09543943 -0.16798915 -0.16940743
-0.15907133 -0.23599958 -0.24375804 -0.26445976 1.338491e-05 -0.023003422 -0.24008694 -0.030969203
-0.12724975 -0.21401437 -0.18776067 -0.09016837 -0.18966934 -0.19487359 -0.22153185 -0.20990872
-0.06167447 -0.10620473 0.19890387 -0.53996 -0.16459744 -0.17957309 -0.14738709 -0.11693602
0.016291197 -0.15372373 -0.21590129 -0.015318678 -0.08738183 -0.34939137 -0.2075314 0.15257785
-0.18114373 -0.15521336 -0.39766338 0.08624395 -0.1799372 -0.20176934 -0.11071279 -0.15111822
-0.13294879 0.042697582 -0.16354091 -0.10967234 -0.15472989 0.14916098 -0.27385852 -0.14103529
-0.45263258 0.0051378584 -0.15297669 -0.12590525 -0.2588568 -0.23042516 -0.21527883 -0.08942559
-0.17722777 -0.20206292 -0.24046943 -0.09920153 0.034474272 -0.09208483 -0.22145371 -0.49072942

conv2.lin.weight f4 [32, 3]
00000000: 6dca 913e 980e 00be d590 ab3e a960 ddbe
00000010: 4214 45be e9c2 143d 2415 7d3e 2dd5 9dbd
00000020: 9610 0ebf fd2b 96bf f019 9b3e 3e76 163f
00000030: d8b9 683e dc78 e83d 048a a63e 168f a2be
00000040: 433a c2bd 9e94 0b3e 1ccf 8e3e 3032 90be
00000050: c3dc 9d3d ec8c 5a3e 02d4 fc3d 2f75 04bd
00000060: aebb 57bf ea92 f6be d66e 54bf 0537 c5be
00000070: 2f36 25bd 67b4 18bf 0ffe eebe ae81 343f
00000080: 302c 1f3f e233 153e 6165 5e3f 6352 8cbe
00000090: d4c3 b8be 0655 ef3e 606f 16bf ee33 0cbf
000000a0: b764 35bd bbd7 0abf d2bf 17be 7b2b 90be
000000b0: 0082 723e 7891 d6be 1a57 d1be 3569 cf3e
000000c0: 7fac 43be b69f 83be 11b5 e9be 2d81 61be
000000d0: cc24 67bd 2993 d03e da4e d8be 1bc2 96bc
000000e0: 0218 443e b4e7 323f 6c64 b13c c758 503e
000000f0: 9931 73bd a53a eabe 5397 b5bd d687 b33e
00000100: 2c72 1d3f 03a8 44bf 9d5f 52bf 12f0 02bf
00000110: cc4c 62bd 3b7d 7e3e 85a7 2a3d 34bc 843e
00000120: fe23 7dbf 9a15 15bf 4cae 89be 3607 d23b
00000130: a937 1a3f c6d6 703d c5dd 7d3e 2c75 0a3f
00000140: f9ca e9be 1114 debe 88bb 2a3f ec72 50bf
00000150: 3af8 10be 0093 57be 6348 9bbe 7400 8a3e
00000160: cce2 803f 12f9 9d3b 4265 003f 211c 893e
00000170: 0a26 883d cf09 babd 7936 d03d dea5 e1be
0.2847475 -0.12505567 0.33508936 -0.43237808 -0.19246009 0.036318693 0.24715096 -0.07706676
-0.5549406 -1.1732174 0.30293226 0.58774173 0.22727144 0.11351177 0.32527173 -0.3174979
-0.09483769 0.13630912 0.27892387 -0.2816329 0.077081226 0.2134282 0.12345125 -0.032338317
-0.8427075 -0.48158962 -0.8298162 -0.3851854 -0.040334877 -0.5965027 -0.46678206 0.70510375
0.621768 0.14570573 0.8687344 -0.27406606 -0.36086905 0.46744555 -0.58763695 -0.5476674
-0.044285502 -0.5423543 -0.14819267 -0.28158173 0.23682404 -0.4190786 -0.40886766 0.40509954
-0.19108771 -0.25707787 -0.45645955 -0.22021933 -0.056431577 0.40737274 -0.4224766 -0.018403104
0.19149783 0.698848 0.02165433 0.20346366 -0.059373472 -0.45747867 -0.088667534 0.35064572
0.6150234 -0.76818866 -0.82177144 -0.5114757 -0.05524902 0.24852459 0.041663665 0.25924838
-0.98883045 -0.58236086 -0.2689079 0.006409551 0.6024118 0.058798574 0.2479163 0.5408504
-0.45662668 -0.43374684 0.666924 -0.81425357 -0.14157191 -0.2105217 -0.30328664 0.2695347
1.0069213 0.0048209513 0.5015451 0.26779273 0.066478804 -0.09083902 0.1016664 -0.4407186

conv2.lin.bias f4 [32]
00000000: fc8b aabe 0690 53bf cd86 ee3e 1e84 ccbc
00000010: 10fb dfbe 1a60 26be cf6c 73bf 3915 45be
00000020: 2b7c 0f3f 3ac8 b2be 1bab 883e 35d9 37be
00000030: 87f4 7fbd 0a43 083f 3315 24be a501 1dbd
00000040: c3f3 41be 70b1 77bf e709 5cbe 487c 7cbe
00000050: 9ab3 e03d 0620 f9bc c3d4 a73e 0284 c2be
00000060: c525 80bf 6bba afbd 0fb2 a3be fa89 4bbe
00000070: f74b 05bd f6bd 98be 3ec3 d5bd b2c7 aebe
-0.33309925 -0.8264164 0.4658722 -0.024965342 -0.43746233 -0.16247597 -0.95087904 -0.19246377
0.5604884 -0.34918386 0.26693043 -0.17953952 -0.06248906 0.53227293 -0.16023712 -0.038331646
-0.18940644 -0.96755123 -0.21488152 -0.24656785 0.10971756 -0.030410778 0.32779512 -0.3799134
-1.0011526 -0.08580478 -0.31971785 -0.19876853 -0.03254315 -0.2983243 -0.1043763 -0.3413673

conv3.nn.0.weight f4 [256, 128]
00000000: 667e 5cbd 14d4 39bd 633e 493a 641b 563d
00000010: d6a4 883d 8d34 af3d 126b 37bc b934 a63d
00000020: db68 123c d17d 49bd bdaa ed3c 6b7e 63bd
00000030: e3ef d2bc 0388 88bd f618 aa3b 2d68 ad3d
00000040: 59d0 80bd 0e0a 3d3d 873e a13d ecc8 9d3c
00000050: 4b85 9d3d b3a4 59bc 2a6f cbbc 5afe c33c
00000060: a8df 8c3d 3579 b4bc 52cd e03c d46d a9bd
00000070: 88b0 813d 95b1 853c 2072 a3bd 5b8c 5cbc
00000080: 3ace 8dbd 009b 1e3d 718c f13c 2e0b 8dbd
00000090: 9937 503d f8a2 d2bc dd23 093d 02b7 6cbd
000000a0: cf61 5e3d 4f52 983d d693 91bd ad3f 32bd
000000b0: 8642 a53d b692 0b3d 2bcc 02bd 3019 12bd
000000c0: e77e 033d de92 6ebd 5ca5 21bd faab 64bd
000000d0: b4e0 7d3c d582 cf3c 6402 8abd 56db 78bd
000000e0: 7724 583d 59a0 b1bd 1bc9 c63c 4d45 2ebd
000000f0: 6537 c6bb aec3 a33d be9e 16bd fc87 573c
00000100: 36b9 983d 8c9c aabd 4956 a53d 8e19 b2bd
00000110: a082 ea3c 01c0 6b3c c807 b0bc 4741 b33d
00000120: 519b 05bd aae8 60bd 9f89 203d 75a8 35bd
00000130: 4076 813d 4862 af3d 0f20 36bc 49fa 95bc
00000140: 4d85 20bd e096 62bd 8779 0cbd b44d 353d
00000150: 6e38 c33c 1eb2 36bc c5dc 7d3c 1cf2 953c
00000160: 7232 a1bd c2b3 fdbb af56 a53d e13f 6cbd
00000170: 54fd 64bd 49d0 8b3c 6f6f 29bd 7d03 873d
00000180: 5144 1dbc 2609 20bd 2c20 b13c 2311 5fbd
00000190: a472 8b3b ddf7 8bbc 4044 edbc e6c3 9abc
000001a0: 2827 90bd e7bd bd3b 334b 1d3d fcd7 23bb
000001b0: 039f 133c c9ff 763c a916 59bd 7b41 853c
000001c0: b608 713d 3d84 9bbd 1cce 4a3d cabd 98bc
000001d0: 16ec 00bd ada9 973d 5505 343d 95d8 bcbc
000001e0: 8e0e 843c cf4c 883d 5fbf 11bb 6c09 bc3c
000001f0: 1c8e aabd 397e ac3d 5aca abbd 9ebf e1bc
00000200: 81a6 023c dcd2 1a3d 23c5 683d bdc1 a7bd
00000210: defe 91bd ba6e c63b 265a 0cbd b6c2 473c
00000220: 180f 82bd e6fc 533d 29df a53d 588a 4b3c
00000230: 7059 a13d 0954 a0bd 7d64 6dbd ad5b a13c
00000240: 985d 263d f2bf 5fbd a70a 74bc 72ea 97bd
00000250: d8fd 9f3d 1eb2 043d b389 fabc ae3e aa3c
00000260: c035 a2bd c2fa 5bbd 1c1b a2bd 9fa5 173d
00000270: ac34 7ebc e80f 96bd 6e42 163d fc06 8fbd
00000280: 3f0b 443d 5c43 013d 8e53 813c bfde a93d
00000290: 7bcf 133d e8fa e03a de96 053d ad11 703d
000002a0: a6d0 6ebd 59a0 b3bd 9f28 01bc d759 8e3d
000002b0: 2f1a e83c 75ee ea3c 4716 17bd 53fe ad3d
000002c0: 6c1a b3bd 2667 1ebd 4064 23bd 0301 8dbd
000002d0: ddf2 493d a595 56bd 16fc 76bd e10d 6dbd
000002e0: 6dd5 193b 59cc b63c 4ddb ff3a 2b3a c83a
000002f0: 75f1 6bbc 8c1b 99bb 884b 3d3c acb5 373c
00000300: 802d d6bc 6c9b 6d3d de78 12bd b065 66bd
00000310: b588 833d 627f b63c d980 5bbd 51e5 dcbc
00000320: 3258 dabc e11a 483c f6c5 47bd 6401 203d
00000330: 6b35 dd3c ec11 d2bc badc 4abd afac 73bd
00000340: 7854 2c3d a52f 65bd 0fd3 813c d7f4 083d
00000350: ed41 61bd 1df5 85bd 237b 523d 1916 b53c
00000360: 9094 9cbd 5f56 a4bd 809f 69bd a7c2 9fbd
00000370: 5960 9abd add4 a93d c53e 88bd 2d5d 00bd
00000380: 8520 453d 8d13 a4bd b932 853c 13f2 8fbc
00000390: 3a3e 90bd f5a6 65bd 82bb b4bd 6690 103d
000003a0: dcaa 30bc fa74 3a3c b1a5 4d3d ab1b 6d3d
000003b0: 3be4 8f3d fc21 9b3d 59e5 d63c 0733 1bbd
000003c0: 2cf2 9c3d 0d3f 3ebd f0db 1d3d ecd2 0abc
000003d0: 3100 cb3b 4aab b43d 4a50 913d a5c9 963d
000003e0: 5f31 4dbd 3434 093d 716e 35bd 6889 233c
000003f0: d319 56bd 8de1 ef3c 936c 37bd 1faf 243a
-0.05383148 -0.04536827 0.0007676838 0.052272215 0.06672065 0.08554945 -0.011194961 0.08115525
0.008936132 -0.049192254 0.029012078 -0.055540483 -0.025749153 -0.06666567 0.005190964 0.084671356
-0.06289739 0.046152167 0.07873254 0.019260846 0.07691439 -0.013283896 -0.02483328 0.023924995
0.068785965 -0.022030452 0.027441654 -0.08272901 0.06332499 0.01632003 -0.07980752 -0.013461198
-0.069241 0.03872204 0.029485913 -0.06886898 0.050834272 -0.025712475 0.033481468 -0.057791717
0.054292496 0.07437574 -0.071082756 -0.043517757 0.08069329 0.03407546 -0.03193299 -0.035668552
0.032103445 -0.058245532 -0.03946434 -0.055828072 0.015495468 0.02533094 -0.06738737 -0.06075605
0.05276915 -0.08673162 0.024265816 -0.04254656 -0.006049084 0.07996307 -0.036772482 0.01315498
0.07457201 -0.0833064 0.08073098 -0.086962804 0.02862674 0.014389039 -0.021488085 0.08752685
-0.032618824 -0.054909386 0.039193746 -0.044350106 0.063213825 0.085636675 -0.011116042 -0.018307822
-0.039189626 -0.055319667 -0.034295585 0.044263557 0.023830619 -0.011150865 0.01549453 0.018303923
-0.0787095 -0.007742376 0.08073174 -0.057678107 -0.055905655 0.017067092 -0.041366037 0.06592462
-0.009598807 -0.039071225 0.021621786 -0.054459702 0.0042556096 -0.017085964 -0.028963208 -0.01889224
-0.070387185 0.0057904604 0.038401794 -0.0025000563 0.009010079 0.015075632 -0.053000126 0.016266575
0.058846198 -0.07593582 0.049512967 -0.018645186 -0.03147515 0.0740541 0.043950398 -0.023052493
0.016120221 0.06655275 -0.002223931 0.022953711 -0.083278865 0.084225126 -0.08388205 -0.02755719
0.007974268 0.037798747 0.05682863 -0.081912495 -0.0712869 0.00605568 -0.03426566 0.012192419
-0.06350535 0.051754855 0.08099205 0.01242312 0.07878387 -0.078285284 -0.05795716 0.019697035
0.0406166 -0.054626413 -0.014895118 -0.07417764 0.07812089 0.03239643 -0.030583238 0.020781841
-0.07920408 -0.05370594 -0.07915327 0.037023183 -0.015515488 -0.073272526 0.036684446 -0.06983754
0.047862288 0.03155838 0.015786912 0.082944386 0.03608654 0.001716462 0.03261458 0.058610607
-0.05830445 -0.08770818 -0.00788322 0.06950729 0.028332798 0.028678158 -0.03688648 0.08495774
-0.08745274 -0.03867259 -0.039890528 -0.068849586 0.049303878 -0.052388806 -0.060299 -0.057874564
0.002347316 0.022314237 0.0019520313 0.0015276124 -0.01440083 -0.0046724733 0.011553653 0.011212748
-0.026144743 0.05800955 -0.0357598 -0.05624932 0.06422559 0.022277538 -0.053589676 -0.026964815
-0.026653383 0.01221344 -0.048772775 0.039063826 0.02700301 -0.025643311 -0.049526908 -0.059490856
0.042072743 -0.05595364 0.01584771 0.033436622 -0.054994512 -0.06540892 0.051386964 0.022105264
-0.076455235 -0.080242865 -0.057036877 -0.07800799 -0.07537908 0.08292518 -0.06652597 -0.03133886
0.048126716 -0.080115415 0.016259538 -0.017571485 -0.07043119 -0.056067426 -0.08824827 0.03529396
-0.010782924 0.011380428 0.050206844 0.057887714 0.070259534 0.075748414 0.026232408 -0.03789046
0.07663378 -0.04644685 0.038539827 -0.008473139 0.006195091 0.08821733 0.07095392 0.073626794
-0.050095912 0.03349705 -0.04429478 0.009981491 -0.05227072 0.029282356 -0.04478128 0.00062821986

conv3.nn.0.bias f4 [256]
00000000: 4708 d83c be3e 3c3c bbb8 a4bc cdbd f2bc
00000010: bce7 883d ec53 9b3d 2b46 0fbd c6ce 46bd
00000020: cf7f ecbb 36ae a0bd f58f 323d fcc9 8cbc
00000030: 4417 5bbc 0078 173d 9cd3 e238 a571 c6bc
00000040: ac93 b1bc a773 533d 035a 4a3d 066b 823d
00000050: d1d3 85bd f054 4bbd 234d 5e3d b22b d5bc
00000060: 1bbe 0a3c b9c4 083d c99c 62bd 7e2d 49bd
00000070: 485c 0e3b 2b35 3dbc 6c02 4ebd ab8a b33c
00000080: 298c 7bbd 3fdf 5dbd 8443 863d 7cd5 9d3d
00000090: 8a59 28bd 3fb1 8c3d 6c8b ddbc 5ccc b0bc
000000a0: 47d7 01bd 3cac 40bc e5e3 1abc 85a5 743d
000000b0: f78f 023d 7da3 3fbd 7e72 253d 6ed1 34bd
000000c0: a131 7dbd a59c 1e3d 6e0f 813d a566 7abd
000000d0: d432 ef3c 3e9f 503b 11bb edbc 53e0 88bc
000000e0: 748a 843c ecf2 55bd 4dce da3c 2cac 50bd
000000f0: eaca 183d 01b1 553d 5bb3 b33d f760 5a3c
00000100: 9300 f43c ceff dd3c 921a ac3d 0dcf 2cbd
00000110: 18c6 413d 1700 28bd 6834 b23d 6839 09bd
00000120: 3aaf 59bd 306b 213c 5e5d a6bd 5390 66bb
00000130: 4548 5f3d 54e8 f43b cf3a e63c ad3c 83bd
00000140: a936 04bd ad87 8b3c ad59 de3c 0a21 02bd
00000150: 8b69 0e3c 9ac1 2b3d de45 973d 2127 383d
00000160: 2373 503c 4c1d a53c 1eb9 913c f0b7 a7bd
00000170: 5a46 9fbd a65b 13bd e6dd 93bb 7321 30bd
00000180: 92dc 9c3d 3c97 99bd d6de c43c 0840 babb
00000190: 4854 833d 0c5c febb 8df0 b03d 48ab 64bd
000001a0: f635 9338 7189 723d 66c7 a93d 1dfe 98bb
000001b0: 5000 953d 2e98 ab3d 64eb 37bd b2f2 a83c
000001c0: 78ba 563d 301e 133d 827f aabd 9833 d3bb
000001d0: 3641 993d b0b5 8cbd ff4e 5dbd e170 a2bd
000001e0: 3eed 07bd 44d3 3abd 8c91 8c3d d21c 29bd
000001f0: 6dd6 8c3c c289 413d ba68 c83c 8a97 6a3d
00000200: 00ca f6bc f6e6 82bc 7629 80bd b4e5 b8bc
00000210: c93d 76bd 1788 6fbd c27c a9bc d085 d4bc
00000220: 8bdd 0b3d 59a8 8b3d eea0 aabd 1ef6 b3bd
00000230: 4e7e b2bd fc19 74bd 1f20 2a3a 5b81 4c3d
00000240: ba23 2dbd 80a7 6dbd 01ef b03c e810 84bd
00000250: 5073 40bb 1df6 e4bc 4139 39bc d06f 563d
00000260: 7989 7b3d 0bbc 853d 6954 573d a6a6 a8bd
00000270: 5e63 a93d ce16 3bbd b466 a63d 8b73 a9bd
00000280: 11c2 dd3b 91e0 5cbd 01f9 9ebd a4f8 04bd
00000290: 30f5 743d 2ea3 36bd e642 723d 4302 183d
000002a0: 367b f93c 1460 4cbd 49c8 9bbd c60c 99bd
000002b0: 186e 733d 4f9a c939 ba9e 89bd cba1 2dbc
000002c0: a70b d53c 998c 8ebd cb89 49bd e88d 4cbd
000002d0: 2a05 5abd 0aa9 d7bb 0592 503d 8ed8 7cbd
000002e0: 7fec 4e3d 413b 943d 5dbf 983d 9748 4ebc
000002f0: 7b3f cbbb 43d0 75bb a6c5 dd3c 14fa 90bd
00000300: 5f61 67bd 5f92 35bb e3a6 053d debf 6a3d
00000310: 73aa 023d 5794 7ebd 4b0f 06bc e2f9 ab39
00000320: f063 193c 75e1 203d f123 97bd 37e7 923d
00000330: 2420 503c 76c7 13bd b61c 29bd 8abe adbd
00000340: 39e2 1d3c 7818 adbd 209c 073d c5eb cfbc
00000350: d7a6 163b 30b8 7f3d e3f2 383d dfaf f83c
00000360: 701c 703b ecc4 693c 223c a73b 697f 6cbd
00000370: 0f9b d6bc 062c 0e3d 9079 c9bc eddf b23d
00000380: 15ce 30bd 4a63 a3bd 803d a13d 6f84 a73c
00000390: c42c 51bd 878f ffbc 6065 06bd 0634 acbd
000003a0: 4948 49bb 88a7 243d 05c5 1bbc 95d1 aebc
000003b0: f42c aa3d b665 053d 62a7 46bc ac3e 4dbc
000003c0: 2737 6c3d c828 a33d 3e3e 343d 7dc1 923d
000003d0: 4a37 3dbb 17dd ac3d 6206 943c 3db4 a1bd
000003e0: 96f7 863d a7af 7abd eada 9a3d 104f 8a3d
000003f0: f92b 4a3b a5fb 473d f3f7 20bd 7bd1 b3bd
0.026371134 0.011489568 -0.020107618 -0.02963152 0.06684825 0.07584366 -0.034979027 -0.04853704
-0.0072173844 -0.07845728 0.04359432 -0.017186157 -0.013372246 0.036979675 0.00010815935 -0.024224112
-0.02167686 0.051623967 0.049402248 0.06368069 -0.065345414 -0.04964155 0.054272782 -0.026021812
0.008468176 0.033390734 -0.055325303 -0.04911565 0.0021722484 -0.011548321 -0.05029528 0.021916708
-0.061412964 -0.054167982 0.06555846 0.077067345 -0.041101016 0.068697445 -0.02704402 -0.021581821
-0.031699445 -0.011759814 -0.009453748 0.059728164 0.031875577 -0.046786774 0.04039239 -0.04414504
-0.061814908 0.038723607 0.06301771 -0.061133046 0.029199041 0.0031833197 -0.029019864 -0.016708529
0.0161793 -0.05223362 0.0267097 -0.050945446 0.03730289 0.052170757 0.08774444 0.013328782
0.02978543 0.027099516 0.084035054 -0.042189647 0.047308058 -0.04101571 0.08701402 -0.033502012
-0.053145625 0.009852216 -0.08123277 -0.0035181239 0.05451228 0.0074739847 0.028104214 -0.06408057
-0.03227869 0.017032469 0.02714237 -0.03176979 0.008692156 0.04193268 0.07386373 0.04495919
0.012722763 0.020155571 0.017788466 -0.0818938 -0.0777709 -0.035976075 -0.0045125363 -0.04300065
0.07659258 -0.07499549 0.024032038 -0.0056839027 0.0641256 -0.0077624377 0.086396314 -0.05582741
7.019557e-05 0.059213106 0.08289985 -0.0046689645 0.0727545 0.08378635 -0.04490222 0.020623539
0.052423924 0.03591746 -0.083251014 -0.0064453594 0.07483141 -0.06870592 -0.054030415 -0.07931686
-0.033185236 -0.045611635 0.06863698 -0.04128725 0.01719209 0.047250517 0.024464 0.057273425
-0.030125618 -0.015979271 -0.06257908 -0.022570468 -0.060117517 -0.058479395 -0.020689372 -0.025942713
0.034146827 0.06819219 -0.08331476 -0.087871775 -0.08715497 -0.059595093 0.0006489772 0.04992805
-0.0422704 -0.05802107 0.021598341 -0.06448537 -0.0029365607 -0.027949387 -0.011305154 0.052352726
0.0614104 0.06530007 0.052570734 -0.08234911 0.08270906 -0.045676045 0.08125058 -0.08273991
0.0067675193 -0.0539251 -0.077623375 -0.032463685 0.05980414 -0.044589214 0.05914583 0.037111532
0.03045426 -0.049896315 -0.07606561 -0.074731395 0.059431165 0.00038452676 -0.06719728 -0.0105976565
0.026006533 -0.069604106 -0.049203675 -0.04994002 -0.05322758 -0.0065814303 0.050920505 -0.06172996
0.05051851 0.07237864 0.07458375 -0.012590549 -0.006202636 -0.0037508167 0.027071785 -0.070789486
-0.056489345 -0.0027705652 0.03262986 0.057311885 0.031900834 -0.062153187 -0.008182357 0.0003280184
0.009362206 0.039277513 -0.07379902 0.07173007 0.012702975 -0.036078893 -0.041287147 -0.08483608
0.009636455 -0.08451933 0.033107877 -0.025380978 0.0022987628 0.062431514 0.04515351 0.0303573
0.0036638044 0.014268141 0.005103604 -0.057738695 -0.026196985 0.034709953 -0.024594098 0.08734117
-0.043165285 -0.07977922 0.07873058 0.020448891 -0.051068082 -0.031196369 -0.032811522 -0.0840836
-0.0030713251 0.040198833 -0.009507422 -0.02134017 0.083093554 0.032567702 -0.012124868 -0.012527149
0.057669785 0.07966763 0.04400467 0.07165811 -0.0028872066 0.08440607 0.01806945 -0.07895706
0.06590192 -0.06120267 0.07561286 0.06753361 0.0030848964 0.04882397 -0.039298963 -0.087801896
