A3/MyTeam/A3/classification/custom.pth (torch, 19043 bytes, 13 tensors)

conv1.nn.0.weight f4 [32, 9]
000000 ab 4f 0b 3e 0c f3 1d be 7a d5 c0 3e 56 ee 2d be
       0.1360461 -0.15424746 0.3766287 -0.16985449
000010 06 c3 29 3e 45 f8 3c bf 5f 9c 19 bf 4d 67 fd be
       0.16578302 -0.7381633 -0.6000423 -0.49492875
000020 a6 be 77 bf eb 00 8d bd 93 89 50 3e 8f 1c a2 be
       -0.9677528 -0.06884941 0.2036498 -0.31662413
000030 2e 8a 28 be a8 99 0b 3e 00 c0 52 3e a7 c9 a6 be
       -0.16458961 0.13632834 0.20581055 -0.32575724
000040 6b c6 fe bd 00 90 fc b9 3a 92 3d 3e 3a d6 4f bf
       -0.12440189 -0.00048172474 0.18512812 -0.8118626
000050 8d 37 3e bd 7b c4 01 be ba 20 50 3e 4b 07 80 bf
       -0.046439696 -0.12672608 0.20324984 -1.0002226
000060 9d 1b e4 be 7e 9c 88 3e e8 b5 d0 3e 27 fe 2f 3e
       -0.44552317 0.26681894 0.40763783 0.17186795
000070 32 4e fe be 0f b8 07 bf 9b fb fd 3d d6 c3 88 be
       -0.49669033 -0.53015226 0.124015056 -0.2671191
000080 61 83 a7 3f 46 3e da 3e 97 79 c7 3e f2 6d ea 3e
       1.3086969 0.42625636 0.38959953 0.45787007
000090 ec 96 8d be c6 19 58 be f2 78 96 be 26 a4 06 3e
       -0.27654207 -0.21103582 -0.2938915 0.13148555
0000a0 58 19 58 be 00 85 a6 3b 5e 02 55 be aa 71 9d 3e
       -0.21103418 0.005081773 -0.20801684 0.3075078
0000b0 5b 02 c7 bd 3a b7 6a 3e e9 33 8c bf 6b a6 69 be
       -0.09717246 0.22921458 -1.0953342 -0.2281739
0000c0 e2 f2 06 bf be 86 5d bf 3d 25 2d 3f 2c da fb 3d
       -0.5271436 -0.86533725 0.67634946 0.12297472
0000d0 08 2c c0 be 76 67 d4 be 17 b5 b2 bd 7a 4d 9b be
       -0.37533593 -0.41485184 -0.087259464 -0.30332547
0000e0 13 ff 57 3e fd b3 f4 3d a7 ef 83 3e a0 dc 3c 3f
       0.21093397 0.119483925 0.25768778 0.7377415
0000f0 41 84 72 3e 92 09 a7 bf d2 37 5e bf f9 11 37 3e
       0.23683263 -1.3049796 -0.86803925 0.1787795
000100 27 a0 91 be fc 58 ee 3e fb f7 7c be 91 25 62 3f
       -0.284425 0.46552265 -0.24703972 0.8833857
000110 4c 9b d2 bf b7 5e 04 bf 3b d5 0a bf 1a a9 b2 be
       -1.6453643 -0.51707023 -0.54231614 -0.3489464
000120 95 5e ad be 19 a7 85 be d8 7d f8 3d f2 ec 64 3e
       -0.33861223 -0.26104048 0.12133378 0.22356012
000130 9e 08 32 be f6 66 60 3d 31 ae af be 77 95 4e 3e
       -0.173861 0.05478569 -0.34312585 0.20174204
000140 dc f3 6d bd 27 29 ae 3c 91 42 d4 3d 03 77 27 bd
       -0.05809389 0.021259857 0.10364259 -0.040884983
000150 77 46 58 be 2b a9 57 be 0a 9d 94 be fa 7a b4 be
       -0.2112063 -0.21060626 -0.2902606 -0.35250074
000160 d8 74 86 be b1 05 9a 3e 74 e1 34 be 56 b5 91 39
       -0.2626102 0.30082467 -0.17664129 0.0002779166
000170 e8 ed 7c be fe 1b 11 bd e0 52 95 be 2b 21 68 3d
       -0.24700129 -0.035427086 -0.2916479 0.056672256
000180 a3 ea fb bc 53 db 61 be 0b 11 50 3e a6 4a ed b9
       -0.030751532 -0.22056322 0.20319001 -0.0004525978
000190 91 04 21 3f a8 9f 8c 3e 05 36 89 bd a6 1c 33 be
       0.6289759 0.27465558 -0.066997565 -0.17491397
0001a0 b7 9e b8 bf cd 09 93 be 29 e2 60 bf a2 ea 48 be
       -1.4423436 -0.28718415 -0.87845093 -0.19620755
0001b0 35 1f 54 3e 1a ec cf 3d 50 46 f1 3d 5e cd bc bd
       0.2071503 0.10152455 0.11780989 -0.09218858
0001c0 78 c1 e2 3d 03 5a 2c 3f 9a 08 1b bf 46 91 94 be
       0.110720575 0.67324847 -0.6056 -0.29017085
0001d0 c8 f0 fa bd ef 6e d7 3c 5d 65 07 3e 86 11 0c 3e
       -0.12252957 0.026298014 0.13222261 0.1367856
0001e0 be cc bc 3d 47 04 90 3d b7 df 88 3e 98 6c 5b bf
       0.09218739 0.07032066 0.2673318 -0.85712576
0001f0 e0 31 25 bf 3e ff 06 be 4d b9 22 3e d1 39 8e bf
       -0.6452923 -0.13183305 0.15890999 -1.1111394
000200 cf 05 08 3e 75 26 99 be 2c b6 74 3e 3e f9 3a 3b
       0.13283466 -0.29912153 0.23897618 0.0028529908
000210 5f ee fb bd ac 7e dd 3d 11 eb ec 3e be f8 af be
       -0.12301325 0.10815176 0.4627309 -0.34369463
000220 ac 3e 42 bd 33 c5 b3 3e ed ae df 3d 99 1e 9f 3e
       -0.04742305 0.3511139 0.10922036 0.31078032
000230 17 ca bd 3e 03 d6 a1 bd 08 88 c8 3f 5a b3 a4 3e
       0.37068245 -0.079021476 1.5666513 0.32168084
000240 92 5c 85 3e 5d ea 9d bf 36 34 b7 3e d9 e0 ed be
       0.26047188 -1.2337147 0.3578202 -0.46460608
000250 a3 1d e4 3c 94 45 fc bf c6 87 4f be 31 5d 6d be
       0.027846163 -1.9708734 -0.20266637 -0.23180081
000260 27 c9 55 3e 52 f5 96 3d c5 95 0d bb ea 92 88 3e
       0.20877515 0.0737101 -0.0021604162 0.26674587
000270 1a bd 56 bd 23 5d c2 3e 7f a3 55 bf 2d 9d 37 bf
       -0.052426435 0.37961683 -0.834526 -0.71724206
000280 ae 26 87 be a4 13 48 be d2 8c 56 bd e9 35 88 3e
       -0.26396698 -0.19538742 -0.05238039 0.2660363
000290 d5 21 cc be 6a 8c a6 3e ed 2a b5 3e 43 8e 00 be
       -0.39869562 0.32529002 0.35384312 -0.12554269
0002a0 87 fa 56 3e 8b e7 e3 be be 60 1f bf d7 5a 8f bd
       0.20994006 -0.4451259 -0.6225699 -0.06999748
0002b0 4f b6 32 3f 90 76 67 b9 60 23 b1 bb 17 da 46 bf
       0.6980943 -0.00022074045 -0.0054058284 -0.7767653
0002c0 4e 50 b9 bd 3a 04 b6 3e cf 9c 74 bf 3b d5 b7 be
       -0.0904852 0.355501 -0.9555177 -0.3590487
0002d0 c3 6f db 3d 0b a4 d0 bd 8b c0 38 3e 06 4a f5 3c
       0.10714676 -0.10187539 0.180422 0.029942524
0002e0 10 e1 79 be bb 3c 17 c0 97 bb e6 be 51 a5 00 bf
       -0.24402261 -2.3630817 -0.45064995 -0.5025225
0002f0 00 4d 40 bf 52 4b 2c be 8c f6 e6 3e 80 84 84 3e
       -0.7511749 -0.16825607 0.45109975 0.2588234
000300 06 23 90 3e 7f 12 65 bd b6 d1 f5 3c 0c 94 ca be
       0.2815172 -0.055925842 0.030007225 -0.39566076
000310 3f f5 8e bf ed 81 12 bf e4 b3 7e bc 5d 7d 29 3d
       -1.1168593 -0.572295 -0.015545819 0.04137932
000320 1d 49 86 3d c8 e6 b2 be 48 af 7c 3d 46 b6 a6 3e
       0.06556914 -0.34941697 0.0616906 0.3256094
000330 3f ef 16 3e a0 0b 71 3e e5 63 38 be 6c fc f3 3d
       0.14739703 0.23539591 -0.18006857 0.1191338
000340 ae 5e 90 be 29 42 5b be 58 04 4e be a0 3c 20 be
       -0.28197235 -0.21411957 -0.20118845 -0.15648127
000350 19 6f 0e bf 01 b2 b7 3e 18 c1 6d be f8 71 d1 3e
       -0.5563827 0.35877994 -0.2321819 0.40907264
000360 62 79 de be b7 28 14 3e 41 e4 a8 3e 83 d3 83 3e
       -0.43451983 0.14468656 0.32986644 0.25747308
000370 5c 06 98 3e f5 05 44 3f d2 51 fe bd ca 01 8c 3e
       0.29692352 0.7657159 -0.1241795 0.27345115
000380 3a 9b fd 3e 26 bf fc bd ab 8c 3b 3d 8b 16 73 3d
       0.4953249 -0.12341146 0.04578845 0.05934767
000390 e3 d9 99 be d6 a8 35 3e 56 32 b9 3d df f2 93 3e
       -0.30049047 0.17740187 0.09042804 0.28896233
0003a0 98 9c 96 be 6e 95 3a be 57 3c b9 bd c9 23 1b 3e
       -0.29416347 -0.18221065 -0.09044712 0.1515037
0003b0 c9 15 d3 be 97 dc cc 3e 73 fc 09 bf 79 f0 59 3f
       -0.41227558 0.40012047 -0.5390083 0.8513256
0003c0 fc be e6 3e 14 27 b5 3d 2d ab bd bd 72 df 8b bd
       0.45067585 0.08845344 -0.09261165 -0.06829728
0003d0 da b9 cc be 13 4d 84 3e 95 ca a0 3d 42 0c 09 3f
       -0.39985543 0.25840053 0.078511395 0.5353433
0003e0 50 7b 0b bf db 89 12 be 48 59 0d bf 83 da b5 be
       -0.54485035 -0.143104 -0.5521436 -0.35518274
0003f0 9f 01 be bb 69 0c 2e 3c 55 47 7a 3e 92 95 86 be
       -0.005798533 0.010623076 0.24441274 -0.26285988

conv1.nn.0.bias f4 [32]
000000 ad 87 9a 3d 23 bc a0 3e 9f 24 48 3e 05 1e 85 3c
       0.07545409 0.31393537 0.1954522 0.016249666
000010 c0 04 b5 3d d2 22 52 be df 3f 4d 3e 69 ce 03 3e
       0.088387966 -0.20521095 0.20043896 0.12871708
000020 c0 ad 19 3d a9 ec 12 be db ef 86 3e 67 cd 5a be
       0.037519217 -0.14348091 0.2635487 -0.21367417
000030 07 2d f3 be 45 5a 90 be 08 44 08 3f 21 0b 9e bc
       -0.4749529 -0.2819387 0.5322881 -0.019292416
000040 77 42 a0 3e 80 3f 02 bf e0 fc 8f be ec 9d b1 3e
       0.3130071 -0.50878143 -0.28122616 0.34690797
000050 57 37 f1 bd 01 4a 6b 3e 1a 48 54 be 76 12 2e 3e
       -0.11778133 0.22977449 -0.2073063 0.1699923
000060 73 d2 5f 3d 2c 69 a3 3e e2 3f 75 be 56 46 6a 3e
       0.05464406 0.31916177 -0.2395015 0.22878394
000070 21 cf 69 3e 4f 50 b9 bd 90 ff 5c 3e 26 06 44 bf
       0.2283292 -0.09048521 0.21581864 -0.7657188

conv1.nn.2.weight f4 [32, 32]
000000 15 27 6d 37 39 ae d3 3d 09 33 a7 bd 23 a5 80 be
       1.41354e-05 0.10335965 -0.08164031 -0.2512599
000010 63 d1 a5 3d b3 ee dc 3d 46 c9 0b 3d b3 49 91 bd
       0.08096578 0.10787716 0.034127496 -0.07094135
000020 06 cb 83 3d fd 13 e9 3d e0 c1 cf bc 7c 04 fe bd
       0.06435208 0.113807656 -0.025361001 -0.12403199
000030 b3 e5 6b be e1 cc 2b bd f0 f6 87 be 05 d1 67 bd
       -0.23036842 -0.041943435 -0.26555586 -0.05659582
000040 25 cf 01 3e 65 99 9a 3c 97 6a 15 bd b7 e9 29 bc
       0.12676676 0.018871972 -0.036478605 -0.010370663
000050 8b 72 15 be 27 46 4f be 92 9e f4 3c 02 c6 95 be
       -0.14594476 -0.20241605 0.029860768 -0.2925263
000060 9c 0b ae 3c cf 4b 25 be 53 42 6a bc f2 05 45 3d
       0.02124577 -0.161422 -0.0142980395 0.048101373
000070 15 16 ba bd 36 4f 68 bd 61 3c dd bd 0e 68 ff bd
       -0.09086243 -0.056716166 -0.10802532 -0.12471019
000080 1c 61 35 be f0 18 b7 bd 14 55 10 be 0f 55 9c bd
       -0.17712826 -0.08940303 -0.14094955 -0.07633411
000090 33 77 f7 bc 87 83 c9 bd a4 1c ed bb 26 f7 48 3b
       -0.030208206 -0.0983954 -0.0072360802 0.003066489
0000a0 60 1a 15 be 9c 14 1b be 40 8c 1f 3e 33 b0 83 bb
       -0.14560843 -0.1514458 0.15580845 -0.0040188073
0000b0 10 48 0f be 81 d1 19 3e 84 0a 18 bc 29 8e d6 bc
       -0.13992333 0.15021326 -0.009279851 -0.026190834
0000c0 fd 86 5d bb 55 13 26 be 3a 39 57 bc 4d e8 a9 3d
       -0.0033802383 -0.16218312 -0.0131362025 0.08296261
0000d0 29 42 34 3d 47 8b d8 bd f9 42 9a bd 5a 6e 0b be
       0.044008408 -0.1057344 -0.07532305 -0.13616315
0000e0 b0 f9 02 be 2a e2 4a 3d 80 50 c2 bd 5f 7c 00 be
       -0.1279056 0.049532093 -0.094880104 -0.12547444
0000f0 72 6b fd bd da c5 ba ba f5 17 0e bd db 66 d6 bd
       -0.12374009 -0.0014249638 -0.034690816 -0.10468837
000100 5d e9 4e be 4c 0d 14 3d 0e 04 cc bd b6 8a 15 be
       -0.20206209 0.036145493 -0.09961711 -0.14603695
000110 78 cc 18 be 7f 8b 4d bd af 72 11 be 58 73 f4 3c
       -0.14921749 -0.050181862 -0.14203905 0.029840156
000120 b0 be 12 be 7b 09 02 3e fc 06 00 3e ad 07 73 bd
       -0.14330554 0.12698929 0.12502664 -0.059333492
000130 a4 46 b4 3d 0c 9f 71 3d bf af 0c bd 5a d9 80 be
       0.08802536 0.05898957 -0.034347292 -0.25165826
000140 32 f4 9b 3d d3 26 bc 3b 68 0c c5 bd 98 d3 8c 3c
       0.07614936 0.005741933 -0.09621507 0.01719074
000150 80 47 58 bc a0 ac dc 3b 64 09 e3 bc b1 0a 04 be
       -0.013200641 0.0067344457 -0.027714439 -0.12894703
000160 83 0c e9 3c 5b 13 46 bd 7d 94 df bd 43 f7 d6 bd
       0.028448349 -0.048358303 -0.10916994 -0.1049638
000170 b6 d4 11 3e b0 30 93 bd ea 6b 08 3c 36 00 c8 3d
       0.14241299 -0.07187021 0.00832651 0.09765665
000180 b9 c3 08 be 83 5b 85 3d fb f3 b9 bd 7e 37 80 3d
       -0.13355912 0.06511595 -0.09079739 0.06260584
000190 7d b9 0c be c0 79 25 be 2a f2 0d 3d 4a 7b 12 be
       -0.13742633 -0.16159725 0.034654774 -0.14304844
0001a0 c0 6f 19 be 0a 72 68 bd cd d4 9e 3d 9f f9 a9 3d
       -0.14984035 -0.05674938 0.07755432 0.082995646
0001b0 ed 04 d4 3c 5d 91 f0 3c 45 c4 5f be 99 d1 fc bd
       0.025881255 0.02936619 -0.21852215 -0.12344665
0001c0 39 e0 11 3d ff 53 20 3d c5 db c5 bd 6e 63 5c bd
       0.035614226 0.039142605 -0.09661058 -0.05380576
0001d0 33 67 31 3d 50 5f 53 3c 61 c6 a8 bd d2 a1 6c be
       0.04331131 0.012901142 -0.08240963 -0.23108605
0001e0 c2 26 04 be 2a 36 0e 3d 9e e3 5a be 4c 2f 50 be
       -0.1290541 0.034719624 -0.21375892 -0.20330542
0001f0 7a 71 1c be 46 3f 99 3d 19 db 88 3d 65 6e b7 3d
       -0.15277663 0.074827716 0.066824146 0.08956603
000200 0e 6c 9e 3e 0c 1e 01 3e 06 17 bc 3d 5b da 72 be
       0.30941814 0.12609118 0.09184079 -0.23716109
000210 4f b9 30 3e 92 3c cd bd 99 5c 26 3c cb 85 99 3e
       0.1725819 -0.100213185 0.010153913 0.29984888
000220 3e 5b 78 be 6e b2 82 3d 53 73 25 3d f6 85 36 bc
       -0.24253556 0.06381689 0.040393185 -0.011140337
000230 a0 a2 95 3d cf 38 b4 3c c4 c7 cb 3d 02 f3 3a 3d
       0.07306409 0.021999745 0.09950212 0.045641907
000240 0b da 7b 3e de 26 bd 3e 59 6d 52 bd ef dc c3 3d
       0.24594896 0.36943716 -0.051373813 0.09563624
000250 48 9b fc 3d 2a 2d 26 3e 92 2f 92 3c 62 66 81 3c
       0.12334305 0.16228166 0.017844949 0.01579589
000260 a8 14 ef 3d 9f d0 78 bd 6c ec 03 bf dc de ee 3d
       0.11673862 -0.06074583 -0.51532626 0.11663601
000270 a0 06 7d bb dc 6e db 3d 42 af 21 be b2 be 63 bf
       -0.0038608685 0.10714504 -0.15789512 -0.8896285
000280 e6 4f 58 be 99 db fb bd 3d 4a d9 bd 1a fc 08 ba
       -0.21124229 -0.12297744 -0.10609863 -0.00052255543
000290 51 a3 1c 3d b2 2e 00 be a0 4e f1 bd 12 d4 a5 bd
       0.03824169 -0.12517813 -0.11782575 -0.0809709
0002a0 1a 8a 12 3e 56 30 2f 3e de 86 0b be 9b 2f d0 bd
       0.14310494 0.17108282 -0.13625666 -0.1016533
0002b0 d5 98 06 be 75 e9 07 be 20 18 e7 bd e7 bd 90 3d
       -0.13144238 -0.1327265 -0.11283898 0.07067471
0002c0 15 4e 4b 3d 4e 2d 16 bc 7c 81 f2 bc a1 a9 85 3c
       0.04963501 -0.009166075 -0.029602759 0.016316237
0002d0 b6 52 e8 3d ed 20 6a 3d b9 ff 1d 3d 04 0e 8c 3c
       0.11343901 0.057160307 0.038573954 0.017096527
0002e0 9c 15 3b be 78 83 8f 3d 3a 80 00 be df 53 05 be
       -0.18269962 0.070074975 -0.12548915 -0.13020276
0002f0 12 d0 b0 3d 2f b4 da bb e1 f7 d6 3d aa e8 06 be
       0.08633436 -0.0066743116 0.10496498 -0.13174692
000300 b1 06 94 3e a0 48 2b be 60 ad 39 3e 17 53 c5 3d
       0.28911355 -0.16726923 0.18132544 0.09634989
000310 ea d4 e6 ba d2 dd 3b bf 77 f7 e5 be b6 f0 8e 3e
       -0.0017611061 -0.73385346 -0.44915363 0.27918023
000320 e7 e1 06 3d 68 1a 6c 3c 06 0d 1f be 1e eb 0e be
       0.03293028 0.014410593 -0.15532312 -0.13956878
000330 5e 71 c0 3d 27 7b b6 3c cc 22 26 3e a7 69 30 3f
       0.09396623 0.02227552 0.16224211 0.6891121
000340 88 b8 a0 3e 26 d7 62 3e bb 70 1e be 8d b6 90 be
       0.31390786 0.22152385 -0.15472691 -0.28264275
000350 1c cb 9b 3d de a2 25 bf 1f dc f4 3d 87 b0 39 3c
       0.076070994 -0.6470164 0.11956047 0.011333591
000360 1c d7 54 3e a8 20 f9 bc 22 00 c8 be 7b ca b4 bb
       0.20785183 -0.03041108 -0.390626 -0.0055173016
000370 bb 71 fa bd a6 67 26 3e 87 15 cb 3d c8 47 b5 be
       -0.122287236 0.16250476 0.099162154 -0.35406327
000380 2a 63 6d be 9e 39 f2 3d a1 36 25 be 97 3d 13 bd
       -0.2318236 0.11827396 -0.1613412 -0.03594741
000390 60 f1 59 bc eb 85 9b bd ea 3d 87 bd e3 e0 d3 bd
       -0.013302177 -0.07593902 -0.06603606 -0.10345628
0003a0 82 a7 f1 3d 9c 15 63 bd cf be 93 3d 85 28 30 3d
       0.11799528 -0.05544053 0.07214128 0.043007392
0003b0 e7 b7 5a bd d7 ea 1c bb d7 36 2b be c3 40 e7 bd
       -0.05339804 -0.0023943686 -0.16720138 -0.11291649
0003c0 85 d9 a1 3d 33 4b 41 bd fa f9 9a 3b 05 3b 51 3d
       0.07902817 -0.047190856 0.0047295066 0.051081676
0003d0 94 42 76 3d e8 4d ec bd 8e ca 84 bc 4e f3 09 bc
       0.060122088 -0.11538297 -0.016209867 -0.008419825
0003e0 6b 3e 01 3e 33 59 1d 3d 0a 87 9b bd 16 67 4b bd
       0.12621467 0.038415145 -0.07594116 -0.049658857
0003f0 fa 82 d0 bd 09 99 16 be 03 cd 13 3e bc 38 09 bd
       -0.10181232 -0.14706816 0.14433675 -0.03350137

conv1.nn.2.bias f4 [32]
000000 31 f7 7b bd 3f 57 21 3d f9 b8 a2 3d 88 9c 16 3c
       -0.061515037 0.039389845 0.07945437 0.009192593
000010 1f 3f 97 3d 6a 92 67 3d 3f fa 1a 3e db f1 06 be
       0.07385086 0.056536116 0.15134524 -0.13178198
000020 4e b7 11 3d 0f 55 a2 bd b6 c4 0d be c6 77 fb 3e
       0.035575204 -0.0792638 -0.1384457 0.49114817
000030 a3 d9 a5 bd c2 94 a1 3d 8f 24 8b 3d ed da 3d be
       -0.080981515 0.078897014 0.067940824 -0.18540545
000040 52 dd 33 bd 1e 01 33 3e 28 94 dd 3b ce 2f 7a bd
       -0.04391224 0.17480895 0.0067620464 -0.061080746
000050 74 53 45 3d 6b a6 0a be fd 10 c9 bd ae 83 4c 3e
       0.04817529 -0.13540046 -0.098176934 0.19972107
000060 a0 b2 1c be 88 99 28 bd 42 ab a5 3d c3 6b e4 3d
       -0.15302515 -0.041162044 0.080893055 0.111533664
000070 23 ad a1 bd 73 9a a9 3c 20 35 b5 3c e2 8e 90 be
       -0.07894351 0.02070353 0.022120059 -0.2823401

conv1.lin.weight f4 [9, 3]
000000 71 18 aa 3c f5 4b 09 3e 14 5b 94 3d 3b c7 c9 3e
       0.020763608 0.13407882 0.07243934 0.39409813
000010 d5 15 0f bf 78 2e 81 be fa 81 46 bf 1a f6 3e bf
       -0.5589269 -0.25230765 -0.7754208 -0.7459427
000020 97 4b 16 3d 63 d5 25 3f be 9b 27 3e 16 7e 17 bf
       0.03669318 0.6477873 0.16368005 -0.59176767
000030 b3 c9 20 3d 60 93 49 3e 03 3f 42 3f 17 c3 00 bf
       0.039254855 0.19685125 0.758774 -0.50297683
000040 4b f4 ca bd de c5 98 be 06 d8 2a 3f 31 63 7c 3e
       -0.099098764 -0.2983846 0.66735876 0.24647214
000050 76 dd b2 3a 67 04 cd be 48 39 5e bd 04 62 6c bd
       0.0013646323 -0.4004242 -0.054253846 -0.057710662
000060 22 c9 39 be 3b 9d 3c 3f 0f a8 20 3e
       -0.18143132 0.73677415 0.1568911

conv1.lin.bias f4 [9]
000000 c7 4e 0b be ed 90 19 3e 37 3f 02 be 67 80 94 3d
       -0.1360427 0.14996691 -0.12719427 0.07251053
000010 0b ee 4c bf 06 bd 5f bf 42 b2 df be 25 fb af 3d
       -0.80050725 -0.873978 -0.43690687 0.08592824
000020 3f b2 22 3e
       0.15888308

conv2.nn.0.weight f4 [32, 32]
000000 2d 0b 38 3d 8c b9 8f 3c 48 83 4d be 37 d2 05 be
       0.044932533 0.01754453 -0.20069611 -0.13068472
000010 85 71 94 ba 95 25 49 be 15 cb 7b be 44 54 19 be
       -0.0011325335 -0.19643243 -0.24589188 -0.14973551
000020 02 28 b3 bb 88 2d 00 bd fb ce 16 be 52 77 5a be
       -0.005467416 -0.031293422 -0.14727394 -0.2133458
000030 40 cd e4 bc 59 6f 6e be ea fb 86 bd 37 d1 8f bd
       -0.027929902 -0.23284663 -0.065910175 -0.070223264
000040 ea 04 29 3e 70 63 c5 3d a7 02 48 3e cf 93 0a 3e
       0.16505781 0.09638107 0.19532262 0.13532947
000050 b7 68 1f be 4e cb 72 bc c3 1f 14 3c 47 50 dc bd
       -0.1556729 -0.014818979 0.009040776 -0.10757499
000060 a7 b6 8c 3d 0e 7c 7b be 08 fd 4d be 1b 25 36 bd
       0.06870776 -0.24559042 -0.20116055 -0.04446898
000070 c5 4f 83 bc fa 72 3b 3e f0 d7 cd bd 31 48 5e 3d
       -0.016029248 0.18305579 -0.100509524 0.054268066
000080 d1 2f 8b bc 2b 14 a2 be 33 c7 1f be b4 5c 5a be
       -0.016990574 -0.31656012 -0.15603332 -0.21324426
000090 f0 8f bb be 71 49 97 3c ff 5f ac be 04 97 66 be
       -0.36633253 0.018467637 -0.3366699 -0.22518545
0000a0 13 4f c1 bb 31 23 9c be 84 3d 3e be 99 bd 66 3d
       -0.005899319 -0.304956 -0.18578154 0.05633316
0000b0 d1 3e b3 be 61 47 64 3d bd 0b 65 be 27 c5 0b be
       -0.35008863 0.055732135 -0.22367759 -0.13649426
0000c0 ef b5 8c 3d 2d 7c 51 bf fe 87 c1 bc 2c 2a 7b be
       0.068706386 -0.818301 -0.023624416 -0.24527806
0000d0 2e 47 95 be 91 06 1b be c4 6a 53 be d7 20 0d be
       -0.29155868 -0.15139224 -0.20646197 -0.13782059
0000e0 8f fd 1c bd 0a fd 6d 3d df d1 4e bd cd b5 73 3c
       -0.03832775 0.058102645 -0.050493117 0.014874888
0000f0 c2 89 4e be b7 00 05 be 00 ac b1 bd 3d f0 37 bc
       -0.20169738 -0.12988554 -0.086753845 -0.011226711
000100 11 2a 17 bd f2 03 6d bf b9 e7 e0 3d 09 c9 05 3a
       -0.036905352 -0.92584145 0.109816976 0.0005103504
000110 de 45 d3 be 25 47 59 bf c7 02 aa bf 89 69 87 3e
       -0.41264242 -0.8487418 -1.3282098 0.26447704
000120 47 96 4e be 48 68 b4 bc ea a0 9f 3c 9f a3 41 bd
       -0.20174514 -0.022022381 0.01948591 -0.04727518
000130 3f c0 6c be 49 dd 02 be c4 4f 92 3d 87 1f a1 3d
       -0.23120211 -0.12779726 0.0714412 0.078673415
000140 97 96 e3 bc 12 d4 27 3e 78 92 16 3d 0d 05 00 3e
       -0.027781768 0.16389492 0.036760777 0.12501927
000150 c8 73 ab bd a2 45 40 bf c6 e9 cd 3c 65 a4 26 bc
       -0.08371693 -0.7510625 0.025135886 -0.010171031
000160 0d 74 e0 bd 63 b8 15 bd 9d 71 4e bf ae 97 61 3e
       -0.10959635 -0.036552798 -0.8064211 0.22030517
000170 f9 9f e1 3d b1 44 73 3e ca 12 59 bf c6 37 c7 be
       0.110168405 0.23756672 -0.84794295 -0.3890974
000180 90 33 63 bd eb 52 3b 3b 9a 2f 0a bc 55 4a 49 bd
       -0.055469096 0.0028583359 -0.008434201 -0.049143154
000190 3e 3f 9a bf 6d fb 8b be 25 65 e9 be ee 39 4c 3e
       -1.205055 -0.2734026 -0.4558498 0.19943973
0001a0 26 92 ef 3d eb f7 a7 3d 47 2c 52 be 33 0e 51 3e
       0.116977975 0.082015835 -0.20524703 0.20415573
0001b0 7b 01 05 3e 47 9b 85 3d 5d 6e 3f be bd 79 41 be
       0.12988846 0.065237574 -0.18694444 -0.18894096
0001c0 72 d0 5b bd 33 19 57 bf 0d d7 a9 be 26 4a 5d be
       -0.053665586 -0.84022826 -0.33171883 -0.21610317
0001d0 a0 9f ef 3d dc c1 ad 3d 3a bf 97 3e 30 4d 9e 3e
       0.11700368 0.08484241 0.29638082 0.30918264
0001e0 e0 31 24 3e ee 87 ff be bd 71 b4 be 61 9a 86 be
       0.16034651 -0.49908394 -0.35243025 -0.26289657
0001f0 c1 26 36 be bc 56 05 3f 46 0e 9f 3d 19 14 c8 3d
       -0.17788221 0.5208547 0.07766394 0.09769458
000200 71 3f 15 bd 0c f5 58 be 17 13 a0 3e 5f cf 91 be
       -0.036437456 -0.21187228 0.31264564 -0.28478524
000210 b6 8a 02 bb 0c 96 a2 be ea dc 9b be 70 57 a2 3b
       -0.0019919104 -0.31755102 -0.30441982 0.004954271
000220 5c 02 0a 3e d2 95 2b bd 70 89 9a be a6 5c bb be
       0.13477463 -0.041890927 -0.30182981 -0.36594123
000230 66 97 c4 be 30 1e 1a be 10 ef 04 3e be 29 ba 3e
       -0.38396758 -0.15050578 0.1298182 0.36359972
000240 9d c8 4c be 02 73 fc bc 3d 49 80 3e 4a 70 c4 3e
       -0.19998403 -0.030816559 0.25055876 0.3836692
000250 a5 d0 44 bd 52 8a 58 be 86 38 85 be df a4 52 3e
       -0.04805054 -0.21146515 -0.26019686 0.20570706
000260 49 01 07 be 3a 4f 79 be 65 a3 cd be 8b 25 38 3b
       -0.13184084 -0.24346629 -0.40163723 0.002809855
000270 e2 ff 29 be a7 b5 2c 3e 04 52 2b be f1 37 83 be
       -0.16601518 0.1686617 -0.16730505 -0.25628617
000280 55 82 b4 bd a8 a2 21 be 8a 0a 24 be 19 78 d3 3b
       -0.08813921 -0.15784705 -0.16019645 0.0064535257
000290 c8 88 b9 39 8e c9 8b ba c5 0a 8b be 37 d2 55 be
       0.0003538786 -0.0010664926 -0.27156654 -0.20880972
0002a0 86 e9 0d 3d 95 19 a9 bc 69 42 47 bd 92 73 b4 3a
       0.034646533 -0.020642081 -0.048647318 0.0013767353
0002b0 ed e9 60 be 7b e8 e7 3d b7 96 97 bd fe 6e 28 be
       -0.21964236 0.11323639 -0.074017935 -0.1644859
0002c0 60 19 a9 bd 7e 64 38 3d 29 f0 d5 bd 63 b2 d7 3d
       -0.08256793 0.04501771 -0.104461975 0.105320714
0002d0 ae 4f c7 bd c7 56 5d be fc 08 a1 bd 06 db 61 3d
       -0.097319946 -0.21615134 -0.07863042 0.055140518
0002e0 6c 87 9b bc 83 eb a4 3a 93 88 b8 bc 0c 5c 2e be
       -0.018985473 0.0012582395 -0.022526061 -0.170273
0002f0 b5 12 05 3d 42 2b 18 bd 5f f6 39 be 40 0d 78 3d
       0.032488544 -0.03715063 -0.1816039 0.06055951
000300 f1 93 e2 bc 7d b0 06 be 19 45 cc be 00 31 2d bd
       -0.027658435 -0.13153262 -0.39896467 -0.04228306
000310 60 63 8c bf 85 e0 d5 3d 87 66 bb 3e 64 ef 27 be
       -1.0967827 0.10443214 0.3660166 -0.16399914
000320 0f dc 1f bf 24 2a 2b 3d 5f 61 be 3d 9f d3 9a 3d
       -0.6244516 0.041788235 0.09295916 0.07559895
000330 d1 bc c4 3d 23 ec 07 3d 50 40 5c be 87 1b 27 be
       0.09606326 0.033184182 -0.21508908 -0.16319095
000340 5a 5e aa 3b 76 42 33 bf c2 a5 a6 be 1e dd 2d be
       0.005199236 -0.70023286 -0.32548338 -0.16978881
000350 2b 86 8a bd af b2 d3 bd 69 51 33 3e 1d 48 88 3d
       -0.06763872 -0.103368156 0.17511524 0.066543795
000360 2e a5 4d bf 69 40 89 3d bd b5 54 3e 65 07 5d be
       -0.8033017 0.067017384 0.20772453 -0.21584852
000370 dd 0e 04 be 18 a8 df 3d ac 0d d7 3d 73 d8 68 be
       -0.12896295 0.10920733 0.105006546 -0.22738819
000380 ec 47 0a 3e 5a 78 87 ba 3f 17 7b 3d 5a 79 38 3d
       0.13503999 -0.001033555 0.061301466 0.045037605
000390 84 eb 67 bd 0c dd e4 3d 3c 9c e7 3c 52 cd d0 bd
       -0.05662109 0.11174974 0.02827274 -0.10195412
0003a0 00 8e 33 be 72 df bf 3c 70 cc c4 3d 19 8b d3 3c
       -0.17534637 0.023421977 0.09609306 0.025823163
0003b0 61 be be 3d ab e1 49 be f3 13 80 3e 43 a3 6e 3d
       0.09313656 -0.19714992 0.2501522 0.058261167
0003c0 fc 3c e7 3b 02 95 4c be 27 bd 5a 3e 42 8e 2d 3e
       0.0070568305 -0.19978717 0.21361218 0.16948798
0003d0 b1 a5 ed 3c cf 4e 87 3d e8 40 88 bd 0c 1d 30 3e
       0.029009672 0.066068284 -0.06653005 0.1719858
0003e0 0e 98 f8 3b 9d bb 06 3d 44 6d de 3b 2b b6 77 3e
       0.0075864857 0.032893766 0.006787928 0.24190585
0003f0 97 08 6d 3d 23 8a 12 3d c9 a7 98 3c b0 2d 42 3e
       0.05786952 0.03577627 0.018634694 0.18962741

conv2.nn.0.bias f4 [32]
000000 65 00 80 bd ac 1e 84 3d de 56 a8 3e ce 17 bb be
       -0.06250075 0.06451163 0.32878774 -0.365416
000010 cc 0b 7d 3e 61 eb c3 bd eb 45 9e 3e 80 1c 01 bf
       0.24711531 -0.09566379 0.30912718 -0.5043411
000020 50 86 d7 3e 77 58 ab 3e c4 c7 8a bd 1f a9 98 be
       0.4209466 0.3346593 -0.067763835 -0.2981653
000030 78 f1 84 3e 9e 5b f2 be fa 80 1b be 0e 84 d1 3c
       0.25965476 -0.47335523 -0.1518592 0.025575664
000040 20 cf c8 be 84 ea 95 bd d4 c6 e7 3c 2d 0b d7 3e
       -0.39220524 -0.07320121 0.02829305 0.42000714
000050 36 53 bc bd 96 64 c9 3d ce e9 94 3c 6f bd b3 3e
       -0.09195559 0.09833638 0.018177893 0.35105464
000060 c9 86 1a be 03 52 0d bf e1 1e 3d 3b e1 11 7d be
       -0.15090479 -0.55203265 0.0028857517 -0.24713852
000070 75 cb 9d 3d 38 0b 74 bd 20 93 88 be 17 83 36 be
       0.07704822 -0.05958101 -0.26674747 -0.17823444

conv2.nn.2.weight f4 [32, 32]
000000 64 fa 59 be d6 ad 12 3d 95 fa 3b bf 94 ad 1c bf
       -0.21286923 0.035810314 -0.7342923 -0.6120236
000010 24 c9 20 3f ce fc 35 bd c7 aa a1 bc bb fa 47 3e
       0.62806916 -0.044430546 -0.019734753 0.1952924
000020 5b 4f 52 be c7 f5 06 3f 0c d9 db bd 66 4f c4 bb
       -0.20538084 0.52718776 -0.10734758 -0.0059909103
000030 0a 3e 32 3e fd bb 59 3d d6 44 17 be fa 7a c6 3d
       0.17406479 0.053157795 -0.14772353 0.09691425
000040 25 73 09 3e 1d 35 06 bd 64 e0 ac bd b8 a8 d5 3e
       0.1342283 -0.032765497 -0.084412366 0.41730285
000050 45 ce c4 bf ce d0 6b bd a7 81 9d be 65 33 0e bf
       -1.5375448 -0.05757218 -0.3076298 -0.5554717
000060 3c 46 f5 bd 67 b5 78 be 02 3c d7 bd 2e f2 55 bd
       -0.11976287 -0.2428795 -0.105094925 -0.052232914
000070 6c fb ab 3e a9 72 a3 bd 3b 69 74 3d a2 d9 47 be
       0.33590257 -0.07980854 0.059670668 -0.19516614
000080 31 1e 41 3e 42 49 85 3e 3b 82 a4 bd 8b 03 f8 be
       0.18859173 0.26032454 -0.08032652 -0.48440203
000090 e6 88 54 3e 5c 8b ff bd 49 de 39 bf ac f9 bd be
       0.20755348 -0.124777526 -0.72604805 -0.37104547
0000a0 6a 64 4c bf fe 8a 6f bf fd 41 a7 3d 04 56 6b bc
       -0.7984072 -0.9357146 0.08166883 -0.014363769
0000b0 6e 7b 36 be c2 73 58 bf 37 2f 17 3e bc ee d7 be
       -0.17820522 -0.8455163 0.14764105 -0.42174327
0000c0 9f dd 7b 3e 4c 56 f1 3d 21 a7 7b 3e a9 97 6f 3e
       0.2459626 0.11784038 0.24575473 0.23397698
0000d0 c7 e0 58 be 74 7e 4f 3c bf c5 c2 3e 4e ba 2d 3e
       -0.21179496 0.012664426 0.38041493 0.16965601
0000e0 9d 66 7b 3f dd 37 13 bf ee 0d 05 3e 0b 2c 1a bf
       0.9820345 -0.57507116 0.12993595 -0.60223454
0000f0 af 0a c9 be f5 ed 30 be 3f 33 82 3d 2f fc 07 3d
       -0.39265963 -0.17278273 0.06357431 0.033199485
000100 f3 2f 84 3c 62 2c a1 be 3d 1e c1 be c1 bd 49 bd
       0.016136145 -0.31479174 -0.37718382 -0.04925323
000110 53 2a db 3e 3f 02 9e bd cd 81 a7 be 60 1c 7c be
       0.42805728 -0.07715272 -0.32716218 -0.24620199
000120 66 d2 12 be aa 34 0c be f7 70 0e 3e bf d1 c3 bd
       -0.14338073 -0.13691965 0.1391028 -0.0956149
000130 e2 0e 30 bf b5 c4 02 bf af 26 eb 3b 66 5b 86 bf
       -0.6877271 -0.510814 0.0071762423 -1.0496643
000140 37 6e e7 be 5a 2d 36 bd 46 d9 d2 bc 51 1f 48 3d
       -0.45201275 -0.044476844 -0.02573837 0.04885799
000150 60 7e 9a be ff 38 e9 3e f6 bd 4e 3d a7 6a 32 bd
       -0.3017454 0.45551297 0.05047413 -0.043558743
000160 e1 d7 7b be a8 e9 18 be f6 3a 32 bc 2a 9e 06 be
       -0.2459407 -0.14932883 -0.010878315 -0.13146272
000170 cb 22 9a 3e 41 2c 1a 3e 77 3f 6b bd 4c fd 41 3d
       0.3010467 0.15055944 -0.05743357 0.047360703
000180 f1 cc 0c 3e 75 2a af bc 7a 3b 08 be ee d0 9a be
       0.13750054 -0.02138255 -0.13303939 -0.30237526
000190 54 05 59 be 88 5e 91 bd 19 b7 0d bd 68 cb 45 be
       -0.21193439 -0.070981085 -0.034598444 -0.19315875
0001a0 9e b4 15 bf 1e 06 86 be 8a 8b b8 3d e3 d3 94 bd
       -0.58478725 -0.26176542 0.0901099 -0.07266977
0001b0 1c 78 a5 3e 23 d8 45 bf 61 c6 12 3e b7 7d 27 bf
       0.323182 -0.77282923 0.14333488 -0.654262
0001c0 c9 b1 42 be 2a c1 c3 bd 0b a0 88 3c 7b 72 a3 3e
       -0.19013132 -0.095583275 0.016677877 0.3192328
0001d0 42 1f b5 be c0 72 22 be 7e 78 8e 3d ae 53 09 3e
       -0.3537541 -0.15864086 0.06956576 0.13410828
0001e0 55 6b fe be 52 af bd 3e 58 cd 2b be 13 a6 a1 3e
       -0.49691263 0.3704782 -0.16777551 0.31572017
0001f0 48 3f af 3d 9d f0 5f be e9 d4 0d 3d be 86 b0 bd
       0.08556992 -0.2186913 0.034626875 -0.0861945
000200 11 55 a4 3b bc 61 4f 3b 76 fc 0e 3e ff 35 f1 bc
       0.0050150235 0.0031643948 0.13963494 -0.029444693
000210 56 3d 87 3e 72 7c 23 3d a2 94 89 be 50 50 16 be
       0.26413983 0.039913602 -0.2687121 -0.14679074
000220 be 9e a4 be 35 61 8a 3e 57 92 df 3d 7f e1 c1 3d
       -0.3215236 0.27027288 0.10916584 0.09466838
000230 d3 73 55 be 72 52 af 3c 0d 5a 17 bd 22 b7 9a be
       -0.20844965 0.021401618 -0.036951113 -0.30217844
000240 77 c8 c8 bd 8a 88 45 bf 0d f7 d0 3d fd 46 e7 3d
       -0.09803861 -0.7716147 0.10203371 0.11292837
000250 36 6e ed 3c ef 77 cb 3c e0 28 19 be f3 fa 63 3d
       0.028983217 0.024837462 -0.14956999 0.055659246
000260 48 ea 0f be 2b 63 31 3e 1a 29 85 bd a6 dd a2 bc
       -0.14054215 0.17322986 -0.0650198 -0.01988108
000270 26 19 fe 3e 4a e3 85 3d 36 f9 d4 3d ed 37 0a be
       0.49628562 0.065374926 0.10399096 -0.13497896
000280 8a 3e b5 bd e8 8a 46 bd bf cd 9f bd 9e 50 ba bc
       -0.08849819 -0.048472315 -0.07802915 -0.02274352
000290 46 3e 4c 3d cc b1 43 bd b0 82 25 3d d9 23 d2 bd
       0.049864076 -0.047776982 0.040407836 -0.10260744
0002a0 5c 06 5b be 3d f2 b8 be 8c 70 0e 3e fd d7 b4 3d
       -0.21389145 -0.36122313 0.1391012 0.08830259
0002b0 0c 59 43 3c 4c 7b d5 be cb e1 1b 3d ff 49 33 3d
       0.011923086 -0.4169563 0.03805713 0.04377174
0002c0 1a bc a9 bd 02 7e 22 be c7 13 5b bd d5 f3 7a be
       -0.08287831 -0.1586838 -0.053485658 -0.24507077
0002d0 8a 96 78 3d 1a c0 f8 be 2a fd fe bd 64 d0 26 be
       0.06069044 -0.48584062 -0.12450631 -0.16290432
0002e0 12 24 40 3d d7 6a 05 be b4 d7 a9 bd c9 04 14 be
       0.0469094 -0.13029037 -0.08293095 -0.1445495
0002f0 b4 03 98 3d 85 d6 35 3c a5 e2 05 3e 93 f5 0f 3e
       0.07422581 0.011098509 0.1307474 0.14058523
000300 ab 96 1b bd a1 7d 24 3e 89 ec b9 bd b0 0b a1 bd
       -0.037985485 0.16063549 -0.090783186 -0.07863557
000310 77 a0 14 be 40 e9 19 3d 36 d7 0f bd 78 fb 06 bd
       -0.14514337 0.03757596 -0.03511735 -0.032954663
000320 b5 4b 5f be 7c 96 b3 be 7a b8 60 bd fd 8b 06 3e
       -0.21806224 -0.35075748 -0.05486343 0.13139339
000330 f9 ff a5 3d 17 f0 99 be ea 64 1c 3e a9 fd ca be
       0.081054635 -0.30065987 0.1527287 -0.39646652
000340 3a 28 d9 bd a8 a2 34 be f0 bf 3c bd bd 1f ee 3e
       -0.10603376 -0.17640173 -0.046081483 0.4650859
000350 b6 d6 19 3e d0 53 88 be 86 df 95 bd 3b 34 2c be
       0.15023312 -0.26626444 -0.07318024 -0.168168
000360 6d e4 b6 3e a7 0a cd be d3 1b 39 3c c3 16 82 bc
       0.3572115 -0.4004719 0.011298138 -0.015879994
000370 f1 43 25 bd 7e 0e 03 be 43 be 4d bd 21 0c 24 3e
       -0.040347997 -0.12798497 -0.050230276 0.16020252
000380 57 84 3b 3d c3 15 b9 be 59 48 3d bf c5 5b 53 bf
       0.045780506 -0.36149415 -0.7393852 -0.82561904
000390 2e 78 90 3d 0c cc 6e bd a7 b5 9c 3e 22 33 69 bf
       0.070541725 -0.058300063 0.3060734 -0.9109365
0003a0 79 aa 9e be 78 52 eb be 64 37 94 bd ca 3d b9 3d
       -0.30989435 -0.45961356 -0.072371274 0.090449885
0003b0 d3 68 08 3f be eb a8 be 66 93 47 be 83 6e f2 bd
       0.5328495 -0.32992357 -0.19489822 -0.11837485
0003c0 8e 4d 21 be 9e d6 34 bf a1 e4 04 3e 0a 62 e9 be
       -0.15752241 -0.7063998 0.1297784 -0.4558261
0003d0 dd f0 43 3e 72 15 f2 3b 21 a6 30 be 35 23 bb be
       0.19134851 0.0073878104 -0.17250873 -0.36550298
0003e0 b2 f8 ae 3e 71 db 9f 3e 04 f4 a9 bd b4 0b 19 3d
       0.34174114 0.31222108 -0.082984954 0.037364677
0003f0 9f cd 8c 3e af cd 19 be 13 c3 5b 3d df 82 c7 3d
       0.27500626 -0.15019868 0.053652834 0.097417586

conv2.nn.2.bias f4 [32]
000000 d5 d9 ac bc f7 20 9d 3e ba 3f 64 3e ea b9 32 be
       -0.021099964 0.30689213 0.22289935 -0.17453733
000010 05 45 04 bf 5c 19 ad bd 6a f3 b4 be 38 e0 22 3e
       -0.51667815 -0.084521025 -0.3534196 0.15905845
000020 cd 3d a3 3e c1 f7 ab be 43 dc 12 bd ab 81 bf 3d
       0.31883088 -0.3358746 -0.03585459 0.09350904
000030 86 18 53 be 53 68 29 be 1a f0 4f 3e 87 27 ae bd
       -0.20614824 -0.16543703 0.20306435 -0.08503633
000040 f2 d8 b3 3d e1 01 ac be aa 43 46 be 73 fd 0c 3e
       0.087816134 -0.33595183 -0.1936175 0.13768558
000050 0a 09 95 be 9e 17 ae be f0 3b 24 3e a0 f1 a8 3e
       -0.2910846 -0.34002393 0.1603849 0.32996845
000060 02 4e 14 be e2 af e7 bd 4a 5e 21 be ef 67 4b 3a
       -0.14482883 -0.11312844 -0.15758625 0.0007759323
000070 2b 3d 1d be c1 56 15 be 28 3a 84 be 65 a0 a7 3d
       -0.15355365 -0.14583875 -0.2582562 0.0818489

conv2.lin.weight f4 [32, 3]
000000 67 1a af be 9b 81 d8 be 2f 0c ad be a4 ee bc be
       -0.3419983 -0.4228638 -0.33798358 -0.36900818
000010 e0 08 54 bc 96 bc 0a 3e 15 e6 02 3f c7 c0 11 3e
       -0.012941569 0.13548502 0.5113233 0.14233695
000020 e0 76 67 bf ca 97 31 be 40 9c 47 bf 84 91 87 3e
       -0.90415764 -0.17343059 -0.77972794 0.26478207
000030 b6 b1 f9 bf 59 60 94 3e c0 89 86 3e fc 7f 10 bf
       -1.9507358 0.28979757 0.2627697 -0.5644529
000040 0a 76 fe 3e 2f 60 06 3f 81 a3 82 be 32 d9 75 bf
       0.49699432 0.52490515 -0.2551537 -0.9603454
000050 13 73 5c bd 25 10 01 bf b9 51 7a be 45 d0 0f bf
       -0.05382068 -0.5041526 -0.24445237 -0.5617717
000060 81 9e 49 3c 74 83 e2 bd a1 a5 45 bf 80 9e 59 be
       0.012305857 -0.11060229 -0.77205855 -0.21251869
000070 07 fc ab bd 14 61 9f 3d 9f d1 02 3f 42 6c 95 3e
       -0.0839768 0.07782188 0.51101106 0.29184157
000080 80 8e 0e 3f f0 f9 1d 3e ef 58 87 be f2 38 0b bf
       0.5568619 0.15427375 -0.26435038 -0.54383767
000090 31 6d c7 bc f9 0b 77 3e e0 06 96 3e 0d 41 8a be
       -0.024344059 0.24125661 0.2930212 -0.27002755
0000a0 29 73 31 3f e4 39 c7 be 5a f8 df 3e 65 41 36 be
       0.69316345 -0.38911355 0.43744165 -0.17798384
0000b0 47 89 ce 3e b8 85 80 3e 46 e7 47 3e b3 80 51 bf
       0.4033911 0.2510202 0.19521818 -0.81837004
0000c0 05 8e 0e bf 6d 9a 04 bf 2f 77 8a 3c 7c 5a 24 bf
       -0.55685455 -0.51798135 0.016902534 -0.6420057
0000d0 80 53 63 be 80 c4 f2 3e c0 6c c3 3e 94 ce c6 3e
       -0.22199821 0.47415543 0.38168907 0.38829482
0000e0 61 08 88 3d 3a 3b e5 3e 4b 4e 14 bd cc b4 4b bd
       0.06642223 0.4477175 -0.03620748 -0.04973297
0000f0 7e cf 5c be 8a 1f 4e 3e 42 4e 3d be b1 9e 37 bf
       -0.21563527 0.20129219 -0.18486884 -0.7172652
000100 09 70 6b 3d a9 75 83 be 5b bb af 3e 92 eb 96 3e
       0.057479892 -0.25675705 0.34322628 0.294766
000110 d6 ba c7 bc 60 30 1a bc 74 c9 b5 be 8c f3 29 3e
       -0.024381083 -0.009410948 -0.3550526 0.16596812
000120 e7 26 e5 3d 87 07 2b 3f d0 9d b7 be 44 f8 bd 3c
       0.11189061 0.6680836 -0.3586259 0.023189671
000130 c0 6e a4 be 19 e0 cf 3e 95 5b 2f bf e7 9a 3e be
       -0.32115746 0.4060066 -0.6849912 -0.18613778
000140 43 d8 4f 3f b6 57 21 3f 3e c4 d4 be 76 ef cc 3e
       0.81189364 0.6302446 -0.4155597 0.40026444
000150 ba 75 a3 bc 2e 9c 06 3e f8 cc 98 3e 04 55 13 bf
       -0.019953597 0.13145515 0.2984388 -0.575516
000160 f8 1b 1d 3e 68 53 79 be 99 ca 63 bf 06 0d ac bd
       0.153427 -0.24348223 -0.88981014 -0.084009215
000170 04 0c 0a 3f 24 65 29 bf 02 ea 97 bd 63 7d 23 bf
       0.53924584 -0.66169953 -0.0741768 -0.638632

conv2.lin.bias f4 [32]
000000 49 69 18 bf d7 dc 36 3e 08 fd c1 3d 57 f4 0f 3e
       -0.5953565 0.17857681 0.0947209 0.14058052
000010 37 5a e5 bf 1c 56 4d bc f9 63 13 be 32 84 7c 3e
       -1.7918156 -0.012532737 -0.14393605 0.24659804
000020 dd 3f 82 be 44 75 2d 3e a6 4b 12 bf 4d fd 2f bc
       -0.2543935 0.16939265 -0.5714668 -0.010741544
000030 07 06 a3 bd b1 49 0a be c2 3e c8 3e 5e 85 18 3e
       -0.07960134 -0.13504674 0.3911038 0.14894626
000040 73 64 a7 bc 65 fb 89 bf 54 ae cf bb 5a ee 9b 3c
       -0.02043364 -1.0779845 -0.00633792 0.019034553
000050 41 5e 8c 3d 59 ed 12 3f 30 47 b7 be c3 27 0b bf
       0.06853915 0.57393414 -0.357965 -0.54357547
000060 e8 47 93 3c 4e 36 20 be a4 84 6c bc ff 15 cd 3d
       0.017978624 -0.15645716 -0.014435921 0.10013961
000070 3b f2 71 3d 1c c3 ef bd d8 85 a2 3e e5 8f 21 3f
       0.0590689 -0.11707136 0.3174274 0.6311019

classifier.weight f4 [1, 32]
000000 92 06 8e 3e 4c ed 3f bf 35 08 14 bf c7 77 80 3f
       0.27739388 -0.7497146 -0.5782502 1.0036553
000010 a8 ed 6c bf 8e aa fe bc 03 e3 0a bf 83 8d 03 3f
       -0.92550135 -0.031087186 -0.5425264 0.51387805
000020 27 80 4a bf 22 d7 a6 3d 18 13 88 3f e2 97 53 3e
       -0.79101795 0.08146502 1.0630827 0.20663407
000030 46 85 e1 bd 33 40 91 be b7 d1 3d 3f b1 df 13 bf
       -0.11011748 -0.28369293 0.74148124 -0.577632
000040 bb 81 84 3f d4 db bb be db d5 02 bf dd 49 47 be
       1.0352091 -0.36691153 -0.5110757 -0.1946177
000050 53 c2 93 bd 34 53 7d be 2c d9 e4 3e ac 71 5c bf
       -0.07214799 -0.2473877 0.4469694 -0.8611095
000060 08 5d 38 be 06 f4 83 be 45 f6 75 3e 46 1a 89 3e
       -0.18004239 -0.25772113 0.24019726 0.26777858
000070 51 31 22 3c 1e 5e 3b bf 8e 87 fb be 67 0f be 3e
       0.009899453 -0.73190486 -0.49126858 0.37121126
