A3/MyTeam/A3/classification/custom.pth (torch, 19043 bytes, 13 tensors)

conv1.nn.0.weight f4 [32, 9]
00000000: cf03 3f3e 6c27 303f 0ab1 9dbd 6a9c 4ebe
00000010: 507a 773d 20ee 8fbe c26e 7ebe e27b 2cbf
00000020: cc2d 00be 865c bb3d ff39 2d3d 55d7 f0be
00000030: 8d64 07be 3abd 403e 4d2f 393d 1d1d 153e
00000040: 912b 8abe a0ae c83e 2636 5fbe 6bac 8f3e
00000050: 3751 bf3e eb5b cf3c 7374 173e 9156 82be
00000060: 7f5b aebd 3884 4a3e f559 db3e 8632 c2bd
00000070: 268c 3f3d ea0c 5f3e 76fb 763e 0696 b4be
00000080: 912f d43c aa1f 93bc 7db1 0b3f b5c2 94bd
00000090: f6f3 823e 4a2e 433e c33d b4be 65fb cc3d
000000a0: 8040 6fbe fa60 90bd e396 cabc 5ab9 c8be
000000b0: 382f 48be a08c cfbe 3e7c 1bbe 7a0c 85be
000000c0: 8a53 033e 7303 15be 4bcc 62be 0f5a 803d
000000d0: 862a ebbd 00d4 e13a 5b6c 36be 1f23 9abe
000000e0: a39e 52be a820 0fbe 80c5 9d3c 68e4 443e
000000f0: 4eaa 53be 52ad 89be 3b92 653e bda8 a83d
00000100: ea96 0fbe 9bb6 c63c d6a2 393d 9edb 3e3d
00000110: 21bf 99bd 6970 3cbe 0f16 f83e 353b 81be
00000120: 2b2e babd 5f06 03be ed10 563e fe0f 373e
00000130: 6ccc 733e 8e83 5cbe e6e8 dbbd bd78 d2be
00000140: 99b6 d1be 7b33 7ebe c156 463e 059c 3f3e
00000150: 8e26 4dbd 114a 85be 0abc 6c3e c758 153e
00000160: ddb3 c1be b029 5dbd b98f 653e 81bf 7dbe
00000170: 6e9f 0d3e 75f6 a8be 6b9a 0abe 9f51 63be
00000180: e8a7 313e 9771 ddbd 2619 f23e 16c3 043c
00000190: 5699 12bf e1fd 6a3e af59 0c3e cd15 66be
000001a0: f028 893e 99f4 bdbe 8e34 753e 95bb 65be
000001b0: f88d 953c 2d4d d6be ac3e 78be 7250 2dbd
000001c0: 0f5b 383e 34c5 48bd 8d8a 973d 85a2 0abe
000001d0: 5836 ec3d e2f5 c03d 0b52 623e 6d7a 4fbe
000001e0: bf68 543e f431 f8be 3da4 8cbe 6275 e0bd
000001f0: ed9a 45be 9796 a73e 8e29 82be fa7a c23c
00000200: 8352 e2bc 8f7e 403d 397e ec3e dadb 87bf
00000210: d2c1 aa3e 59a2 0d3f 8524 523e 4393 17be
00000220: 6067 61bd e091 47be 76cc 023e 2b79 fb3c
00000230: eb0c b03c 8885 3dbe 96ef dfbd 6656 a53e
00000240: a508 e43c 3a47 4d3e 8743 a2be 2e57 523e
00000250: 827b fbbe 4cb6 7a3e bcb1 e1bd ad34 7d3d
00000260: e280 1e3e 9851 49be ac8f a1be b6c6 813d
00000270: 4058 75be 53ad 9f3e 8639 653e bea2 3abe
00000280: ab2a 86ba a848 3dbe d5df 813c 8107 b0be
00000290: 08ef 6e3e d97d 0f3d c9b2 893e b3d3 f0bd
000002a0: d29f 3abe b095 48be 1d64 60be defa 3fbe
000002b0: 387b 5e3e 247d 853e 84b7 81be c6ff 86bd
000002c0: 2bd0 323c a339 3d3e 8b68 21be 565e e7bd
000002d0: e57f 453e f275 58be 8221 fbbd 208e 1a3d
000002e0: ae5e d13e d530 abbe 833e 6fbe bbca 093c
000002f0: 6ce0 b5be 872e 98be a316 6ebe abc0 2b3e
00000300: 3f1c a7be 8487 8c3e 1bd9 b23d 54db 83be
00000310: 96cb a7bd 58f8 3e3e 417f 783d 2fe4 8e3b
00000320: 6559 d8be 8ef2 dbbd ab7f b0bd 717a 0a3e
00000330: fb6a d43e 12c9 c83d 3b4e 16be 85e5 90be
00000340: b996 cebd 1383 b6bc b6aa 213e 77eb 7ebe
00000350: 2e3a a4be 45e8 623e f8ec 643e 85af f03d
00000360: 1690 d7bd ff77 833e 96ef 84be c55f 933e
00000370: 44d1 873e 55b3 eabd f2ff 033e 8c79 acbe
00000380: a859 59be c6ce 253e 8c79 c9bd 201a 553d
00000390: b4fd ce3c c7cf 2a3d 40d1 39be 0eb2 d9be
000003a0: 06ff bc3e f4df 92be c77b 5abe 5bfd 153e
000003b0: 0c03 21be 072c 7a39 72cd 60be 1626 133e
000003c0: e895 813d 57e2 93be a252 863e 9782 743d
000003d0: 21df c8be 7d85 c0be 1515 21bd c48a bf3e
000003e0: 8f87 e4be 0c11 a23e 0b7e d1bd 28c0 8abe
000003f0: 976e 94bd ef4e 893d 360c 32be eb7e 673e
0.18653797 0.68810153 -0.07699783 -0.20176855 0.06041938 -0.28111362 -0.24846938 -0.6737653
-0.1251747 0.09148507 0.042291638 -0.47039285 -0.13221951 0.18822184 0.045211125 0.14561887
-0.26986364 0.39195728 -0.21798 0.28061232 0.3736665 0.025312385 0.14790516 -0.2545667
-0.08513545 0.19777 0.4284207 -0.09482293 0.046764515 0.2178227 0.24119362 -0.3527071
0.025901588 -0.017959435 0.545677 -0.072637 0.25576752 0.19060627 -0.3520337 0.10008887
-0.23364449 -0.07049747 -0.024730152 -0.39203912 -0.19549263 -0.40536976 -0.15184113 -0.2598608
0.12824836 -0.14552097 -0.22148244 0.06267177 -0.1148272 0.0017229319 -0.17814772 -0.3010492
-0.20568328 -0.13977301 0.019259214 0.19227755 -0.20670435 -0.26890045 0.22419064 0.08235309
-0.14022413 0.024256995 0.045321308 0.046596162 -0.07507158 -0.18402256 0.4845433 -0.25240484
-0.09090837 -0.12795399 0.20904894 0.17877194 0.2380845 -0.21534559 -0.10737781 -0.4110774
-0.40959623 -0.24824326 0.19369031 0.1871186 -0.050085597 -0.2603307 0.23118606 0.14584647
-0.37832537 -0.053994834 0.22418107 -0.24780084 0.13830349 -0.33000532 -0.13535468 -0.22199105
0.17349207 -0.10812681 0.47284812 0.008103153 -0.5726522 0.2294841 0.13706087 -0.22469254
0.26789045 -0.37100676 0.2394583 -0.22434838 0.018256173 -0.41855755 -0.24242657 -0.042313047
0.18003486 -0.049016193 0.07399473 -0.13538559 0.11533803 0.094218984 0.2210161 -0.20261545
0.20743082 -0.4847561 -0.27469054 -0.10959889 -0.19297381 0.32732078 -0.2542233 0.02374028
-0.027627235 0.046995696 0.4619005 -1.0613968 0.33350998 0.5532585 0.20521744 -0.1480227
-0.055030227 -0.1948924 0.12773308 0.030697426 0.021490535 -0.1850797 -0.10934369 0.3229248
0.027836153 0.20046702 -0.31692144 0.20541069 -0.49117666 0.24483603 -0.11020228 0.061817814
0.15478852 -0.19660032 -0.31554925 0.06336729 -0.23959446 0.31186923 0.22385225 -0.18226144
-0.0010236105 -0.18484747 0.015853802 -0.34380725 0.2333337 0.035032127 0.26894215 -0.117591284
-0.18225029 -0.19588351 -0.2191319 -0.18748042 0.21726692 0.26072037 -0.25335324 -0.06591754
0.010913889 0.18479018 -0.15762536 -0.1129729 0.19287069 -0.21138743 -0.122622505 0.037733197
0.40892547 -0.33435693 -0.2336369 0.008410151 -0.35522783 -0.29722998 -0.23250823 0.16772716
-0.32638738 0.2744714 0.08732816 -0.25753272 -0.08193128 0.18649423 0.060668234 0.0043606977
-0.42255703 -0.10739623 -0.08618101 0.1352327 0.4148787 0.09803976 -0.1467828 -0.2830011
-0.10087342 -0.022279298 0.15787777 -0.2489451 -0.32075638 0.22158916 0.22356021 0.11752228
-0.10525529 0.25677487 -0.2596404 0.28784004 0.26526845 -0.11459986 0.12890604 -0.33686483
-0.21225607 0.16192159 -0.09837636 0.052026868 0.02526746 0.04170206 -0.18146229 -0.42518657
0.36913317 -0.28686488 -0.2133628 0.14647429 -0.15723819 0.0002385826 -0.21953371 0.14369997
0.063274205 -0.2888362 0.2623492 0.059694853 -0.39232734 -0.37601843 -0.039326746 0.37410557
-0.44634673 0.3165363 -0.10229119 -0.2709973 -0.07247656 0.067045085 -0.1738747 0.22607009

conv1.nn.0.bias f4 [32]
00000000: 8809 4d3e 5ffb f53e a69a 21bd 17d2 adbe
00000010: 735f 08be db83 5bbe afb9 8dbe d25e 0fbc
00000020: 8bbe 633d 75c9 41be 4b2e dabe 0744 a8be
00000030: e591 1c3f 69f0 2fbd 9d25 5e3d 800c d13d
00000040: 43a3 973a a4d9 91be 8b98 f6bd 5f8e 86be
00000050: f8c2 91be d4fe a43e de57 813e 4476 a1bd
00000060: 31ff 083e 6437 d4be 5e8f aabd ca6d cb3e
00000070: 7c5e 9d3c 4c1e 76bd 8b03 c73d 9a53 713e
0.20023167 0.48043343 -0.039454125 -0.33949348 -0.13317661 -0.21437018 -0.27680728 -0.008750634
0.055601638 -0.18924506 -0.42613444 -0.328644 0.6116012 -0.042953882 0.05423509 0.10207462
0.0011569042 -0.2848636 -0.12040814 -0.26280496 -0.28469062 0.32225668 0.2526235 -0.078838855
0.13378598 -0.4144851 -0.08328126 0.397322 0.019210093 -0.060087487 0.09717473 0.23567048

conv1.nn.2.weight f4 [32, 32]
00000000: c49c c23d c084 93be bfdd 8cbd 62ba e53d
00000010: 0ed4 36be c559 fd3d 6b85 19be 1c36 babc
00000020: 7ed5 103e 143c 093e 43e8 1f3e fbc6 023e
00000030: 9cdf e93d 9f56 373e 6343 05bd 3409 11bd
00000040: fa31 81bd e4f7 edbd b695 213e 832a 12be
00000050: 5e6a 753c 9dc1 1f3e 95ca ccbe 239a a4bd
00000060: c3bf d13d c65a c73d 74af 693a 565e f1bd
00000070: b1af ca3d 801f 893d 85aa 07be a812 ec3d
00000080: 0f15 21bd 37c0 1bbd 4b88 293e fc6e 6c3d
00000090: 00e4 993d 5505 003e 24cc 02be 069e 5ebe
000000a0: 5dfc 85be 6faa 1d3e 0a4b ccbd adc6 84be
000000b0: ecd5 45be c54e c23d b36b d3bd 0d49 fd3d
000000c0: 78a1 7f3e 51dc 663d b631 b5be 3945 213e
000000d0: 9b66 39be 539b 17be 1746 29be 17e2 00be
000000e0: d9e6 39be 28a3 e23d 679c 2dbc e030 ddbe
000000f0: 10a7 e9bd d9d0 dbbd f56f f53d 98d6 693d
00000100: ec33 393e 9c26 77bd d2b2 ed3d a565 68bd
00000110: 3629 13be a603 9b3d 184c 023e f53c 10be
00000120: 5f2e d8bd b52f 1cbc 1d5e f63d 0884 b0bc
00000130: 5565 8abd 70d0 37be dc1a 22be 35db 053e
00000140: 7926 073e 7611 ebbd c53b 16be be6f 13be
00000150: 3ae3 4abe 4260 fabd 4112 a43d 956e 19be
00000160: 3bb2 243e 73ec 50be b65e 86bc e05e 003c
00000170: e298 0c3e b885 afbc 654e fdbd 1534 9fbc
00000180: 65e3 953c e96b b3bd 8c63 17be 3f40 033e
00000190: 0c56 b3bd da6b e63d 1b31 66bd 1ead cc3d
000001a0: 25d5 16be c94d e03d e1b5 913b 2e92 f9bd
000001b0: 5dcf 27bc 29a3 e2bd e229 0fbe 5416 7fbd
000001c0: f69d c3bd ad36 403c b959 45be 8813 1fbe
000001d0: 5508 243d 156f 003e 51e4 3cbe 50b0 2c3c
000001e0: 3f82 1abe e396 05be d984 3c3d 4442 26be
000001f0: aa89 203d bfb1 533d 8cf4 913d fc11 0e3e
00000200: ae30 04bd 646e 22be 90ce 0d3e 62b8 283e
00000210: 5781 d0bd 57fc f23c 5ddc ddbd 4beb cd3d
00000220: 9578 c33d b59a ccbd 8f73 67be 1707 88bd
00000230: 8c54 51be 19a1 043e e4da dbbd 35f5 213c
00000240: a3aa 3a3e 4a26 113e 0d29 42be d4e1 ec3d
00000250: 87d6 94bc c8a0 9bbc b5bf 66be 54d3 13be
00000260: 4fd7 edbd 9153 4fba 0bf4 01bd acb9 663d
00000270: 5117 cfbd 43a2 9dbc 7567 623e 6d30 a93c
00000280: c3ff 2cbe ace6 823e 5b13 4a3e 4169 443d
00000290: d8ae 29be 31c4 603d 265b 1d3e b2f1 9f3d
000002a0: 2216 8f3c 3af4 203d a858 1abe 53b3 42bd
000002b0: d838 2ebd c4bd 0fbe c4f7 7b3e 0370 d43d
000002c0: 3847 803d fcb3 32be 06a5 ebbc 1ddc 233e
000002d0: db63 e63d 9a23 9fbb f131 543d 5c48 05bd
000002e0: d5ea 1f3e cb0e 64bd 409a 2c3e 0190 513e
000002f0: f89c 143e 9156 013d 26b8 0d3e c40a 303e
00000300: cc6a 4fbe 0cb3 58be f98c 0abe 394a 8abd
00000310: bcef 4d3e 475f 16be a5a4 25be 5dc1 3ebd
00000320: 6121 643d 700e 7abe 1ed4 223d a0b0 0bbd
00000330: 072d 71bd 1b8b 7c3d b214 85be 83c6 12be
00000340: 9b39 0e3e c73e f4bd 4729 ecbc 083e b8bd
00000350: 4ad7 013e 75cb b1bd 74e6 573c f550 1a3e
00000360: e99e 2a3e 31e0 7bbd 9238 253d c711 3dbe
00000370: a72f 273e e4f2 2ebe 4d4c a93d 393f 38bc
00000380: 20fc 703d 7919 723e 3c30 9abe 6254 e93d
00000390: 815a 8e3c a6df 3fbd 2922 013e ae34 033e
000003a0: 6477 383e 59f4 cbbc d2c8 c5bc 551e a6bc
000003b0: 58a3 d23d 132c 49be ea86 a5bd ad28 d3bd
000003c0: 924b 1bbe c1d0 28bd 2173 1f3e 1d28 f7bd
000003d0: 69f1 2b3e c3b6 643d 6c00 a13c 842c 12be
000003e0: accc 823d 7233 ab3d 72dc 033d aa34 273d
000003f0: 01fc 47be fdc9 85bc ef1e fa3d c278 8dbe
0.09502557 -0.28812218 -0.06878232 0.1121719 -0.1785433 0.12370638 -0.14992301 -0.02273088
0.14143941 0.13401824 0.15615945 0.12771218 0.11419603 0.17904137 -0.032534968 -0.035409167
-0.063083604 -0.11619547 0.15779766 -0.1427403 0.014978973 0.15601201 -0.39998308 -0.08037212
0.10241654 0.097341105 0.0008914389 -0.11785571 0.09896792 0.06695461 -0.13248642 0.11526996
-0.039326724 -0.038025107 0.16555898 0.05772303 0.07514191 0.12502034 -0.12773186 -0.21739969
-0.261691 0.15397047 -0.0997525 -0.25932828 -0.19319886 0.0948768 -0.10323276 0.12367449
0.24963939 0.056362454 -0.3538949 0.15749063 -0.18105547 -0.14805345 -0.16530643 -0.12586246
-0.18154468 0.11066276 -0.010596371 -0.4320135 -0.11408818 -0.10733194 0.11984245 0.05708942
0.18086213 -0.060339555 0.11606373 -0.05673756 -0.1437119 0.07569055 0.1272434 -0.14085753
-0.105557196 -0.009532859 0.120296694 -0.021547332 -0.06757609 -0.17950606 -0.15830559 0.13071902
0.1319827 -0.1147794 -0.14671238 -0.14398095 -0.19813243 -0.12225391 0.08011294 -0.1498359
0.16083615 -0.20402698 -0.016402584 0.00783512 0.13730195 -0.021426067 -0.12368468 -0.019434014
0.018296907 -0.087608166 -0.14784068 0.12817477 -0.087566465 0.1125104 -0.056199174 0.09993957
-0.14729746 0.10952336 0.0044467305 -0.12186085 -0.01024231 -0.110662766 -0.13980821 -0.062277153
-0.09551613 0.011731786 -0.19272508 -0.15534794 0.04004701 0.12542374 -0.18446471 0.010540083
-0.15088747 -0.1304584 0.04602513 -0.16236216 0.039193787 0.051683184 0.07126722 0.13874048
-0.032272987 -0.15862423 0.13848329 0.16476586 -0.101809196 0.02966134 -0.108330466 0.10054644
0.095444836 -0.099904455 -0.22602676 -0.06641977 -0.20442408 0.12952079 -0.107351094 0.009885122
0.18229155 0.14174762 -0.18960972 0.11566511 -0.0181687 -0.018997565 -0.22534068 -0.14436084
-0.116133325 -0.00079088757 -0.031726878 0.056329414 -0.10111869 -0.019242411 0.22109778 0.020652974
-0.1689444 0.25566614 0.19733946 0.04795194 -0.16570604 0.054874603 0.15366802 0.078097716
0.017466608 0.039295413 -0.15072882 -0.0475343 -0.04253468 -0.14037234 0.24606234 0.10372927
0.06263584 -0.17451471 -0.028765213 0.16001935 0.11249515 -0.004856539 0.05180544 -0.03253971
0.15616925 -0.05567817 0.16855717 0.2046509 0.14513004 0.031576697 0.13839778 0.17191607
-0.20255584 -0.21162051 -0.1353034 -0.06752438 0.20110983 -0.14684783 -0.16176088 -0.046571124
0.055695895 -0.2441957 0.039753072 -0.03410399 -0.058880832 0.0616561 -0.25992352 -0.14333539
0.13889162 -0.11926036 -0.028828276 -0.089962065 0.12679783 -0.086813845 0.013177503 0.15069945
0.16662182 -0.061493102 0.040337153 -0.18463813 0.16326772 -0.17084843 0.08266506 -0.011245542
0.058834195 0.2364253 -0.30114925 0.11393048 0.01737714 -0.046844147 0.12610687 0.12813064
0.18014294 -0.024896787 -0.02414361 -0.020278135 0.102850616 -0.19645719 -0.080823734 -0.10310493
-0.15165547 -0.04121471 0.15571262 -0.12068198 0.1679131 0.055838358 0.019653521 -0.14274794
0.06386694 0.08359422 0.032192655 0.04082171 -0.19529726 -0.016331667 0.12212931 -0.27631193

conv1.nn.2.bias f4 [32]
00000000: 1470 a5bd 9096 5dbc 36c0 17be 0162 e1bd
00000010: c6b0 0abe 4514 13be 758b f9bd ebed 48bd
00000020: 8704 033e 7116 f7bd 4a5b 183d c4bf d6bd
00000030: d193 fa3d eb9f 60bd c611 30be 4d7e 27be
00000040: e519 c5be 7d9c 353e 0908 9e3e ea90 df3d
00000050: a804 ce3d 3e7c 3dbd c79f 7bbe 6f9a 00be
00000060: 6981 5abd 6c43 403c 2c69 e7bd 9bad f03d
00000070: 15d8 a43d d154 0b3e b787 883d 51e1 44be
-0.08078018 -0.013524666 -0.14819416 -0.11005021 -0.13543996 -0.14363201 -0.121848024 -0.04905502
0.12794696 -0.12064827 0.037196435 -0.10485795 0.12235225 -0.05484001 -0.1719428 -0.16356774
-0.38496318 0.17735477 0.30865505 0.10916312 0.10059482 -0.046261065 -0.24572669 -0.12558912
-0.05334607 0.011734825 -0.11299357 0.117518626 0.08049027 0.13606574 0.066665106 -0.19226576

conv1.lin.weight f4 [9, 3]
00000000: 5648 053d 4c27 6b3e 5771 7abe d1d2 9dbe
00000010: 0a87 db3e 93a8 2e3f 8949 433e 1be8 f63d
00000020: fec8 febc f96e 4fbd b63e 2a3d dafe ab3e
00000030: 4298 103e ed11 d23e 3e79 5bbf 57ab ff3e
00000040: 80e1 f33e 7535 b7be 3a10 bcbe 7faa 75bc
00000050: 0e81 7bbd f43f ba3c 04fd 40be 86fe 8f3b
00000060: 54a7 d5bd 4679 973d f8ca 8d3e
0.032539688 0.2296421 -0.24457298 -0.30824903 0.42876464 0.68225974 0.1907102 0.12055989
-0.0311017 -0.05064294 0.041563712 0.33592874 0.14120582 0.410293 -0.85731876 0.4993541
0.4763298 -0.35782972 -0.3673113 -0.014994263 -0.061402373 0.022735573 -0.18846518 0.004394355
-0.10432306 0.07396178 0.27693915

conv1.lin.bias f4 [9]
00000000: 6659 4cbf 980a 1e3e fcd6 eb3d 965b 32bf
00000010: a317 eebe ca0a 44be 3beb 113e 7f5c 49bc
00000020: 3b65 183c
-0.7982391 0.15433729 0.115156144 -0.69671 -0.46502408 -0.1914474 0.1424989 -0.012290119
0.009301479

conv2.nn.0.weight f4 [32, 32]
00000000: d245 abbe f40e eb3d 4ed2 babe c6c3 14be
00000010: b301 70be fab0 8dbe 6d19 d2bd 9ef4 e03d
00000020: b7ba 09be 6d04 00bd e2e8 ed3d 6b8d 063e
00000030: dbbf 073e b91a acbe 6690 db3d b39c 1e3d
00000040: 713c a5bd 2997 9cbe f206 c9bd 1d2e 503e
00000050: 616c e53d e582 23be c172 fb3d 01fe 293e
00000060: 24c6 c53d 0df1 fa3d 72d6 513e bc23 113e
00000070: f609 b7be 4ada 243e 4989 c6bd f5bd 7dbe
00000080: 5a3a 603d 57cc 30be 4dae e23e 6a6a 10be
00000090: e8cd 0cbd 03e9 77be ede8 09bd bcb9 ccbc
000000a0: a9a1 1c3e 7749 3b3e 8088 4bbe 238c 853c
000000b0: 2059 3f3e 4bc4 2ebe dc91 58be 64b2 e13d
000000c0: 456e 873d 2124 1fbd 1ca1 6bbd 4294 d53d
000000d0: c85c 073e a69a c7bd 65bd 36bd 0a97 f4bd
000000e0: 50a1 96bd b634 9abe 1c42 f93e 4482 d83d
000000f0: 8102 113d e486 1dbd fa1f 1a3e f72d 45bd
00000100: 75ce 533b 97e7 733e ca34 f2bd bb6f 953d
00000110: d8af 1fbe b684 bbbd 0aae 343d 3bd4 2b3c
00000120: f6ad 01be 7f7d c63c 5dce da3c d975 80bd
00000130: 1266 01be ac29 ae3d da53 f7be af43 dfbd
00000140: 57b8 d93d 0d23 52be 9a37 a83e 5404 10bc
00000150: 5346 443e 26ea bebe c575 78be ca4d a8be
00000160: 986b 8b3d 7a32 d63d 538d 0d3c 0f9b 0b3e
00000170: 7a0f 5cbe c3a4 0bbe d11c 133e 83c6 6abd
00000180: 7264 d63d 5c31 9dbe 41cc f4bd 58f1 06be
00000190: daf6 563d 4c2e b2bd ebe6 7dbd d0a9 07bd
000001a0: 4d61 0cbe 0d96 a63d f942 44bc 2c7e 3cbe
000001b0: df8a 193e 82e2 323e 0143 35be 1c18 c1bd
000001c0: c458 143c f302 e13c 171f 8e3d 5bbf b9bd
000001d0: 07fc aebe 3ee1 9ebc a08d ce3d e2c4 0c3e
000001e0: 90ff f43d 642a 883e 5882 363e d70b bf3d
000001f0: 7ee4 ffbd 489b 9abd c4a5 22bd 6c76 92bd
00000200: bea6 6cbe d884 243e f752 68be bbc0 c5bd
00000210: 2f06 72be 7047 ca3d d9ec b83d d2cd 51be
00000220: 353d 93bd f306 823d 48cc 843d 0a41 56be
00000230: 8577 acbd 9c1d 193d e46e 833d f04c 22be
00000240: 7e9a e33d 6320 77be 288e 383d 6c0c 853c
00000250: 89dd 19be 8fa6 f5bd c9ba 853d d81e 383c
00000260: 1db2 1cbe ac43 a6bd 1f5b dfbd bca9 93bc
00000270: 364f c53c 7a14 29be 941d 22be cd6a 86bd
00000280: 3203 23bd 17df 88be 8611 e9bd 5507 babd
00000290: ede2 043e 7776 8f3a 3f46 963c 28e0 963d
000002a0: 3229 52be eb9c 12be 34e8 9b3d 4d95 b2bd
000002b0: a50e cc3c d5ec 853d c46f 163e 066b 85bb
000002c0: 550a 4ebe f288 4abb 03af a9bd b898 473e
000002d0: 818b 6ebe 6c24 283e 20c5 4ebe 0288 3e3c
000002e0: 764f 333e 019f e13d d093 98be ecd7 983d
000002f0: fbbf 11bd 8a24 783e 5ae4 c83c a0f1 ac3c
00000300: 8172 c43d f96e 4b3e e055 e03e 1168 b83d
00000310: 64d2 c8bd 7d2a 853c 3a5b 933b 7778 153e
00000320: 483a 24be 379b dfbb 08bb 89be 2629 c33d
00000330: 2de9 153e 4901 3bbe 81a4 8bbe db42 e13b
00000340: 846e d0be 6996 e63d 5d23 873e 0ad3 2d3e
00000350: fdb4 bebc 5512 29be ea7d fd3c e87e f2bc
00000360: 46b8 b4bd 4d46 36be 3746 9ebd b021 0dbd
00000370: d79a 7c3a 79fa 3c3d 5e70 9bbd b7d1 2c3e
00000380: b9b6 353d e234 f5bd a6cf 89be e13e 92bd
00000390: a7c4 22be 3216 463c cff0 1cbe 59e9 ae3c
000003a0: 8158 e03e a6fb 0bbe 3073 03bd 3e98 2fbe
000003b0: c500 adbe 660b 54be 0e6f 77be fe11 9bbc
000003c0: 9b9f d1be c0d6 14be be36 b03e c9cc 21bd
000003d0: 71a2 373e 0965 0c3d de67 91bd 34e1 e6bd
000003e0: 4d1e cd3b 33f7 56be 0f22 2fbd e6f7 11be
000003f0: 3d23 6ebe 87e9 a83d 7181 18be d85d 82be
-0.33451706 0.114774615 -0.36488575 -0.14527807 -0.23438148 -0.27674085 -0.10258756 0.10984157
-0.13450132 -0.03125422 0.116166845 0.13139884 0.13256781 -0.33614138 0.10720901 0.03872366
-0.08068169 -0.30584076 -0.09815778 0.20330091 0.11202312 -0.15967901 0.12277747 0.16600801
0.09656933 0.12253008 0.2049196 0.14173788 -0.35749787 0.16098896 -0.09694154 -0.24779494
0.05474315 -0.1726545 0.44273606 -0.14103094 -0.034376055 -0.2420998 -0.0336694 -0.024990909
0.15296043 0.18289743 -0.1987629 0.016302174 0.18686342 -0.17067067 -0.21149391 0.110203534
0.06612829 -0.038852815 -0.057526693 0.104286686 0.13218987 -0.09746294 -0.044614214 -0.11942871
-0.07354987 -0.3011834 0.4868325 0.10571721 0.03540278 -0.03845872 0.1505126 -0.04813954
0.0032319103 0.23818813 -0.11826475 0.072967015 -0.15594423 -0.09156172 0.04411129 0.010487611
-0.12664017 0.024229763 0.02670973 -0.06272478 -0.12636593 0.08504042 -0.4830616 -0.109015815
0.10630863 -0.20521183 0.3285492 -0.008790094 0.19167452 -0.37288016 -0.24263676 -0.32871848
0.06807631 0.104588464 0.008639651 0.13633369 -0.21490279 -0.1363707 0.14366461 -0.05731822
0.10468377 -0.3070172 -0.11953021 -0.13178003 0.05248151 -0.08700237 -0.0619878 -0.03312093
-0.13708992 0.08134089 -0.011978858 -0.18407506 0.14994381 0.17469218 -0.17701341 -0.094284266
0.0090543665 0.027467227 0.06939524 -0.09069701 -0.34176657 -0.019394513 0.100856066 0.1374698
0.11962807 0.2659484 0.1782316 0.0932843 -0.12494753 -0.07549149 -0.039708868 -0.071514934
-0.23110482 0.16066301 -0.22687899 -0.09655901 -0.23635171 0.09876907 0.0902955 -0.2048867
-0.07189409 0.06348982 0.06484276 -0.20923248 -0.08421234 0.037381753 0.06417635 -0.15849662
0.111134514 -0.24133448 0.045057446 0.016241275 -0.15025915 -0.11994659 0.06529767 0.0112378225
-0.1530232 -0.08118376 -0.10906052 -0.018025272 0.024085622 -0.16511717 -0.15831596 -0.065633394
-0.03979797 -0.26732704 -0.113802955 -0.0908343 0.1297719 0.001094534 0.018344043 0.07366973
-0.20523527 -0.14317672 0.076126486 -0.08719883 0.024909327 0.06539313 0.14691073 -0.004071596
-0.20121129 -0.003090438 -0.08285334 0.19491851 -0.23295404 0.16420144 -0.20192385 0.0116291065
0.1751078 0.11016656 -0.29800272 0.07463059 -0.035583477 0.24232689 0.024522949 0.02111131
0.095921524 0.19866551 0.43815517 0.09004224 -0.09805754 0.016255612 0.004496959 0.14596735
-0.16037858 -0.006823923 -0.26900506 0.09529333 0.14639731 -0.18262209 -0.27273944 0.006874425
-0.40709317 0.11259157 0.26394168 0.16975036 -0.023279661 -0.165109 0.03094383 -0.02960153
-0.0882421 -0.17800255 -0.07728236 -0.034455955 0.000963611 0.046137307 -0.07589792 0.16876875
0.04436371 -0.11972977 -0.26916236 -0.071408994 -0.1589533 0.012090253 -0.15326236 0.021351503
0.43817523 -0.13670215 -0.032092273 -0.1714792 -0.3378965 -0.20707473 -0.24163458 -0.018929478
-0.40942082 -0.14535046 0.34416765 -0.03950194 0.1793306 0.034276042 -0.07099889 -0.11273423
0.0062597157 -0.20992737 -0.04275709 -0.14254722 -0.2325563 0.08247667 -0.14893128 -0.25462222

conv2.nn.0.bias f4 [32]
00000000: fc27 0b3f abc3 773e dbf7 22bc 8730 313e
00000010: eb9a 813d c2b3 d33d a64c 13bd 6afd 483d
00000020: 6ca4 64be 651a bdbd 2271 47be 4039 f33b
00000030: c0bd 56be cd28 34bc 84bd cf3b bfc8 b7be
00000040: 2c67 88be 73c3 6dbe 5b69 843e c553 2ebe
00000050: 064a 4cbe d38c a23d 96c1 79be c89e 313e
00000060: 1c54 d9bc e075 843c bc9a 543e 53b7 22bd
00000070: 50d0 41bd 2389 35be bf8c 293c fe6f 97bd
0.54357886 0.24195735 -0.009946789 0.17303668 0.063283764 0.103370205 -0.03596177 0.0490698
-0.22328347 -0.0923355 -0.1947675 0.007422596 -0.20970821 -0.010996056 0.0063397307 -0.35895345
-0.26641214 -0.23219089 0.2586163 -0.17024143 -0.19950113 0.07937016 -0.24390253 0.17345726
-0.026529364 0.016169488 0.20762151 -0.039725613 -0.047317803 -0.17728095 0.010348498 -0.07394408

conv2.nn.2.weight f4 [32, 32]
00000000: a279 6fbe cfb0 27be c02e 993d 5761 2c3e
00000010: 5d76 1c3d dea9 373e 3e73 0c3e d47e 163e
00000020: 9484 ce3d 8565 edbd f91b 39bd 655f 75be
00000030: 78be 713e 2eb7 3c3e 719b 1a3e efb2 b33d
00000040: 4c80 623e 84f0 4a3d f296 693e 52c1 443c
00000050: 24b4 c43c 03ca 3fbe d893 66bd 5331 0fbe
00000060: 0fc0 3e3c 4fd4 a03e 5c87 9d3d af1f 52bd
00000070: 1eef 213b 90ac 57be fec6 a6bd 10d1 38bb
00000080: a144 51bd e203 b13b 7426 c2bc aef2 2f3e
00000090: a2c5 153e 8650 343e c49d 2a3e 50d5 793e
000000a0: d5ff 113e 8d8c 19be 4a4f 4ebe 6e1a 283e
000000b0: 47ce c03c b99f 02bd 55e6 0d3e 25f7 a9bc
000000c0: f7a1 00be 33d1 27be 6e02 c73d a162 0bbc
000000d0: be77 493e 65ab 693e 4361 be3d b8ad 523c
000000e0: 1069 19bc 7059 debd f108 5b3d 2733 513d
000000f0: 43f7 2a3d df7c 1dbe 6719 843e ba79 edbd
00000100: d1a4 0bbe 0684 d33d 9405 75bd 8167 423e
00000110: b96c a33d 6ce0 73bc 6d62 f03d f241 a7bd
00000120: af51 3e3e 84c2 fdbd 5fe1 2dbc 51e4 b4bc
00000130: a16d 6fbe e69b 7dbd 4307 2fba dc1e 643d
00000140: 171b 53be 0457 d0bc 3267 4cbd 61df 923d
00000150: d53d 31bc 6f56 a63e 3e51 2ebe d406 10bd
00000160: 77a0 223e 6b71 afbe 20da 28be 63ad 603d
00000170: 7327 de3c 9544 6abe d098 f23c acdc 0dbe
00000180: 7409 81be 770b 0fbe 6b83 3cbe 3c35 833d
00000190: c3b5 1e3e e5c0 fd3d 1282 2b3e c58d bcbd
000001a0: b490 52bd a4fa 1d3e c990 1a3e 9d93 913d
000001b0: d395 d5bb 0e3e 38bd 8d84 8cbe 7697 cabd
000001c0: 8983 39be 172a 153d 111f 8dbe a24a ae3d
000001d0: e983 463d dc29 d1bc 47e6 b0be d611 f73d
000001e0: 8567 923d 0700 c63e 33c0 563d 8a07 2dbe
000001f0: 3e7c 88bd 42fa 553e e051 353e 4e13 1e3e
00000200: 8343 1c3f f421 1cbd 0bf0 1d3e 751c 6fbe
00000210: 80f6 56bd a1e1 c13d 0774 99be 7eae c5be
00000220: 200b 99bd 0d83 443c 2615 aabe 0572 8c3d
00000230: bffb 80be bf8c 963d 16d8 013e 1d9f f2be
00000240: 4f48 c1bd ae07 06bd f58d d1bc b21f f63d
00000250: 2fdd 0ebe 1b8a 7cbd 3e86 0e3a 0da6 07bd
00000260: ec7e 113e a08e 51bd c928 dfbd b663 8ebd
00000270: 79cb 933d 7d5c c93e 17de b5ba df4e ebbd
00000280: b7d8 0fbe 22a4 203e 41bb cfbe 123e d83d
00000290: e1fd db3d bce4 02be 83c3 b43d ccb1 c83e
000002a0: c23b 983d 8ffe 1bbd 8c1e adbd 1eb4 74bd
000002b0: 7925 3fbd 60b0 bebd 8e86 b4bc f7cd d43c
000002c0: a715 10be 7dff 90be 354c ff3d 5875 d9be
000002d0: da57 bebd deee 013e 65db 72be 1e2d 003e
000002e0: 9176 b83d ed52 0fbf 1086 243e 83b2 5e3e
000002f0: 8b0f 9c3d f925 78be d45d 8f3d b1dc 83be
00000300: c304 8f3d 6407 d73d 2f48 773e 06f0 99bd
00000310: 7d8b bb3d 7353 8c3d 18a7 b23d 7dcd d03e
00000320: 2035 e3bd 4e41 4d3e 0875 00be 204d de3c
00000330: 4bed 1e3d 9349 d73d 522b 763d c538 b23d
00000340: 8933 c93d 655a 6d3d 7b9b c6bd b2d8 7b3e
00000350: de5a af3e 94cf e53d 6a69 e339 6ab0 36be
00000360: 8f06 023e 5b92 ebbd 247d ecbc 7f88 cd3e
00000370: 28ef 7abd 0d62 cabc 46be 9b3e 4437 7f3e
00000380: 795b d23d 1d0b 03bd d335 083e fb10 453d
00000390: 20c4 b4bd 1d30 0fbe 2228 1d3e dd2a 8a3e
000003a0: ebd1 22be 8584 fd3d 3163 f6bc 1d85 fcbd
000003b0: 9c75 463d 4b6b fe3d 7f90 0bbc 996c 883d
000003c0: c56b 90bd 0821 14be 54a0 8c3d fbd9 333d
000003d0: 9c78 723e 3885 0e3b 942f b6bd 78e4 8ebd
000003e0: 4f4c 103e 6982 04be 1851 2cbe 28a1 4f3e
000003f0: 4d6a a83d d7e6 0ebe 8b24 503e 3d9e 97bd
-0.23386243 -0.16376041 0.0747962 0.16834007 0.038198818 0.17935893 0.13715836 0.14696819
0.10083881 -0.11591629 -0.045192692 -0.23962171 0.23607814 0.18429253 0.15098359 0.08774363
0.22119254 0.04954578 0.22811487 0.012008982 0.024011679 -0.18729405 -0.05629334 -0.1398366
0.01164247 0.3141198 0.076918334 -0.051299747 0.0024709175 -0.21061921 -0.081434235 -0.0028200783
-0.05109084 0.005402074 -0.023699977 0.17182419 0.14626172 0.17608842 0.16661745 0.24397779
0.14257748 -0.14995022 -0.20147434 0.16416332 0.02353586 -0.031890605 0.13857396 -0.02074773
-0.12561785 -0.16388397 0.0971726 -0.008507402 0.19674584 0.22819288 0.09295895 0.012858801
-0.009363428 -0.108569026 0.053475324 0.051074173 0.041739713 -0.15379666 0.2580063 -0.11595483
-0.13637091 0.10327916 -0.059819773 0.18984796 0.079797216 -0.014885049 0.11737523 -0.08166875
0.18585847 -0.123906165 -0.010612815 -0.022081526 -0.23381664 -0.061916254 -0.00066768023 0.055693492
-0.20615803 -0.025432117 -0.049903102 0.071715124 -0.010817965 0.3248782 -0.17023179 -0.03516276
0.15881525 -0.3426622 -0.16489458 0.054852854 0.02711842 -0.22877724 0.029613882 -0.13853711
-0.25202525 -0.13969217 -0.18409507 0.06406638 0.15499024 0.12390307 0.16748837 -0.09206728
-0.05140753 0.15427643 0.15094294 0.07108233 -0.0065181046 -0.044981055 -0.27444878 -0.0989217
-0.18116583 0.036417093 -0.27562764 0.08510329 0.048465643 -0.025532655 -0.34550688 0.12063949
0.07148651 0.38671896 0.05242939 -0.16897407 -0.06664322 0.20896247 0.17707014 0.15437052
0.61040515 -0.038118318 0.154236 -0.23350699 -0.052481174 0.094668634 -0.29971334 -0.3860969
-0.07472825 0.011994136 -0.3321926 0.06857685 -0.25192067 0.07351064 0.12680086 -0.4738702
-0.0943762 -0.032722168 -0.025580386 0.12017764 -0.13951562 -0.061655145 0.0005436874 -0.033117343
0.14208573 -0.05116141 -0.10896451 -0.06952612 0.07216544 0.39328375 -0.0013875392 -0.11489653
-0.14047514 0.15687612 -0.4057255 0.10558714 0.10741783 -0.12782568 0.088263534 0.39198148
0.07433273 -0.038084563 -0.08453092 -0.059742086 -0.046666596 -0.093109846 -0.022036817 0.025977118
-0.1407076 -0.28319922 0.12465707 -0.4247234 -0.092941 0.12688777 -0.23716505 0.12517211
0.0900699 -0.5598591 0.16066766 0.21747784 0.07620152 -0.24233235 0.07000318 -0.25754312
0.0698333 0.104994565 0.2414863 -0.07516484 0.09157465 0.06851854 0.08723277 0.40781775
-0.11094117 0.20044443 -0.12544644 0.027136385 0.03880052 0.1051208 0.060099907 0.08702234
0.09824283 0.057947535 -0.09697624 0.24594381 0.34249014 0.11221233 0.00043375354 -0.17840734
0.12697814 -0.115025245 -0.028868265 0.401432 -0.061263233 -0.024704957 0.30418605 0.24923426
0.10271353 -0.03199302 0.13301782 0.048111897 -0.088264704 -0.13983198 0.1534734 0.26985827
-0.1590039 0.12378792 -0.030076595 -0.12330077 0.048452005 0.12422808 -0.008518337 0.06661338
-0.070518054 -0.14465725 0.06866518 0.043909054 0.23678821 0.0021746885 -0.088957936 -0.06977171
0.1409161 -0.12940373 -0.1682781 0.2027632 0.082234 -0.13955246 0.2032644 -0.074032284

conv2.nn.2.bias f4 [32]
00000000: de55 76be 4403 ce3b a8bf 443b f415 9d3c
00000010: 6a50 323d d673 423e 333b 86be 30c3 12be
00000020: c376 e0bd 9db5 8cbd 73ea 1ebc 6519 3cbe
00000030: d0fa 103d a82e 213e 230b be3e 2ff3 8fbd
00000040: eec3 4e3d 55f7 afbd 0e18 0c3e 74d4 05be
00000050: 4237 ffbd a233 923d 3e71 253e e795 12be
00000060: 8f2d 423d 92c2 c2bd 4e80 d53d 405a 50bd
00000070: 6bb9 14be 0e1c 22be df94 20bd 00cd 16be
-0.24056193 0.0062870104 0.0030021463 0.019175507 0.04353372 0.189895 -0.2621704 -0.1433227
-0.10960152 -0.068705775 -0.009699452 -0.18369062 0.035395443 0.15740454 0.37117872 -0.070288055
0.05047982 -0.08592097 0.13681051 -0.13069326 -0.124617115 0.071387544 0.1615648 -0.14314996
0.04740673 -0.095097676 0.10424863 -0.05086732 -0.14523856 -0.15831015 -0.039204475 -0.14726639

conv2.lin.weight f4 [32, 3]
00000000: ad82 0ebf bc4f c6bd 6a54 993d f50d f5be
00000010: c8b3 8dbe f72b 00bf 46c0 933e 7cd0 c93e
00000020: f871 45bf c050 693d 220d d5be e392 f93d
00000030: 055a c53e 54eb be3d d0f1 22bf e1fb d23e
00000040: c92d 0abf 7cc4 f33d 7297 983e e4b2 05bf
00000050: 6ecc 163e 5f6b b9be 84b1 43bc 622f d73e
00000060: f8a2 253f 2bbf d2be 6a47 88be 3ce3 ea3d
00000070: bb73 7b3e e9e6 20bf 156f b5be 1e04 183d
00000080: 8b8e ab3e 090e 213e f9d8 23bd 9945 d1be
00000090: b852 3bbf 0b9c 683f 8b5e 57be c137 09bf
000000a0: 5210 74be 7bd2 02bf 441d c33e 08bb 6a3e
000000b0: 861d b43e 79f5 96be 422c 963e 82ec c2be
000000c0: f173 10be be0a e33e f7bb 8d3e 030b 143f
000000d0: 289d a4bd dd25 33bd 2853 99be 8e5a 143e
000000e0: 821a 79be 6e5e fdbc ac6d 413f f697 50bc
000000f0: fdda d73e 187e a03e 3525 19bf 8083 8f3e
00000100: ac29 1cbc db62 ba3e f4ca 953e a45f f23e
00000110: 9b52 f83e b7c0 b8bd 8f2a bc3e 8486 c43e
00000120: fe2e 5fbe 9117 0bbf 1fe3 e6bd be85 b4be
00000130: 0f04 b0bc 179e 303f 91fe 91be 03aa 3b3f
00000140: 40fd 563e 5d74 8abe 8e85 a1be da60 debd
00000150: 8e14 973e 3df9 8a3e d965 3dbe 4b00 9abe
00000160: 98b9 6dbe 21e4 1c3f 978d 663e dfd7 123f
00000170: 4fda e0be 23ad 1fbf 3931 12bf ed2c ca3d
-0.55668145 -0.09683177 0.07486804 -0.4786221 -0.27676225 -0.50067085 0.2885763 0.39416873
-0.7712703 0.056961775 -0.41611582 0.121862195 0.38545242 0.09322229 -0.63650227 0.41207793
-0.5397611 0.11902711 0.29803044 -0.5222609 0.14726421 -0.3621473 -0.0119441785 0.42028338
0.64701796 -0.41161475 -0.26616985 0.11469123 0.24555866 -0.6285234 -0.3543631 0.0371133
0.3350719 0.1572801 -0.040001843 -0.4087341 -0.73173094 0.908631 -0.21032159 -0.536007
-0.2383435 -0.5110242 0.38108265 0.2292291 0.35178775 -0.29484156 0.2933064 -0.38071066
-0.14106728 0.44344133 0.27682468 0.578293 -0.08037788 -0.04373728 -0.29946256 0.14487669
-0.24326518 -0.030928817 0.7555797 -0.012731543 0.42159262 0.31346202 -0.598224 0.28030014
-0.00953142 0.36403546 0.29256403 0.47338593 0.48500523 -0.090211324 0.3675122 0.38383877
-0.2179527 -0.54332834 -0.11273789 -0.35258287 -0.02148631 0.68991226 -0.2851453 0.7330629
0.20995045 -0.27041903 -0.31547207 -0.10858317 0.2950787 0.2714328 -0.18495883 -0.3007835
-0.2321533 0.612856 0.2251495 0.57360643 -0.43916556 -0.6237356 -0.5710636 0.0987185

conv2.lin.bias f4 [32]
00000000: 1768 e2be 9e0d 6fbe 7b76 173e a47d fbbe
00000010: aef4 c93e 9c9a 7bbd d582 9dbe 98ac 9b3e
00000020: 1896 37bc db11 b93e a6c6 24be d33b cc3e
00000030: d464 603e 9abd ff3e 4c02 943c 5dd9 b1be
00000040: 4f12 29be 4a0f dcbc db14 8bbe c187 21be
00000050: 70e0 283e 7c2f c8be 1c08 05bc e605 e13c
00000060: 4751 513e 8ab5 ae3e c2d0 743d 9b81 c1bb
00000070: 5291 093e cddb 7f3e b8fe a1bc b5cd 673e
-0.4422004 -0.23345038 0.1479129 -0.49119294 0.39444488 -0.061426744 -0.3076388 0.30405116
-0.011205219 0.36146435 -0.16091403 0.39889392 0.21913463 0.49949342 0.018067501 -0.34736148
-0.1651089 -0.02686276 -0.2716435 -0.15774442 0.16491866 -0.39098728 -0.008119609 0.027468633
0.20441161 0.34122878 0.0597694 -0.0059053428 0.13434342 0.24986191 -0.01977478 0.22637065

classifier.weight f4 [1, 32]
00000000: caef 013e a42b cfbd 8469 80bd eb02 c93d
00000010: 69b4 913d 80da c0bd 1efd 6abd df42 50bb
00000020: e410 2a9a f444 0080 b9ab afbd 17ad 6c3d
00000030: 60a5 9a3d 2ade 44bc 265f 303e ff95 87bd
00000040: a73a c53d 7d58 0000 756d debd 0270 37bb
00000050: 08e2 ddba 8e0a 57ba 7ed0 14be 7a1c c43d
00000060: c827 96bd c508 5f3d c854 d13d 3090 b3b8
00000070: 6a1a fcb6 d5e1 abbb 82f5 48bb aca0 6f0b
0.12689129 -0.10115746 -0.062701255 0.0981501 0.07114489 -0.094166756 -0.057370298 -0.003177814
-3.516882e-23 -2.4736e-41 -0.08577675 0.05778226 0.07551074 -0.012015859 0.17223796 -0.06620406
0.09630328 3.1744e-41 -0.10860721 -0.0027990346 -0.0016928324 -0.0008203172 -0.14532658 0.09575744
-0.073318064 0.054451723 0.10221249 -8.562242e-05 -7.5132602e-06 -0.005245427 -0.0030663912 4.6150602e-32
