A3/MyTeam/A3/classification/custom.pth (torch, 19043 bytes, 13 tensors)

conv1.nn.0.weight f4 [32, 9]
00000000: 7ea5 d53d dbfd 563e 75e8 3bbe 64e8 1bbd
00000010: ecb6 983e aea7 24be 852c 1ebe 5bc1 ac3e
00000020: ec12 f33c fb74 88bd 46fe a63e 003b 2fbe
00000030: 2338 8ebe 5612 db3b 86a4 e73d 0605 9abd
00000040: 9f83 a6be 6b72 353d c5a4 70bd 9e09 c1be
00000050: 3d43 7fbe 45d0 703e 069b b73d a358 04bf
00000060: 12c4 433e 3b8b a23d 9411 f13d ea0f 72be
00000070: cbfd a63e 3385 8d3c d265 8c3d 8d25 77be
00000080: 95fa 883c 584a 5d3e e420 c83d 306a 7fbe
00000090: a85e 84bd 4e64 fb3d fd20 a43e 3c68 08be
000000a0: b8d6 953d b90f b23e 169f 283e 50a4 673e
000000b0: 3174 01be b0cb 15be 1627 343e 8ae2 91be
000000c0: 8b76 1d3d cb0e 27bd f0b5 91bd c85a 85be
000000d0: 5669 fd3b e848 26be 5abe 9fbe 4b6d ee3d
000000e0: 3bf7 413e 8055 60bc 902d 04be 164e a1bc
000000f0: 80ab 29bd eb28 c5bd 2bf1 a4bd 8afe 9c3e
00000100: 33bc 223e 86a7 c0be c2c5 47be 3b20 50bd
00000110: 509d 3e3f 5516 b63e 7754 ccbe 56b4 0bbe
00000120: 5f05 96be 6489 9bbe a0a9 14bd 5677 3a3d
00000130: 4b4b 0b3d ab91 5ebe 3043 8dbe f618 cabd
00000140: 0813 8e3e 1d84 a33d 2ae9 1bbf 3987 24be
00000150: 1f6d 5bbe 1078 56be 0594 83bc aec8 bf3d
00000160: 648f b1be 78f7 d63c e951 683e fbb0 4d3e
00000170: b2a0 423e 6bdd 66be 8258 9fbe 5d25 d83a
00000180: ff53 d8be 1455 56be 8df2 f93d 109a 663e
00000190: d40f 163e 5623 353e d486 b5be 066a aa3e
000001a0: 823b 773d 2c87 08be 076e 983e d52e 4d3d
000001b0: f4ea 213e ac7e b13e 381e 0abe b23c 813c
000001c0: f8a9 82bd d752 d2be bc83 a1be 5913 093e
000001d0: 5753 3bbe 8666 4fbe 9b23 e6bd 5cdc 943e
000001e0: 98a4 5bbe 9b23 343e e6ee 9e3e 10ee f53d
000001f0: 4aa8 883e 38e4 22be 1008 b7bd d6f3 633e
00000200: 201b 0b3e ab6c bebb b8b1 6ebe fbf2 b6bd
00000210: 78aa 95be 4b54 97bd c63e 3fbe b1dd af3d
00000220: 65cd 9f3e 53d3 80be 5e7d a63d 2544 95be
00000230: 27fb f4bd 5b2a 7c3d d5c9 85bd 72f3 463e
00000240: 6e76 e13d 00ef e13d 924f 92bd c670 29be
00000250: c933 173e d605 eabe 4321 2b3d c09c aa3e
00000260: 3445 333e c796 e43d c13d 16bf e5de 0fbd
00000270: 6acf 5dbe 8994 993e 7fc5 71bf 1d90 173e
00000280: 560b cebd 5320 fbbe e5bd 90bd 3e4d d4bd
00000290: 5eaf 6d3d d6e9 4a3e 2339 06be 7102 a0be
000002a0: 03fd 4bbe 851a 353e 0a49 473d 92d0 2e3e
000002b0: 302f 623d 6363 3b3e ebff 29bd f902 9dbd
000002c0: 5827 cc3c 46ab 8dbe cf08 89be f56a bcbd
000002d0: 6d79 41bd b856 8d3b eebe 993e 75ac 853e
000002e0: 0c34 d1be 6ba5 2f3e df90 173e 5797 83be
000002f0: 04f1 20be 01cf a9be 83df 82be 1b43 883d
00000300: caaf 8c3e 3da1 f53c ab8e bc3e b53d 303e
00000310: d87c 9bbd 174d 85be 767c 2a3e cf41 8b3d
00000320: ea52 d03c e069 23be 26e1 873d e6cb 493e
00000330: 941b 0fbe 35e1 833e c4b2 39bd 0e88 52be
00000340: 7420 85be 3ed0 62be f84f 75be 4e95 713e
00000350: 56a1 69bd a35d 5cbe 809c 44bd 0003 01be
00000360: c6eb 203d 89c1 113e 8e18 5dbe 6687 023e
00000370: 1a73 0dbe 4dae 3dbd 2e26 26be c745 f73c
00000380: 84d2 cabe 5226 4cbb 7382 553e baf9 97be
00000390: 0de7 93bd 3687 b8bd 73e2 45be fa22 78bd
000003a0: eb1d d73c 2b0e 113c eb34 293e 974c 5fbe
000003b0: f158 63be 773e b8bd de54 8d3e 18c8 70bb
000003c0: 81cd 1abe 017e 9b3e e820 e73d cfa0 253e
000003d0: d9ad ca3e abed 29be 543a dfbd 391e bcbe
000003e0: 8080 f13e 2b1d 9c3d 95a9 c9be 4d54 943e
000003f0: 4926 5bbd 1ba0 a93e 78a7 ab3e 3fd5 9fbd
0.10431956 0.20995276 -0.18350394 -0.03806342 0.29827058 -0.1607959 -0.1544667 0.3374127
0.029672109 -0.06662937 0.3261587 -0.1711235 -0.27777204 0.0066855354 0.11310677 -0.075204894
-0.32522294 0.04429857 -0.058750886 -0.3770265 -0.24927993 0.23516949 0.08965115 -0.5169775
0.19117764 0.07936712 0.11770931 -0.23638883 0.32615504 0.017275428 0.06855358 -0.24135418
0.01672105 0.21610391 0.097718984 -0.24942851 -0.06463367 0.12274991 0.32056418 -0.13321012
0.07316345 0.3477762 0.16466936 0.22621274 -0.1264198 -0.14628482 0.17593035 -0.28493148
0.03844313 -0.040785592 -0.0711478 -0.26045823 0.0077335043 -0.16238749 -0.31199914 0.1164194
0.18941967 -0.01369226 -0.12908006 -0.019690555 -0.04142332 -0.09626945 -0.08053812 0.30662948
0.15892105 -0.3762781 -0.19509032 -0.050811987 0.7445879 0.35563913 -0.39908192 -0.13643011
-0.29300973 -0.30378258 -0.03629458 0.045523964 0.03400735 -0.21735255 -0.27590322 -0.09868042
0.27748895 0.07984183 -0.60902655 -0.16067208 -0.21428345 -0.20944238 -0.016061792 0.093644485
-0.3467971 0.02624105 0.22687496 0.20087044 0.19006613 -0.22545402 -0.31122214 0.0016490627
-0.42251584 -0.20930892 0.12204466 0.22519708 0.14654475 0.17689261 -0.35454428 0.33284014
0.060359485 -0.13332814 0.29771444 0.05009349 0.15812284 0.34666955 -0.1348809 0.015776012
-0.06380075 -0.41078827 -0.31545818 0.13386287 -0.1829351 -0.20253953 -0.1123726 0.2907437
-0.21449506 0.17591707 0.3104164 0.120082974 0.26690894 -0.15907371 -0.08937085 0.22260985
0.13584566 -0.005811294 -0.23309982 -0.089330636 -0.2923162 -0.073891245 -0.1867629 0.08587206
0.3121139 -0.25161228 0.08129381 -0.29153553 -0.11961966 0.06156383 -0.06532637 0.19428805
0.11008917 0.11031914 -0.07144083 -0.16546926 0.14765848 -0.45707577 0.041779768 0.33322716
0.17506868 0.11161571 -0.5868798 -0.03512468 -0.21661153 0.29996136 -0.9444198 0.14801069
-0.10060756 -0.490481 -0.070674695 -0.10366295 0.05802857 0.19815764 -0.13107733 -0.31251863
-0.19920735 0.17685898 0.04865364 0.17071751 0.055220783 0.18299632 -0.041503828 -0.076665826
0.024921104 -0.27669734 -0.26764533 -0.09200088 -0.04723494 0.004313316 0.3002848 0.26108137
-0.4086002 0.17152946 0.14801358 -0.257014 -0.1571694 -0.33165744 -0.2556115 0.06653424
0.27477866 0.029984111 0.36827597 0.1721104 -0.075921714 -0.26035377 0.1664904 0.06799661
0.025430162 -0.15958357 0.066347405 0.19706687 -0.13975364 0.25757757 -0.0453365 -0.20559713
-0.26001322 -0.2214975 -0.23956287 0.23592111 -0.057038628 -0.21520095 -0.048000813 -0.125988
0.03928735 0.14233984 -0.21591398 0.12746963 -0.13813439 -0.046308804 -0.16225502 0.03018464
-0.39613736 -0.003115077 0.20850544 -0.29682714 -0.07221804 -0.090101644 -0.19324665 -0.06058023
0.026259383 0.008853476 0.16524093 -0.2180656 -0.22201897 -0.08996289 0.2760381 -0.003674036
-0.15117456 0.3036957 0.11285573 0.16174625 0.3958576 -0.1659457 -0.10899797 -0.36741808
0.4716835 0.07622751 -0.39387193 0.28970566 -0.05350331 0.33129963 0.33526206 -0.07804345

conv1.nn.0.bias f4 [32]
00000000: 3f3a 18bd d678 5dbc e774 a2be 265d 873d
00000010: c026 82be 10c1 f4bd e37a 5a3e 08cd 3fbd
00000020: 7e7d 483e 6b1d 9ebe 0b61 2b3e 703d aebe
00000030: d1e7 d33e f678 ad3d c046 f33d 62bd 40bd
00000040: 5af9 4cbe 7782 5fbd 79fe aa3e 92e3 1e3e
00000050: d092 01be 9676 e2bd 5378 18bd 4b27 8a3d
00000060: 8e3c 1fbc 5ce9 9c3e 42eb d43d 0e4c c43c
00000070: a325 8d3e 964c 94bd 22fa 0d3e ddcb 0bbe
-0.037164923 -0.013517579 -0.31729814 0.066095635 -0.2542019 -0.11950886 0.2133594 -0.046826392
0.19579121 -0.3088182 0.16736238 -0.34031248 0.413878 0.08470337 0.11878729 -0.04705561
-0.20016995 -0.05456778 0.33397272 0.15516499 -0.12653661 -0.11057775 -0.037224125 0.06745776
-0.009719027 0.3064679 0.10396434 0.023962047 0.27567777 -0.0724117 0.1386495 -0.13651986

conv1.nn.2.weight f4 [32, 32]
00000000: 0a3c dc3d a93e f5bd e7e8 9ebc edaa 063e
00000010: c1fa 52bd c82e 13bd b6d8 49bc 541c de3d
00000020: 1e31 103d 5a53 cebc d184 8b3d dba6 833c
00000030: 1137 f5bd d97f ed3d 9ca0 1a3d 947c 82bd
00000040: ddc8 4fbe 66a7 d2bd 03ae f93d cfe6 a6bd
00000050: a30c 75bd 5a02 3bbc 9d47 2a3c 80d0 d4bc
00000060: bec0 f43d 76a2 dbbd 2076 51bd cb03 dbbd
00000070: a3f4 d53c a6bc 90bd ccf4 b93b c7d8 65bd
00000080: 3d91 c3bd 26d1 1a3e 8ced 86bb 3de5 3cbd
00000090: 9f21 c2bd b6b9 a9bd a521 0ebe 7da3 b6bd
000000a0: df86 3fbd be52 8bbd 4b9a 68bd 6f89 1c3d
000000b0: af73 63bd 6ee1 173e df90 113e 5160 a3bd
000000c0: 21fe 39bc aa5c 1f3e 4df9 aebd f92a 3abe
000000d0: 9e5a 2e3d ed56 fb3d c21e 843d 8f38 2a3d
000000e0: dcc5 0ebe 8a46 db3c caac bc3d cbab 06bd
000000f0: 9d00 4d3d 42ed 14be 64b6 01be 3668 f1bd
00000100: 4afe 90bd 6cf3 fabd 1cb2 1ebd d11d 84bd
00000110: fc77 0f3e 45ee 293b e642 a03d bcf8 f3be
00000120: 392f d0bd bfe2 e9bd e67b 34bd b940 d33c
00000130: cdc2 27be a6e8 ddbd 767d 30be 348d 3fbe
00000140: 33dc 04be 17f4 31bc d3ad d63d 1d36 7ebd
00000150: f64d f13d 621d 693d 2101 27bc 5ae5 3cbc
00000160: fed6 35bd 1fce f4bd b1b8 3fbe 2c04 9bbe
00000170: a09a b43d 6588 103e ed79 b4be 4c5b 7cbe
00000180: 7570 f7bd 6698 683c 13bd fbbd 118a ed3d
00000190: 622b c03b fe5d 263d 7cfc 1d3e d1d2 6b3d
000001a0: 8a63 15be fcec b1bd 5c90 4abd 1308 9b3d
000001b0: 6a97 28bd 9c79 09be b9b0 04be 0c4a b8bc
000001c0: b811 c63d f101 ea3d d737 113d 7ea2 bebd
000001d0: 54e8 5ebd 2c7f 983b d167 1fbd 32f2 1ebc
000001e0: 841f 163d f175 6bbd ff47 b43c bac8 3cbe
000001f0: dc04 493d 251b 33bd e84b 34bd f374 a33c
00000200: 51b7 043e 26a7 02be bcaa d93d 5224 34be
00000210: cd0f 633d 6dd2 e23d d8d2 8a3d d820 91bd
00000220: 68ae dcbd d2eb cc3d 09e0 eb3d 499c 89bd
00000230: f1c8 033e 6e1d 683d 2cfa 483d b094 aebc
00000240: 603e dd3d 1f58 ccbd eb14 873d 63e9 31bd
00000250: 6e9c 38be f92e 17bd ebfb 01be 64c0 91bd
00000260: 61dc 1abe ff89 3b3d ed6b f6bd f832 023d
00000270: 9dd5 103e 0a1c 3e3d 68e4 e33d 1e68 f93d
00000280: 700f acbc e5f4 84bc 5ab1 4dbe 3409 ea3c
00000290: 9780 74bd cfed 89bd 70dd 043e 3fcc 01be
000002a0: e099 e73d d082 29be 01e7 42bd bb7d e73d
000002b0: 6c55 953d 9d30 1d3e f00d b6bc a3f3 00be
000002c0: caba 0dbe c28e 9a3d fce9 df3d f390 073e
000002d0: b953 b7bd a0b8 a4bd 0d61 f0bd dcdd a33d
000002e0: c3ee 3dbe f986 a3bc f4df cabc f4e3 8e3d
000002f0: cb1a 1abc b1d2 183e 21fe 43be c11a 023e
00000300: 9a8c 79be b804 e1bd ed31 d43d df95 193e
00000310: bcd7 9d3c a511 e3bd ba1b 34be e119 a9bc
00000320: f79b 01be 74d1 8ebd 7c74 9abe a9c3 ebbd
00000330: 05cf 1dbc c4f3 76bd 19e2 273e f4d4 1c3e
00000340: a15f b0bb e2c3 ae3c da13 d1bd 90fd bb3d
00000350: 8bf5 003e 6067 a03d 8239 95bd b6fa 7dbd
00000360: d88d 7f3d 879c 12bd 06c1 18be 2663 953b
00000370: a6b7 84bd 8d0d 243e 477a 1c3e 7af2 633e
00000380: 211e 2d3d bbd7 943c 0d02 05be 941f 04be
00000390: d749 133e 101b 213e 3d2a 2fbe 2556 53be
000003a0: f210 e2bd 8316 073e 9141 c93d 7d6f cfbc
000003b0: 13a9 d23b aeb4 713d e2cd 45bd 8dd0 423d
000003c0: 0e65 9a3d 7041 653e e83d 1fbe 3cfd 093e
000003d0: 14ac 4f3c a495 f93d c1ff 893c ed83 f3bd
000003e0: c5ac 25be a34d 3a3d 5b4f 653d cbb9 01bd
000003f0: 895b 373e 64f8 6cbd 60b6 44be 7e02 c43d
0.10753639 -0.11974842 -0.019398166 0.1315114 -0.05150867 -0.035933286 -0.012319734 0.10845247
0.03520309 -0.02518623 0.06812442 0.016070774 -0.11973394 0.11596651 0.037750825 -0.06371418
-0.20291467 -0.10285835 0.12191393 -0.08149492 -0.059826504 -0.011414135 0.0103930505 -0.025978327
0.11950825 -0.10724346 -0.051138043 -0.10694083 0.026117628 -0.07067232 0.005674934 -0.056114938
-0.095491864 0.15118846 -0.0041176733 -0.046117056 -0.09479069 -0.08287375 -0.13880022 -0.08917902
-0.046759482 -0.06802891 -0.05678777 0.038217004 -0.055530246 0.14832088 0.1421542 -0.07977355
-0.011352093 0.15562692 -0.08543644 -0.18180455 0.042566888 0.12272439 0.06451179 0.041557845
-0.13942665 0.026767034 0.092126444 -0.03287868 0.050049413 -0.14543632 -0.12667233 -0.11787455
-0.07079752 -0.1225346 -0.038744077 -0.064509995 0.14010614 0.0025929373 0.0782526 -0.47650707
-0.10165257 -0.114202015 -0.04406347 0.025787698 -0.16382904 -0.1083539 -0.1723536 -0.18706208
-0.12974624 -0.010861418 0.10482373 -0.062063325 0.11782448 0.056912787 -0.01019314 -0.011529291
-0.044394486 -0.11953377 -0.18722798 -0.3027662 0.08818555 0.1411453 -0.35249272 -0.24644202
-0.12081996 0.014196491 -0.122919224 0.115986 0.0058645466 0.04061698 0.15428346 0.057574097
-0.14588752 -0.08687779 -0.049454078 0.075698994 -0.041160025 -0.13425297 -0.1295804 -0.022496246
0.09671348 0.114261515 0.035453644 -0.09308337 -0.054420784 0.004653832 -0.038917366 -0.009701299
0.03665115 -0.057485525 0.022006987 -0.18435946 0.0490769 -0.04372706 -0.044017702 0.019953227
0.12960555 -0.12759075 0.10628268 -0.1759198 0.05543499 0.11075292 0.067784965 -0.070863426
-0.10775453 0.10005917 0.11517341 -0.06719262 0.12869622 0.05666869 0.049066707 -0.021311134
0.10802913 -0.09977745 0.06595787 -0.043435466 -0.18028423 -0.03691003 -0.12693755 -0.07116774
-0.1512313 0.0457859 -0.12032304 0.03178689 0.14143987 0.04641346 0.111275494 0.12178062
-0.021003455 -0.016230056 -0.20087186 0.028568842 -0.059692945 -0.067348115 0.12975097 -0.1267557
0.11308646 -0.16553807 -0.047583584 0.11303278 0.072916836 0.15350576 -0.022223443 -0.1259294
-0.13840786 0.0754676 0.10933301 0.13238887 -0.08951516 -0.08043027 -0.11737261 0.08001301
-0.18548112 -0.01996182 -0.024764992 0.06977072 -0.009405802 0.14924122 -0.19139911 0.12705518
-0.24370041 -0.10987228 0.10361085 0.14998578 0.01926791 -0.1108735 -0.17588702 -0.020642223
-0.12657152 -0.06973544 -0.30166996 -0.115119286 -0.009631877 -0.060291067 0.16394843 0.1531561
-0.0053824936 0.021333639 -0.102088645 0.091792226 0.12593667 0.07832217 -0.07286359 -0.062006675
0.062391132 -0.035793807 -0.14917383 0.0045589386 -0.06480341 0.16020794 0.1528102 0.22260466
0.04226506 0.018169275 -0.12989064 -0.12902671 0.14383636 0.1573298 -0.17105956 -0.2063833
-0.11038388 0.13192181 0.09826959 -0.025321716 0.0064288466 0.0590102 -0.04829205 0.04756217
0.07538806 0.22388244 -0.15550959 0.13475507 0.012675304 0.12186745 0.016845586 -0.11890397
-0.16179188 0.045484196 0.055983882 -0.031671327 0.17906012 -0.05785407 -0.19210196 0.09570788

conv1.nn.2.bias f4 [32]
00000000: d60e 5ebe 0c7b 70bc 9b77 083e 7cfc 393d
00000010: 2a5c cfbd e735 0abe 9fd3 cabd 8077 cb3d
00000020: 8e93 1abe 6bb8 08bd f30c 97bd 579e a3bd
00000030: 379e 09be 2e42 1dbe 5edd c4bd 6e58 0dbe
00000040: 59de c73d 6c28 e5bc ec6f bebd f11f 3c3d
00000050: 4f4b 09be 2676 cdbc bc25 ad3d 7cfd 4fbe
00000060: 62a5 a8bd 5509 66bd 23ac 393d c3b1 a2bd
00000070: f476 5dbe 9307 1cbe bf71 68be 7fde 843c
-0.21685347 -0.014677774 0.13326876 0.045406803 -0.10125001 -0.13497125 -0.09903645 0.09934902
-0.1509535 -0.033379 -0.07375517 -0.07989185 -0.1343926 -0.15357277 -0.09612535 -0.13803264
0.09759206 -0.027973376 -0.09298691 0.0459289 -0.13407634 -0.025080752 0.08454463 -0.2031154
-0.08234669 -0.056161243 0.045330178 -0.079440616 -0.21627408 -0.15237264 -0.2269964 0.016219376

conv1.lin.weight f4 [9, 3]
00000000: e38b 90bb e6ef 8d3d 051d d0be fbf1 8d3d
00000010: 025b ffbe c8a6 2b3d b91a 873d fa2b 93be
00000020: 7b11 c43e 1e71 283d 63fd e7be 46f1 813a
00000030: f253 aebe be74 bfbe 104d 6f3b 4fc1 a1be
00000040: 3658 0cbf 23d3 643f 523a bdbe 3bf0 ba3e
00000050: a697 b73e 9dd9 453e 3766 06bd 4302 823e
00000060: 6fb2 00be d336 933e de30 d8be
-0.004411207 0.069305226 -0.4064714 0.0693092 -0.4987412 0.041907102 0.06596894 -0.2874449
0.38294587 0.041123502 -0.45310506 0.0009913824 -0.3404842 -0.37393755 0.0036514439 -0.31592795
-0.548221 0.8938467 -0.36958557 0.36511406 0.35857886 0.19321294 -0.032812323 0.2539235
-0.12568067 0.28752765 -0.42224783

conv1.lin.bias f4 [9]
00000000: 2f6b 723e 51e9 d9bd 90cd d7be 4dc1 d9bd
00000010: 4163 f2bc c254 49bc 776a b83e db00 1b3d
00000020: f85f 653c
0.236737 -0.10640205 -0.4214902 -0.10632572 -0.029588344 -0.012288274 0.36018726 0.037842613
0.0139999315

conv2.nn.0.weight f4 [32, 32]
00000000: 92a5 303d 3dc0 963d f7e9 ea3c f63c 2cbd
00000010: 2f44 0ebc 8fde 413d 693a b43d 37fd 6c3d
00000020: 1857 12bd d3c4 ae3d 339f 0f3d abd3 5cbd
00000030: 3234 3a3e 76e9 30be 8e4e dabe 72c6 b6bd
00000040: 8a93 ac3d a6d2 c63d 4b15 dfbc c12c a5bc
00000050: 67ab 22be 9e0c 1abe f340 ec3b 4b48 42bc
00000060: 796d af3c 3d23 ecbc 25ef 523d a8ca d53c
00000070: 0f43 5abe f179 813d 00e1 453a 2989 cbbc
00000080: 8756 4e3d 99ad 1e3c e779 58bd 0dff 033d
00000090: 92de 28bd 1d3c 81bd ffcd c6bd 2245 4dbe
000000a0: 19ef c93d ce07 e43d 93b7 9cbd d04c f7bd
000000b0: d414 f33d 85fd 0c3d 3fac babe 34ed 913d
000000c0: d624 da3d 5b0d 1f3d 8b95 013d 2cd8 033e
000000d0: 5702 1dbe 3b85 44be 5451 97bd b77d 4f3e
000000e0: e5ef 853a 9a91 c73d 09a6 20be e5be aabc
000000f0: ad49 1dbb dd6e f53d 11f4 f8bd 4753 98be
00000100: 07a5 433e f712 e1bd b3d1 49be 0ff0 813c
00000110: 5b57 aa3d 6e7d f93d 5e08 3dbe edaa 21bc
00000120: ba66 4abe 526c 113e ac7b f63d 286e 15be
00000130: 62da 7bbe 43ec 2abe 851d 95be 29e4 5c3e
00000140: 11fb 5abd f89d fe3d c899 17bc 2d9a 803d
00000150: 4515 213d bcc4 d9be 884e a1bd e2f0 263e
00000160: e0b1 30bd 783b c3bd fc48 98bd 2a1f aa3d
00000170: 013c ebbd 9b6c 443c 5437 69be c329 58be
00000180: 5f69 d4bb f16a 033e ff6f 643d 91da 46be
00000190: 44e4 4abe facf 1cbe d9d8 99bc b8e3 ddbd
000001a0: df16 e13d c23c 89bd bc15 533d 2b17 c23d
000001b0: e9b6 cdbd 0955 f43d 6764 e53d 4d8c df3d
000001c0: ea7d e238 3397 7f3c 7925 f23d c479 b8bd
000001d0: 8c1b 57be 9d9f 863d 3af8 933c 2fe2 47bd
000001e0: 1e91 c4bd d4ca a3bd 8d18 053e 8030 0cbe
000001f0: f66a a3bd 1151 7a3d 8246 d6bd 47db a5bd
00000200: 16c0 f1bc ddcc 273d 98d1 48bd b3af 713d
00000210: a5c1 febc 5fba e33b d343 ffbc 20ce 2bbd
00000220: 22d2 3bbe 8db3 bf3d 72b7 033e e90e 6e3d
00000230: 6548 f2bd 0b4e 2ebe 3159 1fbe 35b0 49be
00000240: 8922 8fbe 48d3 e13c ff40 a53d 819c d13d
00000250: 8eea c6bb 78ad 1d3d 05a2 3dbe 6c3a b63b
00000260: 7c00 3abe 5561 d43d e44a 3abd 33fa 18be
00000270: d222 8d3d 2432 0bbe 2100 a33d 2bbd d5bd
00000280: 525b 0b3d ed2d 6b3c 2f87 8bbd ccc6 4dbb
00000290: bc13 f0bc 9ac6 0ebe 6671 0c3e bd5c 5c3d
000002a0: dcf6 1d3e 1748 b13c d3e1 c2bd 85cb 37be
000002b0: cc16 3a3d d5c3 783c dd91 98be fd37 9bbe
000002c0: 3acc b43e 934f 5e3d 0d40 99be 47cd a53d
000002d0: 590e 063c d245 f43d 7faa 853c 3107 55be
000002e0: f46e 1e3b 81c0 ea3d 5ab4 0abd e957 e5bc
000002f0: 9d65 65bd ca57 c5bd ad0b cfbd ce81 883d
00000300: 31a3 34be b14b 5b3d 0f08 063e 553c 8a3d
00000310: 1284 dbbe 1f81 a7bd ec3c 25be 7754 453d
00000320: 4f86 d03b 5953 0a3e e3bf a13e 3703 90be
00000330: 6f97 19bd 96e0 19be 17b6 013e d250 a8bd
00000340: 395d 0ebf 37e1 5cbe 6bbf f73d c820 8abc
00000350: d835 c23e 0f12 41bd 80dc b9bd 59c2 df3d
00000360: 57ba 023e 6716 0f3e 90a1 06be 6ba2 343e
00000370: 97b6 f4bd 0785 68be de31 0b3e d486 7cbc
00000380: 995f c53b 8f1a 8dbd 7515 9dbd 7e51 133e
00000390: b6c7 1bbd aa9e 7cbe 5061 8bbd 7d30 3dbe
000003a0: e5ae a9bd 534f 293e 6094 ffbb c4bc 6bbd
000003b0: 01c4 1bbd c00d 19bd 872f 9a3e 44e2 3c3e
000003c0: ec9d 43be fe8b 85bd 05e3 bc3d a822 d23d
000003d0: 484c 163e b779 1a3e 7513 6dbd 95d1 fa3d
000003e0: 452c 053e f070 03bd 4c17 123c 52fe 193e
000003f0: 403b 063e a1e9 d43d 9d79 543d 6101 233e
0.04312665 0.07360885 0.028676016 -0.042050324 -0.008683248 0.04733139 0.08800203 0.057858672
-0.03572759 0.08533635 0.035063934 -0.0539128 0.18183973 -0.17276558 -0.42638057 -0.08924569
0.08426578 0.09708147 -0.027231833 -0.020162942 -0.15885697 -0.15043876 0.007209891 -0.011858056
0.021414505 -0.028825397 0.051497597 0.02609761 -0.21314643 0.063220866 0.0007548481 -0.024845676
0.050375488 0.009684944 -0.05285063 0.032225657 -0.041227885 -0.06310294 -0.097072594 -0.20045903
0.098600574 0.11134301 -0.076522015 -0.12075198 0.11869207 0.034421463 -0.36459538 0.07125321
0.10651557 0.038831096 0.031636756 0.12875432 -0.15332924 -0.19191448 -0.07388559 0.202628
0.0010218589 0.09744568 -0.15688337 -0.020842979 -0.0024000213 0.11984036 -0.12155927 -0.29751036
0.19105922 -0.109899454 -0.197089 0.01586154 0.08317443 0.12182127 -0.18460223 -0.009867412
-0.1976575 0.14201477 0.12035307 -0.14592803 -0.24595025 -0.16691689 -0.29124084 0.21571411
-0.05346209 0.12432474 -0.009252973 0.06279407 0.039326925 -0.4253291 -0.07876307 0.16302827
-0.043138385 -0.09532827 -0.07435796 0.08306725 -0.11486054 0.011988784 -0.22775012 -0.21109681
-0.006482288 0.12833764 0.05577087 -0.19419314 -0.19813639 -0.15313712 -0.018780159 -0.108344495
0.109906904 -0.06701042 0.0515344 0.09477075 -0.10044653 0.11930282 0.11200791 0.10915432
0.00010799973 0.015600014 0.118235536 -0.090076 -0.21006602 0.065734126 0.0180627 -0.04879969
-0.095979914 -0.07997671 0.12997647 -0.13690376 -0.079793856 0.061112467 -0.10462667 -0.080984645
-0.029510539 0.040966857 -0.04902801 0.05900545 -0.031098196 0.0069497074 -0.03116027 -0.041944623
-0.18341878 0.093604185 0.12862948 0.05811969 -0.118302144 -0.17021959 -0.15561368 -0.19696124
-0.27956036 0.027566567 0.08069038 0.10234929 -0.0060704416 0.03849551 -0.18518837 0.0055611636
-0.18164247 0.10370127 -0.045481578 -0.14939193 0.06891407 -0.13593346 0.07959009 -0.104364716
0.034022637 0.014354211 -0.068128936 -0.003139901 -0.029306285 -0.13942948 0.13715133 0.05379938
0.154262 0.02164082 -0.09515729 -0.1794873 0.045431897 0.015183409 -0.29798785 -0.30316153
0.35312063 0.054275107 -0.2993168 0.08095794 0.008182132 0.1192738 0.01631665 -0.20803525
0.002417502 0.114624985 -0.033863403 -0.02799602 -0.05600511 -0.09635885 -0.10109649 0.06665383
-0.17640378 0.05353898 0.13089012 0.06749789 -0.428742 -0.08178925 -0.16136521 0.048176255
0.006363667 0.13508357 0.3159171 -0.28127453 -0.037497934 -0.15027079 0.12667118 -0.0821854
-0.55610996 -0.21570288 0.12097057 -0.016861334 0.37931705 -0.047136363 -0.0907526 0.10925741
0.12766396 0.1397339 -0.13147569 0.17640083 -0.11948889 -0.22706996 0.13593242 -0.015413005
0.006023359 -0.06889831 -0.07670108 0.14386556 -0.038032256 -0.246699 -0.0680567 -0.18475528
-0.082853116 0.16534166 -0.00779967 -0.057553068 -0.03802872 -0.03736663 0.30114385 0.18445688
-0.19103211 -0.06520842 0.09222988 0.102605164 0.14677536 0.15085493 -0.057879884 0.12247006
0.13005169 -0.032090127 0.008916687 0.15038422 0.1310854 0.10396124 0.051873792 0.15918495

conv2.nn.0.bias f4 [32]
00000000: c0cb a43d 718f 823e a3c1 04be 4584 0dbe
00000010: 75cc d5bd eb05 893d 08b0 1fbd 5887 4fbe
00000020: 6400 fb3d e105 71bb 99e3 bd3c 3a49 b2bd
00000030: 56b2 70be 7a08 13be c7df 8ebd 4fa4 b3bc
00000040: 0ffe 7cbd b27f 403e 7b83 d83d 93d8 32be
00000050: 615d 033e e1ba f63d d9f5 04be 75fe 8fbc
00000060: 377f 04be 2467 a13e bca7 973b 4cac 753e
00000070: 059f 81be ee3e 593e f180 38be 4d1a 5dbe
0.08046675 0.25500062 -0.12964492 -0.13819988 -0.10439388 0.06690582 -0.038986236 -0.20266473
0.12255934 -0.0036777186 0.023179816 -0.08705373 -0.2350553 -0.14358702 -0.06976276 -0.021928934
-0.061765727 0.18798712 0.10571953 -0.17465429 0.1282859 0.12047363 -0.12984408 -0.01757739
-0.12939154 0.31524003 0.00462815 0.23991507 -0.25316635 0.21215412 -0.18017937 -0.21592064

conv2.nn.2.weight f4 [32, 32]
00000000: cecf 4cbd 159a 093e 74e1 6a3d c4a5 003e
00000010: 72df af3d e91b 203e bc57 1a3e 710c 4dbe
00000020: d66c 50bd 563f be3d f7d0 163e 5ae2 eebd
00000030: e3c6 2b3e c320 d13d eb2b 30be 2853 66be
00000040: d5e9 e33c 6f51 6e3e 401b 9bbd b705 913c
00000050: 1543 42be f844 0b3e 4ba3 0a3e 01f0 50be
00000060: 2c3c cd3d 9458 1dbe ddd2 0dbe fad0 81be
00000070: 3ee9 1abe 86e6 8b3e 59a3 a73d 9bb1 eabd
00000080: 18f2 adbd 2c57 3cbd d408 043e 8e62 5f3a
00000090: dad3 22be 9273 2ebe 3020 7a3d e164 c53c
000000a0: 597d efbd 8e11 18be af7d 19be 6e5d f93d
000000b0: 4dc3 f73b fbd4 7e3d 83a9 d2bd 6ecb c9bd
000000c0: 5a76 8f3d 2541 323e f295 293d c8a5 543d
000000d0: 7971 f9bd 7f02 d9bd 0c6d 98bd 8317 143e
000000e0: ee3d 43be 830c c7bd 474f d43c 86da 05be
000000f0: 1548 bbbd bac5 553e fa92 5abe b286 d03d
00000100: e6f7 f33d e19b f43d acbe 993d 1cdb 0a3e
00000110: 12ba e2bc f7f4 61bd a994 35bb 754d adbd
00000120: 9bfd edbd 35e9 b43d acd0 b23d ec60 10be
00000130: f28c 683e 2073 143e 1fc6 bdbd 7cfe ac3d
00000140: 18a5 aabd 5ef6 b53e 7686 0b3e 3f50 d33d
00000150: 75b4 533d 7979 0e3e de36 91bd 557e 28be
00000160: 768f 783b 0160 99be 618a cd3b 7916 3dbe
00000170: bd54 a2bd 3066 f13e 9d47 c9bd d969 5c3d
00000180: e606 45bc 7134 ce3d d69f 89bd 2199 29be
00000190: 7df1 edbd 8609 ab3d 9fae 54be ff52 133e
000001a0: 9eca 033e f577 473d d970 293d c81e 5c3d
000001b0: b9a5 0fbe 27b7 fe3d 28ea 0d3e 7c3e 6b3d
000001c0: cde0 88bd 0be6 f93c a658 583c e446 aa3d
000001d0: 7c67 423d 9a81 913e d698 74bd ee44 d73d
000001e0: 7757 9ebd 5dd0 133e 7bc4 1cbe f7be bfbd
000001f0: e682 863d 74ad 0d3e b18c 81bd 4b57 603d
00000200: b5e0 f03d ad22 25be 79c4 883d 414e c93d
00000210: 0b81 19be 31b3 ccbd f754 29be bb86 17bb
00000220: e59c a4bd 5357 1dbd 9e66 d7bb 7fe3 50bd
00000230: ffb4 e83c 45d8 f7bd d58a 11be b77f a33d
00000240: 95e4 ad3d 151e 9a3d cd9c a23d 399d 24be
00000250: 5d2c 8dbb b319 8e3d 2e2e e43d 9e31 123e
00000260: cc3b 113d d7e2 ecbc 876b aa3d 6c71 6fbd
00000270: a5ca 51bd a447 15be a0de e4bc 8af4 763d
00000280: 7157 923d 327e bb3c 16e3 06be a741 35bc
00000290: 60ad be3d 3566 123d ced3 f7bc e87c 543d
000002a0: 9a70 d83c 00a0 0dbe 1dbe 06be b0fe 2abe
000002b0: 3914 133d 3ec7 ca3c 176e 993d 79fb 483d
000002c0: bb86 2c3d bb53 6b3e 45de 373e 5488 143e
000002d0: c6d7 0d3d d718 cf3d 5db6 f8bc 3965 7fbc
000002e0: ec82 0dbe adbb bcbd 11d3 ed3d 760b 8b3b
000002f0: d8bb 16bd fd5e a63e ce2f 2fbd 17d4 143e
00000300: 3c5e 82bb 6f82 aebd 89ee ebbc 80e0 f93d
00000310: 8b88 0dbe 57af f93d e8b4 033e 0a5e 0d3e
00000320: 4e9f c9bc 34b8 06be 255b 46bc 1799 04be
00000330: b0b7 89bd d681 913d d322 283e ed96 e63d
00000340: 0945 1fbe 86ec b4be 1f36 bf3c 0664 5a3d
00000350: d497 fabc 83d4 90be 6a74 fdbd 97b3 24bc
00000360: a780 383d 6d91 10be 93ba c3bc 71b9 953e
00000370: 9398 93bd cfd3 5abe 3fb4 3c3d 1975 f0bd
00000380: acca ffbd 308c 8c3c 0ab6 04be 1fc1 1fbe
00000390: c75c ff3d 90f2 45be 4c26 a8bd 24dd 843d
000003a0: 0c9d 683e 3895 c1ba 4765 0c3e 2a85 1b3e
000003b0: 4c6d 18be 1852 35bd 1e27 01bd 2045 5ebd
000003c0: 472e 34be 5aa8 27be a0c3 ec3d 0d9c f63d
000003d0: 81d7 dcbd 7b17 053e a050 aabd f9f7 8bbd
000003e0: a16c 47be 21bc 08bd 72fd 1dbe 4ba8 ad3d
000003f0: 5449 903d 8065 f53c 220b fc3d 90ee d8bd
-0.050002865 0.13437684 0.057343915 0.12563235 0.08587541 0.15635647 0.1507253 -0.20024277
-0.050885044 0.09289424 0.14728151 -0.11664267 0.16775088 0.10211327 -0.17204253 -0.22492659
0.02782146 0.23273252 -0.07573557 0.01770292 -0.18970902 0.13600528 0.13538854 -0.20404054
0.100212425 -0.15365821 -0.13849969 -0.2535475 -0.15128037 0.27324313 0.08185453 -0.11459657
-0.08493441 -0.04598157 0.12893993 0.00085214607 -0.15901127 -0.17036274 0.061065853 0.024095954
-0.1169383 -0.14850447 -0.1498935 0.121760234 0.0075611235 0.062214833 -0.10286238 -0.09853254
0.07004996 0.17407663 0.041402765 0.051915914 -0.12179846 -0.10596179 -0.07442674 0.14462094
-0.19066593 -0.09719183 0.025916709 -0.13071641 -0.09144608 0.20876208 -0.2134513 0.10181941
0.11912517 0.11943794 0.07507071 0.13560146 -0.027676616 -0.055165257 -0.0027707017 -0.084620394
-0.11620637 0.08833543 0.08731207 -0.14099473 0.22710016 0.14497042 -0.09266304 0.084469765
-0.083322704 0.35539526 0.13625512 0.1031804 0.05168577 0.13913526 -0.07090543 -0.16454442
0.0037927306 -0.29956058 0.0062725996 -0.18465604 -0.07926319 0.47148275 -0.09828112 0.05381188
-0.0120255705 0.10068596 -0.067199394 -0.1656232 -0.11618326 0.08351426 -0.20769738 0.14387129
0.12870261 0.048698384 0.041367386 0.053740293 -0.14028062 0.12437277 0.13858855 0.057432637
-0.06683502 0.0305052 0.013204729 0.083143026 0.04746197 0.2841919 -0.05971607 0.10511194
-0.07731526 0.14434953 -0.15309326 -0.093625955 0.06567936 0.13835698 -0.06325663 0.05477075
0.117616095 -0.16126509 0.06678099 0.09829379 -0.14990632 -0.099951155 -0.16536318 -0.0023121077
-0.08037738 -0.038413357 -0.006573512 -0.050998207 0.028406618 -0.12101797 -0.14213116 0.07983344
0.08490864 0.07525269 0.079400636 -0.160756 -0.004308267 0.069384955 0.111416206 0.1427674
0.035457417 -0.02891676 0.083212905 -0.058457777 -0.051218648 -0.1457811 -0.027938187 0.060291804
0.071455844 0.022887323 -0.13172564 -0.011063016 0.093104124 0.035742003 -0.030252364 0.051876932
0.02642088 -0.13830566 -0.1315846 -0.16698718 0.035907958 0.02475321 0.07491701 0.049067948
0.042120676 0.2298116 0.17955883 0.1450513 0.034629606 0.1011216 -0.030360395 -0.015588098
-0.13819474 -0.09215484 0.11612523 0.0042433096 -0.036800236 0.32494345 -0.0427702 0.14534031
-0.003978519 -0.08520972 -0.028800266 0.12201023 -0.13821618 0.121916465 0.12861979 0.13805404
-0.024612095 -0.13156205 -0.0121066915 -0.12949024 -0.06724489 0.07104842 0.16419534 0.112592556
-0.15553679 -0.35336703 0.023341237 0.053318046 -0.030589975 -0.28287134 -0.1237572 -0.010052583
0.045044567 -0.14117976 -0.023892676 0.29243043 -0.072068356 -0.21369861 0.046070334 -0.117410846
-0.124898285 0.01715669 -0.12960067 -0.15601014 0.12468868 -0.19330812 -0.082104295 0.06487492
0.22716159 -0.0014769202 0.13710509 0.15187517 -0.14885443 -0.044267744 -0.031531446 -0.05426514
-0.17595778 -0.16372815 0.1156075 0.12041483 -0.107832916 0.12997238 -0.08316159 -0.068344064
-0.19475032 -0.03338254 -0.15428713 0.08479365 0.07045236 0.029955626 0.12306811 -0.10592377

conv2.nn.2.bias f4 [32]
00000000: 0f69 6d3d 13b9 78bd 7e1c ea3c a799 8abd
00000010: 0c58 0bbe ea51 0f3b e493 243e 076d 1dbe
00000020: fdf0 553e 4c36 de3d 59fb 0e3d 410b 6dbd
00000030: c312 50be 1b88 903d 9185 59bc 6c45 28be
00000040: 5017 8b3c 3291 133e f639 1a3e a5cc 8d3c
00000050: 1911 2cbe 9247 a03d 8893 25bc af35 0f3e
00000060: 563e 973d 75af b6bd d866 15be 5881 013e
00000070: 2548 f53d b00a 503e ae1f a7bd e083 d3bd
0.05796152 -0.060723376 0.02857804 -0.06767588 -0.13607806 0.0021868893 0.16072041 -0.15373622
0.20892711 0.108502 0.034907673 -0.05787206 -0.20319657 0.0705721 -0.013276474 -0.16432732
0.01697889 0.14410856 0.15061173 0.017309496 -0.16803397 0.07826151 -0.010105975 0.13985322
0.073849365 -0.089201845 -0.14590013 0.12646997 0.11976651 0.20316577 -0.08160339 -0.103278875

conv2.lin.weight f4 [32, 3]
00000000: 46ca a93e b040 383e 12e4 babe d70a ae3e
00000010: ca7d c53d 561e 8cbe 260b 6f3e f4ce 81be
00000020: a79d e7bb eeed 6e3e e75c 493c 99c1 45be
00000030: 3743 033f 822e 1c3f 2a31 8bbe f4f9 4e3d
00000040: f7aa 153f 23b0 2fbe edb7 b03e 6028 e5be
00000050: e8dd a6be 4b26 9e3e 4040 9e3e 6e3c 823e
00000060: 1240 04bd 5026 a8be 3c6f 9f3d 6026 02be
00000070: e23a bebd 2967 813e 3e56 49be f4c8 303f
00000080: 7c5c 003e a6bd fe3e 80aa 133f c327 a9bd
00000090: 4e84 1b3e 6456 fe3e adeb 18bf 9ec3 a83e
000000a0: b7e0 af3e 08fb 6b3d e2fd 16bf 91dd 89bd
000000b0: 824b 163f 9db6 1fbf 7887 c9be fc58 e13c
000000c0: ad0b 763e 3df0 de3e 1842 1cbf 6724 1f3e
000000d0: f97d 8a3e 4788 52bf c29a 8dbe b1b1 d73e
000000e0: 9945 783e d930 9dbe 5868 0a3f 24cc 7b3e
000000f0: 72a4 dbbd 557e 953e 6067 143f 57a3 6cbf
00000100: 256e 6ebe d1bb 863e 07b2 1b3c 8a9c 6bbe
00000110: 3b54 ca3e fe48 b5be 67d6 01bf a1f1 1d3e
00000120: 6be7 bf3e ef93 273f db21 eebd f562 9ebe
00000130: 574c 033e 9519 123e 4add dd3e 94af 0bbf
00000140: 2dbd 50be 9704 833e 7be2 e53e 0cae 3a3e
00000150: c1df 75bf 49bf ce3e 7475 75be 90e2 143e
00000160: f108 1b3f adb5 843e 3c89 81bf 3b5a 7a3e
00000170: 85d7 103e 6e73 14bf 722b 4fbe 27ad 993d
0.33162135 0.17993426 -0.3650213 0.33992645 0.09643133 -0.27366894 0.23344097 -0.25353205
-0.007068354 0.2333295 0.012290216 -0.19312133 0.51274437 0.61008465 -0.27185947 0.050531343
0.58463997 -0.17157035 0.34515324 -0.44757366 -0.32591176 0.3088859 0.30908394 0.2543673
-0.032287665 -0.3284173 0.07784888 -0.12709951 -0.09288575 0.25274017 -0.19661805 0.6905663
0.1253528 0.49754065 0.5768204 -0.08259537 0.15187189 0.49675286 -0.5973461 0.32961744
0.3435113 0.05761245 -0.58981144 -0.067317136 0.58708966 -0.6238802 -0.39361167 0.027508251
0.24027891 0.43542662 -0.6103835 0.1554123 0.27049235 -0.8223919 -0.27657133 0.42127755
0.242453 -0.3070133 0.54065466 0.24589592 -0.10724725 0.29197946 0.5797024 -0.92436737
-0.23284204 0.26315168 0.009502894 -0.23008934 0.39517388 -0.3540725 -0.50717777 0.15424205
0.37481245 0.65460104 -0.11627551 -0.30934873 0.1282209 0.14267571 0.43332893 -0.54564786
-0.20384665 0.2558944 0.44899353 0.18230456 -0.96044546 0.40380314 -0.23970586 0.14539552
0.6056052 0.25919858 -1.0120006 0.24448483 0.14144714 -0.5798863 -0.20231417 0.07503729

conv2.lin.bias f4 [32]
00000000: c849 943e 96f3 b43d b91c 3b3e 4052 b33e
00000010: c12d 03bf 3eb6 4dbe 6650 4c3d 5c8f c9be
00000020: 4198 f4bb b0b5 d03d 661a 0cbe 1842 ffbe
00000030: 108a f6be fcd7 6ebe 416a adba 46c0 023f
00000040: ce71 d0bb 44fb ac3e 9add 97bd 5f10 de3e
00000050: a163 18bb dd8c 97be f6ae 00bf 3244 403e
00000060: 8a9a 5d3d 2183 1abe 8dd7 14be d5b2 2c3e
00000070: 4602 0ebf 32de edbe 787f c43d 2dba 1fbf
0.2896254 0.08835523 0.18272676 0.3502369 -0.5124169 -0.20089051 0.04988136 -0.39367187
-0.007464439 0.10190904 -0.13681945 -0.49855113 -0.48152208 -0.23324579 -0.0013230519 0.51074636
-0.006361223 0.3378545 -0.07415314 0.43371865 -0.0023252743 -0.29599658 -0.5026697 0.18776014
0.054102458 -0.15089084 -0.14535351 0.16865094 -0.5547222 -0.46458584 0.09594625 -0.62393457

classifier.weight f4 [1, 32]
00000000: adee d6bd 2a33 88be 47eb c9be b76a 30be
00000010: de16 343e b0e4 dbbd 6e2c 653e f866 253e
00000020: 0e59 be3e 776f 72be bf13 f7be 4571 7d3d
00000030: 77a3 0b3e bc0c 90ba 5023 843d 9b2f 89be
00000040: 969e 65be eb45 c9bd 73d2 30bf 127f 2cbe
00000050: 5a94 633e 6f2e 04bd 38a8 733d 42ac 083e
00000060: 98b9 5a3e 66b4 7b3e 30ed ed3e e513 a5be
00000070: fa56 82be 970b 663f fd29 0e3d 56d0 7a3e
-0.104947425 -0.26601535 -0.39437315 -0.17228208 0.17586848 -0.10736978 0.2238023 0.1615256
0.37177318 -0.23675333 -0.48257253 0.0618756 0.13636576 -0.0010990123 0.06452048 -0.26794133
-0.22423777 -0.09827789 -0.6907112 -0.16845348 0.2222456 -0.032270845 0.059486598 0.13346961
0.21359861 0.24580535 0.46470022 -0.3224174 -0.25456983 0.89861435 0.034708012 0.24493536
