A3/MyTeam/A3/classification/logistic.pth (torch, 7967 bytes, 5 tensors)

conv1.bias f4 [32]
000000 fd 91 06 bd 49 66 ce bc b8 63 49 be 1d a6 55 be
       -0.03285407 -0.025195258 -0.19666946 -0.20864148
000010 71 5e 1c 3d 5d 28 c7 bc 00 00 00 00 a1 c1 0d be
       0.038176004 -0.024311239 0.0 -0.13843395
000020 21 1b 1d be 45 7f 02 be 00 00 00 00 54 e7 8c bd
       -0.1534238 -0.12743862 0.0 -0.0688006
000030 7a ad 99 bc 00 00 00 00 87 5d 71 be fa 07 04 3d
       -0.018759478 0.0 -0.23570834 0.03223417
000040 2e 5b 9d b9 7e b8 32 3e 00 00 00 00 00 00 00 00
       -0.00030013308 0.1745319 0.0 0.0
000050 a8 1b cf bd b0 eb 01 bf 75 0b 71 be 20 8b 62 bd
       -0.10112697 -0.50750256 -0.23539527 -0.05530846
000060 7e eb 57 be 13 10 08 bd 00 00 00 00 00 00 00 00
       -0.21085927 -0.033218455 0.0 0.0
000070 00 00 00 00 00 00 00 00 63 1b 07 be f0 e1 b0 3b
       0.0 0.0 -0.13194041 0.0053980276

conv1.lin.weight f4 [32, 9]
000000 9d 20 e7 bd 30 53 96 3e 10 9e 0e be 82 b3 00 3e
       -0.11285517 0.29360342 -0.13927484 0.12568477
000010 c6 06 6b bc 6e f4 b0 be fc 9c 05 3e 8e 55 24 bd
       -0.014344877 -0.34561485 0.13048166 -0.040120654
000020 16 ed b9 3e dc f3 a0 3e a0 c1 c3 3e d3 b8 be be
       0.36313695 0.3143605 0.38233662 -0.37250385
000030 23 3e 48 bd 9c a3 db be 97 0c 89 bf d2 1d be 3e
       -0.048887383 -0.42898262 -1.0706967 0.37132126
000040 a9 2f 4a bf d3 7d 3e be 10 a3 37 3e be 34 05 3f
       -0.78978974 -0.18602686 0.17933297 0.52033603
000050 20 f5 33 be 11 05 b4 be b6 7e ed 3e b2 fd 5b 3f
       -0.17573977 -0.35160115 0.46385735 0.85933983
000060 1e b7 0a 3e a0 fe 36 be f6 d8 fa be 46 89 89 3d
       0.13546416 -0.17870569 -0.48993653 0.06715636
000070 f5 66 38 3f c8 c0 34 3e af d0 03 3e 2e 59 89 3e
       0.720321 0.17651665 0.12872575 0.2682585
000080 f6 7a e3 bd dd a5 25 bf aa 4c 84 bf 5e 40 68 bf
       -0.11107437 -0.6470621 -1.0335896 -0.90723217
000090 16 e6 f0 be c1 b5 1f 3b 9f 02 8b be e5 c5 4a be
       -0.47050542 0.0024369808 -0.27150437 -0.19802053
0000a0 8b a3 8c 3e cc cf a4 be 85 88 d4 3e 02 d0 89 3e
       0.27468523 -0.32189786 0.41510406 0.2691651
0000b0 d8 3a 0d 3e 1b db ac be d7 64 2b bf df 3a 0b bf
       0.13791978 -0.33760914 -0.66950744 -0.54386705
0000c0 c1 de 0d be 4c e9 e2 be 88 63 b8 3e 5b dd 96 3e
       -0.13854505 -0.44318616 0.36013436 0.29465756
0000d0 a0 38 a9 be c5 f5 c2 3e ac 78 b5 be ac 84 96 3e
       -0.33051014 0.38078132 -0.35443628 0.29398096
0000e0 8a a5 a5 3d da f0 2a be 5f 89 8a be 70 79 6d be
       0.08088215 -0.1669344 -0.2705793 -0.23190856
0000f0 63 15 cc bd 96 d5 38 3e 51 5a b8 be 19 59 9c 3d
       -0.09965017 0.18050227 -0.36006406 0.076341815
000100 42 42 15 bf 0b 3c d3 3e 5e 93 ac be ff 68 48 bf
       -0.58304226 0.41256747 -0.33706182 -0.7828521
000110 ac 03 ec bf f6 f6 fc 3e be 63 e5 3e 34 ca c1 bd
       -1.843862 0.49407166 0.4480266 -0.09462395
000120 5c d2 9a 3d 66 f6 39 bf 0e 2f 01 bd 12 5b 32 3e
       0.07559654 -0.726416 -0.031539015 0.17417553
000130 2c bd d5 bb 3c a9 82 3f b0 e7 c9 be 83 b1 89 be
       -0.006522795 1.0207896 -0.39434576 -0.26893243
000140 44 6a d3 be d1 29 25 3e 33 6e d7 bc c1 e8 60 bd
       -0.41292012 0.16129233 -0.026297664 -0.05490947
000150 a9 94 98 3d 10 32 03 bf c9 c5 24 bf 9d d3 75 bc
       0.0745023 -0.51248264 -0.64364296 -0.015004066
000160 d6 dc e7 3e f8 ea d7 bd 3c 05 b5 be 50 cd 44 3e
       0.45285672 -0.105428636 -0.35355556 0.19218946
000170 f2 03 e7 3d 70 07 bb 3d 61 37 4e 3e 4a 6d 4f 3e
       0.112800494 0.09132278 0.20138313 0.20256534
000180 e4 5e a7 be ac 10 50 3e 33 bd 5c be 9a 59 05 bf
       -0.32689583 0.2031886 -0.21556549 -0.52089846
000190 07 41 42 bf 4b f6 6a bf e5 96 56 3e f8 ed 1b bf
       -0.75880474 -0.91782063 0.20955999 -0.60909986
0001a0 ac 2b 64 3e 4a f1 c6 bc a8 95 35 bd 54 20 55 be
       0.22282284 -0.024284977 -0.044332176 -0.20813113
0001b0 4e 06 1e 3d ab c4 d7 3d 20 98 06 bf 9f 7b 55 3e
       0.03858023 0.10535558 -0.52575874 0.20847939
0001c0 57 c8 67 3e 39 d3 d9 3e 2a 55 bf 3d 50 7c 6f 3e
       0.22635017 0.42543963 0.09342416 0.23387265
0001d0 f9 ad 85 be 00 9f 4e be 2d ba 35 be 5e f5 93 bd
       -0.26109293 -0.20177841 -0.17746802 -0.072245345
0001e0 67 f3 98 be 15 b6 47 3e 23 6f a6 3e 88 6f 46 3e
       -0.298732 0.19503053 0.32506666 0.19378483
0001f0 ae 7b b5 be e0 81 95 bd ae 66 15 3e 4e c1 6e be
       -0.35445923 -0.07300162 0.1458995 -0.23315927
000200 9c 39 2e 3e 83 55 83 be 7a 7f b8 3e 10 78 14 3f
       0.17014164 -0.25651178 0.36034757 0.579957
000210 10 fe 53 3e 32 44 53 3e 53 08 e1 be 66 54 45 3e
       0.20702386 0.20631483 -0.43951663 0.19270477
000220 8b 80 96 3f f4 ce 3e bf 87 35 65 3d 25 cf e0 bf
       1.1757978 -0.74534535 0.05595925 -1.7563215
000230 fd 62 9a 3e be db fb be da 3d c3 bf 72 8c f0 3d
       0.30153647 -0.49191087 -1.5253251 0.11745538
000240 de ae fe be 42 e7 ae 3e 8b db 5c 3e ce 39 eb 3d
       -0.49742788 0.3416081 0.21568124 0.11485635
000250 3e e8 75 3d 80 08 21 3e cb 56 a7 3c d2 16 84 be
       0.060035937 0.15725899 0.020427128 -0.2579866
000260 87 fb 4e be a3 02 11 be 07 ff 0e bf 77 e4 26 bf
       -0.20213138 -0.14161162 -0.5585789 -0.6519236
000270 10 0d 95 3e 57 aa 6a bf 5a cf 19 3f b1 7e 86 3e
       0.29111528 -0.9166617 0.6008202 0.26268533
000280 3c f5 11 3f e2 d6 3f 3f de 6e b8 be 77 03 9f bd
       0.5701482 0.7493726 -0.36022085 -0.07764333
000290 c3 55 bd be b9 eb 8b be 40 f0 09 bc 72 09 e2 3b
       -0.36979493 -0.2732828 -0.0084190965 0.0068980986
0002a0 27 00 db 3d b1 aa 44 3d f1 cb 37 be c6 e7 80 be
       0.106933884 0.048014347 -0.17948891 -0.2517683
0002b0 33 59 9b 3c 92 f3 fd 3d 6d a5 6c 3d 2c 98 69 be
       0.018963432 0.12399973 0.05777495 -0.22811955
0002c0 3f 49 2d be fd 45 3a be bf 68 4c be 9e 9c 70 be
       -0.16922472 -0.18190761 -0.19961832 -0.23497245
0002d0 1b 19 15 bf 43 ac 2c 3e 82 15 8e 3e 48 c5 45 3e
       -0.5824143 0.16862588 0.27750784 0.19313538
0002e0 ea 25 a4 3d 5e d5 ad be 69 d7 b2 3d cd dd 79 3d
       0.08015044 -0.3395185 0.087324925 0.06100254
0002f0 c9 d4 3d bd d3 e2 a6 3e d7 be 2d c0 e6 3d 96 be
       -0.046345506 0.32594928 -2.714773 -0.293441
000300 52 91 bf be f5 63 15 3f 9b e4 88 bf 3c 2f 54 be
       -0.37415558 0.5835565 -1.0694765 -0.20721143
000310 8d c4 f9 3e d7 7c 36 3f 6b 89 83 be 6b 84 d0 3e
       0.4878277 0.7128424 -0.2569078 0.40726027
000320 f0 27 aa 3e aa c0 dc 3d 8f 84 97 be 39 a6 cb 3f
       0.33233595 0.10778935 -0.29593322 1.5910102
000330 17 ae cc 3e f3 63 c1 3d 43 c1 40 be a4 e0 16 3c
       0.3997657 0.09442892 -0.18823723 0.009208832
000340 2c 0f e6 38 e8 52 d4 3e ef 5c a7 bd 31 7d 01 be
       0.000109700806 0.41469502 -0.081720226 -0.12645413
000350 08 a8 a6 3e d5 e2 e2 be a4 96 29 be 1d c9 cd 3e
       0.32550073 -0.44313684 -0.16561371 0.401925
000360 34 71 3e be ad af ca 3e 00 c3 5c 3e 18 4e 19 3e
       -0.18597871 0.39587155 0.21558762 0.14971197
000370 3a 07 28 3d 84 fd f5 3e 37 a9 3f be 14 2d 25 bf
       0.041022517 0.4804498 -0.18716894 -0.6452191
000380 d5 43 b8 3e 15 86 db bd c3 dd da be 69 35 d9 3e
       0.35989252 -0.107189335 -0.42747316 0.4242356
000390 b2 9a de 3c 42 80 e8 be f6 d5 f3 be f0 52 e0 be
       0.027173374 -0.45410353 -0.47624177 -0.43813276
0003a0 04 ba 19 be 85 5d 75 3e 80 5e 39 bd 43 d9 95 be
       -0.15012366 0.23961456 -0.045256138 -0.2926732
0003b0 5e 14 46 be 27 31 2e 3d 78 e8 b8 be 52 4d 02 3e
       -0.19343707 0.042527344 -0.3611486 0.12724808
0003c0 b9 8b d9 bd 4d 41 89 be 2c 5a 60 3e 7c f2 c2 be
       -0.10622353 -0.26807633 0.21909398 -0.38075626
0003d0 49 e3 b1 3e 7d 85 bd be 63 0b 94 bd 71 44 a7 3e
       0.34743717 -0.37015906 -0.07228734 0.32669404
0003e0 f9 7c a1 be cf 5c 9a be 66 f8 ad be dc fb 85 3e
       -0.3154066 -0.30148932 -0.33978575 0.26168716
0003f0 ed c3 4c be 35 d1 8b be 0c 33 a8 be 39 9e 3d be
       -0.19996615 -0.2730805 -0.32851446 -0.18517388

conv2.bias f4 [32]
000000 a6 9e f0 bd e8 70 2b be 4b 3d c4 3d fb 26 fd bd
       -0.1174901 -0.16742289 0.09582003 -0.123609506
000010 b3 0e 02 bd 3c 04 90 ba c9 e7 81 bd 41 25 ac bd
       -0.0317523 -0.001098759 -0.06343038 -0.08405543
000020 07 9c f0 3d 9d 1f a2 3d 01 f9 81 bd cf 56 73 be
       0.1174851 0.07916186 -0.06346322 -0.23763584
000030 9a 7f 9a bd 46 8e b8 3c 69 ef 92 bd 67 85 19 be
       -0.07543869 0.022528779 -0.0717457 -0.14992295
000040 0d e4 02 be ee ea 84 be 20 fd 33 3d 23 95 b9 bd
       -0.12782307 -0.25960487 0.04394257 -0.09061649
000050 8f 85 21 3b e3 fd ed 3d 8b 4c 1a be 86 34 ea 3c
       0.0024646258 0.11620691 -0.15068261 0.028589498
000060 f5 55 89 be 2b e2 67 3d 96 86 d0 bd 62 45 c1 bd
       -0.26823393 0.056612175 -0.1018192 -0.09437062
000070 1c 79 df bd 3c 0b a8 be 5a 30 f8 3d 4b d9 fb 3c
       -0.10911772 -0.3282107 0.12118597 0.030743262

conv2.lin.weight f4 [32, 32]
000000 d9 22 d7 bd 19 94 38 bd aa 55 67 bf 57 cb 91 3d
       -0.105046935 -0.045063112 -0.9036509 0.07118862
000010 10 e5 d5 3f 91 2c 62 be 43 cc 94 be 05 58 86 3e
       1.6710529 -0.22087313 -0.2906209 0.2623903
000020 5b 2b ab 3e 50 d2 56 bd 5e c2 51 3d 67 5c f6 bd
       0.33431515 -0.052446663 0.051210754 -0.12029343
000030 b9 9c bd 3e cb 01 64 be 9d 6e 95 bd b1 91 ba bf
       0.37033632 -0.22266309 -0.072964884 -1.4575711
000040 57 06 94 3f c1 30 a3 bd b3 6d 9c be 87 93 2f be
       1.1564435 -0.079682834 -0.30552444 -0.17146121
000050 19 c4 82 be 9c d7 a6 bf f2 5e 75 3e 25 1f 8a bd
       -0.25540236 -1.3034549 0.23962 -0.067442216
000060 f2 a8 7b be 14 18 b1 be 5f d5 0e bc 5e bb 8b 3e
       -0.24576166 -0.34588683 -0.008717864 0.27291387
000070 95 bb 68 be 1e 82 11 bd 4a 1e 4d 3e c9 36 20 bf
       -0.22727807 -0.03552448 0.20031086 -0.62583596
000080 ab e2 05 3e da 92 56 bd 9e 88 84 3e c6 66 30 3d
       0.13074748 -0.052386142 0.2588548 0.043066762
000090 29 bb 09 40 9b 58 18 3e a1 e8 06 3e 47 c1 83 3e
       2.1520483 0.1487755 0.13174678 0.25733396
0000a0 d1 ce d3 bd ec 7f 53 be 02 e9 41 be df 8f c3 3d
       -0.103421815 -0.20654267 -0.18936542 0.095489256
0000b0 28 ab 8a be be 3d 24 3e c0 d2 3c be 11 56 10 3c
       -0.27083707 0.16039178 -0.1843977 0.008809582
0000c0 b6 73 cd 3f 48 2a 69 be 30 c3 8c be ab 21 3a be
       1.6050937 -0.22770035 -0.27492666 -0.18176906
0000d0 50 42 05 3f 4f a9 d2 bd 38 07 8c 3d 83 47 de bc
       0.5205431 -0.10286199 0.06837314 -0.027133709
0000e0 1e 7e bd be a1 51 a5 be 51 0c f9 bd eb f3 e3 bd
       -0.37010282 -0.3228884 -0.12160552 -0.11130508
0000f0 82 c0 f9 bc 9c 9a e7 bd 68 b7 24 be 55 ef 3e be
       -0.030487303 -0.11308786 -0.16085589 -0.18645985
000100 81 e6 0c be d7 02 84 3d 6a 3c ef 3e c4 b4 45 bf
       -0.13759805 0.06445854 0.4672578 -0.7722895
000110 47 e2 6f bd 7b 68 99 bd fa 0c 48 3e 26 92 15 bf
       -0.058565404 -0.07490631 0.195362 -0.5842613
000120 3c be 6d 3e 28 52 1c be 23 08 87 3e dd 08 7d be
       0.232171 -0.15265715 0.26373395 -0.24710412
000130 41 97 4b 3e 93 63 d6 bd 6a bc 43 3e c7 cd 01 3e
       0.19881918 -0.10468211 0.19114843 0.12676154
000140 60 cb 14 3e e0 c7 90 bf 7a ae 6d be d4 c3 02 3e
       0.14530706 -1.1310997 -0.23211089 0.12770015
000150 d4 14 5b 3e 88 2d d4 be be e3 c6 3e eb c5 2c be
       0.21394664 -0.41440988 0.38845628 -0.16872375
000160 8a ce 5f bf 92 a2 1d 3e 63 60 0b be 81 af 1a be
       -0.8742453 0.15394047 -0.13610987 -0.15106012
000170 2b bd b5 bd 25 ac 31 be f8 46 0f be d7 2f a1 3e
       -0.088739716 -0.17350824 -0.13991916 0.3148181
000180 2c ac 09 3e 5a 69 1c be d4 19 a0 be ba e7 4e 3e
       0.13444585 -0.15274563 -0.31269705 0.20205584
000190 f3 de 54 3e 4c 38 16 3e f5 fa c4 3d ec 65 cf be
       0.20788173 0.14669913 0.09618179 -0.40507448
0001a0 86 7e 65 be 5a 2f ff bd 42 68 02 3e ea 73 5b 3e
       -0.22411546 -0.124602035 0.12735084 0.21430936
0001b0 b4 43 48 be 08 ce 82 3e bf de b7 be b6 72 57 3e
       -0.19557077 0.25547814 -0.3591213 0.21039852
0001c0 d9 64 95 be 3d 99 57 be 23 d8 39 bd ed 64 f6 bd
       -0.29178503 -0.2105455 -0.04537214 -0.12030969
0001d0 8f 8b 8d 3d 06 5e a3 be cd 32 70 be e8 57 c0 be
       0.06911384 -0.31907672 -0.23456879 -0.37567067
0001e0 f2 7c 5d 3d d9 3f ca 3c c3 3a 62 be a9 8a a5 bd
       0.054074235 0.024688648 -0.22092728 -0.08083088
0001f0 d1 0c 6a 3c a1 c4 42 3d 1d 09 15 3e 0a c0 80 3d
       0.014285282 0.0475508 0.14554258 0.062866285
000200 b9 74 4f be 1d ad 40 be 48 96 32 be 07 42 8b be
       -0.2025937 -0.18816037 -0.1744014 -0.27198812
000210 e7 c8 d4 3c 55 96 90 be 2d e9 7d be db b8 d3 bc
       0.025974704 -0.28239694 -0.24795981 -0.025844982
000220 41 71 80 be de 78 37 bc 15 1e 56 be 22 1e 18 3e
       -0.25086406 -0.011198251 -0.20909913 0.14855245
000230 2f 87 9a be d2 cc 76 be d7 7b 82 be 31 ab 83 be
       -0.30181262 -0.2410157 -0.25485107 -0.25716546
000240 2d 46 ad 3d 6b f2 02 3d ea 71 4d 3d 18 89 db ba
       0.084606506 0.03196947 0.050157465 -0.0016749231
000250 97 65 49 3e 77 9a 1b 3e a6 05 74 be ae de 27 be
       0.1966766 0.15195642 -0.2383028 -0.1639354
000260 f8 4f 70 3e 97 e2 05 bd ba 06 93 3d 63 ca 3e be
       0.23468006 -0.032686796 0.07179017 -0.18631892
000270 ea b7 16 3e af dc 40 bd da c3 3e 3d eb a5 45 3e
       0.14718595 -0.04708546 0.046573497 0.19301574
000280 0b 53 d1 bd fa 2f 08 bf fb 41 4b be d6 49 af 3e
       -0.10220917 -0.53198206 -0.19849388 0.3423602
000290 86 d7 1a 3c 6c b2 94 bd f5 a0 0c 3d 38 6f 20 bf
       0.009450799 -0.07260594 0.034333188 -0.62669706
0002a0 4c a2 06 c0 b9 58 56 be 19 3e 5d be ac 27 9c be
       -2.1036558 -0.20932283 -0.2160572 -0.30499017
0002b0 da 13 ae be 92 91 a9 3d 22 27 b8 bc 31 16 23 be
       -0.3399952 0.082797185 -0.022479597 -0.15926434
0002c0 58 a2 2c 3d ba 50 69 3f a1 ac d5 3d 4f b7 a5 3d
       0.04214701 0.91138804 0.10433317 0.08091604
0002d0 78 3c 64 be 10 c5 e5 be fa 92 ba 3d 0f 30 0d 3e
       -0.22288692 -0.4487691 0.09110065 0.13787864
0002e0 72 ef 17 3e fa ad 1a 3f 47 71 eb 3d 02 f8 3f be
       0.14837435 0.6042172 0.11496215 -0.18746951
0002f0 29 4f 7b 3e 7a 44 b9 bc c1 1a 98 bf 89 93 2d 3e
       0.24541916 -0.02261566 -1.1883165 0.16950811
000300 be e2 bf bc 2c cd 21 3e 48 d1 49 be 34 ac 5d be
       -0.023423549 0.15800923 -0.1970874 -0.21647722
000310 5f 2a b6 3f 2b d7 90 3e 42 51 1f be 1a 53 c1 be
       1.4231681 0.2828916 -0.15558341 -0.37758714
000320 ec d7 34 bc 2b ca b0 be c3 4c 3b 3c f0 37 af bd
       -0.011037808 -0.34529242 0.011431876 -0.08555591
000330 fd 3a 35 be c1 df bd bc 37 44 33 bc 2d a5 a1 be
       -0.17698283 -0.023177983 -0.010941557 -0.31571332
000340 b1 a2 e1 3f f8 d6 7a 3e c1 a5 c9 bd d8 65 40 3e
       1.7627774 0.24496067 -0.09846068 0.1878885
000350 6a 79 8d 3e d6 98 77 be 17 62 39 be 29 16 40 3d
       0.27631694 -0.24179396 -0.18103825 0.046896134
000360 10 22 c0 bd c4 a3 68 3e 88 5f ad 3a 79 33 7d bc
       -0.09381497 0.22718722 0.0013227323 -0.015454167
000370 c9 99 9c 3d a9 9b 62 3e 3f fe ab be 76 cc b5 3e
       0.0764652 0.22129692 -0.33592412 0.35507554
000380 89 e8 43 be 7e d4 a5 be 22 f0 9d be ea 37 2b be
       -0.19131674 -0.3238868 -0.3084727 -0.16720548
000390 2e fe 7a be 0d 77 25 be 8a 76 0b bb e3 bc b3 be
       -0.24511024 -0.16158696 -0.0021280372 -0.35105047
0003a0 ca 4e 0d be 5a 9b 81 3d c0 77 4d be a9 bb 64 3d
       -0.13799587 0.06328459 -0.20065212 0.05584303
0003b0 1d 66 31 bd 85 c8 90 be 0d 44 94 be 3b 89 4a 3d
       -0.043310273 -0.28277984 -0.2895817 0.04944728
0003c0 31 f0 49 bd fc e9 b7 3d 50 51 5e be 3f 4d 8c be
       -0.04930133 0.08980176 -0.21710706 -0.27402684
0003d0 72 b9 de bd cd 20 21 3e ef 05 02 3e e3 42 59 bd
       -0.10875215 0.15735169 0.12697576 -0.053042304
0003e0 71 b8 8a bd 9c db 46 be 44 e3 25 be 65 d2 50 3d
       -0.06773461 -0.19419712 -0.16199976 0.050981898
0003f0 ba 3d 19 bd d4 20 bf bd fe c9 14 3e fd 92 02 be
       -0.037412383 -0.09332433 0.14530179 -0.12751384

classifier.weight f4 [1, 32]
000000 c7 3e 7d bd fa 85 08 be 89 59 3a bf e7 0e c0 3d
       -0.061827447 -0.13332358 -0.7279287 0.093778424
000010 6e a9 8a bc a2 19 d0 3e e7 c8 57 be 9f 13 8d 3e
       -0.016926493 0.40644556 -0.21072732 0.27554032
000020 c7 82 bb 3e 83 69 73 3e e2 37 33 3e de 7a 7b 3f
       0.36623213 0.23770718 0.17501786 0.98234355
000030 f3 3e a0 bb bf b1 8a 3f 0c b5 03 bf 14 0c 70 3d
       -0.0048903166 1.0835494 -0.5144813 0.05860527
000040 e9 23 d5 be 7a 3a 02 3f 8c 63 92 3e 9b 99 e6 bd
       -0.4162896 0.5087048 0.28591573 -0.11259767
000050 0e 2d be bd 05 cb 0a 3f 39 ec 6d 3a 51 7b 47 3d
       -0.09285937 0.54216033 0.00090760324 0.048701588
000060 fa 81 18 bf 0a 34 97 bf 29 be 83 3e 71 3a c7 3e
       -0.5957333 -1.1812756 0.25731018 0.38911775
000070 e6 26 35 bb 0c 96 cb be 5e fb 21 3f 22 24 9a be
       -0.0027641593 -0.39762914 0.6327418 -0.30105692
