A3/MyTeam/A3/regression/baseline.pth (torch, 7967 bytes, 5 tensors)

conv1.bias f4 [32]
000000 b4 d0 e1 3d 26 93 a4 bc 9e 64 b0 bc 84 aa c5 bb
       0.11026135 -0.020089697 -0.021532353 -0.00603229
000010 b7 33 82 bc 94 d7 79 bd 6c df 5d 3c 1a d5 ec 3a
       -0.0158938 -0.060996607 0.013542037 0.001806888
000020 1d a0 86 bd f4 a0 7b bd 1e e1 76 3c 77 ac 16 be
       -0.06573508 -0.061432794 0.015068321 -0.14714228
000030 3a 15 fe bd 09 f5 37 3c 16 2c 4b 3d 0d f7 08 bd
       -0.124063924 0.0112278545 0.04960259 -0.03343873
000040 68 73 ff bc 1e c2 e1 3c bf 69 9b 3d 7e e5 27 bd
       -0.03118296 0.027558383 0.07588529 -0.040990345
000050 ed 83 e6 bc 15 2a 51 3c c4 46 6c 3d 16 17 38 3d
       -0.028139079 0.012766381 0.057684675 0.04494389
000060 5a f4 55 bd c5 2e a8 bc a8 35 68 3d 70 ad 41 3d
       -0.052234985 -0.020530114 0.056691796 0.047284544
000070 fe 4c a9 bd ab c0 eb bc 51 37 8f bb 68 91 15 bd
       -0.08266638 -0.028778395 -0.004370608 -0.036515623

conv1.lin.weight f4 [32, 9]
000000 b7 d0 ed be ad f7 88 3d 4d d9 13 3f 59 94 52 3e
       -0.464483 0.066878654 0.5775345 0.20564403
000010 c4 d4 da bd ce fc 45 be 33 36 b8 3e 59 b8 9f 3e
       -0.10685113 -0.19334719 0.3597885 0.31195334
000020 d0 fc a2 3d 29 60 1f 3e 27 0c 9e 3e b7 8e 92 3e
       0.079583764 0.15564026 0.30868647 0.28624508
000030 fe 92 79 be 22 d0 9c 3e 77 74 c9 3d 61 bf 9b be
       -0.2437248 0.30627543 0.09836667 -0.30419448
000040 59 6f b7 3d 79 f0 2f 3d ed db 66 3e 01 dd 56 bd
       0.08956785 0.042953942 0.22544833 -0.05245686
000050 fa 8a e5 be 85 97 1b 3e d2 8e 2b be 97 65 8a be
       -0.44832593 0.15194519 -0.167537 -0.27030632
000060 69 11 84 3e e0 6d b9 be d9 b1 a5 be 63 17 e4 bd
       0.25794533 -0.3621664 -0.3236225 -0.11137273
000070 9f 2d 8a 3e a3 cc 11 be 5b 09 64 3b 62 47 c4 be
       0.2698793 -0.14238219 0.0034795615 -0.3833571
000080 41 f2 41 be d2 a2 8f 3d 8e 9f 1c bd 23 01 f0 bd
       -0.18940069 0.070134774 -0.0382381 -0.11718967
000090 9f ae 65 bc a7 3d 68 bf 53 f0 e2 be 11 30 4c 3e
       -0.014018684 -0.90719074 -0.44323978 0.19940211
0000a0 44 f2 9a 3d e5 1b a0 bb e1 fb 8a 3e f5 24 6f 3e
       0.0756574 -0.004886138 0.27145293 0.23353942
0000b0 1a aa 70 3e ef f7 19 3e cb 48 67 3f 49 07 76 be
       0.23502389 0.15035985 0.9034545 -0.24026217
0000c0 86 eb 63 be bc e0 27 3f 60 ab e8 bc 4f 74 80 3c
       -0.22257814 0.6557729 -0.02840203 0.01568046
0000d0 86 53 4f 3e 20 52 a3 bd 0d d2 ab bd 74 15 0d 3f
       0.20246705 -0.079746485 -0.083896734 0.5511086
0000e0 6b bc 2b 3e 28 0b 66 be b8 41 2e 3e 66 e1 52 be
       0.16771095 -0.22465193 0.17017257 -0.20593795
0000f0 12 9f 85 be 73 89 4f be 80 53 47 be ad ec 36 be
       -0.26097924 -0.20267276 -0.19465446 -0.17863722
000100 e2 a4 80 3e 37 74 96 be d2 d7 09 3e 50 30 ec bd
       0.25125796 -0.2938554 0.13461235 -0.115326524
000110 be fc be be 9c ef d3 3e 56 e8 97 3d de d9 9d 3e
       -0.37302202 0.41393745 0.074173614 0.30830282
000120 46 f1 db 3d d1 dd 3d bd 1c 29 8a 3e 00 58 29 bd
       0.10739379 -0.04635412 0.2698449 -0.04134369
000130 93 77 90 be 85 68 73 3e 02 62 94 3d 55 87 55 be
       -0.28216228 0.2377034 0.07245256 -0.20852406
000140 b5 f6 98 3c 90 c1 57 3e 94 13 21 3e 24 bd 15 3e
       0.018672327 0.21069932 0.15730125 0.14622933
000150 01 84 73 be d0 10 2d 3e a3 5d 92 be 71 18 7f 3d
       -0.23780824 0.16900945 -0.28587064 0.06227917
000160 1b 90 c4 3e c6 4e 57 bf a2 cb 6e be d8 ff 66 be
       0.38391194 -0.84104574 -0.23319867 -0.22558534
000170 d7 68 6e 3e 4e ed ff 3d 46 40 59 3e e1 4d 74 bc
       0.2328218 0.12496434 0.21215925 -0.014911146
000180 97 62 fa 3e 9d 98 0e 3d dc a1 c3 bd 5a 0c 8b 3e
       0.48903343 0.034813512 -0.095523566 0.2715786
000190 50 10 af 3e a2 b3 d5 be 41 27 fe 3d d8 23 52 be
       0.34192133 -0.4173861 0.12409831 -0.20521486
0001a0 b5 71 f6 bd 91 1f 24 3e 4a 00 23 bf 6c 2e 68 be
       -0.12033407 0.16027667 -0.63672316 -0.22673959
0001b0 dc 21 77 3d b2 86 1c 3e 2e 7f 87 3e 41 85 db bd
       0.060335025 0.15285757 0.26464218 -0.107187755
0001c0 26 3f 37 3e d0 44 9d be 09 9c 21 be a2 35 c3 3e
       0.17895183 -0.30716562 -0.15782179 0.38126856
0001d0 aa cd 00 bd 15 ae 57 3d 1a 18 33 bf ae dd 85 be
       -0.031446137 0.052656252 -0.6995865 -0.2614569
0001e0 aa 19 84 3e 6e 5c 00 3e ac 06 80 3e ad 42 e3 be
       0.2580083 0.12535259 0.2500509 -0.44386807
0001f0 52 bd 56 3e 3c 52 99 be ba 89 2a be 7d 0f 22 be
       0.20970657 -0.29945552 -0.16654101 -0.15826221
000200 80 97 09 3e 7a 8c 8c be 9e 5a 4e 3e 09 9e b9 3e
       0.13436699 -0.27450925 0.20151755 0.36253384
000210 0f 66 9b 3d 5f 52 80 3e 49 a6 39 3e e9 b1 07 bd
       0.075878255 0.25062844 0.18129839 -0.033128653
000220 da ae 35 be 37 5d 2a bd 1c db d9 bd 73 57 7f bd
       -0.17742482 -0.041592803 -0.10637495 -0.062339257
000230 e1 2f 3b be 64 f2 95 3e 0c 99 14 bc 0b ca a6 3d
       -0.18279983 0.29286492 -0.009069692 0.081440054
000240 4f 4a a0 be 54 cb 57 3f 1b 2f 62 3e 1a a6 9d 3e
       -0.31306693 0.8429463 0.22088282 0.30790788
000250 63 9f 64 bf 56 a8 d5 3c 68 b9 8b be 9f e2 1e 3d
       -0.89305705 0.026081245 -0.2728989 0.03879034
000260 84 0b 03 be 7b ec df bd ea 60 36 3f f3 8c 27 be
       -0.12797362 -0.10933777 0.7124163 -0.16362362
000270 bf c1 ad be 4f f6 e1 3d f9 62 ba 3e 07 3e 4a be
       -0.3393688 0.11033308 0.36403635 -0.19750224
000280 fb f2 8c 3d a8 e5 93 3e 49 b0 b3 3d 53 0b c1 3d
       0.06882282 0.2888615 0.08773858 0.09425988
000290 35 b9 65 3e 69 79 ac bd 18 6e d2 3e 6a f3 8b be
       0.22433932 -0.08421595 0.4109962 -0.27334148
0002a0 17 ed 15 bf c1 03 ce 3e 6e 83 3c be b1 40 1b 3e
       -0.58564895 0.4023724 -0.18409511 0.15161397
0002b0 7c 05 21 3d 4b 05 0c be 27 7f 11 3e e6 5f 89 be
       0.03931187 -0.13673894 0.14208661 -0.26830977
0002c0 86 f3 1d be 53 15 74 3e 1c 0c c4 be 09 51 91 be
       -0.15424928 0.2383626 -0.3829049 -0.28382137
0002d0 2c db a1 3e 33 50 2d be 39 e1 bf 3e e2 9e 44 be
       0.31612527 -0.16925125 0.3747652 -0.19201234
0002e0 24 04 b7 be 34 29 00 3d 12 eb 2b be 55 7a b0 bc
       -0.35745347 0.031289294 -0.16788891 -0.021542707
0002f0 66 90 be 3e 9b 55 8a 3d 5b 71 ae 3d 1f 2e 99 be
       0.37219542 0.06754609 0.085177146 -0.29918
000300 b4 3b 0c bd 20 81 c6 be 75 95 9d be 00 69 25 bc
       -0.034236625 -0.3877039 -0.3077809 -0.010095835
000310 3a 9b 74 bd 0f 08 f3 bc 53 b2 de bd 1d ab 9b 3e
       -0.059718348 -0.029666929 -0.108738564 0.30403987
000320 45 b2 9d 3b ad fe e2 3e 1f a8 a0 be 27 17 b0 be
       0.004812511 0.44334927 -0.31378266 -0.34392664
000330 f9 8f 26 bf 17 23 3f bf 62 65 1b bd 80 a4 97 bd
       -0.65063435 -0.7466292 -0.037938483 -0.07404423
000340 b3 f3 db 3d f1 ec 85 be 8c d3 2f be 23 fc 8a be
       0.10739841 -0.26157334 -0.17170542 -0.2714549
000350 e2 ec 80 3e 06 80 42 3e 41 eb c5 bc bf 13 38 3e
       0.25180727 0.1899415 -0.02416003 0.17976283
000360 b5 41 98 3e 33 57 33 3e f8 f2 7d bd 07 67 fe bd
       0.2973763 0.17513733 -0.06199929 -0.12421995
000370 fe 54 cc be 62 55 5f 3e b8 80 d9 bd 8d 75 9d bc
       -0.39908594 0.21809915 -0.10620254 -0.019221092
000380 bb d8 4c be 8b b2 91 3e f1 fd b4 be 7a 6e e9 3d
       -0.20004551 0.2845653 -0.35349992 0.11398025
000390 e6 37 ca 3d 2e fc 77 3d 8f bb e4 bd 31 dd a0 be
       0.09873943 0.06054323 -0.111685865 -0.31418756
0003a0 cf 10 8c 3e 08 26 6a be a7 1f 9d bd be 74 29 3e
       0.27356574 -0.2286607 -0.07672053 0.1654844
0003b0 b3 eb 33 be 0e 8d a5 3e 70 55 1a bf cb 0b 9f 3e
       -0.17570381 0.3233418 -0.6028662 0.31063685
0003c0 40 32 d4 bc 6f aa 8d bf 39 93 21 be 7d 3d 0e 3e
       -0.025902867 -1.1067637 -0.15778817 0.13890643
0003d0 6e f3 18 3e d1 ff 94 3e d5 94 c4 be 7f 1f a4 be
       0.14936611 0.29101422 -0.383948 -0.3205528
0003e0 83 31 ec 3d 47 2e 89 be 0a 10 8b be 3e 13 00 bf
       0.11532881 -0.2679312 -0.27160674 -0.5002936
0003f0 3c 8a b4 3d ca b1 ff be 5d fd b3 3e a2 41 29 be
       0.088154286 -0.4994033 0.35154238 -0.16528943

conv2.bias f4 [32]
000000 c8 25 83 3c 53 db 2f 3c 7e e1 ef bc c3 6a 77 bc
       0.016009226 0.010733443 -0.029282328 -0.015101138
000010 2d a6 42 bc d4 60 8a 3d fc be 73 3c ae 22 8f bd
       -0.01188044 0.0675675 0.014877077 -0.069890365
000020 b1 26 e7 bb 7a 25 e6 bb b8 9b f7 3a 9f e3 1c 3c
       -0.007054173 -0.0070235105 0.0018891012 0.0095757535
000030 9d 44 12 ba bb bf 99 3d f4 d7 fd 3c c6 c5 2b 3c
       -0.0005579682 0.07507273 0.030986764 0.010484165
000040 b9 4f c3 3c b9 23 00 bd 5a 5c 9d 3c 87 76 0f bd
       0.023841726 -0.031284068 0.019209076 -0.035025146
000050 d5 2a 60 bd 7d 84 d0 bc 9f a6 98 3c 99 f2 6f bd
       -0.054728348 -0.0254538 0.018634139 -0.05858097
000060 bc 7f 12 bc b1 d7 45 3c fd 3b 16 bd 82 97 b7 3b
       -0.008941587 0.012075351 -0.036678303 0.005602778
000070 94 b1 4a 3c 2b b7 64 bc bf 8d a9 3c ca 04 ea 3b
       0.0123714395 -0.013959686 0.020697473 0.007141684

conv2.lin.weight f4 [32, 32]
000000 ed 88 01 be f0 2d 5e 3e 43 90 e0 3d 4d ee 57 3e
       -0.1264989 0.21697211 0.10965016 0.21086998
000010 0d 4f 48 bd 66 35 4b be bf 2f eb bc 70 cd c6 bd
       -0.048903514 -0.19844589 -0.02870929 -0.09707153
000020 e3 f9 34 bd 13 c8 61 3d 8d 40 2f bd 32 34 13 be
       -0.044183623 0.055122446 -0.04278617 -0.1437538
000030 57 36 39 be 53 87 ae 3d 2a ea 18 3e 78 21 62 3e
       -0.18087135 0.08521905 0.14933077 0.2208308
000040 1e 17 18 bf 26 2f 87 3c 64 71 ff 3c 62 57 2a be
       -0.59410274 0.016501974 0.031181999 -0.16634896
000050 f4 06 ff 3d fe 18 1e be 81 67 c9 3c d3 a0 af 3d
       0.12452498 -0.15439221 0.024585487 0.08575597
000060 0f 6d 2c 3e 09 d6 1e be 4b 7e 90 be 72 eb 70 be
       0.16838478 -0.15511335 -0.28221354 -0.23527315
000070 a8 70 ac 3d ca 70 45 be fb ea e3 bc f4 b9 cb bb
       0.08419925 -0.19281307 -0.027822008 -0.0062172357
000080 8b b7 bc 3d dd d9 17 be 56 b7 2b 3e 0a 0d 77 3e
       0.092146955 -0.14829202 0.16769156 0.24126068
000090 e4 f0 f0 3d 8f 14 2a 3e ca a7 7f be 1f 45 52 be
       0.11764696 0.16609405 -0.2496635 -0.2053418
0000a0 97 ea 6b be d1 28 33 3d ca 5f 36 3d 53 8a 3b be
       -0.23038708 0.043740097 0.044524945 -0.18314485
0000b0 c8 d9 fd bd 02 2a 9c 3e 57 4d 81 be 16 7d 28 be
       -0.12395054 0.305008 -0.25254318 -0.16453966
0000c0 15 08 25 3e 6c 89 09 3d 80 9c 6f be 67 c2 2a be
       0.16116364 0.03357832 -0.23399544 -0.16675721
0000d0 04 45 b8 bd d2 39 89 be ad b7 59 3d 6d 16 75 3c
       -0.08997539 -0.26801926 0.053153683 0.01495896
0000e0 b9 b6 61 3e a8 01 3e bd 11 04 31 3e 7a 64 18 3c
       0.2204236 -0.0463883 0.17286707 0.009301299
0000f0 03 ed c7 3c 7b 57 f1 bb c5 56 c2 3e 53 21 6d bd
       0.024405008 -0.007365165 0.37956825 -0.05789311
000100 07 a0 82 3d b5 1d cc bd e3 d4 4a 3e e8 54 6d 3e
       0.06378179 -0.09966604 0.19807772 0.2317692
000110 98 e7 51 be 6e 5c c6 3b 0c 1b 27 bc b4 d0 90 bc
       -0.20498502 0.006053499 -0.01019932 -0.017677642
000120 a7 3d 24 be c8 6c 9e be d1 df 1a 3e 60 c1 03 3e
       -0.16039144 -0.30942369 0.15124442 0.12866735
000130 c8 5b 67 3e f5 a7 7c 3e 2f ce 87 3e ee 0a 74 3d
       0.22593606 0.24673446 0.26524493 0.059580736
000140 e5 f5 90 3e 73 dd 30 be d8 ca ba be 18 0c aa be
       0.28312603 -0.17271976 -0.36482882 -0.33212352
000150 1a 94 a3 bd 38 fe b7 3e 1b d6 72 3e 1a 3c 9e 3e
       -0.079872325 0.3593614 0.23714487 0.3090523
000160 59 c2 f0 bd 65 66 54 3d 1f 34 01 be be f8 8c 3e
       -0.11755819 0.051855464 -0.12617539 0.27533525
000170 d0 69 55 3e fb 4c 4b bd 9b f7 b0 3e 70 73 d8 bc
       0.20841146 -0.04963396 0.34563908 -0.026422232
000180 d6 fc 88 bd b2 f1 4d be be d0 45 3e b7 b8 8f 3d
       -0.0668885 -0.2011173 0.1931791 0.070176534
000190 8d e8 57 be 67 44 c2 be eb cb 32 be 30 5d 4e 3e
       -0.21084805 -0.37942812 -0.17460601 0.20152736
0001a0 35 51 1d be fe 1b b9 be 92 3e 6e be 4c bb d3 3d
       -0.1536301 -0.3615417 -0.23266056 0.103384584
0001b0 ba 45 79 3c e0 47 63 be 0a 9e 94 be 86 62 0e bd
       0.015214378 -0.22195387 -0.29026824 -0.034761928
0001c0 88 10 51 3d f2 ba b1 bd 36 32 6d 3c ee 86 85 bd
       0.051041156 -0.08678235 0.014477303 -0.065198764
0001d0 a4 5e 73 bc bc 3d 8b 3e ce 74 3d 3e 74 d5 0a 3e
       -0.014854107 0.27195537 0.18501589 0.13557988
0001e0 40 32 87 3d 63 aa 8b be c2 9d 20 3e 92 99 d6 bd
       0.06601381 -0.27278432 0.1568518 -0.1047851
0001f0 2e 7c cc bd c9 f0 62 3e 6b 99 72 3d ea 36 30 be
       -0.09984623 0.22162165 0.059228342 -0.17208448
000200 a2 a4 71 be aa 21 7c be df 92 38 3d 7a f5 aa be
       -0.23597959 -0.24622217 0.045061942 -0.3339041
000210 ca 56 df 3c 64 a2 0f be 9e e4 a6 be b5 6a 6b 3e
       0.027263064 -0.14026791 -0.32596296 0.22989924
000220 4b ca 48 be 59 1b 24 be 9f 50 2f be 1a 75 f5 3c
       -0.19608419 -0.16026057 -0.17120598 0.029963065
000230 3a e4 7e be 9c 5b 5e be aa 85 9e be f6 8a 95 be
       -0.24891749 -0.21714634 -0.30961353 -0.2920758
000240 1b 1d 92 3e 03 79 41 be ce ac 05 3e 33 1e 94 bb
       0.2853783 -0.18893819 0.13054201 -0.0045202016
000250 38 42 f4 3d 93 75 8b be 93 d8 b2 3d f2 90 42 3e
       0.11926693 -0.2723814 0.087327145 0.19000605
000260 50 b9 46 3e 6e 8d d9 bd 94 56 f1 be ec 12 18 be
       0.19406629 -0.10622679 -0.47136366 -0.14850968
000270 ea 57 dd bd d3 bc 6d 3b 37 d3 83 bd 8b 6c 38 3e
       -0.10807784 0.0036275878 -0.064367704 0.18010156
000280 33 e7 95 3e f0 dc f7 bd 80 d9 8d be 31 ee 15 be
       0.29277954 -0.12102687 -0.27705002 -0.14641644
000290 a6 73 0d bf 46 97 38 3e e5 02 9f 3e ab 1a 33 be
       -0.5525459 0.18026456 0.31056896 -0.17490642
0002a0 c3 7e 7e be 7a 22 fe 3d d4 ae 42 3e 30 3b 05 bf
       -0.24853043 0.1240892 0.19012004 -0.5204344
0002b0 db fc bb 3d 29 9b 56 3e ca 7c 10 3e 3c 42 34 be
       0.09179088 0.20957626 0.14110103 -0.17603391
0002c0 d6 b7 60 3f 8a 9d 4b be 93 17 b8 3e f4 50 81 3c
       0.8778051 -0.19884315 0.35955486 0.015785672
0002d0 b2 a5 cc bd f9 6c 51 bd 1d 9f 56 3f 89 47 bf bd
       -0.099925414 -0.051129315 0.8383654 -0.09339816
0002e0 00 b6 41 3b 01 76 47 be 42 43 9d 3e 7f 94 c9 3e
       0.0029557943 -0.19478609 0.30715376 0.39371106
0002f0 b3 ab 54 3e 94 ac 68 bd 05 5a 91 bd f0 ca f7 bd
       0.20768623 -0.05680521 -0.07097248 -0.12099254
000300 b1 02 a1 bc 2d f5 3a 3d e4 4e 09 be a2 8d 2c bd
       -0.019654604 0.045643974 -0.13409 -0.04212726
000310 ca 7e 3d 3d 4b 0a e1 3d 98 f5 73 be 92 9f 53 be
       0.046263494 0.10988291 -0.23824155 -0.2066634
000320 3b 46 f6 3d 6a f9 a6 3d 21 07 5c bc b7 c9 1e 3e
       0.12025114 0.08153041 -0.013429434 0.15506636
000330 71 1d b0 3d 4c a1 64 3e 6a 26 7f be a5 e4 3b bd
       0.085993655 0.22327155 -0.24916998 -0.04587235
000340 5f 8c e2 be f8 7a 8e bd 9d 76 38 3e f5 87 15 be
       -0.4424772 -0.06957048 0.18013997 -0.14602645
000350 28 9b 8c 3e cb 0e 0e be 01 ed ed 3c a0 91 61 be
       0.27462125 -0.1387283 0.029043676 -0.22028208
000360 9f f0 89 ba 6a ec 65 3e d9 46 93 3b 1a d3 f3 bd
       -0.0010523981 0.22453466 0.0044945297 -0.11905499
000370 8c 30 65 3b 00 32 53 be 70 89 72 3c dc 03 79 be
       0.0034971563 -0.20624542 0.0148032755 -0.24317878
000380 d3 e4 26 3d f4 2c cc be 54 3a 48 3e e5 91 0d 3e
       0.040745568 -0.39878047 0.195535 0.13825186
000390 9e 06 bb 3d 62 3e 42 3e ad 44 e9 bd b9 7a a6 3e
       0.091321215 0.1896911 -0.11390052 0.32515505
0003a0 42 1b 96 be 61 eb 44 3d 0b ca 1e bf 76 a6 c0 3d
       -0.2931767 0.048076037 -0.62027043 0.0940675
0003b0 42 24 53 be f8 79 ad 3e 6d 3d 85 bd b5 f6 8b be
       -0.206193 0.33882117 -0.06505857 -0.2733666
0003c0 f0 19 e6 3e 6f 7c f4 bd 78 a4 f5 be 78 78 87 bd
       0.44941664 -0.11937796 -0.47977042 -0.066147745
0003d0 e3 7e 38 be 70 e7 a0 bc 43 62 3a 3f 9c 9d 62 3e
       -0.18017153 -0.019641608 0.72806185 0.22130436
0003e0 9c fb 22 3e 51 7f b3 3d 3b 44 91 3e c1 14 b2 3d
       0.15916294 0.08764518 0.28372368 0.08695365
0003f0 7b b0 ab bd fc 8b bb bc 0e c3 cf bc 9b d3 43 be
       -0.0838327 -0.022893898 -0.025361564 -0.1912369

regressor.weight f4 [1, 32]
000000 10 7c c6 3e d4 43 be bd b7 1c 74 bc 86 4e fd bd
       0.38766527 -0.09290281 -0.014899424 -0.12368493
000010 e5 a4 ca bb 61 f7 13 3f 3b a7 be 3e 41 d4 6b 3f
       -0.0061842077 0.57799345 0.37236962 0.9212075
000020 6c ff ae bc 36 82 86 3e 45 e1 8c be 8d 39 c2 bd
       -0.021362029 0.26271218 -0.27515617 -0.09483633
000030 f1 bf 53 bd c6 c1 76 3e 85 13 7c bd 9d cb 8b 3b
       -0.05169672 0.24097356 -0.061542053 0.004266216
000040 20 df 2c 3e a8 c2 aa be 30 3c 39 bf b5 ed 38 3f
       0.1688199 -0.33351636 -0.72357464 0.7223771
000050 d5 84 ad 3b 87 cd 04 be 05 de 81 bc dd 37 34 3a
       0.005295376 -0.12969027 -0.015852937 0.00068747794
000060 78 ef 0a bd 36 ba 0f bd 36 d1 47 be 1d 68 53 be
       -0.03391978 -0.035089694 -0.19513401 -0.20645185
000070 7e de 1e 3f 33 95 af bb 89 61 5f 3e 81 76 fd bd
       0.62058246 -0.005358362 0.2181455 -0.123761185
