A3/MyTeam/A3/regression/custom.pth (torch, 19043 bytes, 13 tensors)

conv1.nn.0.weight f4 [32, 9]
0.02991566 0.013868098 -0.16861676 -0.13848604 0.35842493 0.26900274 0.2012689 -0.23854442
-0.33805674 -0.1917924 -0.07509009 0.32340387 0.12735151 -0.16059248 0.6283864 -0.28058246
-0.41202703 0.046633266 -0.10552243 -0.36530927 0.36428288 -0.15922725 0.49641335 0.04320063
0.2817819 0.4725497 0.08667371 -0.3609037 0.33359265 0.3122238 -0.013798205 0.22032909
-0.17324175 0.13584648 0.48964134 0.0108097335 0.14452055 0.72545373 0.01760307 -0.3339692
-0.0073236763 -0.48427767 -0.17120846 0.36327282 0.063306786 -0.001817793 0.5104285 0.020489728
-0.10749701 -0.2314782 -0.19364324 -0.11548749 0.15080975 -0.029481413 -0.15939851 -0.27696422
-0.015769718 -0.03570796 -0.28856486 0.102684356 0.08880629 -0.38822722 0.10790436 -0.15971556
-0.0193963 0.10562301 0.18423294 -0.07967914 -0.3965596 -0.40650168 -0.20823018 -0.5596933
0.16411914 0.5130391 -0.13022967 -0.05816046 0.009734845 0.1527326 -0.25759718 0.11107521
0.2623996 0.17077295 0.22530572 0.015749317 -0.1736277 -0.25850374 0.15544963 -0.43689114
-0.023557778 -0.09524504 -0.19476119 0.373634 0.29866448 -0.19866844 0.11395618 0.5078258
0.060033478 0.123655595 -0.17169432 0.22822124 0.21843109 -0.153134 0.12555096 -0.41756392
-0.4490323 -0.4513353 -0.16601744 -0.3434497 0.1791306 0.22153325 0.04958873 0.18940301
-0.15380876 0.007905226 -0.029937722 -0.097447485 -0.26374727 0.07643223 0.16727167 0.07716961
-0.1521471 -0.17092131 -0.35965812 0.12544869 0.67674625 -0.23589653 0.24743097 -0.20894489
-0.40244594 -0.2178839 0.05702975 0.2946666 0.45336345 0.46479434 0.4661745 0.06324897
-0.31311235 0.08640788 0.11742892 -0.44538146 -0.33256203 -0.1998365 -0.24367186 0.056593634
-0.017825065 -0.6728953 -0.09075139 0.10125486 -0.028660616 0.39734867 -0.16158137 -0.12318018
0.0006635181 0.18407024 0.15710762 -0.16437128 -0.01660424 -0.17426918 0.06133239 0.29142395
0.24363948 0.24288394 0.1091323 -1.4355539 0.27022305 -0.20835099 -0.10854308 0.52615035
-0.24961218 0.49149743 0.24054067 -0.28337738 0.36453357 0.42117786 -0.22560763 0.120420076
0.30571407 0.14828877 0.2175943 -0.47367975 -0.32382756 0.3293283 -0.010472435 0.16017777
-0.050590802 -0.37104887 0.23575316 0.15477468 -0.04627671 -0.16357909 -0.778673 0.020855967
-0.10024148 0.085655965 -0.40319234 0.42125678 -0.096808575 0.006935147 0.078205615 0.07059525
0.23436867 -0.2635335 0.05714016 -0.10562054 0.41155326 -0.49553794 0.034118596 0.2209079
0.08201273 0.22273444 -0.3027146 -0.48576272 0.33457538 0.074103825 -0.19387747 0.41609666
-0.09388008 0.62475526 -0.08632113 0.0055349735 0.120422214 -0.033426166 0.13805738 -0.5227469
0.21149808 -0.12945276 -0.13112971 0.02616058 0.25554883 -0.1041192 0.49952716 -0.10600761
-0.082422085 -0.77705365 0.09425207 -0.080867 -0.2982493 -0.27811304 0.059400097 -0.54706436
0.27847648 -0.15055236 -0.2894186 -0.17063858 0.35158983 -0.18383035 0.3630476 -0.37454465
0.2834334 0.08067335 0.9802995 -0.23554388 -0.21453129 0.08642882 0.3031947 0.039196543
00000000: b011 f53c 0537 633c dfa9 2cbe 49cf 0dbe
00000010: 7983 b73e baba 893e 6f19 4e3e fd44 74be
00000020: c615 adbe 3a65 44be d5c8 99bd 3195 a53e
00000030: 6f68 023e 5b72 24be eedd 203f 81a8 8fbe
00000040: 35f5 d2be 8602 3f3d 251c d8bd d109 bbbe
00000050: 4983 ba3e 780c 23be e429 fe3e 25f3 303d
00000060: b845 903e 09f2 f13e fc81 b13d 5fc8 b8be
00000070: a8cc aa3e ccdb 9f3e de11 62bc f39d 613e
00000080: 4966 31be 571b 0b3e 45b2 fa3e 4f1b 313c
00000090: 32fd 133e 56b7 393f 5034 903c 03fe aabe
000000a0: 73fb efbb 3ef3 f7be 4551 2fbe e5fe b93e
000000b0: fda6 813d 0343 eeba 71ab 023f 13da a73c
000000c0: 6427 dcbd 9f08 6dbe 6a4a 46be b584 ecbd
000000d0: df6d 1a3e 0183 f1bc 5d39 23be 41ce 8dbe
000000e0: 7f2f 81bc 8342 12bd c6be 93be 2d4c d23d
000000f0: 12e0 b53d b8c5 c6be f6fc dc3d 7a8c 23be
00000100: fde4 9ebc e050 d83d 8fa7 3c3e d12e a3bd
00000110: dc09 cbbe fd20 d0be 4b3a 55be 0f48 0fbf
00000120: d90e 283e 8856 033f ed5a 05be aa39 6ebd
00000130: e67e 1f3c ef65 1c3e c7e3 83be 667b e33d
00000140: 3e59 863e 1bdf 2e3e 8bb6 663e b604 813c
00000150: 76cb 31be 9a5a 84be 302e 1f3e 32b0 dfbe
00000160: 3efc c0bc d50f c3bd 7a6f 47be f54c bf3e
00000170: 8dea 983e bd6f 4bbe dc61 e93d df00 023f
00000180: aae5 753d 253f fd3d a3d0 2fbe d4b2 693e
00000190: 66ac 5f3e 29cf 1cbe 6e90 003e f0ca d5be
000001a0: 90e7 e5be 6c15 e7be 7a00 2abe a4d8 afbe
000001b0: 036e 373e 9dd9 623e 8d1d 4b3d ddf2 413e
000001c0: 0b80 1dbe ec84 013c f43f f5bc 8c92 c7bd
000001d0: e209 87be 8088 9c3d 4449 2b3e 1a0b 9e3d
000001e0: 73cc 1bbe ff05 2fbe 1c25 b8be 9f75 003e
000001f0: 3e3f 2d3f dc8e 71be 8b5e 7d3e a6f5 55be
00000200: 650d cebe f51c 5fbe 0798 693d 8ade 963e
00000210: 411f e83e 86f9 ed3e 6dae ee3e ad88 813d
00000220: 4350 a0be 9df6 b03d 937e f03d 0a09 e4be
00000230: 9245 aabe f1a1 4cbe 1e85 79be bace 673d
00000240: df05 92bc de42 2cbf dddb b9bd b55e cf3d
00000250: abc9 eabc 4971 cb3e 9675 25be e445 fcbd
00000260: f2ef 2d3a e97c 3c3e d2e0 203e f250 28be
00000270: 9d05 88bc 9f73 32be ac37 7b3d 8535 953e
00000280: a17c 793e 91b6 783e c180 df3d 3bc0 b7bf
00000290: ad5a 8a3e f659 55be d64b debd cab1 063f
000002a0: 569a 7fbe 8da5 fb3e 4b50 763e d716 91be
000002b0: 25a4 ba3e a0a4 d73e b005 67be cd9e f63d
000002c0: 8e86 9c3e 03d9 173e 0ad1 5e3e 2786 f2be
000002d0: bacc a5be b89d a83e 9394 2bbc a405 243e
000002e0: 4d38 4fbd 1efa bdbe 4769 713e 417d 1e3e
000002f0: a68c 3dbd 4781 27be 1d57 47bf 22da aa3c
00000300: 684b cdbd 656c af3d 3a6f cebe f8ae d73e
00000310: 9343 c6bd 3b40 e33b 442a a03d 3e94 903d
00000320: 57fe 6f3e dded 86be cd0b 6a3d 954f d8bd
00000330: 1cb7 d23e 26b7 fdbe f1bf 0b3d ae35 623e
00000340: 4af6 a73d 7f14 643e 68fd 9abe e4b5 f8be
00000350: 774d ab3e bfc3 973d d187 46be 9f0a d53e
00000360: 3344 c0bd f6ef 1f3f 22c9 b0bd b95e b53b
00000370: ec9f f63d e0e9 08bd ea5e 0d3e bed2 05bf
00000380: f492 583e 448f 04be de46 06be b64e d63c
00000390: 4cd7 823e 723c d5bd 06c2 ff3e 851a d9bd
000003a0: e9cc a8bd fdec 46bf 3b07 c13d 999d a5bd
000003b0: 22b4 98be d564 8ebe 844d 733d 690c 0cbf
000003c0: 7894 8e3e 662a 1abe ad2e 94be e1bb 2ebe
000003d0: 9503 b43e 063e 3cbe 60e1 b93e 51c4 bfbe
000003e0: 2f1e 913e 1238 a53d e8f4 7a3f 6a32 71be
000003f0: 17ae 5bbe 9801 b13d 563c 9b3e 8e8c 203d

conv1.nn.0.bias f4 [32]
0.23207688 -0.29463008 0.0369048 0.30549675 -0.17935649 0.36213875 -0.09557156 -0.040659565
-0.092144966 0.57409286 0.057286464 -0.3824396 -0.20027888 0.004108706 -0.08519875 -0.26865357
0.4809283 -0.40325624 -0.06894125 0.039780177 0.2048408 0.0014933409 -0.2388956 -0.40218657
-0.037663955 0.06358111 -0.22600877 0.4105199 0.13471088 0.20714423 0.29291713 -0.27447504
00000000: 90a5 6d3e c1d9 96be 7d29 173d 126a 9c3e
00000010: 3aa9 37be 406a b93e 06bb c3bd a58a 26bd
00000020: 80b6 bcbd c0f7 123f 36a5 6a3d 20cf c3be
00000030: e815 4dbe 53a2 863b af7c aebd f68c 89be
00000040: 3c3c f63e 9a77 cebe 1231 8dbd 8af0 223d
00000050: c9c1 513e 35bc c33a 0ca1 74be 66eb cdbe
00000060: 8545 1abd d036 823d d86e 67be aa2f d23e
00000070: a6f1 093e 9e1d 543e 3cf9 953e fe87 8cbe

conv1.nn.2.weight f4 [32, 32]
0.07496875 0.46921343 -0.26722774 0.48670962 0.24028124 0.20131807 0.07583624 0.33607367
-0.14136297 -0.05708258 0.12778892 -0.031145312 -0.17026702 0.056488633 -0.19026752 0.031914696
-0.23791951 -0.03349534 0.17092623 0.20296448 0.18408035 0.15817139 0.16060372 0.266099
0.37628883 -0.05225003 0.24554847 0.09888872 0.027250402 -0.5817923 -0.086132385 0.33402655
0.012073518 -0.64669114 -0.016116763 -1.0507212 -0.1528256 -0.21400122 -0.12410817 -0.084486485
-0.07477993 -0.14215145 -0.05716543 0.020548899 0.14687552 0.011294592 -0.06552617 0.079319134
0.04377993 0.23548922 -0.118170604 -0.07430446 -0.08433604 0.07414978 0.18240614 -0.16592045
0.12636778 0.112646736 -0.010973076 0.13970391 -0.02107141 0.024433846 -0.08247864 -0.1744828
0.018048339 -0.6990197 0.018761612 -0.1982479 -0.06262149 -0.18683055 -0.10202483 0.016052045
0.111369066 -0.1507829 0.02424115 0.053666454 0.08770995 0.09551729 -0.30058867 -0.02738609
0.038796853 -0.09925753 0.14155027 -0.008641143 -0.077232435 -0.10924153 -0.032949787 0.11514516
-0.13419321 0.0038516114 -0.13841514 0.033944827 -0.37466207 0.036095966 0.13672973 -0.854418
-0.043021616 -0.7186304 -0.047211174 -0.29808617 -0.19144848 -0.003991476 0.09025934 -0.21575847
0.1455534 -0.23663706 -0.12104993 0.0050431443 0.04675105 0.11038475 -0.3073562 0.16765462
-0.008482576 0.19476834 0.111932576 -0.1767746 -0.11005797 0.079088315 -0.03995413 0.032815
-0.28685942 -0.09293715 -0.1395659 -0.15279722 -0.21306905 0.13520318 -0.0038030962 -0.36957866
0.093587324 -0.32984772 0.12118236 -0.62520987 -0.09749742 -0.13583013 -0.1592706 -0.24464746
0.31249753 0.14036454 -0.0089167105 -0.094713934 -0.10148606 0.019534482 0.35174176 -0.08865556
-0.009384818 0.111460276 0.16038516 -0.1833058 -0.20490511 0.103490844 -0.07698212 -0.07660009
0.047276687 -0.48009542 -0.10905682 0.19143084 -0.8317016 0.25096068 -0.5928391 -0.6585295
-0.2863131 0.09829155 0.024500346 -0.59985054 -0.04141243 -0.12176618 -0.06924589 -0.06978172
-0.043080404 -0.027049817 -0.042748682 0.16918185 0.13018095 0.057005774 0.014188945 -0.06798907
-0.18453103 0.12540218 -0.38598597 0.18135524 0.079203874 0.024568157 -0.10390149 -0.21735917
-0.11171869 0.09556833 0.022790454 0.19977571 0.036064174 -0.27996165 -0.15620951 -0.09555516
0.12082743 0.55705845 -0.059503872 -0.4897104 0.0049202405 0.15223828 0.10977427 0.038936004
-0.08556287 -0.21868044 0.2309359 -0.14062715 -0.06246981 -0.07427244 0.22014993 0.0111436555
-0.25612065 -0.16951413 0.07882032 0.14938886 0.21727052 0.11796775 -0.19801584 0.23376094
-0.104320295 -0.36462155 -0.14315268 -0.05896481 0.18963225 -0.18982956 0.03205246 -0.04391886
0.01438284 0.35141265 0.26546514 0.06949323 -0.18134151 -0.14532064 0.12729257 0.006654985
-0.14203446 0.09135312 0.06805873 -0.19946188 -0.06401023 -0.074100904 0.029841755 0.12550661
0.16967902 0.064186074 -0.031018443 0.122231945 -0.09375007 0.017104484 0.041363206 0.023245653
-0.053692456 0.1114962 -0.00769409 0.08986594 0.03143674 0.31971675 -0.13474287 0.05523644
00000000: 3789 993d be3c f03e 13d2 88be 0132 f93e
00000010: 490c 763e 5326 4e3e 0850 9b3d d911 ac3e
00000020: 74c1 10be 6ccf 69bd 19db 023e 7424 ffbc
00000030: 7a5a 2ebe a060 673d 7dd5 42be fcb8 023d
00000040: 2ca1 73be 6932 09bd 4907 2f3e ecd5 4f3e
00000050: 8f7f 3c3e aef7 213e 4d75 243e 213e 883e
00000060: eea8 c03e 2104 56bd 0f71 7b3e 2b86 ca3d
00000070: 3c3c df3c 57f0 14bf 2d66 b0bd 8705 ab3e
00000080: 01d0 453c 8d8d 25bf 4d07 84bc 087e 86bf
00000090: 507e 1cbe 2323 5bbe 6d2c febd 4007 adbd
000000a0: 3826 99bd 2690 11be 4c26 6abd 2a56 a83c
000000b0: 8966 163e f40c 393c 9632 86bd 1272 a23d
000000c0: 9552 333d 1624 713e 6e03 f2bd f02c 98bd
000000d0: 60b8 acbd d7db 973d adc8 3a3e 0de7 29be
000000e0: 8e66 013e 55b3 e63d 6bc8 33bc 8b0e 0f3e
000000f0: f39d acbc 7d29 c83c 90ea a8bd 9eab 32be
00000100: 1cda 933c f4f2 32bf f4b1 993c 7f01 4bbe
00000110: b23f 80bd 8250 3fbe 65f2 d0bd 947f 833c
00000120: 7715 e43d d566 1abe 6095 c63c 5bd1 5b3d
00000130: 46a1 b33d 929e c33d c2e6 99be cb58 e0bc
00000140: 73e9 1e3d 8847 cbbd 8ef2 103e 9593 0dbc
00000150: 0a2c 9ebd 06ba dfbd 5bf6 06bd 3ad1 eb3d
00000160: f269 09be 516b 7c3b b3bc 0dbe bb09 0b3d
00000170: b5d3 bfbe 5dd9 133d e102 0c3e 23bb 5abf
00000180: 6f37 30bd 29f8 37bf 8160 41bd c09e 98be
00000190: 120b 44be edca 82bb e4d9 b83d caef 5cbe
000001a0: f30b 153e fc50 72be 07e9 f7bd f640 a53b
000001b0: 077e 3f3d 6611 e23d cb5d 9dbe a7ad 2b3e
000001c0: 81fa 0abc 5a71 473e e83c e53d 6704 35be
000001d0: 1366 e1bd 0ef9 a13d f1a6 23bd 0569 063d
000001e0: 3ddf 92be d555 bebd 5dea 0ebe e076 1cbe
000001f0: c62e 5abe b472 0a3e 5e3d 79bb 6a39 bdbe
00000200: b6aa bf3d cde1 a8be 752e f83d c10d 20bf
00000210: baac c7bd 0e17 0bbe d517 23be dd84 7abe
00000220: adff 9f3e b9bb 0f3e 6517 12bc 61f9 c1bd
00000230: ecd7 cfbd c706 a03c 7f17 b43e 0c91 b5bd
00000240: c8c2 19bc 4945 e43d 023c 243e 84b4 3bbe
00000250: a5d2 51be 02f3 d33d cda8 9dbd 82e0 9cbd
00000260: 33a5 413d 11cf f5be 2f59 dfbd 7206 443e
00000270: 65ea 54bf eb7d 803e 4ec4 17bf 6495 28bf
00000280: a197 92be 154d c93d f3b4 c83c ce8f 19bf
00000290: 15a0 29bd 8c60 f9bd cad0 8dbd b8e9 8ebd
000002a0: 1475 30bd 9497 ddbc 3e19 2fbd 023e 2d3e
000002b0: 284e 053e e37e 693d c078 683c db3d 8bbd
000002c0: b4f5 3cbe 6e69 003e f49f c5be 30b5 393e
000002d0: a435 a23d 2943 c93c 4eca d4bd 6793 5ebe
000002e0: c5cc e4bd 54b9 c33d 0cb3 ba3c 0192 4c3e
000002f0: 07b8 133d 2257 8fbe 63f5 1fbe 6cb2 c3bd
00000300: 5f74 f73d 629b 0e3f 55ba 73bd 52bb fabe
00000310: f839 a13b 5ae4 1b3e 55d1 e03d 5c7b 1f3d
00000320: 963b afbd c4ed 5fbe 767a 6c3e 9000 10be
00000330: 58e0 7fbd 261c 98bd fc6e 613e e193 363c
00000340: 3f22 83be 1d95 2dbe 8c6c a13d 65f9 183e
00000350: 2a7c 5e3e 1399 f13d aac4 4abe 075f 6f3e
00000360: e1a5 d5bd adaf babe 9e96 12be 1685 71bd
00000370: f52e 423e ae62 42be 7149 033d 43e4 33bd
00000380: 01a6 6b3c 5cec b33e 0ceb 873e 7752 8e3d
00000390: 97b1 39be efce 14be fc58 023e 0f12 da3b
000003a0: 7b71 11be 5817 bb3d 6062 8b3d bc3f 4cbe
000003b0: cc17 83bd 37c2 97bd b276 f43c ce84 003e
000003c0: 56c0 2d3e fd73 833d 641a febc be54 fa3d
000003d0: 0900 c0bd b41e 8c3c 776c 293d ab6d be3c
000003e0: 9fec 5bbd 1f58 e43d b41e fcbb a20b b83d
000003f0: d0c3 003d eab1 a33e 09fa 09be 9b3f 623d

conv1.nn.2.bias f4 [32]
-0.2403615 0.107474096 0.15763071 -0.08031547 -0.29439798 -0.13264382 -0.43561277 0.050660234
0.023228804 -0.2284059 -0.08538368 -0.089977525 -0.08157566 -0.15088601 -0.30232817 0.09498733
-0.078223415 0.08916171 0.19139342 0.16426162 -0.16128722 -0.05988165 -0.13984738 -0.08112622
0.10456872 0.09967329 0.17462906 0.030718522 0.21940707 0.12199758 0.028150788 0.042687174
00000000: 5321 76be 611b dc3d f269 213e 707c a4bd
00000010: 55bb 96be c8d3 07be a308 dfbe 1b81 4f3d
00000020: 554a be3c 3ce3 69be a4dd aebd 2346 b8bd
00000030: 2411 a7bd dd81 1abe c2ca 9abe b888 c23d
00000040: 9933 a0bd 6a9a b63d a3fc 433e 3334 283e
00000050: 7a28 25be 7646 75bd 2734 0fbe 8125 a6bd
00000060: 2028 d63d 8321 cc3d f6d1 323e 69a5 fb3c
00000070: 3fac 603e ded9 f93d 7b9c e63c bfd8 2e3d

conv1.lin.weight f4 [9, 3]
0.22702275 -0.58674866 -0.23539771 -0.58739865 0.10675008 -0.5184552 0.08074232 -0.36303234
0.09938266 -0.65580535 -0.35511672 -0.51850164 0.5307169 0.5332671 0.4400272 -0.19993044
1.1024115 0.17329636 -0.3845202 0.8837653 -0.20800777 0.10552217 0.7409776 -0.30924022
-1.0715644 1.1837935 0.39331403
00000000: a778 683e 2935 16bf 190c 71be c25f 16bf
00000010: c99f da3d 7bb9 04bf 3b5c a53d 60df b9be
00000020: 2389 cb3d dce2 27bf dcd1 b5be 86bc 04bf
00000030: 10dd 073f 3184 083f 3f4b e13e 91ba 4cbe
00000040: d21b 8d3f 9a74 313e d5df c4be 713e 623f
00000050: fdff 54be 021c d83d b5b0 3d3f bc54 9ebe
00000060: 0629 89bf 8c86 973f 7560 c93e

conv1.lin.bias f4 [9]
-0.15383364 -0.42687407 0.4346489 -0.05798927 0.0035158468 0.017187828 -0.39171404 -0.12678516
-0.33846146
00000000: 9186 1dbe 3d8f dabe 4d8a de3e 2886 6dbd
00000010: 1f6a 663b 7dcd 8c3c be8e c8be f8d3 01be
00000020: d24a adbe

conv2.nn.0.weight f4 [32, 32]
0.2403426 -0.2664075 -0.08148013 0.377852 -0.20873879 -0.013619711 -0.06164733 -0.0025050596
-0.34564745 0.24202226 0.030946216 0.1487178 -0.06783171 0.25183427 -0.063520804 0.105729215
-0.06964915 -0.041160937 0.1923081 0.37377557 0.14107351 0.15469706 0.09729001 -0.17999494
-0.2036331 0.1400821 -0.35104734 -0.056332413 0.06916664 0.12092172 -0.025366573 0.1748043
-0.38085806 -0.29523388 0.14915016 -0.1795479 -0.2758991 0.151221 -0.20107953 -0.111224696
0.058451828 -0.37848544 0.07102845 0.28918052 -0.10401165 -0.38940498 -0.069203265 0.057363138
0.042883866 -0.1801157 0.007796918 0.14347741 0.16853164 -0.519498 -0.60283935 -0.019167356
-0.10252322 -0.005097536 -0.11685205 0.09216567 -0.03281541 0.053852778 0.055356596 0.12251049
-0.008994709 -0.50171787 -0.26592094 -0.13257411 -0.18937588 -0.033834513 -0.023975056 -0.07660481
-0.40793067 0.21443734 -0.21568495 -0.032191295 0.11824246 0.09033022 0.14875668 -0.12619378
0.08448932 -0.15828685 -0.0876735 0.21659048 -0.37822926 0.24441548 -0.24088384 -0.14807375
-0.13757767 -0.12098332 -0.43176505 0.073878534 0.07385164 -0.115701616 0.35137445 -0.13036108
0.03985519 -0.13449898 -0.45800376 0.14403887 -0.11634533 0.14912201 -0.30237594 0.16658884
-0.22176361 0.06922471 -0.08901426 -0.012004593 -0.12309114 -0.1661009 0.037731245 0.22168143
-0.10094021 0.1935541 -0.21148063 0.084651545 0.39360815 0.35667652 -0.2307894 -0.059634633
-0.08873093 -0.15358105 -0.6333215 -0.73899204 -0.054156095 -0.004508976 0.29523167 0.19748037
0.06626178 0.086245574 0.113095485 0.04864632 -0.038574465 -0.073470384 -0.113901824 0.118559256
-0.028791241 -0.19361116 0.084870994 0.09723389 -0.07333757 -0.18278545 0.19114818 -0.032732032
-0.14250748 -0.08354952 -0.048367865 0.08438792 0.03616541 0.009028005 0.07843624 0.07433261
-0.108135454 -0.14521706 -0.12851647 -0.09944676 -0.15165354 -0.18036102 -0.021664158 0.09327179
0.1967637 -0.19188641 -0.018988863 0.018109802 -0.34214967 -0.49794176 -0.022267317 -0.11534893
-0.19001608 -0.39867133 -0.026761655 -0.62986463 0.14694361 -0.22120436 -0.21994546 -0.04724441
-0.03264788 0.067519166 -0.4552095 0.24624208 0.048631348 0.08022773 -0.17011918 0.097899936
-0.19146922 0.07595404 -0.1470326 -0.16651262 0.048189666 -0.025505377 0.13673452 -0.3245575
-0.030915694 0.056374285 0.07818783 0.06856295 0.09616913 0.13169734 -0.0965888 -0.10524612
0.0650237 -0.16140406 0.12202697 -0.054996077 -0.12740771 -0.09787666 -0.042156093 -0.08577342
-0.045954444 -0.119040884 -0.06606984 -0.2737475 -0.13373184 -0.36015433 0.02921235 0.10514139
0.042914 -0.12429598 -0.21087365 -0.005213336 -0.1396817 0.033607297 -0.09314747 -0.04293641
-0.07228325 0.0959289 -0.1980611 -0.05447171 0.38153446 -0.039100967 0.044352606 0.038310513
-0.26504582 -0.10343924 0.16931738 -0.07201101 0.2067322 -0.33246297 -0.119154476 -0.118751936
0.12716928 0.12570317 0.31559592 0.2546795 0.18067099 -0.16478711 0.06381506 0.08561429
0.06382073 -0.25297973 0.027654445 -0.16591404 -0.16608645 -0.122130334 0.12724052 -0.43703413
00000000: 5f1c 763e 9066 88be 0edf a6bd d175 c13e
00000010: 9fbf 55be 3525 5fbc e981 7cbd ed2b 24bb
00000020: b4f8 b0be afd4 773e eb82 fd3c 7b49 183e
00000030: 5aeb 8abd 6cf0 803e 3217 82bd 8f88 d83d
00000040: 37a4 8ebd 5f98 28bd 6aec 443e 835f bf3e
00000050: 9375 103e e868 1e3e fc3f c73d 9850 38be
00000060: 3285 50be af71 0f3e 7abc b3be d1bc 66bd
00000070: 3da7 8d3d cfa5 f73d 8fcd cfbc e6ff 323e
00000080: d4ff c2be e528 97be d2ba 183e 68db 37be
00000090: a642 8dbe aed9 1a3e cbe7 4dbe c6c9 e3bd
000000a0: 2f6b 6f3d d8c8 c1be 5d77 913d 780f 943e
000000b0: 0f04 d5bd 1760 c7be 71ba 8dbd 9cf5 6a3d
000000c0: fea6 2f3d 4070 38be 4a7d ff3b beeb 123e
000000d0: 8f93 2c3e d2fd 04bf ae53 1abf dc04 9dbc
000000e0: b2f7 d1bd 3b09 a7bb 2150 efbd 5bc1 bc3d
000000f0: 7469 06bd bb94 5c3d 99bd 623d c8e6 fa3d
00000100: 8b5e 13bc 9570 00bf ca26 88be 82c1 07be
00000110: c0eb 41be 0f96 0abd 5667 c4bc fce2 9cbd
00000120: 4adc d0be 7695 5b3e 84dc 5cbe 05db 03bd
00000130: 1a29 f23d 0dff b83d ac53 183e f138 01be
00000140: bd08 ad3d f315 22be 2a8e b3bd e5c9 5d3e
00000150: 44a7 c1be 0d48 7a3e 41aa 76be a5a0 17be
00000160: 29e1 0cbe 1ac6 f7bd 4f10 ddbe a14d 973d
00000170: 873f 973d f8f4 ecbd 5ae7 b33e 607d 05be
00000180: 323f 233d 1aba 09be 787f eabe ed7e 133e
00000190: 7646 eebd 71b3 183e 05d1 9abe 4496 2a3e
000001a0: 0016 63be afc5 8d3d 1c4d b6bd eaae 44bc
000001b0: 3517 fcbd 5b16 2abe 148c 1a3d 7500 633e
000001c0: beb9 cebd 0c33 463e 618e 58be ca5d ad3d
000001d0: 0287 c93e 4e9e b63e 0e54 6cbe 7243 74bd
000001e0: 90b8 b5bd 5a44 1dbe 5c21 22bf 952e 3dbf
000001f0: c8d2 5dbd 08c0 93bb 9b28 973e 4b38 4a3e
00000200: 42b4 873d 85a1 b03d 9b9e e73d 5d41 473d
00000210: 4200 1ebd a477 96bd 5c45 e9bd 32cf f23d
00000220: 9cdb ebbc 0142 46be d8d0 ad3d 9022 c73d
00000230: 0232 96bd 1c2c 3bbe 59bc 433e 0612 06bd
00000240: 7bed 11be 031c abbd 621d 46bd 93d3 ac3d
00000250: 2e22 143d 33ea 133c 2ea3 a03d b23b 983d
00000260: 1f76 ddbd c8b3 14be d299 03be beaa cbbd
00000270: 114b 1bbe 8fb0 38be 0879 b1bc 4805 bf3d
00000280: 6c7c 493e df7d 44be 888e 9bbc 025b 943c
00000290: 3e2e afbe 39f2 febe f369 b6bc 0f3c ecbd
000002a0: 9393 42be a61e ccbe 423b dbbc cf3e 21bf
000002b0: 6378 163e 6583 62be 6239 61be 5b83 41bd
000002c0: c9b9 05bd 7d47 8a3d 3811 e9be e226 7c3e
000002d0: aa31 473d 704e a43d b933 2ebe c37f c83d
000002e0: 8210 44be cb8d 9b3d b78f 16be 4982 2abe
000002f0: 8762 453d a7f0 d0bc 2204 0c3e 672c a6be
00000300: e942 fdbc b9e8 663d f120 a03d bb6a 8c3d
00000310: 52f4 c43d abdb 063e 59d0 c5bd 478b d7bd
00000320: 252b 853d 1b47 25be 47e9 f93d 9143 61bd
00000330: 2b77 02be 8f73 c8bd deab 2cbd faa9 afbd
00000340: ba3a 3cbd b5cb f3bd a04f 87bd a228 8cbe
00000350: 00f1 08be 2666 b8be bd4e ef3c 5e54 d73d
00000360: 97c6 2f3d e48e febd 43ef 57be a2d4 aabb
00000370: b808 0fbe cea7 093d 1ac4 bebd 17de 2fbd
00000380: 3e09 94bd 5f76 c43d 87d0 4abe ba1d 5fbd
00000390: 7c58 c33e 5628 20bd 14ab 353d 7ceb 1c3d
000003a0: 16b4 87be f4d7 d3bd 8961 2d3e 827a 93bd
000003b0: 9bb1 533e 9638 aabe 4307 f4bd 3734 f3bd
000003c0: aa38 023e 55b8 003e ca95 a13e 5a65 823e
000003d0: d101 393e f4bd 28be 78b1 823d 8b56 af3d
000003e0: 71b4 823d 8f86 81be 938b e23c 5fe5 29be
000003f0: 9112 2abe 781f fabd 574b 023e f0c2 dfbe

conv2.nn.0.bias f4 [32]
0.23298796 -0.06818033 0.06450922 0.5365024 -0.076350935 0.13274844 0.17442341 0.1110042
-0.041171677 0.22875194 0.46537408 0.07383113 -0.2527802 -0.4335269 -0.18987852 0.26381657
0.12952414 0.17948258 -0.01815035 0.21673755 -0.18812038 0.064460196 0.32982528 -0.21750365
-0.19125944 -0.042809714 0.18345968 0.0055067693 0.105153166 0.35289285 -0.17083502 0.08734052
00000000: 6594 6e3e 21a2 8bbd 691d 843d 3958 093f
00000010: e15d 9cbd 35ef 073e 0d9c 323e 2c56 e33d
00000020: a2a3 28bd f33d 6a3e 8345 ee3e c734 973d
00000030: 686c 81be 3df7 ddbe 846f 42be f712 873e
00000040: faa1 043e 48ca 373e 0bb0 94bc 73f0 5d3e
00000050: a1a2 40be b503 843d dcde a83e 47b9 5ebe
00000060: 84d9 43be 3d59 2fbd dbdc 3b3e 2172 b43b
00000070: 8b5a d73d 5fae b43e 60ef 2ebe 96df b23d

conv2.nn.2.weight f4 [32, 32]
-0.06966944 0.07398498 0.37303963 -0.25003234 0.03222172 0.37464175 0.25717336 0.024359085
0.13129997 0.06736478 0.077881806 -0.28730363 -0.13128778 -0.23526222 0.004008624 0.06929241
0.32410458 -0.08046563 0.07614322 0.23247133 -0.19606574 0.19069472 -0.112382755 0.24407066
0.28089964 0.21944132 -0.01935267 0.56057405 -0.057777684 -0.072039604 0.16797613 -0.066213764
0.17549534 -0.4566178 -0.5768723 0.05263088 -0.22390684 -0.12801835 -0.014887277 0.13350762
0.22563949 -0.20953928 -0.13226481 0.053426124 0.050380908 0.10151111 -0.20992085 -0.31918308
-0.24449752 0.20408471 0.033442337 -0.5440778 -0.25558582 -0.15447982 -0.13064754 -0.0035044772
0.018078985 -0.072671264 -0.032028936 0.43106082 0.1988921 -0.3077093 -0.105840415 0.0791883
0.15058291 -0.24677885 -0.33903244 0.3873723 -0.14387952 -0.262092 -0.20804621 -0.26794833
-0.1499777 0.088494346 0.25599077 -0.084447 0.02753462 -0.24528052 -0.41919172 0.3632114
0.015125411 0.06421763 0.17709301 -0.14945053 -0.08364332 -0.062789194 -0.27765006 -0.22384815
-0.6658374 -0.15334845 -0.07103145 0.12645262 -0.14398262 0.03231321 -0.29704022 -0.15526037
0.0958409 -0.060770545 -0.041937217 0.26810554 0.2176828 0.19918229 0.16422978 -0.1538036
-0.012369093 -0.08876674 0.046362992 -0.2568431 -0.06096093 0.112197325 -0.28693753 -0.22976974
0.15877117 -0.057300247 -0.09541589 -0.0039846553 0.07124454 0.138091 -0.48446283 0.15701365
-0.37217385 0.14545403 -0.07017849 -0.0065483944 -0.12239509 -0.3324631 0.14837886 -0.0126619665
-0.25796148 -0.034800146 0.11848351 -0.6692516 0.12508702 -0.105168045 -0.03502672 0.07571143
0.18859333 -0.122840494 -0.03711524 -0.04085197 -0.086554036 0.15935606 -0.09329943 -0.1124624
0.061798725 0.23401755 -0.40701753 0.032390133 0.037072532 0.00878626 -0.14167581 -0.04062561
-0.04172101 -0.016874354 -0.11495673 -0.15383622 0.26233914 -0.015264862 0.120987624 0.03904926
0.16800132 -0.12037688 -0.18987131 0.4984868 0.2469911 0.119624905 0.15027027 -0.30583438
-0.15027812 0.0770761 -0.1368544 -0.13136661 -0.0041001076 -0.013912286 0.022799376 -0.3808183
-0.05234565 -0.13746996 0.14646132 -0.18009357 0.07422345 0.16883306 -0.76124555 0.09870228
-0.028951112 0.3147743 -0.111327514 0.030719988 0.088870674 -0.38638982 -0.01911793 -0.05524668
-0.76981765 -0.073093645 -0.011296371 -0.28369257 -0.03956657 0.08391369 0.11828841 0.28721234
0.10400092 -0.29197407 0.20274542 0.1237611 -0.30093238 -0.38904673 -0.15345787 -0.714344
-0.092022195 0.111985095 -0.4043499 -0.18235473 0.055677883 -0.435324 -0.4753226 -0.08156866
-0.08948552 0.20593813 0.0021195107 0.107502244 -0.24594615 0.31402633 -0.19705519 0.09904085
0.14447097 0.030987822 0.012196073 -0.0896093 -0.08020885 0.046124812 -0.1088454 -0.13373883
0.13243078 -0.15505555 -0.18975191 -0.02120361 0.080150254 -0.08071099 0.15319484 0.13527259
0.0761771 -0.02489563 0.15399471 -0.27921584 -0.1640159 0.110740356 -0.2560821 0.034782358
0.24929866 0.20708603 -0.07478907 0.37246153 -0.01736743 0.09639901 0.22208849 0.13607982
00000000: daae 8ebd 7085 973d 0dff be3e 3d04 80be
00000010: ecfa 033d 0bd1 bf3e 3aac 833e b48c c73c
00000020: 8073 063e 8cf6 893d 7f80 9f3d 7619 93be
00000030: 4e70 06be 94e8 70be c65a 833b 2ee9 8d3d
00000040: 09f1 a53e 2acb a4bd faf0 9b3d f70c 6e3e
00000050: 75c5 48be 7a45 433e ee28 e6bd a9ed 793e
00000060: 14d2 8f3e 3ab5 603e 7e89 9ebc c881 0f3f
00000070: 4ba8 6cbd 8089 93bd ef01 2c3e 159b 87bd
00000080: 0db5 333e cfc9 e9be e7ad 13bf 7a93 573d
00000090: d647 65be 3e17 03be c4e9 73bc 39b6 083e
000000a0: 0a0e 673e 7791 56be 6d70 07be 5ad5 5a3d
000000b0: 365c 4e3d 0fe5 cf3d 7ef5 56be f76b a3be
000000c0: 8f5d 7abe 95fb 503e d5fa 083d af48 0bbf
000000d0: 25dc 82be f52f 1ebe 78c8 05be 5fab 65bb
000000e0: 611a 943c acd4 94bd c630 03bd 01b4 dc3e
000000f0: 5faa 4b3e 138c 9dbe dcc2 d8bd 7a2d a23d
00000100: 6832 1a3e 98b3 7cbe a995 adbe a955 c63e
00000110: 2755 13be ec30 86be 110a 55be 8630 89be
00000120: c193 19be 863c b53d 3911 833e 8cf2 acbd
00000130: 4990 e13c d12a 7bbe 4ca0 d6be d8f6 b93e
00000140: 92d0 773c 8884 833d df57 353e 8f09 19be
00000150: 304d abbd 9f97 80bd 2628 8ebe 7338 65be
00000160: 5274 2abf 6007 1dbe f078 91bd cc7c 013e
00000170: 2e70 13be db5a 043d a815 98be 93fc 1ebe
00000180: 3c48 c43d 89ea 78bd 5cc6 2bbd 2145 893e
00000190: 3de8 5e3e 71f6 4b3e da2b 283e b17e 1dbe
000001a0: bca7 4abc 56cb b5bd 1fe7 3d3d f080 83be
000001b0: 2bb2 79bd b6c7 e53d 7ae9 92be c248 6bbe
000001c0: e994 223e aab3 6abd 6869 c3bd b691 82bb
000001d0: a8e8 913d ba67 0d3e 830b f8be 30c8 203e
000001e0: 928d bebe e7f1 143e bdb9 8fbd ea93 d6bb
000001f0: 47aa fabd 9a38 aabe a1f0 173e 2374 4fbc
00000200: 8713 84be 998a 0ebd 7ca7 f23d 1354 2bbf
00000210: d016 003e 5862 d7bd 2e78 0fbd 980e 9b3d
00000220: 9c1e 413e cc93 fbbd 2606 18bd 6554 27bd
00000230: 3e43 b1bd 3c2e 233e c613 bfbd b052 e6bd
00000240: a920 7d3d 4ca2 6f3e 9a64 d0be 84ab 043d
00000250: 5ed9 173d 3ff4 0f3c 7713 11be 0a67 26bd
00000260: a6e3 2abd 163c 8abc 6f6e ebbd 3e87 1dbe
00000270: 5151 863e 7919 7abc 5cc8 f73d 1ef2 1f3d
00000280: 8a08 2c3e 2788 f6bd a06d 42be a939 ff3e
00000290: 3ceb 7c3e e7fd f43d 73e0 193e 5396 9cbe
000002a0: 82e2 19be 13da 9d3d 8f23 0cbe f884 06be
000002b0: 325a 86bb 5bf0 63bc c2c5 ba3c 9efa c2be
000002c0: 6468 56bd edc4 0cbe f5f9 153e 736a 38be
000002d0: 7702 983d 93e2 2c3e fde0 42bf 6c24 ca3d
000002e0: e22a edbc 192a a13e aeff e3bd 7ca8 fb3c
000002f0: d401 b63d e3d4 c5be 359d 9cbc 584a 62bd
00000300: c512 45bf 1fb2 95bd 6a14 39bc 2740 91be
00000310: 8e10 22bd f1da ab3d 3241 f23d 7f0d 933e
00000320: 6ffe d43d a07d 95be 7f9c 4f3e 7676 fd3d
00000330: cf13 9abe 2231 c7be 0f24 1dbe 40df 36bf
00000340: 2276 bcbd 7158 e53d f306 cfbe 33bb 3abe
00000350: 7e0e 643d cae2 debe 7c5d f3be 780d a7bd
00000360: 2f44 b7bd 72e1 523e 7de7 0a3b 232a dc3d
00000370: 4fd9 7bbe 0fc8 a03e d6c8 49be eed5 ca3d
00000380: 33f0 133e 2cda fd3c 0ad2 473c 1585 b7bd
00000390: 8a44 a4bd 5fed 3c3d 56ea debd d5f2 08be
000003a0: ef9b 073e e2c6 1ebe 534e 42be 31b3 adbc
000003b0: d125 a43d ce4b a5bd 1cdf 1c3e e684 0a3e
000003c0: bd02 9c3d ecf1 cbbc cab0 1d3e 61f5 8ebe
000003d0: c9f3 27be d7cb e23d 311d 83be f277 0e3d
000003e0: 2648 7f3e 5c0e 543e 032b 99bd 47b3 be3e
000003f0: 2446 8ebc d86c c53d 2a6b 633e 8258 0b3e

conv2.nn.2.bias f4 [32]
-0.19701563 -0.29794344 -0.051543906 -0.3363765 -0.118279696 -0.1801689 0.12746118 -0.121102236
-0.1447278 -0.14562963 0.166551 0.11696168 -0.20523822 -0.27898884 -0.014300632 0.17665884
-0.118258566 0.08019119 0.09023594 -0.2360261 0.15958588 -0.19948713 -0.110562615 0.12318317
-0.11034701 -0.13788636 -0.08914156 -0.25351202 -0.040138345 -0.012519828 0.13817243 -0.08621681
00000000: 77be 49be 0b8c 98be b41f 53bd 8a39 acbe
00000010: a03c f2bd 327e 38be 2f85 023e 7304 f8bd
00000020: 8633 14be ef1f 15be 588c 2a3e 9b89 ef3d
00000030: f829 52be a0d7 8ebe 334d 6abc 0ee6 343e
00000040: 8c31 f2bd 473b a43d 9fcd b83d d3b0 71be
00000050: 7b6a 233e 5b46 4cbe a76e e2bd 7547 fc3d
00000060: 9dfd e1bd 1532 0dbe da8f b6bd 54cc 81be
00000070: 1b68 24bd f71f 4dbc 137d 0d3e 7092 b0bd

conv2.lin.weight f4 [32, 3]
-0.3264945 -0.5647536 0.5667871 -0.83055115 0.5340094 -0.45218655 0.34535834 -0.17309393
-0.14145015 -0.49747396 -0.22656147 -1.4606464 -1.523811 -0.5681998 -0.60971063 0.34396535
-0.5130927 -0.3916317 -0.20727864 0.9450775 -0.16076235 -1.6680187 0.026563965 0.38491252
0.42037907 1.448379 -0.047022916 -0.15839386 0.2200245 0.12072092 -0.41940263 -0.4620733
-0.14487278 0.3961989 -0.626635 -0.067871794 0.2786855 -0.5334319 -0.680914 -0.11657739
0.31855944 0.16837865 -0.79750854 0.530937 -0.11176394 0.1996463 -0.3988137 -0.014696723
0.19346543 -0.8363685 0.1258281 -0.03235671 -0.91835487 -0.106884696 0.28471273 -0.24723242
-0.5335487 -0.118895575 0.6206988 -0.4515218 0.44351512 0.47586158 -0.11530831 -0.46495628
0.70052004 1.0354285 -0.4810732 0.055441488 -0.893136 0.11675073 -0.3179525 -0.2089832
0.14013515 1.4457246 -0.37622428 -0.023582103 -0.07751918 0.4523853 -0.8433346 1.1336726
0.09281207 -0.15576164 0.4238613 0.2568596 0.16869372 0.6606465 0.33363417 0.059576865
-0.39261812 -0.5759359 -0.0413572 0.3374084 0.45005387 0.54975396 0.22998515 -0.17171648
00000000: 492a a7be b193 10bf f618 113f 009f 54bf
00000010: d7b4 083f ff84 e7be cfd2 b03e 893f 31be
00000020: 4fd8 10be e8b4 febe bbff 67be 76f6 babf
00000030: 3d0c c3bf 8b75 11bf ff15 1cbf 3a1c b03e
00000040: 0b5a 03bf f383 c8be da40 54be 99f0 713f
00000050: e39e 24be a381 d5bf ac9c d93c 4113 c53e
00000060: ed3b d73e 7c64 b93f 1a9b 40bd 0032 22be
00000070: 1a4e 613e 883c f73d f1bb d6be df94 ecbe
00000080: 8859 14be 95da ca3e 276b 20bf 5e00 8bbd
00000090: deaf 8e3e fe8e 08bf 6150 2ebf 20c0 eebd
000000a0: 391a a33e 746b 2c3e 8529 4cbf 7deb 073f
000000b0: 7ee4 e4bd 1470 4c3e 4f31 ccbe 86ca 70bc
000000c0: cd1b 463e 3f1c 56bf 15d9 003e 7888 04bd
000000d0: 4e19 6bbf 5de6 dabd dec5 913e 7f2a 7dbe
000000e0: a696 08bf 867f f3bd 1ee6 1e3f de2d e7be
000000f0: 6a14 e33e 21a4 f33e c326 ecbd c00e eebe
00000100: 4855 333f ec88 843f 3a4f f6be 9d16 633d
00000110: 90a4 64bf 021b ef3d acca a2be b1ff 55be
00000120: 977f 0f3e 810d b93f 78a0 c0be 412f c1bc
00000130: 60c2 9ebd 0c9f e73e c7e4 57bf 2f1c 913f
00000140: 4114 be3d fb7f 1fbe 5904 d93e 1a83 833e
00000150: 0cbe 2c3e 2120 293f 19d2 aa3e df06 743d
00000160: 3e05 c9be 8970 13bf 2b66 29bd cbc0 ac3e
00000170: 766d e63e adbc 0c3f 3a81 6b3e 72d6 2fbe

conv2.lin.bias f4 [32]
0.0041954457 0.19132422 0.11153423 -0.5791286 0.41387117 0.049759455 0.19282676 -0.40128842
-0.3616914 -0.1193737 0.38593063 -0.3710626 -0.15899652 0.00082219805 -0.06367101 -0.057697933
0.3077381 0.20249973 -0.3428404 -1.615278 -0.2582416 0.003823832 -1.166182 0.24181646
-0.47055566 0.31741127 -0.086640544 -0.070193194 -0.3430346 0.47279474 -0.019748453 0.022207335
00000000: f379 893b 7fea 433e 0f6c e43d c641 14bf
00000010: ece6 d33e 92d0 4b3d 6174 453e ad75 cdbe
00000020: 9d2f b9be 337a f4bd b398 c53e ebfb bdbe
00000030: fccf 22be c788 573a f265 82bd ab54 6cbd
00000040: d98f 9d3e 175c 4f3e c788 afbe 6ec1 cebf
00000050: 3e38 84be 4199 7a3b 7445 95bf bc9e 773e
00000060: acec f0be bb83 a23e 9970 b1bd 73c1 8fbd
00000070: 3ba2 afbe 2712 f23e 82c7 a1bc 28ec b53c

regressor.weight f4 [1, 32]
-0.0850772 -0.22604322 0.18326718 0.06593396 0.08567279 0.19343774 0.36450326 -0.04939863
-0.028496677 -0.27705336 0.16315076 0.1482857 0.1441011 0.11777588 -0.19568762 0.08924142
0.29794675 0.10325324 0.04925594 0.05106891 0.24910375 -0.27983883 -0.078425914 -0.07673907
0.11791241 0.00979782 -0.24142744 0.27983233 0.16912557 -0.27899534 -0.078765824 0.064906776
00000000: f43c aebd e077 67be 64aa 3b3e 6208 873d
00000010: 3775 af3d 8b14 463e 2ca0 ba3e 3856 4abd
00000020: dd71 e9bc f0d9 8dbe fe10 273e 35d8 173e
00000030: 3d8f 133e 7b34 f13d 5662 48be 35c4 b63d
00000040: 7a8c 983e 6f76 d33d 99c0 493d a22d 513d
00000050: 0e15 7f3e 0947 8fbe c49d a0bd 6029 9dbd
00000060: 107c f13d 0987 203c c138 77be 2f46 8f3e
00000070: 412f 2d3e 7ad8 8ebe fa4f a1bd d8ed 843d
