A3/MyTeam/A3/regression/custom.pth (torch, 19043 bytes, 13 tensors)

conv1.nn.0.weight f4 [32, 9]
00000000: 4387 80bd 2dd9 353e d36a aa3e 429f b6bc
00000010: 7f30 9c3c 7c17 a53e 4e21 abbe 07cc 583e
00000020: 1f17 91be 681e 1dbe 73fb 843e fdc1 963d
00000030: bb77 49be fe6f b2bc e460 423e 796d b93d
00000040: 8f16 5a3e 6f36 f6bd 57e7 6dbc 534c 2d3e
00000050: f2d5 16be 31ca c8bd 7171 fabc 7685 4dbd
00000060: d089 d73d 88e5 9bbe 16b8 e33e c03e b13c
00000070: 1e54 39be 7dbb 043e 9354 f93c 5004 9b3e
00000080: c9a5 56be d120 f2be 7c71 9fbe f2ff 883e
00000090: d156 203c d677 dc3d f6d4 53be b982 40bd
000000a0: 9c89 cebe 0004 9fbe 8f19 053f 4743 ccbd
000000b0: 88be 4e3e e242 debd 1933 33be 9edc 253e
000000c0: bf69 3fbe ecf3 3f3e b63d df3e 8c0f 623d
000000d0: 8f9e 613c e41c 24be 4559 de3d ac18 b23e
000000e0: 0bb4 8e3e 6c4e 87be 3e67 d7be 99a1 a23e
000000f0: fa0f ae3d 37b5 273e bc17 4abe 9390 83be
00000100: 76e5 6e3e 282d af3e 6b6f 6ebe 1c2f 803e
00000110: 5d96 80bd 245d bc3d 6fa6 98be 95c3 05be
00000120: 057c 103e 60c2 e8bd 9756 543e 73c8 2bbc
00000130: d327 11bf 29e7 393e 50cd 19be 6c93 9abe
00000140: 56ed e5be b525 263e e16d 17be 9f5d d4bd
00000150: e107 c13d 8eb1 9a3e 9f30 26be 0111 dbbe
00000160: 9bcf 023d 9391 95be 1b5c c4bd ef75 5f3e
00000170: 45fe 593e 5c52 a2be a835 a33d 5b6e ae3c
00000180: 5296 253e 4988 1fbd ca9a d1bd f5ae 1e3d
00000190: 74ca f73e 04f4 343d 9ef8 20be b8ee 91be
000001a0: 54bd 943e 7db8 0abc 6940 21bf 33f2 81be
000001b0: eb99 bc3d 8a16 65bd ebbf 82be 8275 ff3d
000001c0: 4762 0d3f 982d 9f3b a3fc cabe 14ce 36bf
000001d0: cd5e de3a 8bf9 eabd 49d5 29be 0b1b 86be
000001e0: e9fc 153e 859a 9abd 2b35 223e c093 c43e
000001f0: c961 3a3c 86da 83be ee94 c6bd f070 ca3d
00000200: 8226 4a3e 28f1 153d 4321 be3d f4ed a73e
00000210: 58e4 dcbe 75a8 82be 3434 9f3e 61f8 b03e
00000220: c501 5b3e 6590 abbe fe59 6ebd 71e2 a5be
00000230: 9454 d13d 4e4e fa3e 4759 babe 1ee4 af3e
00000240: e6af 55be 17e3 d5bc 5b98 cfbd 53c9 063e
00000250: 4bca f43e 2b63 bbbd 09f8 58be 733e c13d
00000260: b22f 90bd 7122 153d ec85 7a3d a1a6 c23c
00000270: d246 79be b486 b13e 46c2 35bd dc61 ffbc
00000280: 7865 89be fb9a a4be 47ab f03c 396e 8d3d
00000290: 55ba 8abc 3ea1 0f3d 72f0 8dbe 999c a1be
000002a0: 78b9 983e ed40 053e 4dde 7ebd 006a 6f3e
000002b0: b80e 06be 6b83 d0be 4994 683e 7361 97be
000002c0: b275 96be 51ff 893e 4459 72bd 5881 30be
000002d0: d654 173e 3cae cabd 35a6 503d ee92 74bd
000002e0: 1524 bc3d a66b d4be d178 4cbe 57f7 dcbe
000002f0: 17e8 1abe 1390 3a3d 6589 403d 8d72 ba3e
00000300: e64e 17be 1171 2ebf e5c9 233e 0f22 4fbe
00000310: ef5d 563d 7e00 963d e313 ff3d 5aca c9bc
00000320: 6a7a 3e3e 8b07 84bd a063 7d3d e9bd 4fbe
00000330: 34bf edbe 179d 8d3d 3a15 7bbe 695f 6fbd
00000340: 7040 833c f286 033e 9e02 b6bd 2317 123e
00000350: efbd 7ebd 9b62 9abe 5fce a2be 02df 9e3d
00000360: b648 5c3e b016 eebe 5f33 7cbe 40c9 3cbe
00000370: 9f9f cf3e 57b2 a8be 2da5 193f 7cd5 a9be
00000380: 9287 63be c0ae 88be 7fd6 613d a5d7 b63d
00000390: 649a 263e 869e f23d d919 c9bd 7921 21be
000003a0: 0c7c c6be 66e9 bb3d 1031 82be 1192 e0bc
000003b0: 3b92 b83e 9299 063e 1370 3cbe 1910 763e
000003c0: 73d0 053d 7b9d 15be 689d 51bc e3c6 1ebe
000003d0: a0c8 94be a659 c53e f41c 82be 78a3 133e
000003e0: e1d9 ccbd 8a68 e8bd cbc0 993e 5f44 cd3d
000003f0: 2e4e ccbd ef91 0b3c 0989 393e 3a09 66bd
-0.06275799 0.17758627 0.33284625 -0.022292737 0.019066093 0.3224448 -0.33423847 0.2117158
-0.28337952 -0.1534363 0.2597309 0.07361219 -0.1967458 -0.021781918 0.18982273 0.090540834
0.21297668 -0.12022101 -0.014520488 0.16923647 -0.14730051 -0.0980419 -0.030571671 -0.050176106
0.105243325 -0.30448556 0.44476384 0.021636367 -0.18098494 0.12962146 0.030435836 0.30276728
-0.2096168 -0.47290662 -0.3114127 0.2675777 0.009786324 0.107650444 -0.20686707 -0.046999667
-0.40339363 -0.3105774 0.51992124 -0.0997377 0.2018987 -0.10852601 -0.17499961 0.1619744
-0.18692683 0.18745393 0.4360177 0.055190608 0.0137707135 -0.16026646 0.108568706 0.34784448
0.27871737 -0.2642702 -0.42070955 0.31763914 0.08499141 0.16377722 -0.19735616 -0.2569624
0.2332972 0.3421414 -0.2328469 0.25035942 -0.062786795 0.09197453 -0.2981448 -0.1306289
0.1410981 -0.11365199 0.20736156 -0.010484803 -0.5670139 0.18154587 -0.15019727 -0.301906
-0.44907635 0.16225322 -0.14788009 -0.10369419 0.09425331 0.30213588 -0.16229485 -0.4278641
0.03193627 -0.29212627 -0.0958788 0.21822332 0.21288402 -0.3170346 0.079692185 0.021292856
0.16170624 -0.03894833 -0.10234602 0.03874107 0.48396647 0.044178024 -0.1571984 -0.2850244
0.29050696 -0.008466837 -0.6298891 -0.25380096 0.09209045 -0.055929698 -0.25537047 0.12473585
0.55228084 0.00485773 -0.39645872 -0.714082 0.0016965509 -0.11473378 -0.16585268 -0.26192507
0.14647259 -0.075490035 0.15840594 0.38393974 0.011375853 -0.25752658 -0.09696375 0.09884822
0.19741252 0.036606938 0.09283688 0.3279873 -0.43142962 -0.25519148 0.31094515 0.34564498
0.21387394 -0.33508602 -0.058191292 -0.32399324 0.1022121 0.48887867 -0.36396238 0.34353727
-0.20867881 -0.026109261 -0.101364814 0.13162737 0.47810587 -0.09149774 -0.21188368 0.09435739
-0.07040347 0.0364098 0.061162874 0.023761095 -0.24343422 0.34673083 -0.044374727 -0.031174593
-0.26835227 -0.3214949 0.029378546 0.06905789 -0.016934553 0.035065882 -0.27722508 -0.31564787
0.29829 0.13013048 -0.06222372 0.2338028 -0.13091552 -0.40725264 0.22712816 -0.29566535
-0.2938667 0.26952603 -0.05916716 -0.1723684 0.14778456 -0.09896514 0.050939757 -0.059710436
0.091865696 -0.4148838 -0.19967963 -0.43157455 -0.15127598 0.045547556 0.04700603 0.3641552
-0.14776191 -0.68141276 0.15994985 -0.20227836 0.052335676 0.073243126 0.12454965 -0.024632622
0.18601385 -0.06446751 0.061862588 -0.20287289 -0.4643494 0.06914728 -0.24519816 -0.0584406
0.016021937 0.12844446 -0.08887218 0.14266638 -0.062192854 -0.30153355 -0.31798074 0.07757379
0.21512112 -0.46501684 -0.24628972 -0.18436146 0.4055147 -0.32948563 0.60017663 -0.33170688
-0.22219685 -0.26695824 0.0551362 0.0892785 0.16269833 0.11846642 -0.09819383 -0.15735425
-0.38766515 0.091753766 -0.25428057 -0.0274134 0.36049065 0.1314452 -0.18402128 0.24029578
0.032669496 -0.14610855 -0.012793876 -0.15505557 -0.29059315 0.3854496 -0.25412714 0.14417827
-0.100024946 -0.11348064 0.30029902 0.100228064 -0.09975849 0.00851868 0.18118681 -0.056161143

conv1.nn.0.bias f4 [32]
00000000: 7a97 673e cdfc 74bd 836c a03e 6043 82bd
00000010: 74d8 7d3d f5ad 2d3e 7a63 28be 0737 ad3d
00000020: 5324 6bbe 6a55 823d 8794 36be 0285 48be
00000030: 6f69 db3b 946c d33e 057c babe 8fe8 45bb
00000040: 7382 013f ee49 c0bd 164f 49be c6c7 2dbe
00000050: f5b7 413e 1f49 53be 28f8 f1be b954 babd
00000060: 6186 d9bc cdc2 9ebd 3678 cdbe acc9 0abe
00000070: 652e 6bbe 66b1 483d 428d 06be 8ece fdbe
0.22616377 -0.059811402 0.31332788 -0.06360507 0.061974004 0.1696089 -0.16444197 0.08457761
-0.22963075 0.06363948 -0.17830096 -0.19581988 0.0066959183 0.41293776 -0.36422744 -0.003019843
0.50589675 -0.09389101 -0.19659075 -0.16970739 0.1891783 -0.20633362 -0.4725964 -0.09098191
-0.026553335 -0.07751999 -0.40130776 -0.13553494 -0.22966917 0.048997305 -0.13139823 -0.4957165

conv1.nn.2.weight f4 [32, 32]
00000000: 5aeb 043e a357 e93d 8a51 c7bc 8b3f b83c
00000010: ee0b 0abe 0afe bebd 19db 2a3e e367 453d
00000020: 5d24 f13d af2b 093e 1461 8cbc 69f3 0d3e
00000030: c01b 48be 16c4 d4bc d53f 7bbe c096 e2bc
00000040: 2cdb f1bd d0b2 dfbd 005c efbc 1747 413e
00000050: d599 ed3c 17e4 2e3d 0a25 ee3c 8339 b1bc
00000060: 0a15 943e 1347 b6bd 46d8 b9bc ea9c 493d
00000070: e14c c73d 14d5 f83d f303 c83d b4af 863c
00000080: 026a 04bf 4179 113b ac52 433e d7b6 00bd
00000090: aa64 d73e f1cc 5abd e00a 3e3d a009 8039
000000a0: 993b f93c b636 a83d 339a 86bd 6adb b43d
000000b0: c446 7f3d f68b 7f3e b83c 80be 2551 dd3d
000000c0: ff40 25bd 091b c93e a497 013d e22d 99bd
000000d0: d4b0 07be 739b efbd 6bb9 71be a5a4 13be
000000e0: 0093 d63e 8fc8 193e 7802 11bf a70a 313c
000000f0: 3032 18bd 9dee fabd b57d 8c3c 792a 65be
00000100: 0b34 8fbe a888 673e 4e6d 903e cc57 7bbd
00000110: 7e24 243e 36d2 943e c93c 6f3d 22df 073e
00000120: ce62 a4bd 438c f5bd a467 673e 7d6c b43e
00000130: a3d9 4e3e 7133 093e e9e1 95be cc01 6abe
00000140: 9eb7 543d a701 f43d 2f8f 893d abc4 303d
00000150: 75d8 70be 9cbe 11be c58c 5c3d 1f45 a7bc
00000160: ba85 04be f3f3 a3bd 0624 cabe ab96 0f3e
00000170: 3b07 813e 0bc7 0fbf c7ab 0f3e d343 85bc
00000180: e6c2 6dbc 138a 9bbd 5371 d0bc ca9a 16bd
00000190: bb86 ea3d 69ab 6a3d 34c3 763e 2a91 173d
000001a0: 3b1a 723e ac46 fabd ff5d cc3d 09ec 093e
000001b0: 149c a1bd 53bf c63c 1acc 133e 6672 03be
000001c0: 42b2 bdbd 9aef 01ba fad8 5c3e 3a27 f83c
000001d0: 96db 103d d1ba a13e 6102 d1bc dc42 1cbd
000001e0: fa2b 9fbd 2375 513d edb6 cb3d f6e8 b03c
000001f0: 85c8 5c3e 9b1c 4a3d c5a0 a8bc d2b5 c8bd
00000200: f51e 52be f2b7 6ebc 9441 603e 7b69 60bd
00000210: 1e87 ae3d 4c28 c7bb 7528 36be 6854 923e
00000220: 1df1 7abe 7a2d c93c ed53 86bc ab8e 273e
00000230: 84cb 073e b368 ac3d 0a60 bbbc 991c cdbd
00000240: 3317 c13c 696a 5bbd 0bbc fcbd b72c 20be
00000250: 3284 d5bd 713d 76be ec2b c3bd 859b c13d
00000260: 7224 80be e409 df3d 037a 30be 076b 033e
00000270: 13a9 973e 6b39 95bb 4c76 0e3e 82a4 23bd
00000280: 91bf b8bd 576b 8c3c b0f1 79be 78ed adbb
00000290: 6488 15bd b7f3 d2bd 4a77 9b3c c547 20be
000002a0: 968f 873e 44e7 2b3d 1220 d1bc 9516 1cbe
000002b0: a41b 0cbe 9f70 dcbd f497 73bd 34d2 30be
000002c0: 825b 973d fb84 05be ddc4 e03c ba63 8a3d
000002d0: 50be 3f3e 719f 8b3e 91a9 5a3e bde6 2ebd
000002e0: 9df2 ddbe 7b38 abbd 85f0 573d 7f12 cabd
000002f0: af73 4f3d 76bc 1ebd 5893 fbbb d166 7e3d
00000300: 37fa 9bbd 65b9 9e3c ae82 fe3b 5f9e dabd
00000310: 5fff 743c 1c07 3f3e 6bc6 1cbe e4fc 60b9
00000320: 50cb 98be 1f29 603d 83dc 8e3d ec73 c2bb
00000330: 59ae 9f3e 559f ce3d b76b c8be e02c 113a
00000340: f683 28be d595 21bd 3e30 bd3d 7503 3c3d
00000350: 3108 fb3d 5713 f3be 8434 03be b6e3 33ba
00000360: 7270 813e e204 e23c 2c88 adbd 84f8 0e3e
00000370: 3035 3ebe ced4 bebd 60f1 bfbc fefc 20be
00000380: 0ccd ea3d c5d1 4b3e bda9 2d3e a1dc 533e
00000390: 697f 2cbe 2b2e 4d3e ccb6 ad3c 7851 983c
000003a0: 4ba6 2b3e bfb7 253d 5029 4b3e c697 e03d
000003b0: 6bd0 bc3e de04 cbbd fe70 4c3e 6988 8ebe
000003c0: a01e 283e 627c a93d 5c9a 0ebe cbd0 97bd
000003d0: eb46 043e 4b54 2abe b2f7 393e 9c60 213e
000003e0: c35a 3dbf 4912 a23d 1407 653b a7f6 9d3d
000003f0: b182 11bd 3009 503e acfa cebd 427f 13be
0.12980404 0.113936685 -0.024330873 0.022491237 -0.13481113 -0.09325798 0.16685142 0.048194777
0.11774514 0.1339557 -0.017136134 0.13862385 -0.19541836 -0.025972407 -0.24536069 -0.027659774
-0.11809382 -0.10922778 -0.029218674 0.18874775 0.029004017 0.042697992 0.029070396 -0.021633869
0.28922302 -0.08900275 -0.022686135 0.04922191 0.0973146 0.121500164 0.09766378 0.016441204
-0.51724255 0.0022197517 0.19074506 -0.03142437 0.42068988 -0.053418104 0.04639709 0.00024421234
0.030423926 0.0821356 -0.0657238 0.088309124 0.062323347 0.24955735 -0.25046325 0.10806493
-0.04034519 0.3927844 0.031638756 -0.074794546 -0.13251048 -0.116995715 -0.23605888 -0.14418276
0.41909027 0.15017913 -0.5664439 0.010805762 -0.037157238 -0.12252543 0.017149786 -0.22379483
-0.27969393 0.22610724 0.28208393 -0.061363026 0.16029546 0.29066628 0.05840758 0.13268712
-0.08026658 -0.119896434 0.2259813 0.3523902 0.2020021 0.1339853 -0.29273918 -0.22852248
0.051932923 0.11914378 0.06716763 0.043156307 -0.23520072 -0.14232868 0.053845186 -0.020418702
-0.12941638 -0.08005514 -0.3948061 0.14022319 0.2520083 -0.5616309 0.14030372 -0.016267693
-0.014511799 -0.07594695 -0.025444662 -0.036768712 0.11451479 0.057292376 0.24097902 0.037003674
0.23642819 -0.12220511 0.09978866 0.13468947 -0.07891098 0.024261152 0.14433327 -0.12836608
-0.092625156 -0.0004956663 0.21567145 0.030292142 0.035365663 0.31587842 -0.02551383 -0.0381497
-0.0777206 0.0511371 0.09947 0.02159546 0.21560867 0.049343687 -0.020584473 -0.098003045
-0.20519622 -0.014570223 0.21900016 -0.054788094 0.08521865 -0.006077802 -0.1778887 0.28580022
-0.2450604 0.024557818 -0.01639744 0.16363017 0.13261229 0.08418407 -0.022872943 -0.1001522
0.023570633 -0.053568278 -0.12340554 -0.15642057 -0.10425605 -0.24046876 -0.09529862 0.09453491
-0.25027806 0.10890558 -0.17234044 0.12833796 0.2962118 -0.004553964 0.13912314 -0.03995181
-0.090209134 0.017141027 -0.24408603 -0.0053078495 -0.036507025 -0.10300391 0.01897778 -0.15652378
0.26476735 0.0419686 -0.025527988 -0.1524299 -0.13682419 -0.10763668 -0.059471086 -0.17267686
0.073905006 -0.1303901 0.027437622 0.067573026 0.18724942 0.27270082 0.21353747 -0.042700518
-0.43349162 -0.08360382 0.05271961 -0.09866809 0.050647434 -0.03875395 -0.007677477 0.062109772
-0.07616084 0.019375512 0.007767043 -0.10674738 0.014953463 0.18655056 -0.15310065 -0.00021456514
-0.29842615 0.054726716 0.06975653 -0.005934229 0.31187704 0.10088984 -0.3914468 0.0005537998
-0.16456589 -0.03944953 0.09237717 0.045901734 0.12257422 -0.47475693 -0.12813002 -0.00068622397
0.252811 0.027590219 -0.08473238 0.13961989 -0.18574977 -0.09317933 -0.023430526 -0.15721509
0.11464891 0.1990424 0.16959281 0.20689632 -0.16845478 0.20037143 0.021205328 0.018593535
0.16762654 0.040458437 0.19839978 0.109664485 0.3687776 -0.09913038 0.19964978 -0.27838448
0.16417933 0.08275677 -0.13926071 -0.07412871 0.12917678 -0.16633718 0.18160895 0.1575951
-0.73966616 0.07913644 0.0034946846 0.07713061 -0.035525028 0.20316005 -0.101064056 -0.14404014

conv1.nn.2.bias f4 [32]
00000000: b1ca 5b3d 0606 863d 73c8 8fbe d9d9 d0bd
00000010: e10b 73be 4a1e 8bbe f3dc 2dbe 8a21 dcbd
00000020: d0bc e1be ccbb 06be 254d f6bd 993a 14be
00000030: 2fd2 bc3d f401 0abd 22ef 6c3e a149 33be
00000040: 53ec 09bd 77fe 08bd 1aea ce3d a44e e8bc
00000050: 89d8 1bbe 6604 3fbd 9e72 9d3e 173e ce3d
00000060: e9c1 f03d de39 903e d1c9 243e db76 03be
00000070: 81d4 9ebd 0c20 70be 233c 22bd 3749 b5bd
0.0536601 0.06544118 -0.28082618 -0.10197801 -0.23735 -0.27171546 -0.16978817 -0.107485846
-0.44089365 -0.13157576 -0.12026433 -0.14475478 0.09219777 -0.03369327 0.23138097 -0.17508556
-0.033672642 -0.0334458 0.10103245 -0.028357811 -0.1521932 -0.046635054 0.30751508 0.100704364
0.117557354 0.2816915 0.16092612 -0.12838309 -0.07755376 -0.23449725 -0.039608132 -0.08851855

conv1.lin.weight f4 [9, 3]
00000000: 3d80 f9be ec55 fbbe 4cec 523e 1fd6 c0bf
00000010: fefe 9abe 6d1d 8fbc 855e 36be 147a 913e
00000020: fdda 073f 90d7 dd3c ec16 d63a 962c 2ebf
00000030: 530f a63e ec82 1d3f ecf7 e3bd 07cf bc3e
00000040: 7ae4 153f 4395 8fbc 8f0e c13e 6701 e5be
00000050: 154d dfbe 27f4 6cbe 7fd1 e4be 97c8 febe
00000060: 7aed bd3e bc4a 653f afde 743e
-0.4873065 -0.4908899 0.20597953 -1.5065345 -0.3027267 -0.017470086 -0.17809494 0.2841345
0.53068525 0.027080327 0.0016333736 -0.6803678 0.32433566 0.61527896 -0.11131272 0.368767
0.5855175 -0.017527228 0.3770642 -0.44727632 -0.43613496 -0.23140012 -0.44691083 -0.49762413
0.37095243 0.8956716 0.23913072

conv1.lin.bias f4 [9]
00000000: 53d3 33bf 2a0f 113f a4da 1f3f aed5 0bbf
00000010: a498 00bf 6edc c33e d7a1 12bf 88ea ad3e
00000020: d560 66be
-0.7024433 0.56663764 0.62442994 -0.54622924 -0.5023291 0.38254112 -0.572782 0.33967996
-0.22497876

conv2.nn.0.weight f4 [32, 32]
00000000: 4b56 58be df9d 0c3e 4f0c 333e 2c20 0a3d
00000010: 7d52 e9be 6e68 eebd 9b6c 97be 8657 e33d
00000020: b2b5 3b3d e2e0 70be a05c abbd a3f2 f33d
00000030: 27e7 debe 8de9 12be f825 34bf 82c6 bdbd
00000040: 1ccc d9be c524 473e 1445 c1be 3110 90be
00000050: b734 f3bc bc52 113e 570c f43d da65 afbd
00000060: 785a 123e 919b b1be 0e1e f6bd aae7 d13d
00000070: ee7b 613e 8577 e23a 0595 803e 557f a9be
00000080: aea2 7a3d d1bc 213e aeef 443b b96e 6ebe
00000090: 1c4e 283e 9e41 3d3e d0a4 29be 16a2 04ba
000000a0: cdc9 4a3e ad10 46be e420 1f3e eec5 45be
000000b0: a8ba 003d 6765 ea3d 904d 80be bee2 763e
000000c0: b54a ddbd 144b 6ebe 5088 dcbd ed21 133e
000000d0: 8169 1a3e 73a5 1f3e 0266 bebc 1c29 38be
000000e0: f827 c93e a576 9eba 4eca 423e 714c 7dbe
000000f0: d694 af3e 8d6c 9c3d 239b 5fbe 26c8 85bc
00000100: 9ed5 343e 1025 06be 3228 f2bd 97e8 d0bd
00000110: a874 113e ae89 05be 329f d63e 6b0e 97bd
00000120: 0ff5 993a 9c8c 563e 5978 893e ad05 ba3d
00000130: b201 d83e 3135 4e3d 1340 9d3d 366c 013e
00000140: 624c bd3d a053 8abd fb35 16be 4807 dcbc
00000150: c6f4 993d 4fca 8abc e851 42be c466 8bbd
00000160: a177 093e 7d1a 343c 506a f2bd 64d9 3a3d
00000170: f939 d5bc 49d1 ad3d 854d fc3d e660 7f3d
00000180: ae0a ffbc fefa bdbe d19f b73d 084a 4dbe
00000190: 5ed2 29be d72d e43b d49e fd3d b5c9 9d3c
000001a0: 1727 453e 8326 293e 7d91 be3c 18f6 733c
000001b0: b538 783e ba4f d0bd f891 bebd 1768 c43d
000001c0: d033 b1be 3a40 74be be6a 013e 96b3 e6be
000001d0: 2580 223e c0b5 813c f9f8 3abb 9568 5b3c
000001e0: 6f20 033e 7ef3 53bb 5c64 23bf 3e50 06bf
000001f0: b0df a53d fa7c 2d3d 4b6e 70be 1ea7 f0be
00000200: bd35 87bd 3659 5cbe 20d2 71be 7c53 163d
00000210: fdfe 613e a8e4 b3bd a67f 083c 7606 343d
00000220: 6ce4 3dbe fb12 94bd 4964 e7be cf6f fb3e
00000230: ffff 2b3d 65bf 183e 6cf8 9ebe 5081 85be
00000240: 41ae 853e 9474 533d 878b 7b3e 5981 babd
00000250: d160 9dbe a087 09be c668 403c 46d1 e33d
00000260: c58d dfbd 4cbd c03d 23f9 3f3f c411 19bd
00000270: 8ef5 1cbe e5a7 b8bd 7d2b 5dbe ba79 0e3d
00000280: 891c a8bd 0b13 60be 376b 243d a612 1dbe
00000290: 4406 643c abe5 b33a 15c5 80be 9030 07be
000002a0: a355 283e 4ed8 40be af9c c93d ee97 c4bd
000002b0: 66a9 cebe 42bc b03d d67b 17bf a838 8a3e
000002c0: f459 9cbd 9878 343e a934 393e f852 03bb
000002d0: ff5d 1d3e 7ada aaba 5b4d 053e bf9e 09be
000002e0: cedd 843e 5f0f a7bd 7cd5 f7be 4f98 d2be
000002f0: 68e1 103e 0f01 8dbd 202b a2be dcdf 9f3c
00000300: d100 25be 18ed 583e df86 763d e2d5 d43d
00000310: c398 05be f413 773d d54f bc3d 3353 eb3c
00000320: 1b9c adbd bdf1 32be 1f47 babd 7f9b 3ebe
00000330: b83b d33d 8921 e23d 43c7 76bc b0e9 173e
00000340: b1a7 273d 1daf cbbc 0e2b 033c 947b 0cbe
00000350: c14f be3d 15ee 1dbe ddde 8c3d e829 6dbc
00000360: a36a 303d 2d6d b53c faf4 a63d ba62 1dbe
00000370: bb0f 773d 8aa6 9cbd 0ec3 533e 30dd 1a3e
00000380: ea35 43bd 33f2 2cbd e453 0e3e e2e2 0cbe
00000390: 0b69 73bb 81bc 60bd 8f92 c3be e6b0 d83d
000003a0: e119 7a3d 3bfe 16be c1c8 b6bd f0a3 9c3d
000003b0: e68d afbe 3257 96bd 6234 02be 00b3 34be
000003c0: 1364 e4bd 3e41 99bd a51d 4b3e a86f 82bc
000003d0: c9d5 08be 404e 8c3c dca0 323e b616 27bd
000003e0: 087a a43e ae0b 41bf a833 0a3f b825 05be
000003f0: f6e4 81bb 9242 1dbe ba28 ecbe 2517 7bbd
-0.21126668 0.13732098 0.17485164 0.033722088 -0.45570746 -0.11641012 -0.29575047 0.11100678
0.045827575 -0.23523286 -0.08367276 0.11911514 -0.4353573 -0.14346905 -0.70370436 -0.09266378
-0.42538536 0.1944762 -0.37748015 -0.28137353 -0.029688222 0.14191717 0.11916416 -0.085643485
0.14292324 -0.34689 -0.12017451 0.102492645 0.22019932 0.0017278051 0.25113693 -0.3310496
0.0611903 0.15794684 0.0030050087 -0.23284425 0.16436046 0.18482062 -0.16566777 -0.0005059553
0.19803543 -0.19342299 0.1553989 -0.19313785 0.03142801 0.11445122 -0.25059175 0.24109933
-0.10805265 -0.23270828 -0.10768187 0.1436841 0.15079309 0.15590458 -0.023242 -0.17984432
0.39288306 -0.0012089802 0.19022486 -0.24736191 0.3429324 0.07637892 -0.21836524 -0.01633079
0.17659613 -0.13100076 -0.11824073 -0.10200613 0.14204657 -0.13040802 0.4191833 -0.07375797
0.0011746007 0.20952076 0.2684963 0.09083114 0.42188793 0.050343696 0.07678237 0.12638935
0.092430845 -0.067542315 -0.1466903 -0.02685894 0.0751739 -0.016942171 -0.18976557 -0.0680671
0.13424541 0.010992643 -0.11836684 0.045617476 -0.02602862 0.084871836 0.12319473 0.06234827
-0.031133022 -0.37105554 0.089660294 -0.20047772 -0.16584155 0.0069634723 0.1238381 0.01926122
0.19253193 0.16518597 0.023262734 0.014890216 0.24240382 -0.10171457 -0.09305185 0.09590166
-0.34609842 -0.23852625 0.12638375 -0.45058888 0.15869196 0.015833735 -0.0028529747 0.0133916335
0.12805341 -0.0032341178 -0.6382501 -0.5246619 0.08099306 0.042355515 -0.23479573 -0.470025
-0.06602047 -0.21518406 -0.23615313 0.03670071 0.22069927 -0.08783847 0.008331215 0.043951474
-0.18544167 -0.07230183 -0.451937 0.4910874 0.041992184 0.14916761 -0.31048906 -0.2607522
0.26109508 0.05162485 0.24564944 -0.09106702 -0.30737928 -0.13430643 0.01174373 0.111239
-0.10915712 0.094111055 0.7498953 -0.03737046 -0.15328047 -0.09016398 -0.2159862 0.034784056
-0.08208568 -0.21882264 0.04014131 -0.15339145 0.0139175095 0.0013725063 -0.25150362 -0.13202119
0.16438918 -0.18832514 0.09844338 -0.09599291 -0.40363616 0.08629657 -0.59173334 0.2699635
-0.07634345 0.17624128 0.18086495 -0.0020038467 0.15367888 -0.0013035082 0.1301779 -0.13439463
0.25950474 -0.08157229 -0.48405063 -0.41131827 0.14148486 -0.068849675 -0.31673527 0.019515924
-0.16113593 0.21184194 0.060187217 0.103923574 -0.13046555 0.060321763 0.09194914 0.028726196
-0.084770404 -0.17475028 -0.090955965 -0.18614005 0.10314125 0.110415526 -0.015062156 0.14835238
0.040931407 -0.024863774 0.0080058705 -0.13719016 0.092925556 -0.15422852 0.06878445 -0.014475323
0.043070447 0.022146786 0.08152194 -0.15369692 0.060317736 -0.07648952 0.20679876 0.15123439
-0.04765884 -0.042223167 0.13899189 -0.13758424 -0.0037141468 -0.05486727 -0.38197753 0.10580616
0.061059836 -0.14745419 -0.089250095 0.07648456 -0.34287947 -0.0734085 -0.12715295 -0.17646408
-0.111519 -0.07483147 0.19835527 -0.015922382 -0.13362803 0.017127156 0.17444175 -0.040793143
0.32124352 -0.75408447 0.5398507 -0.1300267 -0.003964062 -0.15357426 -0.46124822 -0.06130137

conv2.nn.0.bias f4 [32]
00000000: 7851 8bbe ca02 113c bd48 97be 826a 54be
00000010: f71e 493e 4df6 7fbe 8521 15be 6671 19be
00000020: 26c7 a43c 96ed d8bd e851 0a3e dca8 09bb
00000030: 66b7 633e 537b 6c3c d76e 11be 9d31 513d
00000040: 7e02 d7bd c789 8bbd 5dfe 943c 8646 c3be
00000050: 3cb2 473d 03ba b53c b4f3 0fbe bae0 803d
00000060: bb13 00be 97eb b43d c1e3 c1bd 4686 7a3e
00000070: 653e 5f3e f8c1 8dbe c035 873e 63a1 53bd
-0.27210593 0.008850763 -0.29547682 -0.20743755 0.19640718 -0.249963 -0.14563568 -0.14984664
0.020114493 -0.10592191 0.13507807 -0.002100519 0.2223793 0.0144337 -0.14202438 0.051072706
-0.10498522 -0.06813388 0.018187696 -0.38139743 0.048753962 0.022183424 -0.14057809 0.06292863
-0.12507527 0.08833998 -0.09467269 0.24465284 0.21801145 -0.2768705 0.26408195 -0.051667582

conv2.nn.2.weight f4 [32, 32]
00000000: e999 acbf b7a4 f53d 02bc 5abe 91a6 20bd
00000010: 6829 e7bd e49c 2b3f 86aa 24bc db9c 0f3e
00000020: 6c29 02bd eab1 7dbe c406 15bd 38f8 0c3e
00000030: a135 c6be d686 4dbe 0498 ec3c 821d b63d
00000040: 96f0 0dbe 5357 64bd 51ff 1c3e 65b6 b43e
00000050: ed1b 23be 2124 fbbc b2f2 84be 6adb 063e
00000060: e390 a1ba 5f02 3a3e 3802 863d b2a5 583d
00000070: f83e 42be 00e9 363e 5955 0abe d6fc 18be
00000080: 693a adbe 1338 21be a0ac 84be 7cf8 97bd
00000090: ad72 c33d 8f0b 23bd 06e0 6ebc 32f4 303e
000000a0: 3f3d 2ebe c607 8abd 958b 6bbe 20ab 00bf
000000b0: 11ef 9b3e f5fa 94bd aeee f03d ba18 57be
000000c0: 99a5 a23d c67b c4bc 66e0 0bbc 0eca 6abe
000000d0: d46d b6be 841e c63c 5af8 a83c e727 273e
000000e0: 6d08 b43d 14ef b1bd 05b9 5cbd ab08 5e3e
000000f0: 8243 eb3c f38e b5bd ea51 54be 3dc5 8d3e
00000100: 73a8 0dbe e07d 5f3e 0dff 463d bf69 edbd
00000110: 4d8e 15be 9566 2e3d 4aba 73bd 4650 193c
00000120: f821 17be 593d 293e e794 c43c 36bf 6ebd
00000130: d7e2 cebb f6fd 0c3e c996 58be 5090 6cbb
00000140: 256f c0bd d6e9 f8bd 30f7 1a3d 3429 223d
00000150: 5fe8 883d f087 df3d bb81 a4bc 930f d4be
00000160: 298a e33d e300 053e 6d61 943d dd96 5bbc
00000170: 4878 d63d c90e fd3c 32e3 1bbe 1b18 cabd
00000180: 3481 08be 29cc efbc 0b4b 323e 44af 4dbe
00000190: eafd 07be 874a 7c3d de50 6b3c 4fc5 c7bd
000001a0: d38b 123d 1551 cfbc dbb3 0cbe 8539 c0bd
000001b0: 9e98 0e3e 2840 aebe 8e8a 4c3e 6587 f13c
000001c0: 3eeb e63d f65a e43d 50a4 f93d 5f66 523e
000001d0: 1e44 17be c50c 5bbe 4b6b dfbc 41ff 94bd
000001e0: 6fbf 6d3e ccfc 0b3f 86b4 833c 7d01 103b
000001f0: de0b e5be 56f8 d03d 6e27 c6be cd1a 28be
00000200: 4b8a 423e e3dd b73d d55d ec3c c272 7dbd
00000210: 946e 48bd 7f16 803d d660 8c3d 5795 0cbd
00000220: df86 a43d 2b9f e8bd a01b 7f3d bea5 bcbb
00000230: dacb a1bd 107e 70bd 50c1 f0bc 0f6d 6dbc
00000240: 25df 08be c924 533d 63b3 873e 1f09 cbbb
00000250: 6811 96bd 932d d23b f640 8bbc 0380 46bd
00000260: 851c 9dbd bb95 ab3e a53b 22be c7af 5c3e
00000270: a09e 16bc 4727 a93c e06a 0dbd e118 af3d
00000280: 3b75 5e3e 114d c4be 68e3 ebbd c69f 1f3e
00000290: fd0a 1a3e 8054 823e d423 a03c 7b17 c8bd
000002a0: efbf e9bd 4efb 37be 427d 273e 33b0 bfbd
000002b0: 7c9e 9ebd ca09 c4bd ca68 3d3e 666c 693e
000002c0: 9de8 c5bd 3577 fabd aab6 36be d331 2bbe
000002d0: ccbe 673e 22cd 0b3e 218a 8ebd 6995 a53e
000002e0: 3497 81be dac5 f8bd 6b66 0dbe 1a3a 4ebe
000002f0: 3273 c2bd 2091 f83d 3e73 d33e a72b 02be
00000300: 1c51 75bc bdfa f6bd e1de 073d f48d debd
00000310: 607e 133e f4fa 593e 256a c73c 2708 453e
00000320: 20b7 b33d 5aeb 033e 9307 edbe dd40 aa3d
00000330: f6e6 883e 8af2 f83d 646f 483c 1f50 e33d
00000340: d778 78bc 06b7 6dbd eaf9 a2be 088b 0f3e
00000350: f41b 75bd 43e4 1e3b 54bb 19be 6551 0f3f
00000360: 8273 d2bd 1b52 e43d 1830 19bd be74 b9bd
00000370: c822 34bd bad5 723e 0471 423d 7870 153d
00000380: aef7 bb3d 1e55 0c3e e427 1d3e 3043 243f
00000390: 6dfd d4bd 6c7c 0d3e 7829 5abd 24b2 18bd
000003a0: f9b3 203d ca3a d2bd 6625 a4bc cab4 86bd
000003b0: d3fe 833e 2f65 a3bd b22a 023d 091f 3a3d
000003c0: ff65 023e 0214 56be 566a f0bc 37d1 1ebe
000003d0: f4a6 93be f998 09bf 81d9 afbd a853 63bc
000003e0: ecf5 7abe 2dec afbe 5502 34be 2129 f03d
000003f0: dd03 16bd 2e2f 77bd f48a 2bbd 44eb aabd
-1.348447 0.119943075 -0.21360782 -0.03922135 -0.112871945 0.6703627 -0.010050422 0.1402468
-0.031777784 -0.247749 -0.036383405 0.13766563 -0.3871279 -0.20070967 0.02888108 0.08892347
-0.13861308 -0.05574734 0.1533177 0.35295406 -0.15928622 -0.030656876 -0.25966412 0.13169637
-0.0012326505 0.18164967 0.06543392 0.052892394 -0.18969333 0.1786232 -0.1350912 -0.149402
-0.33833626 -0.15744047 -0.25912952 -0.074204415 0.09543357 -0.039805945 -0.014579779 0.17280653
-0.17015551 -0.06739764 -0.23002465 -0.50261116 0.3045583 -0.07274429 0.117642745 -0.21005526
0.079417415 -0.023984801 -0.0085373875 -0.2292864 -0.35630667 0.024184473 0.020626236 0.16323815
0.087906696 -0.08688179 -0.053887386 0.21682994 0.028718714 -0.08865156 -0.20734373 0.27689543
-0.1383379 0.21825361 0.04858308 -0.11592435 -0.14605065 0.0425783 -0.05950383 0.009357518
-0.14759052 0.16527309 0.023996783 -0.05828782 -0.0063136625 0.13768753 -0.2115127 -0.003609676
-0.09396199 -0.12153976 0.037833393 0.039590076 0.06684946 0.109146 -0.020081392 -0.41418132
0.11110336 0.1298862 0.07245145 -0.013402668 0.104721606 0.03089084 -0.15223387 -0.09867879
-0.13330537 -0.029272156 0.17411439 -0.2008639 -0.13280454 0.061594512 0.014362542 -0.097544305
0.035777878 -0.025307218 -0.13740484 -0.09385971 0.13925406 -0.34033322 0.1997473 0.029483506
0.11275338 0.11150162 0.12189543 0.20546864 -0.14772078 -0.2139159 -0.027272841 -0.07275248
0.23217557 0.5468261 0.016077291 0.0021973543 -0.44735616 0.10203616 -0.38701957 -0.16416474
0.18998067 0.089778684 0.028853336 -0.06187702 -0.04893358 0.06254291 0.068544075 -0.03432211
0.08033537 -0.11358484 0.062282205 -0.0057570627 -0.0790021 -0.058713973 -0.029389054 -0.014491334
-0.13366373 0.051548753 0.2650405 -0.0061961557 -0.07327539 0.0064141243 -0.01699875 -0.048461925
-0.07671455 0.33512673 -0.15843065 0.21551429 -0.009193093 0.020648612 -0.034525752 0.08549667
0.21724407 -0.38340047 -0.11517984 0.15588292 0.15043254 0.25455093 0.019548334 -0.097701035
-0.114135616 -0.17966959 0.16356376 -0.09359779 -0.07745072 -0.095721796 0.18497005 0.22795257
-0.09663508 -0.12229768 -0.17843118 -0.16718225 0.22631377 0.1365247 -0.0695994 0.32340553
-0.2531067 -0.12147112 -0.138086 -0.20139351 -0.09494628 0.121370554 0.4129886 -0.12711965
-0.014972951 -0.12059543 0.03317154 -0.10866919 0.14403677 0.21287137 0.024342606 0.19241391
0.08775163 0.12882748 -0.4629484 0.08313153 0.2673871 0.12155636 0.012233589 0.11099266
-0.015165529 -0.058035873 -0.31831294 0.1401788 -0.05984111 0.0024244941 -0.15012866 0.55983573
-0.102759376 0.11148473 -0.03739938 -0.0905547 -0.043978482 0.23714343 0.04747106 0.03648421
0.091781005 0.13704345 0.15347248 0.6416502 -0.103999 0.13816994 -0.053262204 -0.037279263
0.039234135 -0.102651194 -0.020037364 -0.065774515 0.25780353 -0.079782836 0.031779 0.045439754
0.12734221 -0.2090607 -0.02934758 -0.15509497 -0.28838313 -0.5374904 -0.085864075 -0.013874926
-0.24507874 -0.34359875 -0.17579015 0.11726595 -0.036624778 -0.06034773 -0.041880563 -0.083456546

conv2.nn.2.bias f4 [32]
00000000: c39f 13be 1f16 7a3e 751e a3bd 0e2c bfbd
00000010: f714 063d 7d7e fbbd da44 e8bd 0196 4cbe
00000020: 3dd6 71be e3f5 0e3e 96c8 ea3d f071 103e
00000030: 788f 45bd a0d9 a23d e8a8 553d c243 8dbd
00000040: 98d6 913d 181d 893d 9796 e6ba 8d4b 52be
00000050: f90a efbd 178f cebd f1c6 68bd 2e42 293e
00000060: a831 a13d d817 63bd 56ad 1abe 83a2 a8bd
00000070: 2927 e93d a265 54be dfe4 913d 078c 06be
-0.14416413 0.24422501 -0.079647936 -0.09334575 0.032734837 -0.12279985 -0.113412574 -0.19979097
-0.23616882 0.13960986 0.1146404 0.14105964 -0.048232526 0.07951665 0.052163035 -0.068976894
0.07121009 0.06695002 -0.0017592487 -0.20536633 -0.11672015 -0.10085886 -0.05683035 0.16529152
0.07870799 -0.05544266 -0.15105185 -0.08234122 0.11384422 -0.20741895 0.07123732 -0.13139354

conv2.lin.weight f4 [32, 3]
00000000: ada2 f9be 9431 263e 9570 15bf 25db febe
00000010: ec9a ee3e abfb c0be c81b a33d 90f0 2fbf
00000020: b1d3 df3e 8f3b 513e b133 3ebe 0b91 6ebe
00000030: 09d0 653e f996 a13f 91df b9be 98a6 e5be
00000040: edce d53e 318c 163e 577c 0fbf 5546 b7bd
00000050: 5857 c2be db07 ca3e 5cef a83e 5cd6 873d
00000060: eb63 673e a741 ecbe 51d2 af3e b576 f6be
00000070: 2c2a ce3f bbb9 c1bd d47d a6bf 0d07 2bbe
00000080: 74d9 d03e 0314 ad3e 36da c8be b3f1 11bf
00000090: 36c5 dfbe 5c83 4c3f 3885 d8be cc36 3b3e
000000a0: 5957 11bf 128f b3be 3575 05bf 59ec dbbd
000000b0: 30a6 12bf 0654 4bbf 39c2 d23d 7ec0 843e
000000c0: 624b d03e cecd 7b3a 5020 92be 0b21 f6bf
000000d0: ce7b cb3e 86e7 013f af31 b6bf a110 5f3e
000000e0: 834e e03d 929f 043f 5e67 8c3c bf54 16bd
000000f0: 2736 04bf 808b bf3e b00d 573d 6cd4 dbbd
00000100: f75b 923d 3a91 ce3e 59f0 8bbe 8a49 1b3e
00000110: 9749 3a3f ac59 2ebe 149b 6ebe bb1d 60be
00000120: fabc 82be 52ec 84bc f940 313f 60ce c63d
00000130: 51e4 c9be dd95 eebe 1459 e3be 0d72 c8be
00000140: 39f2 2ebf 596a 45bf 3ac6 b23f 6878 b13e
00000150: 557c 0fbf 13af 40be 9547 033f f48d 623e
00000160: 32e6 b4be 65b8 14bf e4ce 25bf 9e94 a4be
00000170: e02e a4be 9e5b da3e c0e6 0ebe 0749 aebe
-0.48756924 0.1622985 -0.5837491 -0.4977657 0.4660257 -0.37692007 0.07964283 -0.68726444
0.43716195 0.20432876 -0.18574406 -0.23297517 0.2244264 1.2624198 -0.3630338 -0.44853663
0.41759434 0.14701916 -0.560491 -0.08948962 -0.37957263 0.39459118 0.32995117 0.06632683
0.2259671 -0.4614384 0.34340146 -0.4813744 1.610662 -0.094592534 -1.300715 -0.16701908
0.40790904 0.3380433 -0.39228982 -0.5700943 -0.43705148 0.7988794 -0.42289138 0.18282622
-0.56773907 -0.3507009 -0.5213197 -0.10738439 -0.5728483 -0.79425085 0.10290951 0.2592811
0.40682513 0.00096055574 -0.28540277 -1.9228834 0.39742893 0.507439 -1.4233912 0.21783687
0.10952475 0.51805985 0.017139133 -0.036701914 -0.5164513 0.37411118 0.052503288 -0.10733876
0.07146447 0.40345174 -0.27331808 0.15164772 0.7276854 -0.17026395 -0.23301345 -0.21886341
-0.25534803 -0.016225968 0.69239765 0.09707332 -0.39432004 -0.46598712 -0.444039 -0.39149514
-0.6833835 -0.771154 1.3966744 0.34662175 -0.5604909 -0.18816786 0.512811 0.22124463
-0.35331875 -0.58093864 -0.64768815 -0.32144636 -0.32067013 0.42648023 -0.13955212 -0.3404009

conv2.lin.bias f4 [32]
00000000: 336e 81be 3fbb f9bf fc72 b63b de19 17bf
00000010: 0c0b b73b 5365 bcbe a86e bc3e c23e 2ebe
00000020: 9e79 b33e 434b eebc a3e2 273e 77a4 e3be
00000030: 47b1 d73e 0af8 4d3b 760c fe3e dc56 a33e
00000040: fad2 02be 6d0c 23be 94f6 73be e673 15bf
00000050: 5c8e 7d3e 17ca c13d d597 b3be 8552 8abe
00000060: c781 a33d f926 853d 761a fbbe e92e edbe
00000070: 28e6 603d ea62 db3d 73fb 983e 2281 5abe
-0.25279388 -1.9510268 0.0055679064 -0.59023845 0.0055860337 -0.36796054 0.36803174 -0.17016128
0.35053724 -0.029088622 0.16395049 -0.44461414 0.4212744 0.003142836 0.49618882 0.31902206
-0.12775794 -0.15922709 -0.23824531 -0.5837997 0.24761337 0.09462374 -0.35076776 -0.27016082
0.079837374 0.06501574 -0.49043626 -0.46324852 0.054906994 0.10712226 0.2987934 -0.21338323

regressor.weight f4 [1, 32]
00000000: 156c d63e e8ac a13e 029c 733e 0070 923e
00000010: c5fb 4bbc a54c 0dbf b8a2 cbbd 7d2f 19bf
00000020: 08c0 a2be 616d 8a3d 4f65 a8be 4825 8f3d
00000030: 234b 7bbc eb84 763e 894d 89be de09 603b
00000040: fbbb 383e edd3 f8be a8c9 d3be 919b e8be
00000050: 1b9b bdbe f5c5 a63e 150c 0e3f 912a 6f3e
00000060: 3935 3a3f be24 46bf 69da 4dbe 0f5f bbbe
00000070: 1248 09be 4144 16bf bba8 cdbe 940f 6e3e
0.41879335 0.3157723 0.23789981 0.28601074 -0.012450163 -0.55195075 -0.099431455 -0.59838086
-0.31787133 0.067591436 -0.32889792 0.06989533 -0.015337738 0.24074142 -0.26816967 0.0034185569
0.18040459 -0.48599187 -0.4136479 -0.45431188 -0.370324 0.32572904 0.55487186 0.23356082
0.7273746 -0.77399814 -0.20102848 -0.3659596 -0.13406399 -0.586979 -0.40167794 0.2324813
