A3/MyTeam/A3/regression/custom.pth (torch, 19043 bytes, 13 tensors)

conv1.nn.0.weight f4 [32, 9]
-0.262091 0.77227646 0.28922844 -0.26717708 0.60451084 0.10544932 0.14144938 0.472547
-0.099161685 -0.13564833 0.22695133 -0.28577575 0.066995606 -0.038160134 -0.4423906 0.5400835
-0.44815904 -0.17322667 -0.23558007 0.0050856983 0.004584766 0.2950737 -0.32041174 -0.17938933
-0.035158392 -0.52815574 0.7197446 0.32639483 0.23099221 0.07298976 -0.25934416 -0.32184675
-0.23520553 0.31112254 -0.9045551 -0.36317673 -0.12287825 -0.25283116 0.3549759 -0.20029417
-0.08465636 0.1323518 -0.13204065 0.23704036 0.24847429 0.15296288 -0.28173608 0.16760142
-0.28130072 0.4897894 0.35226712 0.0707925 -0.6416925 0.4370565 -0.01607363 0.1759438
0.1779089 -0.07461772 0.07213607 0.38284108 -0.1156878 0.61837626 -0.41233206 -0.082677215
0.09600337 0.21806674 0.05394237 0.02164784 -0.0021555955 -0.46577263 0.3454957 -0.010325016
-0.054022048 0.50478965 0.10569638 0.06818493 -0.11049942 -0.026993964 0.39208415 -0.41602176
0.29743388 0.084191926 0.09621947 0.14366546 -0.29138905 -0.021710454 -0.04818954 0.03560178
-0.44165248 -0.26276025 -0.13519172 -0.19064985 -0.029691339 0.18839051 0.40636474 0.2037347
0.10003987 -0.32300416 -0.76081854 0.37655056 -0.05534589 -0.19970249 0.10404845 -0.4082627
-0.16054165 -0.35972992 -0.13167813 -0.08365918 0.25871322 -0.7264616 -0.14848141 -0.3239202
-0.6531311 -1.092432 0.41225272 -0.42488158 -0.09903966 0.15315694 -0.36206594 0.093057245
-0.24495637 0.39418095 -0.66121095 -0.3975242 -0.9523944 -0.4600932 -0.19931926 -0.3276488
0.33526212 0.012589534 -0.08052603 0.88875777 -0.3433253 0.075669326 -0.0630611 -0.20492584
-0.15142787 -0.0075681936 -0.11266731 0.33094648 0.011382203 0.34323967 -0.062196787 0.278532
-0.36481962 -0.13824986 0.09162801 0.23059107 0.55947214 0.3092972 0.21878852 -0.026764018
-0.04478487 -0.20489673 -0.21277416 0.048338287 -0.21707423 0.43897566 -0.35625377 0.30042702
0.03014228 0.121221974 0.3440196 0.02181973 -0.5141962 -0.20480907 -0.12997155 0.28319147
0.2646201 0.10374445 0.20059149 -0.012265172 0.25008622 -0.06452619 -0.016949728 0.06078981
-0.09767087 -0.060906526 0.059062667 -0.100835055 -0.14314735 0.05734889 -0.038837958 0.037416194
0.23059975 0.3538062 -0.048750944 -0.060658623 0.0786948 0.10994417 -0.5885402 -0.34409985
-0.28552014 0.38181254 -0.12687625 0.20217304 -0.69688183 0.01917867 -0.26744574 -0.17491637
0.27096775 0.25674602 -0.5744514 -0.5446009 0.17070985 0.092633404 -0.123869136 0.16020674
-0.04429287 0.031322014 0.08751841 -0.2508727 -0.054235987 -0.37011138 0.26378512 -0.48305807
-0.28099066 -0.94231725 0.35376924 0.16968057 -0.0055088922 0.29939833 -0.31402633 0.7740316
0.1460313 -0.13222346 0.06949762 -0.20076358 0.1801518 -0.01680462 -0.16105874 0.10474657
-1.0251175 0.07212464 -0.28315654 0.35724786 0.42361313 -0.09998051 0.506005 0.10635756
-0.18992381 0.633169 0.08780688 -0.34924445 -0.3096517 0.35645896 0.22823472 -0.27637228
0.18242815 0.27765822 0.54990816 -0.24098063 -0.035549615 0.71111655 -0.18789859 -0.020584097
00000000: cb30 86be e9b3 453f c015 943e 6fcb 88be
00000010: 39c1 1a3f d0f5 d73d 1bd8 103e aef1 f13e
00000020: 4815 cbbd 65e7 0abe ee65 683e 3351 92be
00000030: fe34 893d cd4d 1cbd 0581 e2be ea42 0a3f
00000040: 1a75 e5be 5562 31be e73b 71be eea5 a63b
00000050: ce3b 963b e613 973e 020d a4be d6b1 37be
00000060: 3f02 10bd 3735 07bf 2f41 383f 391d a73e
00000070: 3989 6c3e a87b 953d c2c8 84be 19c9 a4be
00000080: b8d9 70be 744b 9f3e ec90 67bf 4df2 b9be
00000090: 98a7 fbbd 1673 81be 67bf b53e ea19 4dbe
000000a0: 5060 adbd 3b87 073e aa35 07be b5ba 723e
000000b0: 0b70 7e3e 4da2 1c3e b63f 90be b59f 2b3e
000000c0: a606 90be adc5 fa3e 5b5c b43e a9fb 903d
000000d0: f645 24bf dfc5 df3e d8ac 83bc 9d2a 343e
000000e0: c02d 363e 2dd1 98bd 13bc 933d bf03 c43e
000000f0: baed ecbd e84d 1e3f 301d d3be ac52 a9bd
00000100: 6a9d c43d e34c 5f3e adf2 5c3d d056 b13c
00000110: e444 0dbb c079 eebe d0e4 b03e 422a 29bc
00000120: 3946 5dbd e539 013f 5877 d83d 8aa4 8b3d
00000130: 854d e2bd 7222 ddbc 41bf c83e ce00 d5be
00000140: 4149 983e d16c ac3d b70e c53d 0a1d 133e
00000150: f230 95be 1fda b1bc 6562 45bd 2cd3 113d
00000160: 4620 e2be 8388 86be b36f 0abe b739 43be
00000170: 403b f3bc 71e9 403e 0a0f d03e d49f 503e
00000180: b4e1 cc3d cd60 a5be 01c5 42bf 3ccb c03e
00000190: 5fb2 62bd cf7e 4cbe 5b17 d53d cf07 d1be
000001a0: 0865 24be 852e b8be a2d6 06be 8155 abbd
000001b0: 0f76 843e 63f9 39bf 830b 18be ded8 a5be
000001c0: 9a33 27bf d0d4 8bbf ca12 d33e 148a d9be
000001d0: 4ed5 cabd 2cd5 1c3e b560 b9be cc94 be3d
000001e0: d8d5 7abe 16d2 c93e 1f45 29bf 4b88 cbbe
000001f0: 1fd0 73bf 5691 ebbe 591a 4cbe 95c1 a7be
00000200: 7aa7 ab3e 5544 4e3c d5ea a4bd a185 633f
00000210: 55c8 afbe 85f8 9a3d 2e26 81bd 14d8 51be
00000220: e80f 1bbe 9cfe f7bb 1ebe e6bd d171 a93e
00000230: 6b7c 3a3c 1cbd af3e 0fc2 7ebd bf9b 8e3e
00000240: a3c9 babe 5f91 0dbe 77a7 bb3d 1120 6c3e
00000250: 9139 0f3f 345c 9e3e 190a 603e 3740 dbbc
00000260: 5770 37bd 73d0 51be 78e1 59be 5efe 453d
00000270: b548 5ebe 6bc1 e03e e566 b6be 92d1 993e
00000280: f1ec f63c 3a43 f83d 5623 b03e 4abf b23c
00000290: 5da2 03bf 78b9 51be 4317 05be 79fe 903e
000002a0: 497c 873e f877 d43d db67 4d3e dcf3 48bc
000002b0: 4d0b 803e 4f26 84bd 28da 8abc bcfe 783d
000002c0: aa07 c8bd 1f79 79bd b2eb 713d 9c82 cebd
000002d0: 3895 12be abe6 6a3d 8d14 1fbd b941 193d
000002e0: 5722 6c3e 1626 b53e 12af 47bd 2d75 78bd
000002f0: bd2a a13d 692a e13d 92aa 16bf db2d b0be
00000300: b22f 92be ef7c c33e d9eb 01be 7306 4f3e
00000310: d966 32bf 961c 9d3c a6ee 88be 471d 33be
00000320: 49bc 8a3e 3774 833e 3f0f 13bf f76a 0bbf
00000330: 90ce 2e3e 95b6 bd3d 1aaf fdbd 3c0d 243e
00000340: 716c 35bd 834b 003d da3c b33d 6372 80be
00000350: 8e26 5ebd 3d7f bdbe d80e 873e 6353 f7be
00000360: 02de 8fbe b43b 71bf 3e21 b53e bec0 2d3e
00000370: f083 b4bb bd4a 993e 0fc8 a0be ef26 463f
00000380: 3b89 153e 9665 07be c554 8e3d f894 4dbe
00000390: b779 383e d8a9 89bc 95ec 24be 5f85 d63d
000003a0: 0d37 83bf 15b6 933d e5f9 90be 31e9 b63e
000003b0: d2e3 d83e 95c2 ccbd 8b89 013f fed1 d93d
000003c0: 637b 42be 5d17 223f 18d4 b33d 2bd0 b2be
000003d0: ab8a 9ebe ca81 b63e 5db6 693e ab80 8dbe
000003e0: 72ce 3a3e 3829 8e3e c8c6 0c3f a0c3 76be
000003f0: 799c 11bd bc0b 363f 7d68 40be fb9f a8bc

conv1.nn.0.bias f4 [32]
0.014073403 0.08411478 -0.23450372 -0.15126449 -0.094463654 -0.33898523 0.27339837 0.36782447
-0.15453763 -0.35428724 0.08388239 -0.4055467 0.039199904 0.2558908 0.3335468 -0.16196842
-0.0071311384 0.33358777 0.64770883 -0.023639606 0.18713899 -0.063302316 -0.2620893 -0.105346456
0.04869596 -0.015615528 0.3389674 -0.12225946 0.8883908 -0.39301765 0.09200587 0.49270386
00000000: 2194 663c 5f44 ac3d be21 70be 14e5 1abe
00000010: 2976 c1bd 798f adbe dffa 8b3e 7d53 bc3e
00000020: 1d3f 1ebe 2365 b5be 88ca ab3d d1a3 cfbe
00000030: 1490 203d 1e04 833e a5c6 aa3e 0ddb 25be
00000040: 53ac e9bb 04cc aa3e 3fd0 253f d9a7 c1bc
00000050: 5da1 3f3e a5a4 81bd 9230 86be e2bf d7bd
00000060: 6a75 473d 46d8 7fbc 238d ad3e 2b63 fabd
00000070: 946d 633f 9c39 c9be 936d bc3d ae43 fc3e

conv1.nn.2.weight f4 [32, 32]
-0.7825257 0.068886794 0.14960635 -0.17698118 0.3960822 -0.32225132 -0.20151079 0.1769352
-0.0069508096 -0.10801512 -0.6208346 -0.47832698 0.21306098 -0.18854083 0.050019536 0.2744565
-0.06481233 0.11827191 0.7387515 0.20221902 0.13258563 -0.2793686 0.16736017 -0.30492294
0.12232462 0.072408594 -0.1601544 0.10931507 0.29987067 0.17650828 0.3692496 0.94647485
0.5707774 -0.12236448 -0.32939222 -0.54009193 0.15022041 -0.053772904 0.17153728 0.07610677
-0.055438455 0.09436442 0.19236352 -0.5975721 -0.046883017 0.041092213 0.22216214 0.14258957
0.16314541 0.2176007 -0.32915127 -0.08940419 0.052230272 0.12431091 -0.24381486 -0.04425177
0.27885777 -0.207612 0.45273468 0.09789269 -0.54264885 -0.047005102 0.15883435 0.030974112
0.10791151 -0.084512874 -0.8351664 0.31883064 -0.26735064 -0.09327201 0.119505 -0.029119022
0.25011167 0.126183 0.21116291 -0.0045360196 0.15593018 -0.08872724 -0.20164165 -0.1834207
-0.11818077 -0.17792973 0.065626055 0.052216414 -0.047372036 0.033751145 0.034376178 0.21718132
-0.17476875 0.05252675 -0.009587617 0.04000546 0.1792965 0.035320174 -0.6149377 -0.5387164
0.45221555 0.48230273 -0.4978474 -0.23159921 0.2835729 -0.44900385 -0.2202431 -0.49785718
-0.47398412 0.23040086 -0.14364755 -0.3881587 0.18446127 -0.18644397 0.3356736 0.45153204
-0.06804639 0.4813829 0.19640733 0.33214453 0.3745492 0.40031883 0.062041443 -0.45069334
-0.3244711 0.1213485 -0.23009266 -0.16784212 -0.20037787 0.5548093 0.14329611 -0.8165498
0.6763754 0.25234154 -0.27878007 -0.15294273 0.0802955 -0.059967767 0.003929208 -0.13759269
0.038867928 0.392163 0.024411676 -0.38792777 0.30609086 -0.091544986 0.29773733 0.23767272
-0.034324884 0.34496558 -0.016653022 0.19510292 0.009082969 0.37637892 -0.39180556 -0.34752306
-0.37365985 0.2997635 0.15906064 -0.20458104 -1.3730496 -0.051387616 0.24702772 0.6659827
0.058983743 0.08926414 -0.5786801 -0.07094726 0.010576981 -0.07446129 -0.37977868 -0.37449712
-0.38681433 -0.28574896 -0.15566887 0.030499017 -0.07724717 -0.3576737 -0.11656055 0.16857038
-0.33119938 0.08801771 0.046751883 0.22282833 0.05115263 0.34337187 -0.5913309 -0.11210449
-0.49195063 0.39394197 -0.0712215 -0.38949108 -0.07013837 0.38535243 -0.5131734 -0.6617505
0.033546977 0.10515552 -1.1556188 -0.18984553 0.18432355 -0.4192815 -0.11509265 -0.2882227
-0.487646 0.2682819 -0.1992819 0.080644734 -0.036649946 -0.14198503 0.20805565 0.037331596
-0.5009378 0.20106271 0.049158726 0.46322525 0.15892865 0.19655633 -0.47423694 -0.015621859
-0.5062567 0.293028 -0.1323518 -0.5408206 0.10847715 0.21957202 -0.41966578 0.042747445
-0.45262185 -0.09188017 0.022408633 -0.1209187 0.01591456 0.049354397 0.08242813 0.25554585
-0.088828124 -0.11955021 -0.16483307 0.23583329 -0.47010186 0.10718623 0.46464685 -0.14336176
-0.0018055264 -0.22353129 0.10609923 -0.0014347543 0.03876631 -0.20671937 0.3575602 0.21745798
0.25798714 -0.2017299 -0.5377382 0.37046614 0.112309396 -0.13443002 0.1874102 -0.019155415
00000000: 9b53 48bf 8514 8d3d 6832 193e 8e3a 35be
00000010: 49cb ca3e 20fe a4be d858 4ebe 802e 353e
00000020: 9ec3 e3bb 0837 ddbd 04ef 1ebf 46e7 f4be
00000030: a82c 5a3e d910 41be 49e1 4c3d 9085 8c3e
00000040: 54bc 84bd 8b38 f23d d11e 3d3f 8112 4f3e
00000050: 87c4 073e 6709 8fbe 7760 2b3e dc1e 9cbe
00000060: 5585 fa3d f54a 943d 84ff 23be 94e0 df3d
00000070: a688 993e 96be 343e 490e bd3e 2d4c 723f
00000080: 781e 123f 3a9a fabd 19a6 a8be 7743 0abf
00000090: 61d3 193e fa40 5cbd 78a7 2f3e dedd 9b3d
000000a0: 6f13 63bd 2242 c13d f1fa 443e 7cfa 18bf
000000b0: 6808 40bd 4f50 283d 797e 633e 0003 123e
000000c0: 970f 273e b8d2 5e3e 8486 a8be 8b19 b7bd
000000d0: 69ef 553d b896 fe3d 9aaa 79be 5841 35bd
000000e0: 72c6 8e3e 3d98 54be d7cc e73e f67b c83d
000000f0: 09eb 0abf 6c88 40bd 79a5 223e 6cbd fd3c
00000100: b600 dd3d 1615 adbd 77cd 55bf c53d a33e
00000110: 2fe2 88be 6505 bfbd 0abf f43d 048b eebc
00000120: a30e 803e 1e36 013e 173b 583e e4a2 94bb
00000130: 29ac 1f3e a1b6 b5bd 267b 4ebe a3d2 3bbe
00000140: c208 f2bd 3633 36be f466 863d e1e0 553d
00000150: 2e09 42bd a43e 0a3d 09ce 0c3d c864 5e3e
00000160: 94f6 32be 4a26 573d 6115 1dbc c4dc 233d
00000170: 8099 373e e3ab 103d 8f6c 1dbf 51e9 09bf
00000180: cc88 e73e 62f0 f63e dbe5 febe 5828 6dbe
00000190: 7830 913e d5e3 e5be 6887 61be 23e7 febe
000001a0: 0cae f2be 34ee 6b3e 5818 13be bdbc c6be
000001b0: 6ae3 3c3e 2beb 3ebe 69dd ab3e 352f e73e
000001c0: e85b 8bbd d277 f63e 011f 493e d90e aa3e
000001d0: eac4 bf3e 97f6 cc3e 2b1f 7e3d 47c1 e6be
000001e0: 1321 a6be 9085 f83d 699d 6bbe cede 2bbe
000001f0: db2f 4dbe fb07 0e3f 37bc 123e 6809 51bf
00000200: f026 2d3f e932 813e 43bc 8ebe 059d 1cbe
00000210: f871 a43d c3a0 75bd 96c0 803b 19e5 0cbe
00000220: fa33 1f3d 97c9 c83e fffa c73c 789e c6be
00000230: f1b7 9c3e f07b bbbd 0771 983e 7a60 733e
00000240: 4098 0cbd 549f b03e eb6b 88bc 0fc9 473e
00000250: bcd0 143c bdb4 c03e bd9a c8be 8bee b1be
00000260: 5850 bfbe 9a7a 993e cbe0 223e b17d 51be
00000270: 17c0 afbf d27b 52bd d6f4 7c3e d87d 2a3f
00000280: f098 713d 1ed0 b63d 6124 14bf cc4c 91bd
00000290: 134b 2d3c 297f 98bd 5a72 c2be 16be bfbe
000002a0: 870c c6be b04d 92be a967 1fbe 13d9 f93c
000002b0: c433 9ebd 0221 b7be 4cb7 eebd b79d 2c3e
000002c0: f792 a9be a142 b43d e77e 3f3d 1c2d 643e
000002d0: 6c85 513d 70ce af3e 7661 17bf 0a97 e5bd
000002e0: f4e0 fbbe c3b2 c93e 94dc 91bd 606b c7be
000002f0: b5a4 8fbd ea4c c53e 555f 03bf 7b68 29bf
00000300: 8e68 093d c75b d73d 51eb 93bf de66 42be
00000310: 50bf 3c3e 11ac d6be b2b5 ebbd ed91 93be
00000320: bdac f9be 3f5c 893e 8e10 4cbe 1129 a53d
00000330: 411e 16bd 8664 11be 8a0c 553e 04e9 183d
00000340: 763d 00bf 62e3 4d3e a95a 493d dc2b ed3e
00000350: 31be 223e 1046 493e 2fcf f2be d3f2 7fbc
00000360: 0a9a 01bf c407 963e 3b87 07be 3873 0abf
00000370: 4529 de3d 7dd7 603e 6fde d6be f217 2f3d
00000380: 0dbe e7be ac2b bcbd 4f92 b73c 39a4 f7bd
00000390: 405f 823c d627 4a3d 14d0 a83d e8d6 823e
000003a0: 85eb b5bd bed6 f4bd 00ca 28be 487e 713e
000003b0: 31b1 f0be 7484 db3d 31e6 ed3e 6dcd 12be
000003c0: 6aa7 ecba 63e5 64be 8e4a d93d 5e0e bcba
000003d0: 6cc9 1e3d 3eae 53be 2112 b73e 4ead 5e3e
000003e0: e416 843e 4892 4ebe 36a9 09bf bdad bd3e
000003f0: 7802 e63d 06a8 09be 76e8 3f3e d1eb 9cbc

conv1.nn.2.bias f4 [32]
-0.031995837 -0.19186322 -0.0027073182 -0.3573884 0.12654397 -0.072162375 0.016231688 0.145494
-0.25904495 -0.2535714 -0.08338265 0.05981981 -0.117633805 -0.1690823 -0.15436526 -0.11861206
0.20005344 -0.21772508 0.31904256 -0.19639468 0.061109073 0.17994538 0.015420632 -0.20798413
-0.152082 0.00997011 -0.11234318 0.3923232 -0.20038249 0.15667418 -0.24884816 -0.29582408
00000000: 110e 03bd cb77 44be 436d 31bb 9dfb b6be
00000010: be94 013e dec9 93bd 51f8 843c 61fc 143e
00000020: 8aa1 84be 1cd4 81be 86c4 aabd 9e05 753d
00000030: fee9 f0bd e923 2dbe ed11 1ebe e1ea f2bd
00000040: cfda 4c3e 53f3 5ebe 8c59 a33e b01b 49be
00000050: 824d 7a3d 9a43 383e d2a6 7c3c cbf9 54be
00000060: 62bb 1bbe ac59 233c 2e14 e6bd 96de c83e
00000070: 1131 4dbe 326f 203e 0dd2 7ebe 4176 97be

conv1.lin.weight f4 [9, 3]
0.22973588 -0.15344003 0.079527184 0.14614962 -0.09366602 0.030293329 0.16233054 0.43415585
0.17863318 -0.81780434 -0.49170497 0.38073608 0.18866907 -0.1195088 0.61966187 0.32641718
1.1629639 -0.57853746 0.26043224 0.09854166 -0.3451828 -1.1888742 -0.034854505 0.05423712
0.1627541 0.44597352 -0.02727594
00000000: e23f 6b3e 621f 1dbe 26df a23d 3fa8 153e
00000010: f8d3 bfbd b729 f83c fa39 263e ad49 de3e
00000020: 9eeb 363e a05b 51bf c1c0 fbbe d7ef c23e
00000030: 7732 413e 08c1 f4bd 29a2 1e3f 2720 a73e
00000040: 00dc 943f 081b 14bf 6057 853e 36d0 c93d
00000050: cdbb b0be 082d 98bf 99c3 0ebd be27 5e3d
00000060: 03a9 263e a456 e43e cb71 dfbc

conv1.lin.bias f4 [9]
-0.3151729 -0.00033234595 -0.03373579 0.38521418 0.055423144 -0.008798787 -0.36214963 -0.038001988
-0.012410322
00000000: 585e a1be b83e aeb9 8a2e 0abd cb3a c53e
00000010: 6103 633d ca28 10bc ad6b b9be f9a7 1bbd
00000020: aa54 4bbc

conv2.nn.0.weight f4 [32, 32]
0.1713116 0.0015140997 -0.1805306 0.09483446 -0.03664286 -0.15824486 -0.04641648 -0.1277995
0.23833051 -0.07251961 -0.825061 0.10563277 0.35760945 -0.22000115 -0.258211 0.3060636
-0.20139803 0.04086957 0.20612893 0.2556646 -0.5505062 -0.046077117 0.04225245 0.06598428
0.110163584 -0.22233018 -0.16413808 -0.027242783 0.2828246 -0.1044769 0.019277364 0.010586303
0.33585468 -0.060012568 -0.23392043 -0.20645304 -0.16669492 -0.36426255 -0.25330573 -0.0042255744
-0.07271063 -0.30241084 0.368331 -0.095856525 0.075356126 0.05428802 0.17362618 0.09379314
0.36027116 -0.47276968 0.039396048 0.12787677 -0.33564734 -0.23201922 -0.0068978737 -0.253537
-0.15194163 -0.031165315 -0.1664592 -0.15028673 -0.4693509 -0.36430266 -0.24369396 -0.47036296
-0.57996625 0.0069940668 0.0420252 -0.2279464 0.03695408 0.20957518 0.27318868 -0.63135535
-0.204395 -0.2101339 0.590352 -0.10987657 -0.07447793 0.02052728 -0.088313326 0.11056254
0.20503798 -0.03103698 -0.4353017 -0.16635096 0.1583437 0.17999354 -0.1485814 -0.14209558
-0.41730615 0.15607943 -0.024708051 -0.14022894 -0.16594127 -0.08195327 -0.102607146 -0.13329975
0.7461426 -0.07065876 0.26193482 -0.13255234 -0.0219075 0.04637269 0.10197681 0.20684071
-0.14216547 -0.38111353 -0.45508805 0.08014538 -0.23066159 0.04556625 0.09401377 0.27152663
-0.26196805 0.07969061 0.3679133 0.050148092 0.06433974 0.115624376 -0.07611793 0.12560762
0.18960235 -0.14668374 0.07113005 -0.13757037 -0.01689178 -0.18391104 -0.92210037 0.11619413
-0.2617981 -0.006279188 -0.17223318 0.2715658 0.13067648 0.20724395 0.0869044 0.112456955
-0.13612384 -0.24310003 -0.514897 0.14154606 0.067143776 0.17693974 -0.11554506 -0.055176843
0.20286912 0.15224797 -0.3104836 -0.22936149 -0.128651 -0.433696 0.28598708 0.08075379
0.12685964 -0.09448332 0.16313517 -0.094877236 -0.17287536 0.40563154 -0.21661748 0.23842871
-0.33823517 -0.12747343 0.20946254 0.06401268 -0.1297994 0.12143491 -0.08714775 -0.13260122
-0.15321198 0.05359969 -0.10411675 -0.016675238 -0.065371245 -0.121312246 -0.08902226 -0.0062895003
-0.24144445 -0.003536254 -0.91021615 -0.15879753 -0.25331995 0.12739916 -0.06676047 0.13828133
0.08245543 -0.105511956 -0.14032394 0.1778317 -0.016667811 0.102727585 0.110960044 -0.07734446
-0.18012522 0.3151226 0.004884374 -0.10700051 -0.26432613 0.3068102 0.27138925 -0.10077847
0.11008955 -0.037590683 -0.46530148 -0.012822679 -0.47215003 0.33346203 -0.09548305 0.17739351
0.24836504 -0.20062649 0.16107169 -0.12554361 0.10362003 0.23217298 -0.115919575 0.0708287
-0.36714688 -0.41943052 -0.2857438 0.121045604 0.32483396 0.1538851 -0.6408967 0.11601964
0.263135 0.020628225 0.088508874 0.10268363 -0.28879046 -0.053155836 0.18595251 0.24895765
0.0379959 0.31202093 -0.6195636 0.057732582 -0.0064329756 0.09556596 -0.25312743 -0.22451797
-0.28952473 0.010477775 -0.1978895 0.16932224 0.17455444 -0.09140076 0.098184615 0.2786071
0.17801072 -0.23955715 -0.038750727 -0.047276866 0.20826766 -0.38955906 0.14669354 -0.082905084
00000000: 4f6c 2f3e c174 c63a 03dd 38be 9238 c23d
00000010: d316 16bd f10a 22be 351f 3ebd dfdd 02be
00000020: ea0c 743e 2985 94bd 3337 53bf fe55 d83d
00000030: 9618 b73e fb47 61be 3b34 84be 5eb4 9c3e
00000040: 493b 4ebe da66 273d 7613 533e 78e6 823e
00000050: f9ed 0cbf 5cbb 3cbd e810 2d3d c422 873d
00000060: 729d e13d 86aa 63be d013 28be 422c dfbc
00000070: 63ce 903e fcf7 d5bd 90eb 9d3c 2c72 2d3c
00000080: 25f5 ab3e bdcf 75bd d688 6fbe 6d68 53be
00000090: 13b2 2abe 9f80 babe 4ab1 81be b076 8abb
000000a0: 50e9 94bd 98d5 9abe e195 bc3e 6d50 c4bd
000000b0: 5054 9a3d 1d5d 5e3d 10cb 313e 9e16 c03d
000000c0: 7675 b83e de0e f2be c05d 213d 21f2 023e
000000d0: f8d9 abbe 7296 6dbe 8f07 e2bb 9acf 81be
000000e0: 9696 1bbe 674e ffbc 4874 2abe c4e4 19be
000000f0: c34e f0be e185 babe e98a 79be 6ad3 f0be
00000100: ab78 14bf 7c2e e53b 9e22 2c3d c86a 69be
00000110: 295d 173d e09a 563e 63df 8b3e 81a0 21bf
00000120: ec4c 51be 572d 57be 4f21 173f f806 e1bd
00000130: e387 98bd d428 a83c 9edd b4bd 9d6e e23d
00000140: 7af5 513e 4441 febc dddf debe e857 2abe
00000150: da24 223e 3a50 383e b925 18be 8181 11be
00000160: 27a9 d5be 49d3 1f3e 8a68 cabc 2d98 0fbe
00000170: 82ec 29be 1ed7 a7bd b223 d2bd bb7f 08be
00000180: 3403 3f3f 8ab5 90bd 521c 863e cdbb 07be
00000190: 5c77 b3bc 4af1 3d3d 38d9 d03d 0dce 533e
000001a0: d393 11be 5021 c3be 4d01 e9be 4323 a43d
000001b0: 8d32 6cbe ada3 3a3d 4b8a c03d 8a05 8b3e
000001c0: ad20 86be d534 a33d 225f bc3e 1668 4d3d
000001d0: 8ec4 833d 79cc ec3d b8e3 9bbd 499f 003e
000001e0: 1e27 423e 4334 16be a2ac 913d 3fdf 0cbe
000001f0: a160 8abc 2d53 3cbe c50e 6cbf 30f7 ed3d
00000200: 670a 86be a6c1 cdbb e55d 30be ac0a 8b3e
00000210: 0ed0 053e c237 543e effa b13d d54f e63d
00000220: 0c64 0bbe 37ef 78be 4ad0 03bf 73f1 103e
00000230: ad82 893d b12f 353e e3a2 ecbd 1d01 62bd
00000240: ecbc 4f3e e4e6 1b3e b5f7 9ebe bddd 6abe
00000250: 16bd 03be 670d debe e66c 923e 3e62 a53d
00000260: 7ee7 013e 7980 c1bd e80c 273e ff4e c2bd
00000270: 3d06 31be f0ae cf3e f9d0 5dbe a826 743e
00000280: 292d adbe 6588 02be 597d 563e 1419 833d
00000290: 22ea 04be deb2 f83d 857a b2bd 9dc8 07be
000002a0: 9ae3 1cbe 598b 5b3d 2a3b d5bd 829a 88bc
000002b0: 5ce1 85bd 8e72 f8bd 4d51 b6bd 2718 cebb
000002c0: 373d 77be 7fc0 67bb ed03 69bf d29b 22be
000002d0: 27b3 81be ed74 023e b7b9 88bd 9f99 0d3e
000002e0: 64de a83d a716 d8bd 14b1 0fbe 8319 363e
000002f0: ef8a 88bc d762 d23d 053f e33d c666 9ebd
00000300: bf72 38be c057 a13e 190d a03b 1523 dbbd
00000310: c155 87be 3a16 9d3e 88f3 8a3e f164 cebd
00000320: a176 e13d b0f8 19bd ff3b eebe 3716 52bc
00000330: a6bd f1be 89bb aa3e 9e8c c3bd a5a6 353e
00000340: 6853 7e3e 0871 4dbe faef 243e 818e 00be
00000350: bd36 d43d c1be 6d3e 3e67 edbd a30e 913d
00000360: adfa bbbe 99bf d6be 034d 92be c2e6 f73d
00000370: a350 a63e 0e94 1d3e ce11 24bf b49b ed3d
00000380: a1b9 863e 86fc a83c 2444 b53d cc4b d23d
00000390: 58dc 93be efb9 59bd 566a 3e3e c1ee 7e3e
000003a0: 97a1 1b3d 35c1 9f3e b89b 1ebf 0079 6c3d
000003b0: b6cb d2bb 16b8 c33d eb99 81be 0ae8 65be
000003c0: 963c 94be f9aa 2b3c 8ca3 4abe cf62 2d3e
000003d0: 66be 323e 5230 bbbd 0415 c93d 97a5 8e3e
000003e0: 7148 363e 784e 75be 15b9 1ebd 63a5 41bd
000003f0: 1e44 553e 4974 c7be d536 163e 24ca a9bd

conv2.nn.0.bias f4 [32]
-0.059890866 -0.60037565 0.14094608 -0.19708084 -0.5816585 0.07756604 0.06518211 0.3257778
-0.0037889879 -0.38030693 0.30313018 -0.28692392 -0.0068364455 -0.081459515 0.361019 0.13774145
-0.052374367 0.5998219 0.23045033 -0.06666979 0.3535557 0.02306515 -0.19169115 0.25750747
0.036652587 0.18301348 -0.11175487 -0.2975322 -0.4237817 -0.11469008 0.21136956 0.057769824
00000000: 2050 75bd 38b2 19bf 2b54 103e 8fcf 49be
00000010: 92e7 14bf f2da 9e3d 337e 853d 59cc a63e
00000020: ab50 78bb 97b7 c2be e133 9b3e b1e7 92be
00000030: 4304 e0bb 3fd4 a6bd 7bd7 b83e 180c 0d3e
00000040: 8186 56bd ee8d 193f 2cfb 6b3e 2c8a 88bd
00000050: 4105 b53e 20f3 bc3c af4a 44be 05d8 833e
00000060: 0621 163d e367 3b3e bddf e4bd 2456 98be
00000070: eaf9 d8be a2e2 eabd 4371 583e 0da0 6c3d

conv2.nn.2.weight f4 [32, 32]
0.29396608 0.2700111 -0.4715111 0.14233506 -0.2830587 0.0031418107 -0.31926718 0.16196878
0.4511782 -0.3214803 -0.86090964 -0.16087797 -0.0053938236 0.24449615 -0.21334276 0.07931604
-0.058188904 -0.22798821 0.032341644 -0.115490824 0.2952328 -0.27491504 -0.18867399 -0.051997125
0.29390323 0.2856064 -0.29631543 -0.05662832 -0.48460945 -0.17233795 0.1355751 -0.4231073
-0.113205075 0.25052792 -0.098498344 -0.12033023 0.15370601 -0.071793325 0.21241654 -0.10081738
-0.18840142 0.11070368 -0.3732343 0.055135366 -0.030245598 -0.40106645 0.0013620259 -0.041564435
-0.67263126 -0.32217857 0.10258582 0.10847594 -0.17769493 -0.083002985 0.012893948 0.039922155
-0.17231196 -0.02587327 0.08478619 -0.12588173 0.16730458 0.14275287 0.076131806 -0.19219247
-0.12664409 0.9065255 -1.2440971 -0.15247293 -0.07677431 -0.12016541 -0.1973193 -0.01115296
0.24636708 0.030353272 0.4054239 -0.36627588 0.09855696 -0.17693205 0.3689174 -0.08142302
0.0009686818 -0.6475703 0.2102525 0.2575252 0.026886882 -0.2507497 0.05041572 0.18997443
-0.42654374 0.30084532 -0.5124835 -0.25571796 0.043655984 0.23746635 0.46811676 -0.03848305
-0.12943563 0.93086684 -0.89240545 -0.05831871 0.20928204 0.04336093 -0.5633336 0.15988804
0.2738798 0.09951648 -0.12712543 -0.6625454 -0.3016829 -0.10595372 0.13215533 -0.3816421
-0.49610576 -0.57651347 0.30444372 0.08929916 -0.19849236 -0.73726946 0.15525234 0.25449023
-0.35075256 0.1350368 -0.23860326 -0.29684398 0.1264791 -0.21782792 0.4093772 0.098202884
-0.08626316 0.23413494 -0.075604394 -0.06436057 -0.0127263265 0.21130909 -0.08432909 -0.33938822
-0.5086771 0.13792942 -0.33739015 0.0074016433 0.16996695 0.16328965 0.13002852 -0.010790386
-0.24444361 -0.33711785 0.25025356 -0.16817471 -0.40854385 0.17910565 -0.07833152 0.049601384
-0.5690953 -0.6306501 0.025605092 -0.6810559 0.20309526 0.0030987523 -0.010562876 0.35700724
0.021864641 0.55510044 -0.031092092 -0.26447746 0.029025156 0.2618313 -0.3739804 -0.44205055
-0.026589599 0.14876793 0.24741185 -0.39537552 0.0409388 0.11466802 0.5443641 -0.663252
0.016055102 -0.4897563 0.27341178 -0.10909664 -0.09181704 -0.119096264 -0.1381742 0.02144672
0.27895778 0.46642968 -0.09933927 -0.22451739 0.10974111 0.033041574 0.5069954 -0.3420085
-0.006547516 0.22085011 0.6136612 -0.060821436 -0.36888164 6.845672e-06 0.61446273 -0.040733397
-0.021034088 0.070745066 -0.24923284 -0.16502799 -0.7743366 -0.32282263 0.32676193 -0.12989824
0.3614463 -0.0886952 -0.26406223 0.14251387 -0.16012925 -0.3113773 0.16966045 -0.27467382
0.08332136 0.17831044 0.04056406 -0.38100806 -0.3030603 0.062206976 0.3523594 -0.123371325
-0.24883585 -0.036192 0.012258287 -0.40282828 -0.048874795 0.008186419 -0.10705446 -0.00649352
-0.011577292 0.127764 -0.1316444 0.19405058 -0.24107338 -0.2593403 -0.14674589 0.09962877
-0.39926898 -0.4078512 0.12731455 0.18505824 -0.2089097 -0.16030206 -0.16355985 -0.16011098
0.06189707 -0.0990799 0.03559934 0.15009408 0.055424877 -0.0460072 0.09954505 -0.1904644
00000000: b982 963e e53e 8a3e e769 f1be 48c0 113e
00000010: 12ed 90be d6e6 4d3b fd76 a3be 25db 253e
00000020: d400 e73e 1199 a4be 9364 5cbf 32bd 24be
00000030: acbe b0bb 335d 7a3e 8676 5abe 7370 a23d
00000040: 7d57 6ebd be75 69be ac78 043d 7486 ecbd
00000050: c128 973e aac1 8cbe c133 41be f0fa 54bd
00000060: 7c7a 963e 013b 923e a8b6 97be 19f3 67bd
00000070: bb1e f8be 5c79 30be 33d4 0a3e 85a1 d8be
00000080: 10d8 e7bd 3245 803e 80b9 c9bd b26f f6bd
00000090: 1c65 1d3e 6108 93bd b983 593e 5879 cebd
000000a0: 4dec 40be 9cb8 e23d 9118 bfbe 9fd5 613d
000000b0: 9ec5 f7bc 9558 cdbe 0186 b23a 783f 2abd
000000c0: 9031 2cbf 97f4 a4be 8418 d23d a228 de3d
000000d0: a9f5 35be 78fd a9bd 2341 533c 6a85 233d
000000e0: 8c72 30be 2ef4 d3bc 62a4 ad3d 24e7 00be
000000f0: e451 2b3e cf2d 123e feea 9b3d 1ace 44be
00000100: fdae 01be 0e12 683f 933e 9fbf dd21 1cbe
00000110: d93b 9dbd 4819 f6bd 120e 4abe e8ba 36bc
00000120: a747 7c3e 6da7 f83c b993 cf3e 8388 bbbe
00000130: 3bd8 c93d ad2d 35be bee2 bc3e 1dc1 a6bd
00000140: 23ef 7d3a 2bc7 25bf 6e4c 573e 58da 833e
00000150: e141 dc3c 4462 80be b780 4e3d a888 423e
00000160: f163 dabe 6608 9a3e 1e32 03bf 77ed 82be
00000170: 9ed0 323d 612a 733e 00ad ef3e 67a0 1dbd
00000180: c68a 04be 4a4d 6e3f af74 64bf 9adf 6ebd
00000190: 084e 563e 3b9b 313d a136 10bf b1b9 233e
000001a0: f939 8c3e 4ccf cb3d 2b2d 02be 939c 29bf
000001b0: 2e76 9abe 44fe d8bd ba53 073e 9866 c3be
000001c0: 9301 febe 6396 13bf 0ce0 9b3e 7ae2 b63d
000001d0: 9541 4bbe b1bd 3cbf 78fa 1e3e 8b4c 823e
000001e0: d795 b3be 1647 0a3e 6a54 74be effb 97be
000001f0: bd83 013e 480e 5fbe e399 d13e 981e c93d
00000200: bdaa b0bd 12c1 6f3e 7ad6 9abd 79cf 83bd
00000210: 1582 50bc 6961 583e bbb4 acbd 4bc4 adbe
00000220: aa38 02bf 5f3d 0d3e 67be acbe 7c89 f23b
00000230: d10b 2e3e 6735 273e 3226 053e 29ca 30bc
00000240: 6d4f 7abe b69a acbe 3c21 803e fe35 2cbe
00000250: a92c d1be 7967 373e 476c a0bd d22a 4b3d
00000260: 3bb0 11bf 4972 21bf c5c1 d13c ae59 2ebf
00000270: 34f8 4f3e 7014 4b3b ea0f 2dbc a7c9 b63e
00000280: 7a1d b33c 101b 0e3f d8b4 febc 9769 87be
00000290: 2ac6 ed3c c10e 863e 5c7a bfbe 7354 e2be
000002a0: 6ed2 d9bc 9f56 183e 8859 7d3e a96e cabe
000002b0: 71af 273d 11d7 ea3d 725b 0b3f e2ca 29bf
000002c0: fd85 833c 56c1 fabe a1fc 8b3e 0f6e dfbd
000002d0: 930a bcbd bee8 f3bd 8a7d 0dbe 08b1 af3c
000002e0: 8ed3 8e3e dfcf ee3e 6372 cbbd e3e7 65be
000002f0: f2bf e03d 9a56 073d 73ca 013f bd1b afbe
00000300: 8c8c d6bb 8826 623e e718 1d3f e61f 79bd
00000310: 0ede bcbe e0b3 e536 6e4d 1d3f 10d8 26bd
00000320: ae4f acbc cae2 903d e536 7fbe 19fd 28be
00000330: ec3a 46bf 0249 a5be 574d a73e 0b04 05be
00000340: 7d0f b93e d4a5 b5bd 2a33 87be 28ef 113e
00000350: ecf8 23be d86c 9fbe 78bb 2d3e 0ca2 8cbe
00000360: 64a4 aa3d 0397 363e 8026 263d 7d13 c3be
00000370: b82a 9bbe becc 7e3d 7468 b43e 1baa fcbd
00000380: d3ce 7ebe 103e 14bd fbd6 483c 823f cebe
00000390: f030 48bd 5420 063c 5e3f dbbd 98c7 d4bb
000003a0: afae 3dbc 91d4 023e cacd 06be 32b5 463e
000003b0: f1db 76be 40c8 84be 8e44 16be 2b0a cc3d
000003c0: fc6c ccbe dfd1 d0be bf5e 023e e87f 3d3e
000003d0: 6dec 55be 3926 24be 3c7c 27be 22f4 23be
000003e0: c887 7d3d 67ea cabd 9dd0 113d 43b2 193e
000003f0: 3205 633d 0c72 3cbd 46de cb3d 1a09 43be

conv2.nn.2.bias f4 [32]
0.14107399 -0.004050281 -0.14763804 0.031902403 -0.29642218 0.057085104 -0.15544997 0.08270247
0.10473168 0.08680489 -0.20445082 0.03196103 -0.09462217 0.097479075 0.036471914 0.09006459
0.10509215 0.07801731 -0.300795 -0.096681036 0.15476985 0.122678936 0.11765893 -0.15232223
0.0899051 -0.09149324 -0.44995296 -0.12454833 -0.30723318 0.048188895 -0.059115876 -0.2652621
00000000: b375 103e 38b8 84bb 6d2e 17be 18ac 023d
00000010: a6c4 97be 12d2 693d 472e 1fbe ea5f a93d
00000020: 907d d63d c3c6 b13d 8e5b 51be 92e9 023d
00000030: 45c9 c1bd 1ca3 c73d 9363 153d c973 b83d
00000040: 8e3a d73d 8ac7 9f3d cd01 9abe b500 c6bd
00000050: fd7b 1e3e 183f fb3d 2af7 f03d 5cfa 1bbe
00000060: 2a20 b83d cf60 bbbd 3c60 e6be 3213 ffbd
00000070: ab4d 9dbe b861 453d 7d23 72bd 6fd0 87be

conv2.lin.weight f4 [32, 3]
-0.7788134 -0.32662174 0.155797 -0.04538181 -0.06553598 -0.10527202 -0.50095546 0.83898175
-1.2489619 0.40228176 -0.7557671 -0.28678066 0.19555476 1.5736798 -0.69945115 -0.47725105
-0.55656743 -0.5171711 -0.6701482 -0.30868393 -0.7175134 -2.3420405 -0.30539787 -0.75314635
-0.045052744 0.41426906 0.35301465 0.3603641 0.27216747 0.25879842 -0.8860608 1.3899231
0.7108768 -0.026363917 0.1077202 0.03568651 -0.0761633 -1.3714682 0.4050863 -0.29928324
1.0073264 -0.413327 -0.3715893 -0.26914066 0.46651036 0.02843073 -0.38276607 -0.070296995
-0.37219182 -0.68559307 0.13072938 0.46701214 0.47538528 -0.15438296 0.034822185 -0.011659433
-0.07663766 -0.055377416 -0.21878347 0.48061612 -0.0958302 0.04037104 -0.25812978 -0.36642367
0.053086724 0.31842154 -0.03357545 0.986637 -0.05292755 0.34862456 1.8975682 -0.24195862
-0.28266543 0.89737266 0.0076109725 0.4639794 -0.56642324 0.37098724 -0.09058607 -0.51029336
0.07889221 0.10617585 -0.108584896 0.0121909985 0.16599698 0.15263021 0.30358896 -0.49919823
0.5418024 -1.709597 0.5575318 1.2969844 -0.5132535 0.16641323 0.29477435 -0.4545852
00000000: 5160 47bf f73a a7be 4089 1f3e 47e2 39bd
00000010: ba37 86bd db98 d7bd 9e3e 00bf 82c7 563f
00000020: fcdd 9fbf e0f7 cd3e f479 41bf ead4 92be
00000030: 823f 483e 576e c93f 3b0f 33bf 405a f4be
00000040: 347b 0ebf 5365 04bf d58e 2bbf d20b 9ebe
00000050: f5ae 37bf fee3 15c0 1c5d 9cbe 33ce 40bf
00000060: 3a89 38bd 131b d43e 56be b43e a581 b83e
00000070: 8959 8b3e 3a81 843e e1d4 62bf 00e9 b13f
00000080: 06fc 353f 24f9 d7bc 699c dc3d 052c 123d
00000090: 81fb 9bbd 458c afbf 7967 cf3e a73b 99be
000000a0: 12f0 803f 999f d3be f440 bebe cecc 89be
000000b0: 72da ee3e 90e7 e83c eaf9 c3be dff7 8fbd
000000c0: ed8f bebe 0783 2fbf ecdd 053e 371c ef3e
000000d0: b365 f33e 9116 1ebe b5a1 0e3d 3507 3fbc
000000e0: 35f4 9cbd 6ed3 62bd c608 60be 5113 f63e
000000f0: a042 c4bd 1b5c 253d 9629 84be e29b bbbe
00000100: 7771 593d 2608 a33e 6986 09bd 3e94 7c3f
00000110: 8fca 58bd eb7e b23e 84e3 f23f 00c4 77be
00000120: 86b9 90be 37ba 653f 7765 f93b b58e ed3e
00000130: 1d01 11bf 0af2 bd3e 3185 b9bd 96a2 02bf
00000140: 3d92 a13d b972 d93d c261 debd c1bc 473c
00000150: 1dfb 293e 184b 1c3e 0370 9b3e e996 ffbe
00000160: 90b3 0a3f 13d4 dabf 67ba 0e3f 9603 a63f
00000170: 9564 03bf 3b68 2a3e aaec 963e 64bf e8be

conv2.lin.bias f4 [32]
-1.0193832 0.1838325 -0.9243773 0.34855884 0.09328955 0.45230886 0.6690057 0.090809956
-0.31802523 -0.14733164 0.125919 0.29838693 -0.017755102 0.41962883 0.133022 -0.4571733
0.1739498 -0.6532921 -0.9325198 -0.43080643 0.24367556 -0.39181197 0.2752197 0.31004083
-0.019304693 0.14063206 0.17694615 0.33965802 -0.4505098 0.503814 -0.041316584 0.46962038
00000000: 267b 82bf 963e 3c3e fea3 6cbf 4e76 b23e
00000010: 970e bf3d 0795 e73e f543 2b3f 92fa b93d
00000020: 34d4 a2be 1bde 16be e9f0 003e 2cc6 983e
00000030: 2673 91bc 97d9 d63e eb36 083e 9e12 eabe
00000040: e51f 323e 273e 27bf 9eb9 6ebf a992 dcbe
00000050: 1686 793e 949b c8be 99e9 8c3e acbd 9e3e
00000060: e024 9ebc da01 103e 5f31 353e a8e7 ad3e
00000070: 38a9 e6be f4f9 003f 943b 29bd 1572 f03e

regressor.weight f4 [1, 32]
-0.16983303 0.03599062 0.17314151 0.21089478 -0.25050253 0.18805991 -0.20617303 0.07598572
0.13605334 -0.30505392 -0.23297884 0.09903575 -0.118530735 0.08600567 -0.25458542 -0.18153681
0.15125176 0.08079607 0.09144173 0.10574846 0.2172416 0.30326748 0.26778582 0.13939908
-0.085771 -0.26516566 -0.26116613 -0.124862134 -0.112221524 0.06007546 0.16035496 0.20867316
00000000: b6e8 2dbe e66a 133d 024c 313e cdf4 573e
00000010: de41 80be c792 403e 061f 53be 679e 9b3d
00000020: 9151 0b3e 0730 9cbe 0192 6ebe 41d3 ca3d
00000030: 3ec0 f2bd be23 b03d 0559 82be c9e4 39be
00000040: bee1 1a3e 6978 a53d cd45 bb3d a692 d83d
00000050: 9574 5e3e e045 9b3e 391b 893e a2be 0e3e
00000060: b5a8 afbd cbc3 87be 91b7 85be b8b7 ffbd
00000070: 66d4 e5bd af11 763d 1734 243e 6bae 553e
