A3/regression/custom_drop.pth (torch, 355747 bytes, 19 tensors)

conv1.nn.0.weight f4 [32, 9]
0	0xbeae0a26	-0.33992118
1	0x3e556bd9	0.20841922
2	0x3ee9de36	0.45677346
3	0x3dc2bc79	0.095086046
4	0x3eb5f1fb	0.3553618
5	0x3e27c9fb	0.16385643
6	0xbe903544	-0.28165638
7	0x3f5aea33	0.8551361
8	0xbe27f591	-0.1640227
9	0xbeb14cd2	-0.34628922
10	0x3f26b7ad	0.65124017
11	0x3ed90304	0.42385113
12	0x3e030979	0.12796582
13	0x3c2122bb	0.009834941
14	0xbe7bd61b	-0.24593394
15	0x3e79af21	0.24383213
16	0x3f585d32	0.84517205
17	0xbefda9ea	-0.49543697
18	0x3ead63e8	0.33865285
19	0x3f7e46ea	0.99326956
20	0xbe1d88c9	-0.1538421
21	0xbe8aa3c2	-0.27078062
22	0x3dbfdc54	0.09368196
23	0x3d458873	0.04822583
24	0xbcf5d310	-0.030007869
25	0x3e7da9dc	0.24771827
26	0xbe5038ba	-0.2033414
27	0xbd4fcd8c	-0.050733134
28	0xbdb78cb7	-0.08962386
29	0xbcb0feac	-0.021605812
30	0x3d242934	0.040078357
31	0x3d8a66f9	0.06757922
32	0xbddc0f48	-0.10745102
33	0xbcad6eba	-0.021170963
34	0x3d1b75fb	0.03795431
35	0xb8f9bdf0	-0.00011908624
36	0x3dd46c7e	0.10372256
37	0xbf33638b	-0.70073766
38	0xbf151bcf	-0.5824556
39	0x3e5e12d2	0.21686867
40	0x3e882e02	0.265976
41	0xbe168740	-0.14700031
42	0xbe579f77	-0.21056925
43	0x3e889371	0.2667499
44	0x3e379e68	0.17931521
45	0xbe03df7e	-0.12878224
46	0xbde4b631	-0.11167563
47	0x3d9f67e8	0.077834904
48	0x3db253b2	0.0870737
49	0xbdbd0b2c	-0.092306465
50	0xbe5c01e2	-0.21485093
51	0xbddf50fd	-0.10904119
52	0xbe6d3937	-0.23166357
53	0x3cd98fb5	0.026557783
54	0x3e623e21	0.22094013
55	0xbdbdd3d6	-0.0926892
56	0xbe388e0e	-0.1802294
57	0x3d4a923a	0.04945586
58	0x3f393dde	0.72360027
59	0xbe922fba	-0.28552037
60	0xbf071a16	-0.5277418
61	0xbedf9aa2	-0.43672663
62	0xbe932bca	-0.28744346
63	0x3dd3411f	0.10315155
64	0x3d89f004	0.067352325
65	0xbed47960	-0.41498852
66	0x3e16400e	0.14672872
67	0x3eccbc9c	0.39987648
68	0xbf25ddaa	-0.6479136
69	0x3edd0c90	0.43173647
70	0xbe665d39	-0.22496499
71	0xbeed8ad2	-0.46394974
72	0x3dd28bc2	0.10280563
73	0x3e854615	0.2603003
74	0x3d3bd7e4	0.045860186
75	0xbd328903	-0.043587696
76	0x3eb67702	0.3563767
77	0xbef20ee5	-0.4727699
78	0xbf185af3	-0.5951378
79	0x3f46e1f6	0.7768854
80	0xbee16efd	-0.4402999
81	0x3e81075b	0.25200924
82	0x3e93975f	0.28826424
83	0xbebbb901	-0.36664584
84	0x3e3acaaa	0.18241373
85	0xbeb7f576	-0.3592946
86	0xbdcabed5	-0.098996796
87	0x3e38688c	0.18008631
88	0xbe0dff99	-0.13867034
89	0xbe1456cb	-0.14486234
90	0xbc200ed3	-0.009769159
91	0xbf3ddb3b	-0.74162644
92	0x3e4409ab	0.19144313
93	0x3d0f31a8	0.034959465
94	0xbec68865	-0.38775936
95	0x3d46a3aa	0.048495926
96	0xbe64bd61	-0.22337867
97	0x3da9e0c4	0.08294824
98	0x3e6f3b72	0.2336252
99	0xbee67e8b	-0.4501842
100	0xbe33483e	-0.17508027
101	0xbc74467c	-0.014909383
102	0x3ebba39b	0.3664826
103	0x3ea095b2	0.31364208
104	0x3ba2a7e1	0.0049638604
105	0x3e4efa8a	0.2021276
106	0xbd23205b	-0.03982578
107	0x3ecb83f6	0.39749116
108	0x3e7e2238	0.24817741
109	0xbe1bc191	-0.15210558
110	0x3e038960	0.12845373
111	0xbe75ff74	-0.24023229
112	0x3efb84df	0.4912481
113	0x3ea533c0	0.32266045
114	0xbf202356	-0.6255392
115	0xbda815f5	-0.08207313
116	0xbe62ba37	-0.22141348
117	0xbdb4d9c5	-0.08830599
118	0xbeb006fb	-0.34380326
119	0x3e679175	0.22614081
120	0x3e150850	0.14553952
121	0xbeed3c60	-0.46335125
122	0x3da58556	0.080820724
123	0x3e18b12f	0.1491134
124	0xbe870b84	-0.26375973
125	0xbdc7284c	-0.09724483
126	0x3d9b3795	0.07578961
127	0xbebb367e	-0.36565012
128	0xbe44db8a	-0.19224373
129	0x3de02bb5	0.109458365
130	0xbf5a948b	-0.8538291
131	0x3ec23c7a	0.37936765
132	0xbdbcf7e4	-0.09226969
133	0xbedc30d7	-0.43006012
134	0x3e5dc4bf	0.21657084
135	0xbe13a0ea	-0.14416853
136	0x3e607246	0.21918592
137	0xbd1d7a0e	-0.03844648
138	0xbc10a697	-0.008828781
139	0x3e054137	0.13013159
140	0xbe13323d	-0.14374633
141	0x3db9bc50	0.09069121
142	0x3d5f9234	0.05458279
143	0x3e0df8c8	0.13864434
144	0x3d07952e	0.033101253
145	0xbf886114	-1.0654626
146	0xbebcfbbc	-0.36910808
147	0x3e60c08a	0.21948448
148	0xbec6094c	-0.38678968
149	0x3eb9b196	0.362683
150	0xbd54f7e3	-0.051994216
151	0x3dbff20a	0.09372337
152	0x3ec0c153	0.37647495
153	0x3e3ff1c5	0.18744572
154	0xbd7e73e0	-0.062122226
155	0xbd810e7b	-0.0630159
156	0xbde9f2ef	-0.11423289
157	0x3d215a31	0.039392654
158	0xbea449f5	-0.32087675
159	0x3e174a09	0.14774336
160	0xbf2bec67	-0.67157596
161	0xbef57f7c	-0.47948825
162	0xbeb880f3	-0.3603588
163	0xbf191003	-0.59790057
164	0x3ebef7e5	0.37298504
165	0xbbb84fd7	-0.005624752
166	0xbe800171	-0.250011
167	0x3f1194c7	0.5686764
168	0x3e926e30	0.2859969
169	0x3ea90839	0.33014086
170	0x3dcfda2e	0.10149036
171	0xbec08274	-0.37599528
172	0xbd1f706c	-0.038925573
173	0x3e326e52	0.17424896
174	0x3ea5a2e0	0.32350826
175	0xbdb87873	-0.09007349
176	0xbe55f5db	-0.20894568
177	0x3e12f10d	0.14349766
178	0x3d1eee2f	0.03880137
179	0x3e2b9863	0.1675735
180	0x3d7faa64	0.062418357
181	0x3f84186a	1.031995
182	0xbeabdadf	-0.33565423
183	0x3c86f335	0.016473392
184	0xbeea6212	-0.45777947
185	0xbdb3204e	-0.08746396
186	0xbbbae89f	-0.005704
187	0x3ed1b1e3	0.4095603
188	0x3d82e818	0.063919246
189	0xbbbf61eb	-0.00584053
190	0x3e6c224b	0.23059957
191	0xbe84ff6f	-0.2597613
192	0x3eb61169	0.35560158
193	0xbecf22e4	-0.40456307
194	0x3ec6e549	0.38846806
195	0x3e70692f	0.23477624
196	0xbf1f44a8	-0.62214136
197	0xbe0ed679	-0.13949002
198	0x3cea703d	0.028617973
199	0xbeb8b559	-0.36075857
200	0xbd473c3d	-0.048641432
201	0xbe21583f	-0.1575632
202	0x3e7a93e9	0.24470486
203	0x3e6d7720	0.23189974
204	0x3d0fd2fd	0.035113323
205	0x3e5a14aa	0.21296945
206	0xbe1e282c	-0.15445012
207	0x3e6de350	0.23231244
208	0xbdc2f008	-0.095184386
209	0xbe83665d	-0.25664034
210	0xbe35fe08	-0.17772686
211	0xbe78f1dd	-0.24311014
212	0x3f060bc9	0.5236173
213	0xbe8ec210	-0.27882433
214	0x3e6f3dc8	0.23363411
215	0x3ee131b2	0.43983227
216	0xbdf8d8b3	-0.12150707
217	0x3f8ba55c	1.0909839
218	0xbd826352	-0.063666
219	0x3be51a51	0.0069916626
220	0x3e9dda93	0.3083082
221	0xbf67328f	-0.9031152
222	0xbd4414c7	-0.047871377
223	0xbf04920e	-0.5178536
224	0xbd918f7a	-0.07107444
225	0xbdeb4976	-0.11488621
226	0xbe23f849	-0.16012682
227	0x3e38610c	0.1800577
228	0xbe09d67c	-0.13460726
229	0x3dabca65	0.08388213
230	0x3eab46e9	0.33452538
231	0xbd7629f0	-0.06009859
232	0x3e58832d	0.2114379
233	0xbdace11c	-0.08441374
234	0xbddd9681	-0.10819722
235	0x3ea8b5da	0.32951242
236	0xbec273a5	-0.37978855
237	0x3dbb5636	0.09147303
238	0x3f2a09c5	0.6642116
239	0xbdb59435	-0.08866159
240	0x3e70473b	0.23464672
241	0x3f3b2ec9	0.73118263
242	0x3e990dce	0.29893345
243	0x3e25b4a0	0.16182184
244	0xbe11dd3b	-0.14244549
245	0x3de292f9	0.11063189
246	0xbec2da0b	-0.3805698
247	0x3e7e6c5b	0.24846022
248	0xbece1d8b	-0.40256914
249	0xbecae59b	-0.396283
250	0x3edb490e	0.42829174
251	0xbf01e3cf	-0.50738233
252	0x3d985c64	0.07439497
253	0x3ec820d7	0.39087555
254	0xbee98f22	-0.45617014
255	0x3d9889a0	0.07448125

conv1.nn.0.bias f4 [32]
0	0x3c62f12c	0.013851445
1	0xbe890d86	-0.2676813
2	0xbd7f7cfa	-0.062375046
3	0x3da7e9d1	0.08198894
4	0x3c1b20af	0.009468242
5	0x3e011b64	0.12608105
6	0xbee070c2	-0.43836027
7	0xbe884d9e	-0.26621717
8	0x3e94b778	0.29046226
9	0xbe8e4448	-0.2778647
10	0x3e0d64f9	0.1380805
11	0xbe3f0faa	-0.18658319
12	0xbead1b38	-0.3380983
13	0xbe4fce4b	-0.20293538
14	0x3e1753c7	0.14778052
15	0x3ddafd92	0.10692896
16	0x3da928d7	0.08259743
17	0xbec54ae6	-0.38533705
18	0x3ed809e8	0.42195058
19	0x3e6b6b9f	0.22990273
20	0xbf0d4c0c	-0.55194163
21	0xbe80541b	-0.25064167
22	0x3e513893	0.20431738
23	0xbe6226b3	-0.22085075
24	0x3e8733f0	0.26406813
25	0x3eafc93a	0.3433321
26	0x3ebd82fd	0.37014
27	0x3e5a1918	0.21298635
28	0xbe34f69c	-0.17672199
29	0xbe994779	-0.29937342
30	0xbdf2f473	-0.11863031
31	0xbe88af89	-0.26696423

conv1.nn.2.weight f4 [64, 32]
0	0xbf2ac275	-0.6670297
1	0xbe8250da	-0.2545231
2	0xbea929d9	-0.3303974
3	0x3e5844bf	0.21119975
4	0xbe4a4fa7	-0.19756947
5	0x3e26ef09	0.16302122
6	0xbe87b84b	-0.26507792
7	0xbe91f7e8	-0.2850945
8	0xbeae57fe	-0.34051508
9	0xbe281138	-0.16412818
10	0xbdbd5225	-0.092441835
11	0xbf033206	-0.51248205
12	0xbe87187d	-0.2638587
13	0xbee5986b	-0.44842848
14	0x3d036761	0.03208101
15	0x3dfe887d	0.12428377
16	0xbe3278a4	-0.17428833
17	0xbe11be8c	-0.14232844
18	0xbd77f1dc	-0.06053339
19	0xbe9e8a50	-0.309649
20	0xbeb3b6d4	-0.35100424
21	0x3b8a882f	0.00422766
22	0x3ef54682	0.47905356
23	0xbe6ee2c4	-0.23328692
24	0x3e57ece0	0.21086454
25	0x3ed57e88	0.41698098
26	0xbeb65533	-0.35611877
27	0x3ecd0367	0.40041658
28	0x3e5cf61d	0.2157826
29	0xbe7cb20f	-0.24677299
30	0xbf112816	-0.5670179
31	0xbe562ea8	-0.20916235
32	0xbef7bef3	-0.4838787
33	0xbebcd551	-0.36881498
34	0xbe9d2358	-0.30691028
35	0x3ed9546d	0.42447224
36	0x3e84efe3	0.2596427
37	0x3e3cde07	0.18444072
38	0x3e54f836	0.2079781
39	0xbec68abc	-0.3877772
40	0x3d9cbd02	0.07653238
41	0xbe9e3841	-0.30902293
42	0xbe3c790e	-0.18405554
43	0xbec7b6af	-0.39006564
44	0x3d3f33f8	0.04668042
45	0xbe5b3937	-0.21408544
46	0xbe622588	-0.2208463
47	0x3d53f300	0.051745415
48	0xbd191bd4	-0.037380055
49	0xbe930f1c	-0.28722465
50	0xbd62f921	-0.05541337
51	0xbe6e0157	-0.23242699
52	0x3df87b6a	0.12132914
53	0xbda21a5d	-0.07915185
54	0x3ed9c36d	0.4253191
55	0xbe3d9991	-0.18515612
56	0x3e87b6c5	0.2650663
57	0x3dceaf7d	0.100920655
58	0xbede65c8	-0.43437028
59	0x3ea37907	0.31928274
60	0x3db31d5f	0.087458365
61	0xbe6fb544	-0.23408991
62	0xbf0ff8a3	-0.56238765
63	0xbe845b34	-0.25850832
64	0x3e55f223	0.20893149
65	0xbec46195	-0.383557
66	0xbd3b79a4	-0.045770302
67	0xbc986a52	-0.018605385
68	0xbd5dd19d	-0.05415498
69	0x3dc44cec	0.09584984
70	0x3ea489b8	0.3213632
71	0xbc730258	-0.014832102
72	0xbe017fe2	-0.1264644
73	0xbeb03cf7	-0.34421512
74	0x3d834eb6	0.06411497
75	0x3e290544	0.16505915
76	0x3ea9ca77	0.3316228
77	0x3de99e7f	0.11407184
78	0xbecdde80	-0.40208817
79	0xbbbc73f0	-0.0057511255
80	0xbee09dc9	-0.4387038
81	0x3e5e2d49	0.21696962
82	0xbe3dedbb	-0.18547718
83	0x3da57ad1	0.08080066
84	0xbe26c681	-0.1628666
85	0xbe562ed3	-0.209163
86	0x3d4c3c4c	0.04986219
87	0xbef98578	-0.4873464
88	0xbf273d8f	-0.65328306
89	0x3d9eb9b5	0.077502646
90	0x3d739a62	0.059473403
91	0x3d0789db	0.033090454
92	0xbf00c5b7	-0.5030169
93	0xbf2ca28e	-0.6743554
94	0x3e8a11bb	0.26966652
95	0xbecec504	-0.40384686
96	0x3ec0b680	0.37639236
97	0xbd42988a	-0.047508754
98	0x3e891ccb	0.2677978
99	0x3cbe92f3	0.02326343
100	0xbe95dbd5	-0.2926928
101	0xbd873ef5	-0.06603805
102	0x3e2ca791	0.16860797
103	0x3c0a6dc4	0.008449022
104	0x3e96c556	0.2944743
105	0xbe1a8a02	-0.15091708
106	0xbe69e23a	-0.22840205
107	0xbdeeeb91	-0.116660245
108	0x3ef135d9	0.47111395
109	0xbea7fcc4	-0.32810032
110	0x3d0d57a0	0.034507394
111	0x3e5da664	0.21645504
112	0xbf01ca90	-0.5069971
113	0xbe350458	-0.17677438
114	0xbeba2658	-0.3635738
115	0xbeb02f56	-0.34411114
116	0x3e89c65d	0.26909152
117	0xbf9af4b2	-1.2105925
118	0x3eab0955	0.33405557
119	0xbb62af78	-0.003458945
120	0xbed2e644	-0.41191304
121	0x3d28f198	0.041246027
122	0x3e54819f	0.20752572
123	0x3ebfb7b4	0.37444842
124	0x3e6a5650	0.22884488
125	0xbbf01b65	-0.0073274844
126	0x3e1cf34d	0.15327187
127	0x3e33d5c2	0.17562011
128	0xbe7ed5b7	-0.24886213
129	0xbece5015	-0.40295473
130	0xbd06b68f	-0.032888945
131	0x3ef5d972	0.4801746
132	0xbe097d51	-0.1342671
133	0x3df7eb20	0.121053934
134	0xbeae9d65	-0.34104457
135	0xbf0efe66	-0.5585693
136	0xbe70507c	-0.23468202
137	0xbdbd578e	-0.09245215
138	0xbda63715	-0.08115975
139	0xbe1f3a45	-0.15549572
140	0xbeebbe79	-0.46043757
141	0xbf08600f	-0.53271574
142	0xbde202f3	-0.11035719
143	0x3eb0eb89	0.345547
144	0xbea88f63	-0.32921895
145	0xbee49351	-0.44643643
146	0xbea16207	-0.315201
147	0xbe80f473	-0.251865
148	0x3dccc3f1	0.0999831
149	0xbee5abde	-0.44857687
150	0x3e8fd79a	0.28094178
151	0x3de866d5	0.11347739
152	0xbcf5f19e	-0.030022439
153	0x3ef3dae1	0.4762793
154	0xbe7a61c0	-0.24451351
155	0x3e36b564	0.17842633
156	0x3e8afd76	0.271465
157	0x3e595b8c	0.21226329
158	0xbee4cc87	-0.44687292
159	0x3f3d7fe1	0.7402325
160	0x3e991c19	0.2990425
161	0x3ea0c69b	0.31401524
162	0xbe634e3f	-0.22197817
163	0x3cf4789b	0.029842665
164	0x3d135e03	0.03597833
165	0xbd07c09f	-0.033142682
166	0x3df557fd	0.11979673
167	0xbd313825	-0.043266434
168	0x3d5c79eb	0.053827208
169	0xbead938e	-0.33901638
170	0x3d204f56	0.03913816
171	0x3ed2a522	0.4114161
172	0xbd92325b	-0.07138511
173	0x3db04315	0.08606545
174	0xbdb72e3b	-0.08944365
175	0x3d7a4208	0.06109813
176	0x3c290c07	0.010317809
177	0x3e14fa03	0.14548497
178	0x3d3ff38d	0.046863127
179	0x3e6bb07f	0.23016547
180	0xbee43966	-0.44575042
181	0xbcf78375	-0.03021405
182	0xbd8fa5e2	-0.070140615
183	0xbcc78051	-0.024353178
184	0xbdc83e01	-0.09777451
185	0xbd5751ce	-0.05256825
186	0x3e5779ae	0.21042511
187	0xbe771dc2	-0.24132445
188	0xbe078334	-0.13233644
189	0xbd119862	-0.035545714
190	0x3d87610a	0.066103056
191	0xbcb640c0	-0.022247672
192	0xbee259ea	-0.44209224
193	0xbf707625	-0.93930274
194	0xbdf5445b	-0.119759284
195	0x3d989008	0.07449347
196	0x3e80739e	0.2508821
197	0xbcef2025	-0.029190132
198	0x3c8c3653	0.017115748
199	0x3e1076cf	0.14107822
200	0xbe169a6e	-0.14707348
201	0xbd09dce8	-0.03365794
202	0x3e33eff4	0.17572004
203	0xbe7fca26	-0.24979457
204	0xbd2c2e6e	-0.042036466
205	0xbe88fd55	-0.26755777
206	0x3d55c5f9	0.052190755
207	0x3ba15e84	0.004924597
208	0x3e524fb0	0.20538211
209	0xbe4436b8	-0.19161499
210	0xbf3fb785	-0.74889404
211	0xbe115cdb	-0.14195578
212	0xbda01d35	-0.07818071
213	0x3b4e51a2	0.0031481762
214	0x3d7d42fd	0.061831463
215	0x3e7a14a2	0.24421933
216	0x3ceb9faa	0.028762657
217	0x3d71b691	0.059012
218	0x3d849ba4	0.064749986
219	0xbecdfd25	-0.40232196
220	0xbdb33171	-0.087496646
221	0x3e103a8a	0.14084831
222	0x3e7df167	0.24799119
223	0xbef34910	-0.4751668
224	0xbe5058c0	-0.20346355
225	0xbf5a2288	-0.8520894
226	0x3e8c20e0	0.27368832
227	0xbd9956f3	-0.07487287
228	0xbe121d41	-0.14268972
229	0xbe29a51e	-0.16566893
230	0x3eb69818	0.35662913
231	0xbcfc813f	-0.030823348
232	0x3da95849	0.08268792
233	0x3c8a7c6c	0.016905032
234	0xbe14ce59	-0.1453184
235	0x3e0ec27c	0.13941377
236	0x3ec1eccd	0.37875977
237	0x3b50881c	0.0031819409
238	0xbdb5db58	-0.08879727
239	0xbe447922	-0.19186834
240	0xbe9ecc48	-0.3101523
241	0x3dd94251	0.10608352
242	0xbf262ffc	-0.6491697
243	0xbe445a59	-0.1917509
244	0xbdb84454	-0.089974076
245	0xbe1d17c7	-0.15341102
246	0x3d514e47	0.05110004
247	0xbd8d54b2	-0.0690092
248	0xbf1a385c	-0.6024225
249	0xbe60f7eb	-0.21969573
250	0x3d50cc46	0.05097606
251	0xbee38eec	-0.44444978
252	0x3dde6adc	0.108602256
253	0x3e36dc2a	0.17857423
254	0x3ebb6830	0.36602926
255	0xbe9f6241	-0.3112965

conv1.nn.2.bias f4 [64]
0	0xbf0129c7	-0.5045437
1	0xbe2ac2ec	-0.1667592
2	0xbe0c5ba6	-0.13706836
3	0xbe18dee0	-0.1492877
4	0xbec06213	-0.37574825
5	0xbe06aace	-0.13151094
6	0x3e05a33d	0.13050552
7	0xbe0a3292	-0.13495854
8	0xbe65e2d1	-0.22449805
9	0x3dca05cd	0.09864388
10	0x3e0ab0e1	0.13544036
11	0xbcd3231d	-0.02577358
12	0xbd377611	-0.04479033
13	0xbea6532b	-0.32485327
14	0xbcfec66c	-0.031100474
15	0xbcf4fa45	-0.029904494
16	0xbeaf9aac	-0.34297693
17	0xbb434079	-0.0029793067
18	0xbe61f006	-0.22064218
19	0xbb6e7f3a	-0.003639175
20	0xbe1cf02c	-0.15325993
21	0xbeccae9e	-0.39976972
22	0xbe474ff9	-0.19464101
23	0x3d6d360e	0.05791288
24	0xbe99e616	-0.30058354
25	0xbe27dbc5	-0.16392429
26	0xbe5fc230	-0.2185142
27	0xbd5c3320	-0.053759694
28	0xbe12ca92	-0.14335087
29	0xbe8182e3	-0.2529517
30	0xbe92581a	-0.2858284
31	0xbe75c340	-0.24000263
32	0xbee564cb	-0.4480346
33	0xbe4ef7f0	-0.20211768
34	0x3e10d976	0.14145455
35	0xbdef3151	-0.11679328
36	0x3dd5cc92	0.10439409
37	0x3d136191	0.03598172
38	0xbe97360f	-0.2953343
39	0xbed47ea6	-0.41502875
40	0xbe3678be	-0.17819497
41	0x3e1b4001	0.15161134
42	0x3e827baa	0.25484973
43	0xbe8d3ed4	-0.27586997
44	0xbcc85231	-0.024453254
45	0x3e357939	0.17722024
46	0x3e2b3a98	0.1672157
47	0xbed969e8	-0.42463613
48	0xbc719be7	-0.014746643
49	0x3e48c1a7	0.19605123
50	0xbe87e799	-0.26543882
51	0xbd94eb66	-0.07271461
52	0xbc75e0f0	-0.015007243
53	0xbccaebc4	-0.024770625
54	0xbefce7a1	-0.4939547
55	0xbe55ade6	-0.20867118
56	0xbe0e5bec	-0.13902253
57	0xbe5b84ff	-0.21437453
58	0xbd272775	-0.040809114
59	0xbef28c52	-0.4737268
60	0xbd84559f	-0.064616434
61	0xbf21394b	-0.6297805
62	0xbe097225	-0.13422449
63	0xbe4d31e9	-0.2003857

conv1.lin.weight f4 [9, 3]
0	0xbf321d88	-0.6957631
1	0xbf97a615	-1.1847559
2	0xbefa2e0b	-0.48863253
3	0xbd5cabd2	-0.053874798
4	0xbbab383d	-0.00522521
5	0xbd86953c	-0.06571433
6	0xbf2432a0	-0.6413975
7	0x3e71d54e	0.23616526
8	0x3ef6023d	0.48048583
9	0xbf1ca1fe	-0.6118468
10	0x3ee9f092	0.45691353
11	0xbe89fe23	-0.26951703
12	0xbbe315aa	-0.006930073
13	0xbd910ea4	-0.070828706
14	0x3ea997cd	0.33123627
15	0x3e66c7fb	0.22537224
16	0x3c5c3351	0.013439969
17	0x3edd0a1b	0.43171772
18	0xbf1bc691	-0.60849863
19	0x3f691eed	0.91062814
20	0xbebe9235	-0.37220922
21	0xbf9a2667	-1.204297
22	0xbee15a44	-0.4401418
23	0x3e8ea6cf	0.2786164
24	0x3e9894b5	0.29800954
25	0x3f7e5bed	0.9935902
26	0x3da157f1	0.078781016

conv1.lin.bias f4 [9]
0	0xbea97607	-0.3309786
1	0x3d45ab14	0.048258856
2	0x3def339a	0.11679764
3	0xbf6062ad	-0.8765057
4	0xbb4dfb5c	-0.003143034
5	0xbeea4ec3	-0.45763215
6	0x3e0b8d6a	0.13628164
7	0xbcaa035b	-0.020753553
8	0x3e6f8cf7	0.23393618

conv2.nn.0.weight f4 [128, 64]
0	0xbda87014	-0.08224502
1	0xbd8435aa	-0.06455548
2	0x3de006c0	0.109387875
3	0xbf0d17ff	-0.5511474
4	0xbd38fb6c	-0.04516165
5	0x3d1a3d46	0.03765609
6	0x3bbbf692	0.0057361806
7	0xbf3f1545	-0.7464183
8	0xbc8f4814	-0.017490424
9	0xbd73ffbd	-0.059570063
10	0xbeae4699	-0.34038237
11	0x3eaa7fb8	0.33300567
12	0xbe722187	-0.23645602
13	0x3b28ed85	0.0025776338
14	0xbeafeb07	-0.34359
15	0xbe68bef3	-0.22729091
16	0xbe9bb44e	-0.30411
17	0x3e5253d6	0.20539793
18	0xbd98f77c	-0.07469079
19	0xbdb4b796	-0.08824079
20	0xbf8a6f28	-1.0815172
21	0xbe209578	-0.15682018
22	0x3d0e552f	0.034749206
23	0xbf08854a	-0.5332838
24	0x3ee9f6a7	0.45695993
25	0xbaf070b5	-0.0018344136
26	0xbf16cd8a	-0.5890738
27	0x3d428f8b	0.047500174
28	0x3e880874	0.2656895
29	0xbe48876d	-0.19582911
30	0xbe1b8b12	-0.1518977
31	0x3ae0ee05	0.0017160779
32	0xbec07171	-0.3758655
33	0xbdc334fd	-0.09531591
34	0x3f0453e1	0.5169049
35	0x3e1ce6f0	0.1532247
36	0xbd8fabef	-0.070152156
37	0x3d4b9f6d	0.049712587
38	0x3e4250e9	0.18976177
39	0xbe4179b5	-0.18894084
40	0xbd1d9671	-0.03847355
41	0x3e3def45	0.18548305
42	0x3e37bbf8	0.17942798
43	0xbeb2cf22	-0.34923655
44	0xbe7c0459	-0.24611033
45	0x3e959f33	0.29223022
46	0xbdaef615	-0.0854303
47	0xbe6adc38	-0.2293557
48	0xbdab45a6	-0.08362894
49	0x3cf3e02d	0.029769981
50	0x3ea360be	0.31909746
51	0x3e291c62	0.16514733
52	0x3e804033	0.2504898
53	0x3d8cfd8f	0.068843
54	0x3ebd5f33	0.36986694
55	0xbd17cbe0	-0.037059665
56	0x3daef20d	0.08542261
57	0x3c4d1da5	0.012519275
58	0x3e3bb250	0.1832974
59	0xbeb24d6c	-0.34824693
60	0xbf1b1959	-0.6058555
61	0xbe19aef0	-0.1500814
62	0xbe4f8e46	-0.20269117
63	0x3eb07612	0.3446508
64	0xbeb723a8	-0.3576939
65	0xbdaebc3f	-0.08531999
66	0x3df280b9	0.11840958
67	0xbe90e4b0	-0.28299475
68	0x3d872d6a	0.06600459
69	0x3cf44ec7	0.02982272
70	0xbe6091f0	-0.2193067
71	0xbf051816	-0.5198988
72	0xbe477f26	-0.19482097
73	0xbd13efb8	-0.036117285
74	0xbebc09fc	-0.36726367
75	0xbe97084b	-0.29498515
76	0xbd94aa17	-0.072590046
77	0x3e68229b	0.22669451
78	0x3c72ac40	0.014811575
79	0xbd3febed	-0.046855856
80	0xbe4a4d82	-0.1975613
81	0xbe247e74	-0.16063863
82	0xbd45729c	-0.048205003
83	0xbf3efccf	-0.74604505
84	0x3eba129e	0.3634233
85	0xbe90d31b	-0.2828606
86	0xbf43f2ed	-0.7654255
87	0xbd046a48	-0.03232792
88	0x3e91339a	0.2835968
89	0xbe0c8b2c	-0.13724965
90	0x3e44d529	0.19221939
91	0xbf0a04b4	-0.53913426
92	0xbd0097cc	-0.031394765
93	0xbd27b413	-0.040943217
94	0xbe65fa1f	-0.22458695
95	0x3d930558	0.071787536
96	0xbed04671	-0.40678743
97	0xbe14b30d	-0.14521427
98	0x3e57951b	0.21052973
99	0xbd763d28	-0.060116917
100	0x3d94c2aa	0.07263692
101	0xbdc831de	-0.097751364
102	0x3c0eb7da	0.008710826
103	0xbe180803	-0.14846806
104	0x3d6574a5	0.056019444
105	0x3e45d930	0.19321132
106	0x3e3b083e	0.18264863
107	0xbe28dd70	-0.16490722
108	0xbe173451	-0.14766051
109	0x3b4cf950	0.0031276532
110	0x3eb66db3	0.3563057
111	0xbeb7c810	-0.35894823
112	0xbdd4e30b	-0.103948675
113	0x3df1de9b	0.11810037
114	0x3d7a2733	0.06107254
115	0x3e30e569	0.17275013
116	0xbe58fd51	-0.21190383
117	0xbeb526ab	-0.35381064
118	0x3d5b9f89	0.05361894
119	0xbe200da4	-0.15630203
120	0x3f39a784	0.72521234
121	0x3e3417e3	0.17587237
122	0xbde432ac	-0.111424774
123	0xbeecac91	-0.46225408
124	0x3c93aad5	0.018025795
125	0xbcabe3dd	-0.020982677
126	0x3e3ce130	0.18445277
127	0x3ea13c57	0.31491348
128	0x3d8a5860	0.067551374
129	0xbd7e620f	-0.062105235
130	0xbdc4eae0	-0.09615111
131	0x3e724f0d	0.23662968
132	0x3e42ffc3	0.19042878
133	0xbeae051c	-0.33988273
134	0xbdb3f8e1	-0.08787704
135	0xbe146a1d	-0.14493604
136	0xbe91f53d	-0.28507414
137	0xbd54cc1b	-0.051952463
138	0xbf429781	-0.76012427
139	0xbe20383c	-0.15646452
140	0x3e06d316	0.1316646
141	0x3e92119f	0.2852907
142	0xbd42b43b	-0.047535162
143	0xbd217f6e	-0.039428167
144	0xbe09e580	-0.13466454
145	0x3e1c9028	0.15289366
146	0x3d8b36c7	0.06797557
147	0xbe0b5144	-0.13605219
148	0x3e5aa657	0.21352516
149	0x3ea07aa5	0.3134357
150	0xbf0acf17	-0.54222244
151	0xbdec1b56	-0.115286514
152	0x3e86ae1f	0.2630472
153	0xbcc085a5	-0.023501227
154	0x3e9d339e	0.30703443
155	0xbe0e185a	-0.13876477
156	0x3ec32237	0.3811204
157	0x3e82c7d6	0.25543088
158	0x3e5e5aa4	0.21714264
159	0xbe37c1fe	-0.17945096
160	0xbe1523ca	-0.14564434
161	0xbe2e42b4	-0.17017633
162	0x3dc475e1	0.09592796
163	0xbe8b6633	-0.2722641
164	0x3dc4df23	0.096128725
165	0x3c4439c8	0.011976667
166	0x3e0c07e9	0.13674892
167	0x3e134998	0.14383543
168	0x3c71a804	0.014749531
169	0x3df9daa0	0.121999025
170	0x3e0fe812	0.14053372
171	0x3ec10c77	0.37704822
172	0x3b60685e	0.0034241895
173	0x3e2c3671	0.16817643
174	0x3ec05956	0.37568158
175	0x3e7d9a1f	0.24765824
176	0xbebaa74d	-0.36455765
177	0xbed1667f	-0.4089851
178	0x3e119fde	0.1422114
179	0xbbed65ab	-0.007244786
180	0xbe840e4c	-0.25792158
181	0xbdef9463	-0.116982244
182	0x3d3cf683	0.04613353
183	0x3e15fe4c	0.14647788
184	0x3e5d0061	0.21582176
185	0x3cb56a31	0.022145363
186	0x3e240201	0.1601639
187	0xbe7f1fa5	-0.24914415
188	0x3e8e5b93	0.2780424
189	0x3cc6264e	0.024188187
190	0xbc283e73	-0.010268795
191	0x3bff6320	0.007793799
192	0x3e9064e1	0.28201964
193	0x3d891f3a	0.06695409
194	0xbe811fed	-0.2521967
195	0x3e5168ce	0.20450136
196	0x3db98ae9	0.09059698
197	0xbf1b8cfd	-0.60762006
198	0x3e44e8d1	0.19229437
199	0x3e06f9f5	0.13181289
200	0x3d609674	0.054830983
201	0xbedc738a	-0.430569
202	0x3e6b38cc	0.22970885
203	0xbe902cea	-0.28159267
204	0x3c968812	0.01837543
205	0x3e9e83fb	0.30960068
206	0xbf16a45c	-0.5884454
207	0x3e297caf	0.1655147
208	0x3e45c567	0.19313584
209	0xbf05be69	-0.5224367
210	0x3ebb1d90	0.36545992
211	0xbc906a0a	-0.017628688
212	0xbd591b96	-0.053004824
213	0x3e49d13e	0.19708726
214	0x3d8b2b3b	0.06795355
215	0xbea25f8f	-0.3171353
216	0xbf0d1485	-0.55109435
217	0xbe8bca5a	-0.2730282
218	0x3e467ee1	0.19384338
219	0x3d4c5a6f	0.04989093
220	0x3e888550	0.2666421
221	0x3dedae80	0.11605549
222	0x3eb56150	0.35425806
223	0xbd366a2a	-0.04453484
224	0x3e5838c9	0.21115412
225	0xbf055b67	-0.52092594
226	0x3e9b5ac6	0.30342692
227	0x3e0738f6	0.13205323
228	0xbca1400a	-0.019683857
229	0xbeae5dbe	-0.34055895
230	0xbeca839d	-0.39553538
231	0x3d902e8b	0.07040127
232	0x3d50e388	0.05099824
233	0x3d29d69a	0.041464426
234	0xbd2d7d58	-0.042355865
235	0x3e001bc1	0.12510587
236	0xbe8e0d00	-0.27744293
237	0xbe95fac9	-0.29292896
238	0xbf02785e	-0.50964916
239	0x3d494a4e	0.049143128
240	0x3e1ee114	0.15515548
241	0xbf2f448c	-0.6846397
242	0xbd85f382	-0.06540586
243	0x3d6432d2	0.05571253
244	0x3c9b2caf	0.018942205
245	0x3dcdc0f6	0.1004657
246	0xbef2e868	-0.47442937
247	0xbe7903e4	-0.2431789
248	0x3e3a7e98	0.18212354
249	0xbf0ffa80	-0.5624161
250	0xbd596579	-0.053075287
251	0x3d822c65	0.06356124
252	0x3ece175c	0.40252197
253	0x3e5c58f6	0.21518311
254	0xbecd4cb8	-0.40097594
255	0xbf33b106	-0.7019199

conv2.nn.0.bias f4 [128]
0	0xbdf236df	-0.11826872
1	0x3db04f92	0.08608927
2	0x3da63140	0.081148624
3	0xbe8a5650	-0.27018976
4	0xbe642b15	-0.2228206
5	0xbe61db9a	-0.22056428
6	0x3d86b8a2	0.06578185
7	0x3c41d54d	0.01183064
8	0xbe733eca	-0.23754421
9	0xbe6838b4	-0.2267788
10	0xbe3782a2	-0.17920926
11	0xbd135b39	-0.03597567
12	0xbe413f21	-0.18871738
13	0xbe7ab631	-0.24483563
14	0xbdab3eff	-0.08361625
15	0x3d2a5347	0.041583326
16	0xbe2a0832	-0.16604689
17	0xbea1fbbc	-0.3163737
18	0x3d4ca11d	0.049958337
19	0x3d3db740	0.04631734
20	0xbeb7c394	-0.35891402
21	0xbe0dae58	-0.13836038
22	0xbeb46574	-0.35233653
23	0xbdfb4e54	-0.12270799
24	0x3d2cd506	0.042195342
25	0xbf1f5763	-0.62242717
26	0xbe0056f4	-0.1253317
27	0x3e7fcfbe	0.24981591
28	0x3cd14646	0.025546204
29	0xbe99ec9a	-0.30063325
30	0xbd1b0eac	-0.03785579
31	0xbe5e762e	-0.2172477
32	0xbdee3d18	-0.116327465
33	0x3e36bdc3	0.17845826
34	0x3e7651b9	0.24054612
35	0xbe64dfb9	-0.22350968
36	0xbeeabca9	-0.4584706
37	0xbe859641	-0.26091197
38	0xba9d9457	-0.0012022358
39	0xbc6500de	-0.013977258
40	0x3e808073	0.25098
41	0xbd5874cf	-0.052845772
42	0xbd882a8e	-0.06648742
43	0xbdebccf7	-0.11513703
44	0x3de2ee4b	0.11080607
45	0xbe8d66b2	-0.27617413
46	0xbd1cf956	-0.038323723
47	0xbda661dd	-0.08124135
48	0xbe9f0fcf	-0.31066748
49	0x3df99908	0.121873915
50	0xbdb11cdd	-0.08648083
51	0xbe9f2250	-0.31080866
52	0x3e812bab	0.2522863
53	0x3edf3a41	0.43599132
54	0x3e472d89	0.19450964
55	0xbee32820	-0.4436655
56	0xbe9217de	-0.28533834
57	0xbe6ccf8d	-0.2312605
58	0xbe3dab79	-0.18522443
59	0x3bdcd870	0.0067396685
60	0xbe176409	-0.14784254
61	0xbe4728a3	-0.19449095
62	0xbddfaa3a	-0.1092114
63	0x3e2fa140	0.17151356
64	0x3ee13572	0.43986088
65	0xbe63a92e	-0.22232506
66	0xbcd507ec	-0.026004754
67	0xbec47338	-0.38369155
68	0xbe5adc1f	-0.21373032
69	0xbca28f46	-0.019843709
70	0xbe8981dc	-0.26856887
71	0x3e6ac614	0.22927123
72	0xbdca795a	-0.09886427
73	0xbec826ab	-0.39092
74	0x3ea3c659	0.31987265
75	0x3da7d0f0	0.081941485
76	0xbd85264c	-0.06501445
77	0xbe4ae05c	-0.19812149
78	0xbe4ba50e	-0.19887182
79	0xbd686b58	-0.056742996
80	0xbeb224a1	-0.3479357
81	0xbddda146	-0.10821776
82	0x3ebf3850	0.3734765
83	0xbe212e59	-0.15740336
84	0x3c8046c1	0.015658738
85	0x3e1b5ea8	0.15172827
86	0x3d5fa9c1	0.05460525
87	0xbc4d189e	-0.012518076
88	0xbec91fe2	-0.39282137
89	0x3e8fd200	0.28089905
90	0x3e673bef	0.22581457
91	0xbe0a0aa7	-0.13480626
92	0x3d900b31	0.070333846
93	0xbed3c84e	-0.41363758
94	0xbdf184c8	-0.11792904
95	0x3d05d3b4	0.0326726
96	0xbea0430a	-0.31301147
97	0x3e5c15f5	0.21492751
98	0xbd425d0f	-0.04745203
99	0x3e9941af	0.29932925
100	0xbb8b6387	-0.004253808
101	0x3da39e87	0.07989221
102	0xbb2bd30d	-0.0026218325
103	0xbe98d4a1	-0.29849723
104	0xbea4269a	-0.320607
105	0x3e895b47	0.26827452
106	0xbd46746e	-0.04845088
107	0x3ca342dd	0.019929344
108	0xbedbd990	-0.42939425
109	0xbe13a8af	-0.14419816
110	0x3dceab06	0.10091214
111	0x3e8c27e0	0.27374172
112	0xbee698d2	-0.45038468
113	0xbe85f303	-0.26161966
114	0xbe9e3c29	-0.30905274
115	0xbcc8c318	-0.02450709
116	0x3d4e6071	0.050384942
117	0xbe6185c2	-0.22023681
118	0xbe79b2d9	-0.24384631
119	0xbe74c454	-0.23903018
120	0xbe36c5c1	-0.17848875
121	0xbd3e2c75	-0.046429116
122	0x3d8d86db	0.06910487
123	0xbe12214a	-0.14270511
124	0xbe49d31b	-0.19709437
125	0x3d9f73e8	0.07785779
126	0x3df3c14b	0.11902102
127	0xbd9a3d47	-0.07531219

conv2.nn.2.weight f4 [256, 128]
0	0xbedaeafd	-0.42757407
1	0x3d29a56f	0.041417535
2	0x3d83d6b5	0.064374365
3	0xbea6fa2a	-0.32612735
4	0xbdd5e172	-0.10443391
5	0xbcd21036	-0.025642496
6	0xbee0b555	-0.43888345
7	0x3d7084c8	0.05872038
8	0xbd0d46fd	-0.034491528
9	0xbda87862	-0.08226086
10	0x3e669c1d	0.2252049
11	0x3da446d5	0.08021323
12	0x3cdcce97	0.026953978
13	0xbe4efa34	-0.20212632
14	0x3e1bde3b	0.15221493
15	0x3dcebd9b	0.10094758
16	0xbeb04e3c	-0.34434688
17	0xbe47ace0	-0.1949954
18	0x3d20355a	0.03911338
19	0x3db67b23	0.08910205
20	0x3e3d1889	0.1846639
21	0x3d1e84b5	0.038700778
22	0xbe2b84a8	-0.16749823
23	0x3e619a95	0.22031625
24	0x3ebd803d	0.370119
25	0xbd29067a	-0.041265942
26	0x3c649d7c	0.013953563
27	0x3d37fbd0	0.04491788
28	0xbe8554d9	-0.26041296
29	0xbcb6e03d	-0.022323722
30	0xbb24c128	-0.0025139544
31	0x3e1201a7	0.14258443
32	0xbda58cd0	-0.080834985
33	0x3db35b7e	0.08757685
34	0x3dd51b14	0.10405555
35	0x3cb5d647	0.022196902
36	0xbe273797	-0.163298
37	0x3db87592	0.090068
38	0xbd97159d	-0.07377169
39	0x3e87e7bd	0.2654399
40	0x3dcabaa5	0.09898881
41	0x3e50d09e	0.20392081
42	0x3d4a4b8a	0.049388446
43	0x3d783e29	0.060606156
44	0x3e894169	0.26807716
45	0x3c9020bd	0.017593736
46	0x3e6b5273	0.2298067
47	0x3df9c3a4	0.121955186
48	0x3d28c455	0.04120286
49	0xbec6114c	-0.3868507
50	0xbe7a28ac	-0.24429578
51	0xbdb8a8af	-0.09016549
52	0x3dca7bbe	0.09886883
53	0x3e603c10	0.21897912
54	0xbe1ee51a	-0.15517083
55	0x3df07e82	0.117428795
56	0x3e06eaa3	0.13175444
57	0xbe8eadba	-0.27866918
58	0xbeea89b4	-0.45808184
59	0x3eb45c8b	0.35226855
60	0x3d88b19d	0.06674502
61	0xbe51cf06	-0.2048913
62	0x3e05534c	0.13020056
63	0xbe77b088	-0.24188435
64	0xbe36c06d	-0.17846842
65	0x3d83e25c	0.06439659
66	0x3e70fa28	0.23532927
67	0x3e261593	0.16219167
68	0xbd3d23e7	-0.046176817
69	0xbd4f0c3e	-0.050548784
70	0x3dd7b5bc	0.1053271
71	0x3d351fee	0.044219904
72	0x3df57da4	0.11986855
73	0xbe0ac71d	-0.13552518
74	0x3e846079	0.25854853
75	0x3d157861	0.036491755
76	0x3e6f6a30	0.23380351
77	0xbeb2c7d8	-0.34918094
78	0x3d9a0091	0.07519639
79	0x3e575701	0.21029283
80	0xbe367aa5	-0.17820223
81	0x3cd9b2af	0.02657446
82	0xbe2571d4	-0.16156703
83	0x3e08148b	0.13289087
84	0x3e3ee163	0.18640666
85	0x3d9302b6	0.071782514
86	0xbdd72bad	-0.10506377
87	0xbdaddf69	-0.08489878
88	0xbe87b0e8	-0.26502156
89	0x3ee1bb2b	0.4408811
90	0x3ea105b4	0.31449664
91	0x3e89e11a	0.2692955
92	0xbe6f3bcd	-0.23362656
93	0xbeab0ca4	-0.33408082
94	0xbe549f4b	-0.2076389
95	0xbd114d83	-0.03547431
96	0xbe07b679	-0.13253202
97	0xbde362b5	-0.11102811
98	0x3d2fe31c	0.042941198
99	0x3ee4eb52	0.44710785
100	0xbe83154e	-0.25602192
101	0xbcf9d448	-0.030496731
102	0xbd78e7fd	-0.060768116
103	0x3ec41277	0.38295338
104	0xbd68b001	-0.056808475
105	0x3eadaca1	0.33920768
106	0xbd76aa94	-0.06022127
107	0x3d719a5b	0.058985095
108	0xbe0a2cd3	-0.13493662
109	0x3d15a7f8	0.03653714
110	0xbb2e802a	-0.0026626685
111	0x3e23f3ab	0.1601092
112	0xbdd0be1b	-0.1019251
113	0xbe5793d1	-0.21052481
114	0xbc0c8001	-0.00857544
115	0x3e472ae1	0.19449951
116	0xbe620e3c	-0.22075742
117	0x3dc9e7b3	0.09858646
118	0xbe264b18	-0.16239583
119	0x3e025ada	0.1272997
120	0x3d9c7826	0.07640104
121	0x3f00cd87	0.5031361
122	0xbdde57fa	-0.10856624
123	0xbbbcb96b	-0.005759408
124	0xbd085a22	-0.033289082
125	0x3cc153cf	0.023599533
126	0x3eb7ebf3	0.35922202
127	0x3e2a6d64	0.16643292
128	0xbe7c1427	-0.24617063
129	0x3e9dd882	0.30829245
130	0x3e46b40e	0.19404623
131	0x3ef26aef	0.4734721
132	0x3dc5796f	0.09642302
133	0xbe63aca3	-0.22233824
134	0x3e31c8fd	0.17361827
135	0xbd5d3edb	-0.05401502
136	0x3e5a5340	0.2132082
137	0x3e343b89	0.17600836
138	0x3dba5716	0.090986416
139	0x3e3328ac	0.17495984
140	0xbc86f860	-0.016475856
141	0xbf42e904	-0.76136804
142	0x3d829bd1	0.06377376
143	0x3e21cde3	0.15801196
144	0xbe4d960f	-0.20076774
145	0xbe646ab8	-0.22306335
146	0x3e1c26af	0.15249132
147	0x3dfc3c6e	0.123162135
148	0x3c33b65f	0.010968774
149	0x3d0bed72	0.034161992
150	0x3d731151	0.059342686
151	0x3e1c02b8	0.15235412
152	0x3ebf042b	0.37307867
153	0xbe2dff85	-0.16992004
154	0x3e32f0db	0.17474692
155	0x3d08ccb2	0.033398338
156	0x3dcd867a	0.10035415
157	0x3ce33553	0.027735388
158	0x3e86fd86	0.26365298
159	0xbeb72c4e	-0.3577599
160	0x3d7ce18d	0.06173854
161	0xbf0af1f3	-0.54275435
162	0x3ca62de1	0.020285549
163	0x3b0168bc	0.0019746264
164	0xbdb3a6a1	-0.08772016
165	0xbd19a041	-0.037506346
166	0x3e48e740	0.19619465
167	0xbde541d0	-0.11194193
168	0x3ce1dc05	0.027570734
169	0xbedef0e6	-0.43543166
170	0x3e6a004f	0.2285168
171	0x3e9045ee	0.28178352
172	0xbbf9bfab	-0.0076217256
173	0x3e0477b7	0.12936293
174	0x3dbcd974	0.092211634
175	0xbc2a74d4	-0.010403831
176	0xbe87ad5d	-0.26499453
177	0xbc9b0673	-0.018923974
178	0x3e291686	0.16512498
179	0x3dd4a2be	0.10382603
180	0x3ea43496	0.3207137
181	0xbef7799a	-0.48334962
182	0xbf04fb62	-0.5194608
183	0xbeb15512	-0.34635216
184	0x3dba63be	0.091010556
185	0xbc591e92	-0.013251917
186	0x3e885500	0.2662735
187	0x3ec06a2f	0.37581012
188	0x3b377c54	0.002799769
189	0xbc5d6700	-0.013513327
190	0xbe12a3c7	-0.14320289
191	0x3ce6c5e7	0.028170539
192	0x3ec8c99b	0.39216313
193	0x3f45540b	0.77081364
194	0x3e8e68a3	0.27814206
195	0xbec06c58	-0.3758266
196	0xbe209276	-0.1568087
197	0xbb6de0e8	-0.0036297385
198	0x3e9f8d36	0.31162423
199	0x3b5f303f	0.0034055857
200	0xbbf7460c	-0.007546192
201	0x3e0d4b3d	0.13798232
202	0x3e556e62	0.20842889
203	0x3d28b3dd	0.041187156
204	0x3ec07d0b	0.375954
205	0xbec37ec4	-0.38182652
206	0x3e9d95a2	0.30778223
207	0x3ee96416	0.45584172
208	0x3d9f42ed	0.07776437
209	0xbf2422d8	-0.6411567
210	0x3e78b406	0.24287423
211	0x3e80b9b0	0.25141668
212	0xbda339db	-0.079700194
213	0xbdbe4af1	-0.09291638
214	0x3e435736	0.19076237
215	0x3e5f67b7	0.21816908
216	0xbeaefbb7	-0.34176418
217	0x3e169dbe	0.14708611
218	0x3bf0729f	0.0073378826
219	0x3e030da2	0.1279817
220	0xbe81afd5	-0.25329462
221	0xbe442211	-0.1915362
222	0xbeacc9bb	-0.33747658
223	0x3e68271c	0.22671169
224	0x3d666278	0.05624625
225	0xbe204e22	-0.15654805
226	0x3e25e629	0.1620108
227	0x3da033c2	0.07822372
228	0xbc885255	-0.016640821
229	0x3db378a0	0.08763242
230	0xbd4b261e	-0.0495969
231	0xbd3d8fa8	-0.04627958
232	0xbe5383c3	-0.20655732
233	0xbce4f24c	-0.027947567
234	0x3dacfbc3	0.08446457
235	0x3ee868e6	0.4539253
236	0x3ea860bd	0.32886305
237	0xbd362a8e	-0.044474177
238	0xbb8d0fc4	-0.004304858
239	0xbd09f2b7	-0.033678737
240	0x3db5f712	0.088850155
241	0xbdab978d	-0.083785154
242	0xbddae638	-0.10688442
243	0x3ea4fd85	0.3222467
244	0x3bd0f64a	0.006377016
245	0xbdbe5830	-0.09294164
246	0x3d021748	0.031760484
247	0x3d4e89ac	0.050424263
248	0x3e45770b	0.19283693
249	0xbf238091	-0.6386805
250	0x3f3d1e53	0.73874396
251	0x3ae1ef40	0.001723744
252	0x3ce1ef17	0.027579827
253	0xbde70ef3	-0.11282148
254	0xbe875933	-0.2643524
255	0x3d790e20	0.060804486

conv2.nn.2.bias f4 [256]
0	0x3d3c4954	0.04596837
1	0xbe79b1cf	-0.24384235
2	0x3d24324b	0.040087026
3	0xbe77c862	-0.24197534
4	0xbe85d0f6	-0.26135987
5	0xbca1559b	-0.01969414
6	0xbe69fd3a	-0.22850505
7	0xbeceede3	-0.40415868
8	0x3d4219df	0.047387954
9	0x3e7fcda8	0.24980795
10	0xbd12fd13	-0.03588588
11	0x3dc5332c	0.09628901
12	0xbdc2ce34	-0.095119864
13	0xbe0a7b9c	-0.13523716
14	0x3e52c79c	0.20583957
15	0xbd9b4a02	-0.07582475
16	0xbde510c2	-0.11184837
17	0x3ea4d5a3	0.32194242
18	0xbc8d6f22	-0.017264906
19	0xbe48a598	-0.19594419
20	0x3daecada	0.085347846
21	0xbe0ba912	-0.13638714
22	0x3e46feac	0.19433087
23	0xbe08b614	-0.13350707
24	0xbc9429b5	-0.018086294
25	0xbbcee3a5	-0.0063137584
26	0x3d9089d1	0.070575364
27	0xbe7bc76d	-0.24587794
28	0xbd7e1492	-0.062031336
29	0x3c994f6a	0.018714625
30	0xbe446bc6	-0.19181737
31	0xbdf3421b	-0.11877843
32	0xbd0734c1	-0.033009294
33	0xbe7a9ab1	-0.24473073
34	0x3df0e2d0	0.11762011
35	0xbeb18e66	-0.34678954
36	0x3dacc9d8	0.08436936
37	0x3e1c7230	0.15277934
38	0xbdad1c36	-0.084526464
39	0xbdd19c8a	-0.102349356
40	0x3e0078af	0.12546037
41	0xbe89d511	-0.2692037
42	0xbde77642	-0.11301853
43	0xbe74ef51	-0.23919417
44	0x3db2628d	0.08710203
45	0xbe3c1e9b	-0.1837105
46	0x3e6d4061	0.2316909
47	0xbd6d4497	-0.05792674
48	0xbe70676d	-0.23476954
49	0xbd8d7b17	-0.06908243
50	0xbe24b394	-0.16084129
51	0xbd396d81	-0.045270447
52	0xbe96b745	-0.294367
53	0x3d2d8cb3	0.04237051
54	0xbd12e299	-0.03586063
55	0x3e10d657	0.14144264
56	0xbe5b17ab	-0.21395747
57	0x3cd5e597	0.026110454
58	0xbebbdc0f	-0.3669133
59	0xbd77652a	-0.060399212
60	0xbe191c17	-0.14952122
61	0x3e99446b	0.2993501
62	0x3d84c051	0.06481994
63	0xbe9d4ce8	-0.30722737
64	0xbd67d643	-0.05660082
65	0xbd0e9945	-0.034814138
66	0x3e1276f1	0.14303185
67	0x3e21fa7e	0.15818211
68	0xbe987a83	-0.2978097
69	0x3d48012d	0.048829246
70	0xbdf39b05	-0.11894802
71	0xbdf8ccf7	-0.12148469
72	0xbe45dda3	-0.19322829
73	0xbe92e98a	-0.286938
74	0xbe691567	-0.2276207
75	0xbe3391f0	-0.1753614
76	0xbe5145bf	-0.20436762
77	0xbcc4b051	-0.024009855
78	0xbebc2b7f	-0.36751935
79	0xbd58fbf6	-0.052974664
80	0xbc6db20f	-0.0145077845
81	0x3e531d33	0.20616607
82	0xbeb576b2	-0.3544212
83	0xbd52360a	-0.051321067
84	0xbe086b5e	-0.13322207
85	0xbe1bbe8d	-0.15209408
86	0xbc4701e3	-0.012146446
87	0x3e12df82	0.14343074
88	0x3e773fb9	0.24145402
89	0xbd008b98	-0.031383127
90	0xbdc2f8f3	-0.095201395
91	0xbe9e063f	-0.3086414
92	0xbda01067	-0.078156285
93	0xbd4eae61	-0.05045927
94	0x3e097998	0.1342529
95	0x3e825071	0.25451997
96	0xbe5335ba	-0.20625964
97	0xbeb2fc89	-0.34958294
98	0xbe05c811	-0.130646
99	0xbca0137e	-0.019540545
100	0x3e007a19	0.12546577
101	0x3e0acde9	0.13555111
102	0x3d6518c9	0.05593184
103	0x3cdbcf1f	0.026832161
104	0xbdfd746c	-0.12375721
105	0x3c3aa550	0.011391953
106	0x3e2a15c9	0.16609873
107	0xbdf33f20	-0.118772745
108	0xbed9a86f	-0.42511317
109	0x3e63a480	0.2223072
110	0x3d8fa7f3	0.07014456
111	0xbe9e6748	-0.30938172
112	0xbd8cf5f3	-0.068828486
113	0xb90c36a8	-0.00013371801
114	0xbda485a7	-0.08033305
115	0x3e108da8	0.14116538
116	0xbea849c7	-0.32868788
117	0xbdad3534	-0.08457413
118	0xbd2124c6	-0.03934171
119	0x3d540306	0.051760696
120	0x3e4c543a	0.19954005
121	0x3d038da4	0.0321175
122	0xbdb8ec03	-0.09029391
123	0xbc712786	-0.014718896
124	0x3e80f40a	0.25186187
125	0xbe216e11	-0.15764643
126	0xbdf1b66f	-0.118023746
127	0xbe2cf942	-0.1689196
128	0xbe3b4175	-0.18286689
129	0x3c1ca357	0.009560428
130	0xbd5cd114	-0.05391033
131	0xbc53cd14	-0.012927312
132	0x3d66fac8	0.056391507
133	0xbe8f8394	-0.28030074
134	0xbdb11dba	-0.08648248
135	0xbe3eaa73	-0.18619709
136	0x3e08daa3	0.13364653
137	0xbd20061d	-0.03906833
138	0xbd65d89d	-0.05611478
139	0xbe6fd84c	-0.23422354
140	0xbe099dca	-0.13439098
141	0xbe6d182c	-0.23153752
142	0xbd9f73cd	-0.07785759
143	0xbe5a02d6	-0.21290144
144	0xbe7cc1eb	-0.24683349
145	0xbe3cf713	-0.18453626
146	0x3dcc24da	0.099679664
147	0xbd797982	-0.060906895
148	0x3dfe1c30	0.1240772
149	0xbe7ebe64	-0.24877316
150	0xbe48bd13	-0.19603376
151	0x3e87adc3	0.26499757
152	0xbe529a74	-0.20566732
153	0xbc990645	-0.018679747
154	0xbeb24783	-0.34820184
155	0xbd00a749	-0.031409536
156	0xbcf5b743	-0.029994613
157	0xbe26bb6f	-0.16282438
158	0xbe6633f3	-0.22480755
159	0x3dd5bb5c	0.104361266
160	0xbd9a6a79	-0.07539839
161	0xbdf19668	-0.11796266
162	0xbe4565b0	-0.19277072
163	0xbe2221dd	-0.1583323
164	0xbe81517b	-0.25257477
165	0xbe1c29b2	-0.1525028
166	0xbde7e919	-0.11323757
167	0x3e51b54c	0.20479316
168	0xbd9c2055	-0.07623354
169	0xbe96e727	-0.2947323
170	0xbe32f39a	-0.17475739
171	0xbebf1545	-0.37320915
172	0xbdbf8d58	-0.09353131
173	0xbebae5c7	-0.3650343
174	0x3dd7d3a3	0.105384134
175	0xbebf49bd	-0.37360945
176	0xbe338419	-0.1753086
177	0x3e08d675	0.13363059
178	0x3e5a36a5	0.21309908
179	0xbe9f2108	-0.31079888
180	0xbe0461d6	-0.12927946
181	0x3d2fc97a	0.042916752
182	0xbe4ec25f	-0.20191334
183	0xbe5bbb05	-0.21458061
184	0xbea6a640	-0.32548714
185	0xbe8d62da	-0.2761448
186	0xbeaaee57	-0.33384964
187	0x3df16fce	0.11788903
188	0xbdb476fb	-0.08811756
189	0xbdd49b59	-0.10381193
190	0x3e8ad6ba	0.27116948
191	0xbbad3927	-0.005286354
192	0xbe0e08f1	-0.13870598
193	0xbd1d4250	-0.03839332
194	0xbd3ef22c	-0.04661767
195	0xbe528921	-0.20560123
196	0x3e24b8df	0.16086148
197	0xbe06f7e3	-0.13180499
198	0x3e45a682	0.19301799
199	0x3e1d4deb	0.15361755
200	0xbe4daa02	-0.20084384
201	0xbd49bfea	-0.04925529
202	0xbea837c6	-0.32855052
203	0x3e80ea91	0.2517896
204	0x3e918ec3	0.2842923
205	0x3d396ce6	0.04526987
206	0x3dcb5d2a	0.09929879
207	0xbdb747e0	-0.08949256
208	0x3e106083	0.14099316
209	0xbd85ed07	-0.0653935
210	0x3e2e8a56	0.17044958
211	0xbeb43802	-0.3519898
212	0x3e646281	0.22303201
213	0xbe957ae7	-0.2919533
214	0x3d2a3641	0.041555647
215	0xbe1cb7d7	-0.15304504
216	0xbdfc35b8	-0.123149335
217	0x3e3f28dc	0.1866793
218	0xbe9d0f5f	-0.3067579
219	0xbe9652bc	-0.29359996
220	0xbe85c77d	-0.2612876
221	0xbdf9df5a	-0.12200804
222	0xbeae8f22	-0.34093577
223	0x3d3385f2	0.043828912
224	0xbb8fce5c	-0.0043886136
225	0xbe9c548b	-0.3053325
226	0xbe5350ca	-0.20636287
227	0xbe11d540	-0.14241505
228	0x3e6dfd7f	0.23241232
229	0xbe790f84	-0.24322325
230	0xbe81bcda	-0.25339395
231	0x3bd1144b	0.006380593
232	0xbe46f1dd	-0.19428201
233	0x3e2b3be5	0.16722067
234	0x3e8f2e4f	0.27965018
235	0x3e56093a	0.20901957
236	0xbe47b57d	-0.19502826
237	0xbe419c0e	-0.18907186
238	0x3d8e09e0	0.06935477
239	0xbe005504	-0.12532431
240	0xbe8b38dd	-0.2719182
241	0x3c907912	0.017635856
242	0xbe6c6209	-0.23084272
243	0xbe0ee5b1	-0.13954808
244	0xbd5a40b2	-0.053284355
245	0x3e208b81	0.15678217
246	0xbd86afce	-0.06576501
247	0xbdacc6a5	-0.08436326
248	0xbeb484c3	-0.3525754
249	0xbe28deb9	-0.16491212
250	0xbe68997d	-0.22714801
251	0xbd26e42a	-0.040744938
252	0xbd98cd72	-0.074610606
253	0x3d5ecb14	0.05439289
254	0xbdd705dd	-0.10499165
255	0x3da8902c	0.082306236

conv2.lin.weight f4 [64, 3]
0	0x3da89a69	0.082325764
1	0xbe4f337f	-0.20234488
2	0xbf17ee16	-0.59347665
3	0xbcbe9135	-0.0232626
4	0x3f2acd54	0.66719556
5	0xbdada242	-0.08478214
6	0xbddb8a7c	-0.10719773
7	0x3f408bae	0.75213134
8	0x3d4fbe3d	0.050718535
9	0x3eb74ba1	0.35799888
10	0xbeaea9a8	-0.34113812
11	0xbe873045	-0.26404014
12	0xbf14b57c	-0.58089423
13	0x3d641976	0.055688344
14	0xbe3d8318	-0.1850704
15	0xbc39e959	-0.011347138
16	0xbd51927f	-0.0511651
17	0x3c0fed72	0.008784639
18	0xbd0c7a1d	-0.034296144
19	0xbe1619fb	-0.14658348
20	0xbca1bd08	-0.019743457
21	0x3eb7a4c9	0.3586791
22	0x3deb5f5f	0.114928
23	0x3e833d60	0.25632763
24	0xbf2fe144	-0.68703103
25	0x3ecbbe74	0.39793742
26	0xbe6bb92d	-0.23019858
27	0xbee390c0	-0.44446373
28	0xbdb66208	-0.08905417
29	0x3df1b61d	0.118023135
30	0xbf76ebb1	-0.96453387
31	0xbedd81dc	-0.43263137
32	0x3eb57678	0.35441947
33	0xbec38f14	-0.38195097
34	0x3ecae169	0.396251
35	0xbe0c47ad	-0.13699217
36	0xbe5093fc	-0.20368952
37	0xbd71d61a	-0.059042074
38	0xbd1b44a9	-0.037907276
39	0xbeac5f2e	-0.33666366
40	0x3f914fa3	1.1352428
41	0xbe8cc70d	-0.27495614
42	0xbc8dbf14	-0.017303027
43	0x3f228212	0.6347972
44	0x3f0a1a37	0.5394625
45	0xbf4613d4	-0.77374005
46	0x3ef19185	0.47181335
47	0xbf3ab8e6	-0.7293838
48	0x3e5819d9	0.2110361
49	0xbebdba68	-0.3705628
50	0xbe090432	-0.13380507
51	0x3ecd6dd3	0.40122852
52	0xbf30c5be	-0.6905173
53	0xbf110454	-0.5664723
54	0xbe61c59d	-0.2204804
55	0xbdd96be7	-0.10616284
56	0xbe7778a1	-0.2416711
57	0x3ad27669	0.0016057017
58	0x3e9724b3	0.29520187
59	0x3dbeb7a3	0.0931237
60	0xbf6dc76d	-0.92882425
61	0xbe83d544	-0.25748646
62	0xbf82ac22	-1.0208781
63	0x3e86a12b	0.26294836
64	0x3f35ecf9	0.71064717
65	0xbdb7229b	-0.08942147
66	0x3c83a605	0.016070375
67	0x3dbe42b6	0.09290068
68	0xbdf081c5	-0.117435016
69	0xbcf13787	-0.029445423
70	0x3ca809ab	0.020512423
71	0x3eb87cbc	0.36032665
72	0xbf871f47	-1.055642
73	0xbb7cc3b2	-0.0038568792
74	0x3f820508	1.0157785
75	0xbf8b16ab	-1.0866293
76	0xbe3606f4	-0.1777609
77	0xbe3097a4	-0.17245346
78	0xbe8df298	-0.27724147
79	0xbe47a0e8	-0.19494975
80	0xbf16bc2c	-0.5888088
81	0x3d94eccf	0.0727173
82	0x3d099dc8	0.033597738
83	0xbe390e65	-0.18071897
84	0x3ec69e87	0.38792822
85	0xbe78ab03	-0.24283986
86	0xbf559423	-0.83429164
87	0x3ea838be	0.3285579
88	0xbeaecf9a	-0.34142762
89	0xbf5cacab	-0.8620097
90	0xbe8e0cce	-0.27744144
91	0x3f094bce	0.53631294
92	0xbf360e73	-0.711158
93	0xbd2188f6	-0.039437257
94	0xbec08513	-0.37601528
95	0x3dd7a2b1	0.10529078
96	0x3ea826ff	0.32842252
97	0xbee62d0a	-0.44956237
98	0xbc0d27de	-0.008615462
99	0xbf899674	-1.074904
100	0x3cb9ac30	0.022665113
101	0xbf2e29e5	-0.68032676
102	0x3eef66c8	0.46758103
103	0xbf20e4f5	-0.6284936
104	0xbd974abf	-0.073873036
105	0x3d8d2d57	0.068934135
106	0xbf1e92d4	-0.6194279
107	0x3f10f820	0.5662861
108	0x3e74810b	0.23877351
109	0xbeb0b460	-0.34512615
110	0xbdbaca14	-0.091205746
111	0x3e800ebd	0.25011244
112	0x3e1823fa	0.14857474
113	0xbeeba0e9	-0.46021202
114	0xbf30041f	-0.6875629
115	0xbd9af942	-0.075670734
116	0x3f333ecc	0.70017695
117	0x3e7a1374	0.24421483
118	0xbf0b8f90	-0.54515934
119	0xbf654cf0	-0.8957052
120	0xbf62d160	-0.8860073
121	0x3fc3ae91	1.5287648
122	0x3e7c902b	0.2466437
123	0xbe442a38	-0.1915673
124	0xbf04b66f	-0.5184087
125	0xbe66b31f	-0.22529267
126	0xbf419a59	-0.7562614
127	0x3f3c8965	0.7364715
128	0xbd0c45d9	-0.0342463
129	0x3ebbcfc8	0.36681962
130	0x3c3edffe	0.011650084
131	0xbeb6618b	-0.35621294
132	0x3d81c9b1	0.06337298
133	0xbd32ce6a	-0.043653883
134	0xbec0e9a8	-0.37678266
135	0xbe2c36c2	-0.16817763
136	0x3f23497a	0.6378399
137	0xbefcdbe7	-0.49386522
138	0xbaf7b29a	-0.0018897832
139	0x3ce05aaa	0.027386982
140	0x3e6e98ff	0.23300551
141	0xbe63af17	-0.2223476
142	0x3f8f7dd4	1.1210275
143	0xbe67946d	-0.22615214
144	0x3e572c6f	0.21013044
145	0x3dfcbd3c	0.12340781
146	0xbee700fa	-0.45117933
147	0xbf19e851	-0.6012011
148	0xbc7e2c9c	-0.015513565
149	0xbdce03f3	-0.10059347
150	0xbe9894f9	-0.29801157
151	0x3f1d7627	0.6150841
152	0xbeab18fd	-0.33417502
153	0xbf30c1f4	-0.6904595
154	0x3e43c010	0.19116235
155	0xbe81da95	-0.25362077
156	0xbe949427	-0.2901928
157	0xbf056e32	-0.5212127
158	0xbbd2e7d5	-0.006436328
159	0x3ec1fc63	0.37887868
160	0x3f3f462f	0.74716467
161	0xbf610418	-0.8789687
162	0xbf378705	-0.716904
163	0xbeabc902	-0.33551794
164	0x3f2b3bfa	0.6688839
165	0xba4d1afc	-0.00078241504
166	0x3fce0184	1.6094213
167	0x3e88e55d	0.2673749
168	0xbf3de224	-0.7417319
169	0xbea3d44b	-0.31997904
170	0xbef24ce8	-0.473243
171	0xbfb148b4	-1.3850312
172	0xbe2bb842	-0.16769508
173	0xbf023528	-0.5086236
174	0xbdee48a7	-0.11634951
175	0xbdf62fce	-0.12020837
176	0xbe07c390	-0.13258195
177	0x3ed4280f	0.41436812
178	0xbee9ac23	-0.45639142
179	0xbdaaf052	-0.08346619
180	0x3e866752	0.26250702
181	0xbebe4a81	-0.37166217
182	0xbf064127	-0.52443165
183	0x3d4e96ef	0.05043691
184	0xbee8070b	-0.45317873
185	0xbe06bbea	-0.13157621
186	0x3b7be128	0.0038433764
187	0x3f79727a	0.974403
188	0x3da48257	0.08032673
189	0xbf5eaf0c	-0.8698585
190	0xbda7169f	-0.081586115
191	0x3f58631a	0.84526217

conv2.lin.bias f4 [64]
0	0x3e816c26	0.25277823
1	0x3da696fd	0.081342675
2	0xbd978d22	-0.07399966
3	0xbe1b0e73	-0.1514223
4	0x3e2b5793	0.16732626
5	0xbbf543f2	-0.0074849064
6	0xbaab9c23	-0.0013092797
7	0xbf08f0b8	-0.5349231
8	0x3e61f586	0.22066316
9	0xbd041676	-0.032247983
10	0xbed7526f	-0.4205508
11	0xbe9dcf42	-0.30822188
12	0x3cb2f1ae	0.021843757
13	0xbf0689b4	-0.5255387
14	0xbf0d1f85	-0.5512622
15	0xbabfb599	-0.0014626264
16	0x3e25fae5	0.1620899
17	0xbf3873dd	-0.72051793
18	0x3e733824	0.23751885
19	0xbf0f6093	-0.56006736
20	0xbeaea8af	-0.3411307
21	0xbe00729f	-0.12543724
22	0x3d2c4f20	0.042067647
23	0xbec36612	-0.3816381
24	0x3ba1d5e5	0.0049388283
25	0x3e268417	0.16261326
26	0xbfc29f86	-1.5204933
27	0xbda68d62	-0.081324354
28	0x3b41c836	0.0029568798
29	0x3da8def4	0.0824565
30	0x3eeff7a7	0.4686863
31	0xbdfd241d	-0.12360404
32	0x3c410ae6	0.011782384
33	0x3ebb05ea	0.3652795
34	0xbf6702aa	-0.9023844
35	0xbf27b07a	-0.65503657
36	0xbf35321d	-0.7077959
37	0xbe3a3edc	-0.18188041
38	0xbe084eb4	-0.13311273
39	0x3e2f51b8	0.17121017
40	0xbe811aee	-0.25215858
41	0xbaefde62	-0.0018300528
42	0x3a51facf	0.00080100907
43	0xbc05c48b	-0.008164535
44	0x3e3ef24f	0.18647121
45	0xbc3b6b8d	-0.011439216
46	0xbe7ae8f1	-0.24502923
47	0x3e628e9d	0.22124715
48	0x3c15741f	0.009121924
49	0xbb0eed64	-0.0021808976
50	0x39c74cec	0.0003801355
51	0xbf454547	-0.77058834
52	0x3be7442b	0.007057687
53	0xbe753c3e	-0.23948762
54	0xbb172db5	-0.0023068015
55	0xbe9da70c	-0.3079151
56	0xbedfa7a2	-0.4368258
57	0xbf45cc1e	-0.77264583
58	0xbeff7244	-0.49891865
59	0x3dc61a5f	0.09672999
60	0xbc483dc5	-0.012221758
61	0x3e1e1b89	0.15440191
62	0xbe0f09c4	-0.13968569
63	0x3c2ec8b3	0.010667968
