A3/regression/custom_dropout.pth (torch, 355747 bytes, 19 tensors)

conv1.nn.0.weight f4 [32, 9]
000000 84 70 c6 bd c2 d1 27 3e 6b 22 56 bd a4 b7 88 3e
       -0.096894294 0.1638861 -0.052278917 0.26702607
000010 5c 0f 96 be 7c e1 e7 be 51 58 fb bd 8a 54 6c 3e
       -0.29308593 -0.45289218 -0.122727044 0.23079124
000020 b2 f1 86 bd 2e 16 c4 bd ff e7 bd 3e ae ae 5d be
       -0.065890685 -0.09574543 0.3709106 -0.21648666
000030 38 78 0a be 66 3f c7 3e 46 8f 01 3f 52 38 47 3e
       -0.13522422 0.38915557 0.5060924 0.19455078
000040 51 67 36 3e 8d 71 37 3e 71 2d 86 3e 34 66 37 3e
       0.1781285 0.1791441 0.26206544 0.17910081
000050 a8 ee d0 be 07 eb 2e be e8 2f cf 3e f3 bb 7f 3e
       -0.4080708 -0.17081843 0.40466237 0.2497404
000060 30 32 95 3e 9b b0 08 bf 23 99 00 3e 07 d8 9e bc
       0.29139853 -0.5339448 0.12558417 -0.01939012
000070 50 77 04 3e aa 3f 63 be ca a3 bd bc 9e 4c a3 be
       0.12936139 -0.22192255 -0.02314939 -0.31894392
000080 f5 15 87 3d 94 3d b4 3d cc 8a 54 3e 51 31 9c bd
       0.06595985 0.088008076 0.20756072 -0.07626594
000090 fb 28 7d be 99 6f 1a 3f 5e b1 eb 3e ab 68 3d 3d
       -0.24722664 0.60326535 0.46033758 0.046242397
0000a0 a0 ad 5c bd c0 a5 07 be 95 aa 88 3e d3 59 58 be
       -0.05387652 -0.13246822 0.26692644 -0.21128015
0000b0 18 6f 23 be 7a 5b b6 be f0 90 d5 be be f2 19 3d
       -0.15960348 -0.35616666 -0.4171214 0.037585013
0000c0 0d fe 8b 3d e3 bc ed 3e 7f ff ac be 06 23 aa bc
       0.06835566 0.46433172 -0.33788678 -0.020768654
0000d0 54 8c 65 3e 39 56 6f 3e 7c 85 0f 3d a4 24 fa be
       0.22416812 0.23372735 0.03503941 -0.4885608
0000e0 60 f1 88 3e 14 04 0e 3e 68 68 56 bf 1b 32 83 3e
       0.26746655 0.13868743 -0.8375306 0.25624165
0000f0 d0 15 34 3e 23 73 ad be 32 c0 6d be 76 80 3d 3e
       0.17586446 -0.33876905 -0.23217848 0.18506035
000100 c1 07 d4 be 76 95 39 be 3d 6f 2c 3e b7 87 d5 be
       -0.41412166 -0.18123421 0.16839309 -0.41705105
000110 d5 96 1b bf cb 86 47 3e 04 50 9c be 30 8f e4 be
       -0.60777026 0.19485013 -0.30529797 -0.44640493
000120 64 12 ae 3c fd 96 dd 3d b0 9b 92 3e f0 09 e9 bd
       0.021249004 0.10819814 0.28634405 -0.113788486
000130 13 ba ff 3e b1 b5 59 3d 57 3a 7f be 65 4d 93 3e
       0.4994665 0.05315179 -0.24924599 0.28769985
000140 de 60 a3 be c8 0c 44 be 49 da d8 be 28 be ab 3e
       -0.3190984 -0.191455 -0.42354038 0.33543515
000150 94 d7 ab 3d b9 36 13 3e 4d 01 fe bb d4 29 a9 bd
       0.08390728 0.14376344 -0.00775162 -0.08259931
000160 4c 4c e4 3d de 6f 97 3e e7 34 e4 3d 06 6d 3c bd
       0.11147365 0.29577535 0.11142903 -0.04600241
000170 d4 df 0e bf 28 32 2d be 2e 49 98 be db 3c 82 be
       -0.55810285 -0.16913664 -0.29743332 -0.25437054
000180 b8 42 5e 3d 89 ca e4 3e b4 ff de 3e db e8 57 3e
       0.054262847 0.44685772 0.4355446 0.21084921
000190 31 a7 d6 be 21 eb c4 be 97 2c 59 3e ce 75 5e bf
       -0.41924432 -0.3846064 0.21208416 -0.86898506
0001a0 c7 f2 cb 3e b9 f0 03 be 8f 29 1c bf 4c 60 29 bf
       0.39833662 -0.12884797 -0.61000913 -0.6616256
0001b0 b8 6a 11 3e 85 b6 40 3f b3 59 84 3e 67 60 a6 be
       0.14200866 0.752785 0.25849685 -0.32495424
0001c0 fd fd 2b bd 78 33 83 3d d3 85 1a 3e 95 b4 c0 3d
       -0.04199027 0.06406301 0.15090112 0.09409443
0001d0 53 1c 03 bf d7 fc 3e 3c 83 76 10 bd 6a 97 90 be
       -0.51215094 0.011656961 -0.03526927 -0.2824052
0001e0 24 b0 b6 3d d0 18 cb be c3 2a c1 3e 69 2f 33 3d
       0.08920315 -0.39667368 0.37727937 0.043746386
0001f0 1b 46 8c be 5a b1 27 3e cd 3c eb 3d ce d6 28 bc
       -0.27397236 0.16376248 0.11486206 -0.01030512
000200 07 52 4a 3e 7a d0 61 be 44 40 ab be 5f 80 31 3e
       0.19757853 -0.22052184 -0.33447468 0.17334126
000210 e8 86 09 3e 04 ca 4d 3e 8a 1d 98 3e c2 db fc 3d
       0.13430369 0.20096594 0.29710037 0.12346603
000220 ae 03 0a 3f 1f ce 56 be ef e2 18 bd 5a f8 39 bd
       0.53911865 -0.20977066 -0.037325796 -0.045402862
000230 e4 e6 2d be 75 b8 0e 3e ff fc 35 3c be 66 23 bf
       -0.16982609 0.13937552 0.011107682 -0.6382865
000240 2f 7d 81 be 58 06 da 3e e7 58 8c be 1a ed ad 3e
       -0.2529082 0.42582965 -0.27411577 0.33969957
000250 40 98 e7 bc d6 61 a4 3d ca 0e ea 3d 72 89 9c bd
       -0.02827084 0.08026473 0.11428602 -0.07643403
000260 4f af dc bc 77 9b 87 3c 95 ae 9c 3c 6f 53 0d be
       -0.026939062 0.016553624 0.019126216 -0.13801359
000270 58 e0 42 bd 4b 1d 46 bb a8 80 0c 3e 2f 17 61 3d
       -0.047577232 -0.0030229862 0.13720953 0.05495375
000280 aa f8 e7 be 57 2d 21 3d 84 bd cf 3e 23 4c 46 bd
       -0.45306903 0.03934988 0.40574276 -0.048412453
000290 db c9 b2 be a7 fe ab 3b a8 b3 97 bd 1a 93 e3 be
       -0.34919629 0.005248863 -0.074073136 -0.44448167
0002a0 fb 2d 0e be 75 26 30 be 7e a2 89 bd ed 3f cb bc
       -0.13884728 -0.1720217 -0.06720446 -0.024810756
0002b0 c9 e8 61 3e 56 45 95 bb 0e cf ec 3b ef f1 58 be
       0.22061457 -0.0045553846 0.0072268313 -0.2118604
0002c0 3b 4e 4a bc 11 00 b3 bd bb cb f7 3d 71 c9 27 be
       -0.012347753 -0.08740247 0.120994054 -0.16385438
0002d0 ff 9e 09 3d fc f7 48 bc 1b f3 0f bd 19 2a 66 be
       0.033598896 -0.012266155 -0.035143953 -0.22476996
0002e0 28 92 cb 3e d0 37 7c 3d 7b e8 4f be 94 3b 72 be
       0.39759946 0.061576664 -0.20303528 -0.2365554
0002f0 26 df 69 3e 9d 35 c1 3e a3 c1 1a bf ff d0 d8 be
       0.2283903 0.37736216 -0.60451716 -0.4234695
000300 02 94 a2 bd 37 c9 f4 be 20 a4 0d 3e ee 57 98 be
       -0.079383865 -0.47809765 0.1383214 -0.29754585
000310 8b cc db 3d 36 e3 b3 3e 8c fc a3 be ee 3b ae 3e
       0.10732373 0.35134286 -0.32028615 0.34030098
000320 d3 ea 9c 3e 20 71 5f 3c cc c9 81 3e f2 45 c9 be
       0.30647907 0.013637811 0.2534927 -0.39311177
000330 2e 73 93 bd ea 8e a7 3e 05 5f a3 3e 47 99 52 be
       -0.07199703 0.32726222 0.31908432 -0.20566283
000340 d5 4f 14 bf b7 3a 02 3e 14 19 19 3e 34 9c d0 3e
       -0.57934314 0.1271771 0.14950973 0.40744174
000350 22 b6 ab 3c 83 70 d4 bd 54 bb 5c be 1f 45 d6 be
       0.020960871 -0.103730224 -0.21555835 -0.4184961
000360 08 8d ae bb 2a 9c 19 3f be ed f9 3d 07 a8 14 3e
       -0.005326871 0.6000391 0.12203549 0.14517222
000370 12 f5 d2 bd ca f0 e3 be ce f0 d0 be 89 4a 10 be
       -0.1030065 -0.44519645 -0.4080872 -0.14090933
000380 71 d1 44 be 43 0b 3f 3c 32 be 0b 3e a9 6b 1c 3c
       -0.1922052 0.0116604 0.13646773 0.009547153
000390 74 6d 84 3d 06 c4 36 bf 1b 1e 47 be 78 15 d0 3e
       0.06466189 -0.7139286 -0.19445078 0.4064138
0003a0 e7 cd f0 bc 31 e4 55 3e 57 5a 52 be ee 1b 65 3e
       -0.029395057 0.2088783 -0.20542274 0.22373936
0003b0 6e cb e3 3d 74 13 59 be ba 4d 52 3e cc b4 06 3f
       0.111227855 -0.21198827 0.20537463 0.52619624
0003c0 06 5a 9c 3e 19 17 b9 3e cc ec cf 3d 91 96 65 3e
       0.30537432 0.36150435 0.10152587 0.22420718
0003d0 bb 08 85 3e ac e1 d4 be 9b ec fa bd a2 30 55 3e
       0.25983223 -0.41578424 -0.1225216 0.20819333
0003e0 c5 af 3f be 45 ee c6 3e 9c c1 41 3e c8 86 b8 bd
       -0.18719395 0.3885366 0.18921512 -0.090100825
0003f0 72 2c 18 bd 32 35 7f bf 8b 36 eb be af 2c 57 3e
       -0.03715176 -0.99690545 -0.4594005 0.21013139

conv1.nn.0.bias f4 [32]
000000 6f 5c 0d bf bc fa 2c 3e 83 e6 bc be 13 52 a3 3e
       -0.5521917 0.16892523 -0.36894616 0.31898555
000010 74 3f 1c 3c 3c dc 35 3e 99 9a c8 3d 13 1e 24 be
       0.009536613 0.17759794 0.09795112 -0.16027097
000020 97 51 09 be 2d 9b 37 3c 93 73 cf 3d 8f c2 6e be
       -0.1341003 0.01120643 0.10129466 -0.23316406
000030 58 e5 1d bf 42 85 8a be 93 81 23 bf 41 45 a4 3c
       -0.61678076 -0.27054793 -0.6386959 0.020052554
000040 79 5d 84 bb e9 f8 54 3e a2 a0 fc be 13 fa 0a 3e
       -0.004039463 0.20798077 -0.49341303 0.13571958
000050 ba c1 04 3f 11 de 5b 3e c3 0e 13 3f aa f0 ff 3e
       0.51858103 0.2147143 0.574444 0.499883
000060 1d d3 e2 be b4 c5 63 3d 12 44 58 be 13 9d 4f 3e
       -0.44301692 0.055608466 -0.21119717 0.20274763
000070 8e 4b cf 3e 1f c2 14 bf 87 86 1e 3d 73 af 2c bf
       0.4048733 -0.58108705 0.038702514 -0.67455214

conv1.nn.2.weight f4 [64, 32]
000000 dd 1c 94 be a0 48 f4 3e 4c 56 09 bf b8 04 a0 3e
       -0.2892827 0.47711658 -0.53647304 0.312536
000010 a8 de 75 bf 1e c2 ff 3b a6 ee e1 be e3 ee 09 be
       -0.9604287 0.007805123 -0.44127387 -0.13470034
000020 3c 74 03 bf 84 10 f5 be 02 4d 02 3f 99 5b d7 be
       -0.51349235 -0.47864163 0.50898755 -0.4206207
000030 b0 02 e0 be 62 78 fd be 1e 23 09 bf 4b 8a 8c be
       -0.4375205 -0.49505907 -0.5356921 -0.2744926
000040 a5 57 00 3f 78 17 c3 3e c3 db 78 be 7a fb b9 3e
       0.50133735 0.38103843 -0.24302582 0.36324674
000050 5a ec 01 3f 96 d4 16 be 10 7f 1f bf 6e 70 77 3d
       0.5075127 -0.14729533 -0.62303257 0.060409956
000060 dc 28 56 bf 91 3c 1f bf 7f 92 ea 3e 04 20 a8 be
       -0.83656096 -0.6220179 0.45814893 -0.32836926
000070 ff b1 1c 3e 5c ad fa be 11 27 1d bf fe 34 c4 be
       0.15302275 -0.48960388 -0.61387736 -0.3832168
000080 b2 b8 ba be e6 34 3d 3d fd eb e7 be 22 d5 89 3e
       -0.36469036 0.046193026 -0.45297232 0.2692042
000090 ec a9 28 be 7b 06 94 be ef 6c 91 bd ac ea ac be
       -0.1647107 -0.28911194 -0.071008556 -0.3377279
0000a0 05 e3 9c bd ef 22 a6 bd 8b 2d 9f bc 4e b3 76 be
       -0.07660488 -0.08112132 -0.019430896 -0.24091837
0000b0 31 3f d7 be 10 68 89 be ab 74 72 be ea 38 83 bd
       -0.420404 -0.26837206 -0.23677318 -0.0640734
0000c0 b6 37 55 bd d2 57 cd 3d 31 f3 f8 bd fd 58 23 3e
       -0.052055083 0.10026516 -0.1215576 0.15951915
0000d0 d7 73 7a 3e 10 a6 90 3c ee 55 c2 be 8f a4 07 3e
       0.24458252 0.01765731 -0.37956184 0.13246368
0000e0 55 ac d3 be 5c 54 82 be 57 49 50 3e 82 f5 cf bd
       -0.41342416 -0.25454986 0.20340477 -0.10154249
0000f0 e4 d9 b5 3c 35 78 6e be 60 40 39 be a5 e8 8c be
       0.022198625 -0.23288043 -0.18090963 -0.27521244
000100 4e 1b 39 be 45 d5 4b 3e c3 82 26 bf d6 5b 34 3c
       -0.18076822 0.19905575 -0.65043277 0.0110082235
000110 9b 6c 94 3d e3 45 cf 3d 61 02 b2 bd 66 ed b2 be
       0.07247277 0.10120752 -0.0869186 -0.34946746
000120 a9 14 6e 3d 94 8d e5 3c 21 ad 35 3d fc 6f 29 bf
       0.05812517 0.028021611 0.04435456 -0.661865
000130 64 0f d0 3d a3 3b 94 be cc 31 c9 bc c0 e1 ef be
       0.101591855 -0.2895175 -0.024559878 -0.4685192
000140 1a 01 82 b7 ca ae 54 3e db 5e a9 be da 77 bf 3d
       -1.549772e-05 0.20769802 -0.3308018 0.09349032
000150 03 a3 6d 3e a0 d2 aa be c6 e1 b1 bd bb 55 30 bc
       0.23206715 -0.3336382 -0.08685641 -0.010762627
000160 33 95 b0 be 8a 83 5c be 65 fb 51 3e c9 36 af be
       -0.3448883 -0.21534553 0.20506056 -0.34221485
000170 c4 80 d8 be 39 d1 57 bd 4a e2 22 be 6d aa a9 be
       -0.4228574 -0.052689765 -0.15906635 -0.33137837
000180 32 8d f5 bc 9d 66 88 3e 23 ab 13 bf 38 be e2 3e
       -0.029974554 0.26640788 -0.5768301 0.4428575
000190 e9 06 3a be 22 c3 82 be 05 0b f6 bd ee 4f 3e 3d
       -0.18166699 -0.255395 -0.120138206 0.046462946
0001a0 80 66 2c bf b0 9a cf be 29 02 27 3f fe f9 08 3d
       -0.673439 -0.40547705 0.6523767 0.033441536
0001b0 80 cc f7 be ce de 0a 3e c4 e0 89 be f1 11 17 be
       -0.4839821 0.13561556 -0.26929295 -0.14752938
0001c0 9d 58 a4 3e 83 d4 46 3e 36 07 ce 3c 3c 2e 12 3e
       0.32098857 0.19417004 0.025149923 0.1427545
0001d0 de 4e 8d 3e fb 3a 3d 3e c8 2d a0 be 40 47 05 bf
       0.27599233 0.1847953 -0.31284928 -0.52061844
0001e0 de 33 9d bd 91 ed b9 be cc 40 93 3e c0 eb 04 3e
       -0.076759085 -0.3631406 0.28760374 0.12980556
0001f0 20 8d 34 3f d2 ed 2c bd 16 21 03 3e 1b c7 a0 3b
       0.7052784 -0.04221899 0.1280559 0.0049065477
000200 43 ba 9a be 51 8b 34 3e 94 69 7d 3e 1f 2d 8f 3e
       -0.3022023 0.1763127 0.24747306 0.27964112
000210 fe 44 83 be e5 2f 38 be 9f 0e ab be c9 2a bd bc
       -0.25638574 -0.1798702 -0.33409593 -0.02309169
000220 72 40 84 be be ff 98 be b3 a8 ea 3e 75 a0 af bd
       -0.25830418 -0.29882616 0.45831832 -0.085755266
000230 8f da 99 be eb c3 51 bd e1 3e 9c be a9 b6 05 bc
       -0.3004956 -0.051212233 -0.30516723 -0.008161225
000240 9e d2 e4 3e e1 b5 8a 3e bc a9 31 be 7d e7 97 3e
       0.44691938 0.27091888 -0.17349905 0.296688
000250 0b ef d7 3e 5e 25 39 3d e0 bd b2 be 01 7d ca bc
       0.42174563 0.04520165 -0.34910488 -0.02471781
000260 ca 91 a5 be 12 51 75 bd 12 e6 80 3e 1a 4c bc 3d
       -0.3233779 -0.059891768 0.2517553 0.09194203
000270 ce f4 7b be bd c8 13 be c9 7c 9b 3d 19 74 02 be
       -0.24605104 -0.14432044 0.0759216 -0.127396
000280 29 80 2d bb 06 c1 e1 3d 3f 89 25 bf f8 31 67 bd
       -0.0026474094 0.110231444 -0.64662546 -0.05644414
000290 ee f6 55 3d 8f 30 25 3e fd cb 05 3e ba 81 40 3c
       0.052237444 0.16131805 0.13066097 0.011749679
0002a0 ca f6 81 bc 9e fe c1 bd c8 a9 9a 3c 9f 2f 00 bf
       -0.015864749 -0.094723925 0.018879786 -0.50072664
0002b0 c8 a0 3c be 14 b5 ac 3c 60 57 86 bd f9 62 7f 3d
       -0.18420708 0.021082439 -0.06559634 0.062350247
0002c0 80 36 9e 3d c1 78 3d be 03 b9 99 be 10 8c f6 3d
       0.07725239 -0.18503095 -0.30023965 0.120384336
0002d0 51 6b 84 bd 2e 55 46 bd e9 ad b8 3e 4a 57 0d 3e
       -0.064657815 -0.048421077 0.36070183 0.1380283
0002e0 e3 0f 27 bd 21 e3 b8 bc b9 4f d4 bd dd a7 35 bf
       -0.040786635 -0.022569241 -0.103667684 -0.70959264
0002f0 b8 e0 79 be d5 70 0d be df 29 58 be 69 9e ff bd
       -0.2440213 -0.13812573 -0.21109723 -0.12481386
000300 bd fb 55 be ce 07 d3 bd 9c 15 7f bd 7d d8 99 bc
       -0.20896812 -0.10304223 -0.062276468 -0.018779987
000310 6a 25 20 be 87 01 67 3e 6e 9b 71 3d 58 66 2c be
       -0.15639272 0.22559176 0.05898612 -0.16835916
000320 33 95 8e bb 70 d5 33 be 2b c2 71 bd ee 84 12 be
       -0.004351282 -0.17561889 -0.059023064 -0.14308521
000330 fe e7 55 3d d2 0c a2 bd c1 7d 97 bd fa a7 c4 bd
       0.052223198 -0.079126015 -0.073970325 -0.096023515
000340 eb 9a be bd ab 31 f0 bd b0 a6 31 be 26 fe 1d be
       -0.09306892 -0.117282234 -0.17348742 -0.15428981
000350 f3 10 28 3e 6c e8 0e be b5 2f 27 be 5a 14 b7 bd
       0.16412716 -0.1395585 -0.16326793 -0.08939429
000360 4a 29 bf bd 54 46 e3 3d a7 60 10 3e 8a 10 5b 3e
       -0.09334047 0.110973984 0.1409937 0.21393028
000370 66 7b 13 3e ae fb 8d 3d 60 71 8b bd 05 f1 e4 bc
       0.14402542 0.0693277 -0.06808734 -0.027946958
000380 83 f0 c0 3c 04 4e a1 3c da 43 54 be 73 a4 de 3d
       0.023552185 0.019690521 -0.20729008 0.1087121
000390 47 86 50 3e 58 3e 15 3e 9c b7 46 3e a5 2c a1 3e
       0.20363723 0.14574564 0.19405979 0.31479374
0003a0 62 7b 18 be 9f 0b b2 3b b0 d1 d2 3d e3 7b 5d be
       -0.14890817 0.0054335142 0.10293901 -0.2162929
0003b0 3b 79 c1 be 3d a5 52 be 26 71 92 be 9b a4 19 3e
       -0.37787804 -0.20570846 -0.2860195 0.15004198
0003c0 84 4d 8a 3d 1b 72 73 3d 2c 5e 76 3d 86 31 87 3c
       0.06753066 0.05943499 0.060148403 0.016503107
0003d0 3d 51 20 3d ee c6 4d be 79 3d 04 bf c8 f8 4a be
       0.039139975 -0.20095417 -0.516563 -0.19821465
0003e0 c6 a8 92 be 24 fb b1 3e 96 6a 1e be 54 ff 82 bc
       -0.2864439 0.34761918 -0.15470347 -0.01599089
0003f0 8a 72 28 3d e0 65 93 be 01 3d e1 3d cc 65 1a bf
       0.041124858 -0.28788662 0.10997964 -0.6031158

conv1.nn.2.bias f4 [64]
000000 1b fd a5 be 0e e4 0b be 09 0d bc be a8 b2 ea bc
       -0.32419667 -0.13661215 -0.36728695 -0.028649643
000010 c2 c2 0b 3d e8 b3 17 be 70 3d bb 3d 36 ef a6 3d
       0.034121282 -0.14814723 0.09142578 0.081510946
000020 8c 2e 4d be ae 6c df be 4a 34 b2 be 67 2c 20 3d
       -0.20037287 -0.43637604 -0.34805518 0.039104845
000030 cd 66 67 3e 5d d0 1b bf 7f d3 62 be 97 d7 1c bd
       0.22597809 -0.6086481 -0.22150992 -0.03829154
000040 13 51 d1 bd 5a 32 01 bf e2 7d 8d bd 0a 82 2e 3e
       -0.10220542 -0.50467455 -0.06908776 0.17041793
000050 eb 86 c2 be 98 4a e1 bd c2 79 92 be c3 e5 f4 bd
       -0.3799356 -0.11000556 -0.2860852 -0.11957886
000060 b9 6e 98 be a7 9d 60 be c7 bb 73 3d 85 90 cc be
       -0.29771975 -0.2193514 0.05950525 -0.3995401
000070 be 54 3a be 3c c4 01 bb eb 76 15 be 06 e6 c5 be
       -0.18196389 -0.0019800803 -0.14596145 -0.38652056
000080 42 a4 5c bd 0c 1d af be fb e6 b7 3d 80 f4 f4 be
       -0.053867586 -0.34201849 0.08979603 -0.4784279
000090 36 86 09 3e 34 46 0e bd 13 b0 ab bc ec 90 e7 bd
       0.13430104 -0.03473492 -0.020957982 -0.113069385
0000a0 bf 2a 4e 3e ff 33 0b be a7 23 b3 bd 98 4f ff 3d
       0.20133494 -0.13594054 -0.087470345 0.12466353
0000b0 08 82 0b be b0 f2 40 3e 32 e3 b0 3c 5c 79 21 3e
       -0.13623822 0.18842578 0.02159271 0.15768951
0000c0 7f 25 b9 3b 81 44 78 bd 46 ee 81 be 88 23 4c 3e
       0.005650222 -0.060612205 -0.253771 0.19935429
0000d0 2b b2 09 be 42 2f 7c be 83 3f da bd 1a e5 a7 3d
       -0.13446872 -0.24627402 -0.10656645 0.081979945
0000e0 75 d2 90 be fa d7 ee be 31 ec 28 3e 03 d2 75 be
       -0.28285566 -0.46649152 0.1649635 -0.24005894
0000f0 43 91 a6 bd 2d 47 43 3e 6f ea 87 3e 7d 4a 53 be
       -0.08133175 0.1907012 0.26546046 -0.20633884

conv1.lin.weight f4 [9, 3]
000000 66 4b 21 bf 1a a0 dd be a5 0b 9c be d5 c1 71 be
       -0.63005674 -0.4328621 -0.30477634 -0.23609097
000010 4e 07 e0 be 4e 62 70 be b1 c9 8c be 3d bc 55 3f
       -0.43755573 -0.23475 -0.27497628 0.83490354
000020 fc fe 8b be 7f 72 ad bd 53 cd ab bf 6a cf cd be
       -0.27342975 -0.08469104 -1.3422035 -0.40197307
000030 17 0c 8c 3e c5 52 83 bd 95 d8 00 3e 80 47 de be
       0.27352974 -0.064122714 0.1258262 -0.43413925
000040 63 28 44 bf 02 66 74 3f 57 32 94 be 27 ed ff 3e
       -0.76624125 0.9546815 -0.28944656 0.4998562
000050 f1 22 d6 3b 7c a7 d2 3e 08 bb b4 3e 45 cf 13 bd
       0.006534927 0.41143405 0.35298944 -0.03608634
000060 72 21 88 3d 92 e3 80 3f 50 88 19 be
       0.06647004 1.0069449 -0.14993405

conv1.lin.bias f4 [9]
000000 3c f1 d2 3d 7a a5 60 3e 67 bb a7 3a 92 93 5d bf
       0.10299918 0.21938124 0.0012796939 -0.865533
000010 af ab 39 bc 0d e3 9a 3e d7 be ce bd ce 9d 58 3e
       -0.011332436 0.3025135 -0.100949936 0.21153948
000020 0a 8e 30 3e
       0.17241684

conv2.nn.0.weight f4 [128, 64]
000000 e4 a4 13 bf 8e 7b e3 be be bf 2d bf 36 a0 98 3d
       -0.5767348 -0.44430202 -0.678707 0.07452433
000010 48 9e d1 be b8 42 b8 bd 3f 7f 8f bc a2 1c 57 3e
       -0.40941072 -0.089971006 -0.01751673 0.21007016
000020 c4 f3 f4 bd 23 16 5c be a4 dc 2c be 5f 8c 10 be
       -0.11960557 -0.2149282 -0.16881043 -0.14116047
000030 e7 76 8f bd f8 83 00 bf 37 13 fb 3d 6a 5f 73 3c
       -0.07005101 -0.5020137 0.12259524 0.014854291
000040 58 41 c7 3d 55 c5 d3 be 8e 4b 33 3d 8b 87 b2 be
       0.0972926 -0.4136149 0.043773226 -0.34869036
000050 43 3f 2a be 41 a2 8c bf 1e 90 b3 3d 0b 6c 10 bb
       -0.16625695 -1.0987016 0.087677225 -0.0022037055
000060 c7 6a 9d 3e d6 d1 cd be 9c e8 7e bf 4f d6 c0 bd
       0.30745527 -0.40199155 -0.99573684 -0.09415876
000070 5d c9 57 be 57 77 53 bd c7 5e c9 bd 33 4b e3 be
       -0.21072908 -0.051627483 -0.098325305 -0.4439331
000080 55 06 b1 bc f3 6c 5c 3e 16 a4 5a be 40 9b df bb
       -0.021609465 0.21525936 -0.21351656 -0.006823927
000090 c6 b2 a9 3d 69 b1 b5 bd 0c 0b 58 be 80 88 4e 3e
       0.082860515 -0.08871729 -0.21097964 0.20169258
0000a0 14 6d 08 3e 9c ba 8c 3d e9 2b 93 bd 66 80 09 3e
       0.1332286 0.068715304 -0.071861096 0.13427886
0000b0 72 a8 ec be 9c c4 51 3d 06 d5 41 be 8a 77 30 bd
       -0.46222264 0.051212892 -0.18928918 -0.04308275
0000c0 b1 e3 a5 bc 10 01 15 3e 63 88 51 be da 56 38 3a
       -0.020250173 0.14551187 -0.20462184 0.0007031985
0000d0 35 74 24 3c 62 26 ae bc eb 21 5f be 97 24 0f 3e
       0.010037472 -0.021258537 -0.21790282 0.13978802
0000e0 d8 8e cf bd 41 80 36 be d4 f7 58 be 2f 24 6f be
       -0.10134667 -0.17822362 -0.21188289 -0.23353647
0000f0 6d 84 a5 3d cb a7 8c bd 1c 2e a3 be 09 7e 1b bd
       0.08081899 -0.068679415 -0.31871116 -0.037961993
000100 ac 5a b4 bd 99 cf 22 3e 26 29 a1 3d 32 d5 00 be
       -0.08806357 0.15899505 0.078691766 -0.12581328
000110 6a d6 3c bd 5b 74 fd 3d ba 1e 00 3e bb f3 2d 3e
       -0.04610292 0.12375709 0.12511721 0.16987507
000120 98 0e 6d 3e e2 ab 2d 3e 68 0b 06 bd f9 75 43 3e
       0.23150098 0.169601 -0.03272572 0.19087972
000130 44 1a cc 3c 1b 27 ab 3d dd b2 6c bd b7 04 43 3d
       0.024914868 0.08357068 -0.057787765 0.04761192
000140 3e 1a 9c 3d 9e 4b 50 be 65 33 d8 39 20 cb e1 bc
       0.07622193 -0.20341346 0.00041237022 -0.027562678
000150 53 b0 12 be 10 72 1e be 90 56 ee bd 08 ef 1c bd
       -0.14325075 -0.15473199 -0.11637604 -0.038313895
000160 44 87 00 bd ce 0e 1e 3d 28 3e d9 bd 71 ac 33 bb
       -0.031379 0.038588338 -0.106075585 -0.0027416016
000170 af d1 e1 bc 7f c8 5b bd 0c 94 a5 ba 36 15 65 bd
       -0.027565805 -0.053658005 -0.0012632622 -0.05592843
000180 64 37 54 3c 0c bc a0 3d 32 96 8e bd ee 93 d1 3c
       0.012952659 0.07848367 -0.06962241 0.025583234
000190 a4 39 89 3d 0e c0 54 3e 26 ef 8f bd b1 0e 1e 3e
       0.06700447 0.20776388 -0.07028036 0.15435292
0001a0 95 8e 80 be f6 57 54 3d af 02 c1 3c 7b 9d 06 bd
       -0.2510878 0.0518417 0.02356085 -0.03286503
0001b0 24 b1 1b 3c 71 b6 15 3e 36 b7 4f 3d be 16 b5 bd
       0.009502683 0.14620377 0.050711833 -0.08842228
0001c0 d3 cb 3e 3d 99 87 e4 bd d9 4f 75 be 78 0e 5b bd
       0.0465811 -0.11158676 -0.2395624 -0.053480595
0001d0 92 51 17 3e a3 0c 05 be 08 8d c5 3c 6f 57 b2 bc
       0.1477721 -0.12993102 0.0241151 -0.021770207
0001e0 12 3e e2 bd 19 d3 a0 bd 3d 80 0b be 94 ac ab 3c
       -0.11046995 -0.07852764 -0.13623138 0.020956315
0001f0 58 b1 8a bd 66 53 c5 3d 5f ef 27 3d a3 1b 11 be
       -0.06772107 0.096350476 0.040999766 -0.14170699
000200 b0 38 02 3e c1 e4 56 bd 9e ef 5c 3e 21 4a 8d be
       0.12716937 -0.05246425 0.21575782 -0.27595618
000210 4a be 6e be ef 83 31 3d 26 dd 91 ba b7 26 f2 3d
       -0.23314777 0.043338712 -0.001112853 0.118237905
000220 ca 12 4a be 10 72 f9 3d 94 0b 4f be 29 36 15 3e
       -0.1973373 0.12179959 -0.2021926 0.14571442
000230 0c 15 28 bf c1 6d 03 3d f2 40 c1 be b8 0a d8 bd
       -0.65657115 0.03208709 -0.37744862 -0.105489194
000240 03 6c 52 be 83 1b 15 3d 45 25 7f bc 36 ae f5 be
       -0.20549016 0.03640319 -0.015572851 -0.47984475
000250 64 21 3b be 9b 93 e2 be 68 7e 08 3c 29 17 b3 be
       -0.18274456 -0.4425324 0.008330919 -0.34978607
000260 a8 d7 d3 be 7c 5f 85 be 38 c7 7f bd 6f 4a b4 be
       -0.4137547 -0.2604941 -0.06244585 -0.35213038
000270 e2 43 8f be bb da a0 3b 0c 10 37 be bf 82 0e 3e
       -0.27981478 0.004908887 -0.17877215 0.13917063
000280 88 7a b1 be fb 6e a8 be 19 ff 5e 3d f5 ed 8e be
       -0.34663796 -0.3289717 0.0544425 -0.27915922
000290 3a 8d f7 3d 6f ef 43 bc 73 f7 79 be 8f 31 2b 3d
       0.12087484 -0.011958941 -0.244108 0.04179531
0002a0 87 d7 d8 be ea 70 aa be e0 2f d8 bd 36 51 15 be
       -0.42351934 -0.33289272 -0.105560064 -0.14581761
0002b0 47 f7 83 3e 63 19 52 3e 7d 82 36 be 7e 0c 27 be
       0.25774595 0.20517497 -0.17823215 -0.16313359
0002c0 75 3f c6 3d 29 7f 93 be 0e 70 92 be ee fb ba 3d
       0.09680072 -0.28807953 -0.28601116 0.09130083
0002d0 d0 bb 23 bc 2d 93 96 bc 4f 6b 18 3e 8e 9f 9e be
       -0.009993508 -0.018380726 0.14884685 -0.30981106
0002e0 f9 e1 8d bd 68 40 60 3e 96 b1 6b be 4f 60 8a 3d
       -0.069278665 0.21899569 -0.23016962 0.06756651
0002f0 74 a8 f3 3d a1 83 aa bd 54 13 66 be 90 18 41 be
       0.11897364 -0.083258875 -0.2246831 -0.18857026
000300 81 4f 0f 3e b8 ed 9c 3d 4f 38 df 3e 85 97 eb 3d
       0.13995172 0.07662529 0.43597648 0.115035094
000310 ee 05 b7 be 97 c3 31 be a6 37 7b 3e 38 16 b8 be
       -0.35746711 -0.17359768 0.24532947 -0.35954452
000320 af 29 2e 3d 41 f4 67 3d d9 db cd bc 1d b9 cc bd
       0.04252022 0.056629423 -0.025129246 -0.09996245
000330 5c bf ab 3e 3f ee 22 3e 50 2f 82 3d 80 35 77 3c
       0.33544433 0.15911196 0.063566804 0.015088439
000340 5e a0 ef 3d de 65 56 3e 0d a5 7c be e2 bc 02 bb
       0.117005095 0.20937297 -0.24672337 -0.0019949009
000350 c8 7a a7 bd 0a a5 fb bd 49 a0 f0 be 70 51 4b 3e
       -0.081777155 -0.12287338 -0.46997288 0.19855285
000360 bb 33 30 3e f3 a5 dd be ed c4 31 3d 3a ff fd bd
       0.17207234 -0.43290672 0.043400694 -0.12402196
000370 43 5f d4 be e8 d5 01 3e aa 45 a4 bd d7 0c d3 3e
       -0.4147893 0.12679255 -0.080211 0.41220734
000380 36 d3 ef 3d 72 91 1a 3e b5 0e c1 be 25 51 35 3d
       0.11710207 0.15094545 -0.37706533 0.04426684
000390 83 3e 6c 3e 3c 45 4b 3c fa 5a 08 3d 8c c4 e4 3d
       0.23070721 0.0124066435 0.033289887 0.11170301
0003a0 8e 79 1d 3e b1 2d 75 3e 0e 32 4a 3e 51 09 bd 3e
       0.153784 0.23943211 0.19745657 0.3692117
0003b0 b0 2c 95 3e 12 19 bd be d4 eb fd bc 9b 75 35 be
       0.29135656 -0.3693319 -0.03099624 -0.17720644
0003c0 33 0f fd 3d 4e eb 88 3d b1 c2 43 3d 58 b2 7d bf
       0.12356415 0.06685506 0.047793094 -0.99100256
0003d0 42 12 b6 bc b2 c5 7a bd 47 c9 47 3d 8c f9 9f bd
       -0.022225503 -0.061223693 0.048775937 -0.07811269
0003e0 8a cc 88 bd e3 d1 f7 3b dc 5c b8 3d dc c8 44 3e
       -0.06679638 0.0075628622 0.090020865 0.19217247
0003f0 2c cc 88 be b2 de 4c bd 55 d3 c8 3d 97 60 11 3e
       -0.2671827 -0.050017066 0.098059334 0.14197002

conv2.nn.0.bias f4 [128]
000000 60 82 b3 3e 3a bf d7 bd 71 da 38 3e e6 2a 9e be
       0.35060406 -0.105345204 0.18052079 -0.30892104
000010 e4 35 18 3e e7 f7 cf bd 5a 2f bf 3e 2f 72 ff bd
       0.14864308 -0.101547055 0.37340814 -0.12472951
000020 3f f5 33 bd 68 14 82 be ec c0 d5 bd ee dd 86 bd
       -0.043935057 -0.25406194 -0.104371876 -0.065852985
000030 f3 b3 eb be 54 a0 4f be d7 8d 01 be 54 5e 45 be
       -0.46035728 -0.20276004 -0.12651764 -0.19274265
000040 ce a8 34 3e 29 5b 0e 3e 3e f1 19 3d d8 47 9d be
       0.17642519 0.13901962 0.037583582 -0.30718875
000050 ef 00 19 be 42 29 b8 bd 87 9b 76 be 29 91 bd bc
       -0.14941762 -0.08992244 -0.24082766 -0.023140507
000060 ca 57 bb 3e 81 78 8d be 76 84 1b 3e f6 51 8c be
       0.36590415 -0.27631 0.15187249 -0.2740628
000070 5a 6e 4b be 93 ad ae be 17 3d 29 bd f9 65 83 be
       -0.19866315 -0.34116802 -0.041318025 -0.25663736
000080 b3 55 85 be d1 79 21 bd ac f3 80 3e 1b de 5b be
       -0.26041946 -0.039422814 0.25185907 -0.21471445
000090 2b 47 0c be 8e 0a 80 3d e1 76 a3 be 6b cd 03 bf
       -0.13699023 0.06252013 -0.31926635 -0.5148532
0000a0 7e e5 2e bd e4 51 64 3e 4d c2 c5 bd 32 a3 f8 3d
       -0.04269933 0.22296864 -0.096562006 0.12140502
0000b0 27 e0 99 3e 25 d0 d0 be f8 d4 82 bc 2c 7f fd bc
       0.30053827 -0.40783802 -0.015970692 -0.03094443
0000c0 95 cc 5d be b2 15 db 3d f2 3e e0 be 9d 73 86 be
       -0.21660073 0.106974974 -0.43798023 -0.2626008
0000d0 06 9b fc bd 47 f3 06 be 9d e6 ff 3c 45 66 4b be
       -0.12334256 -0.1317874 0.031237895 -0.19863231
0000e0 bc 66 20 be 81 e8 ab be 79 c7 9b be 64 b3 5e be
       -0.1566419 -0.33575824 -0.30425623 -0.2174812
0000f0 fd 53 9a be 34 76 2d 3e 6e 27 a3 be 47 bd 7c 3d
       -0.30142203 0.16939622 -0.3186602 0.061703946
000100 90 75 70 3e ef 55 d4 be bd 94 46 bd 44 9d b3 bd
       0.23482347 -0.41471812 -0.04848169 -0.087702304
000110 1f 9d f6 3e 81 32 a2 3c 66 c6 1c be fc 10 77 bd
       0.4816675 0.019799473 -0.15310058 -0.060318932
000120 70 35 e2 3d ce ed 92 3c a3 87 a7 3e f1 87 17 3d
       0.11045349 0.01793566 0.3272067 0.03699488
000130 00 45 17 3d e1 d2 d0 bd dd 31 2a be b9 e1 58 be
       0.036931038 -0.10196472 -0.16620584 -0.21179856
000140 e8 95 f1 bd 81 5d 11 3e 85 f5 e1 bd dc 1b 11 3e
       -0.117961705 0.14195825 -0.11033157 0.14170784
000150 e5 96 be be 44 79 91 bd 0d 6a ea 3d a9 5e ef bd
       -0.37224498 -0.07103208 0.11446009 -0.11687977
000160 2c 89 8c be 55 f5 32 3e b1 cd 2b be 88 ed 51 be
       -0.27448404 0.17476399 -0.16777684 -0.20500767
000170 67 91 72 3e ab c4 dd bd a6 2c 91 be 06 70 d0 bc
       0.23688279 -0.10828527 -0.28354377 -0.025444042
000180 7e e6 91 be a8 02 ab be 81 e1 a9 3e 06 da 6f bd
       -0.28496164 -0.33400464 0.33179858 -0.058557533
000190 5d 79 84 be 1a 24 c7 be ff 7c 97 be f9 96 b3 3d
       -0.25873843 -0.3889473 -0.29587552 0.0876903
0001a0 fc 0c a0 bd fd a4 ac be 61 6b 97 bd 9f 68 90 bd
       -0.078149766 -0.33719626 -0.07393528 -0.07051205
0001b0 53 12 1b bc a8 08 71 3e 89 49 d0 3e eb 2f 00 3e
       -0.009464818 0.23538458 0.40681103 0.12518279
0001c0 94 f3 a5 3e 8e fe 7d bd d4 25 19 be 45 0b d6 bd
       0.32412398 -0.06201034 -0.14955837 -0.10451368
0001d0 ac 9c 97 3e c1 84 7c 3e 3b 69 19 3e 54 17 b1 3e
       0.2961172 0.24660017 0.14981548 0.3458811
0001e0 d7 9b e6 bc 82 66 96 3e 83 67 31 3d 5a 34 42 3e
       -0.028150482 0.29375082 0.043311607 0.18965283
0001f0 c4 3b 94 be 34 d5 50 be b3 28 d8 bd 53 43 ad be
       -0.28951848 -0.2039383 -0.10554638 -0.33840427

conv2.nn.2.weight f4 [256, 128]
000000 23 77 7c 3e 2a 38 e7 3d 4c 22 cb 3d ec 6d 67 bd
       0.24654822 0.11290009 0.09918651 -0.056501314
000010 ab 27 f0 bd 87 2f 5a 3d 39 aa 26 be 34 d0 af be
       -0.11726316 0.05326798 -0.16275872 -0.34338534
000020 57 6e 0c 3a f6 93 91 bd 04 06 00 3e 27 13 91 bc
       0.0005357018 -0.071082994 0.12502295 -0.017709328
000030 bd 15 7f bd e0 50 1a 3d 8a af 44 3d dc 05 5b be
       -0.06227659 0.037674785 0.04801897 -0.21388954
000040 ea 8c 71 be 24 4c d1 3d 06 69 47 3e d5 fb 88 bc
       -0.2358891 0.10219601 0.19473657 -0.016721645
000050 9e 06 9c 3d b7 34 b9 3d b3 d5 89 3c 1b 92 fa 3d
       0.0761845 0.09043258 0.016825533 0.12234899
000060 c7 e8 43 3e aa e9 6c bd a7 74 cc bd 3c 09 90 be
       0.19131766 -0.057840027 -0.09983187 -0.28132045
000070 ea fc 73 3e dc 5e 60 bd 37 77 35 3e be 19 f7 3d
       0.23826948 -0.054777965 0.17721258 0.12065457
000080 3e e2 b2 bd 9f 17 d7 3c a5 fd 12 3e 28 77 2c be
       -0.087345585 0.02625638 0.1435457 -0.1684233
000090 c4 d2 0e be 5a e6 4a 3c 44 53 a8 bd be f1 b4 bc
       -0.13947588 0.012384022 -0.08219007 -0.022087928
0000a0 34 70 4f 3d 48 d6 14 bc f8 b9 a3 3d c3 d8 0e bf
       0.050644115 -0.009084292 0.07994455 -0.557995
0000b0 da 85 1f 3c 3b 23 39 bc 0a bf 5d bb 17 00 e3 bd
       0.009736503 -0.0112999035 -0.0033835792 -0.110840015
0000c0 3d 05 c7 bc 26 45 0e bd 58 e5 be bd ca 07 2d 3d
       -0.02429449 -0.034733914 -0.093210876 0.042243756
0000d0 27 b2 c6 bd 2b 74 28 be da 40 84 3e af cb 38 3e
       -0.097019486 -0.16450565 0.25830728 0.18046449
0000e0 89 b1 8b bd f3 b1 9f bc 0e 44 35 3e 3f c7 ab 3d
       -0.068209715 -0.019494032 0.17701742 0.083876126
0000f0 94 ca 88 bd e3 5f 8e 3d 2c 6d db bc 2c 8b 40 3c
       -0.06679264 0.06951883 -0.026785456 0.011751931
000100 6a 0e 0b 3e 60 60 ab 3d aa e9 89 3d 49 04 73 3e
       0.13579717 0.083679914 0.06734021 0.23732103
000110 68 47 2b be 84 aa 45 3c 6f d0 c5 3d 09 07 5b 3e
       -0.16726458 0.01206458 0.09658896 0.21389402
000120 62 af 0b 3e 74 73 ba 3d ab 1d a8 3b 72 39 27 3d
       0.13641122 0.09104052 0.00513049 0.04082627
000130 49 48 0b 3e c7 81 b3 bd 4d 98 62 3e 53 ce 20 3d
       0.13601793 -0.087649874 0.2212841 0.039259266
000140 72 47 b3 bc f2 b0 50 3d ed f8 ce 3d cc 3e cd be
       -0.021884654 0.05095 0.101060726 -0.40086973
000150 9f 53 64 bd 66 9f 67 3d 34 46 08 bd 41 f3 4d bd
       -0.05574381 0.0565485 -0.033270076 -0.050280813
000160 83 72 8a 3c 91 6a 14 3e cd 73 74 3d ba f5 66 3e
       0.016900307 0.14493777 0.05968075 0.22554675
000170 03 fa 1d bd e4 8e c1 be 3a 98 81 bd dc 0a e6 3d
       -0.038568508 -0.3780433 -0.06327863 0.1123254
000180 cb 18 ce 3d c7 33 d0 ba f0 d9 f9 be bc 6c 1e be
       0.10063323 -0.0015884571 -0.48799086 -0.15471166
000190 de a5 cd 3d 39 d5 0d 3e 29 e9 b6 bc c3 36 58 3d
       0.10041402 0.13850869 -0.022327976 0.0527866
0001a0 c2 c1 31 3e 78 f8 a4 3d 89 cf 6a 3d da 97 0d 3e
       0.17359069 0.08055204 0.057326827 0.13827458
0001b0 68 c3 09 3e 5a 9a 0c 3d db 0c d4 bb 4b 9d 6d bd
       0.13453448 0.03432689 -0.006471259 -0.058011334
0001c0 3a 02 71 bd 6f 42 f9 3d 27 c8 10 3e f0 8c 4e 3d
       -0.058840014 0.12170874 0.14138852 0.050427377
0001d0 f2 7d f0 3d f2 06 b1 bd b2 40 08 be 85 a2 f7 be
       0.11742772 -0.08643903 -0.1330593 -0.4836618
0001e0 bf 17 af bd 6a e8 d2 bd 69 b7 62 3c ed 37 57 bd
       -0.08549451 -0.10298236 0.013837674 -0.05254357
0001f0 06 6e 61 be 27 44 e3 3d d2 15 ab bd a2 d9 a4 bd
       -0.22014627 0.110969834 -0.08353771 -0.08049323
000200 c7 71 19 3e 10 ab 79 3d a1 da a9 3e e1 3f 2b 3e
       0.14984809 0.060954154 0.33174613 0.16723587
000210 74 6f 1c 3d f6 bf 28 bd 9f fa 17 bf c5 a0 9a 3c
       0.038192227 -0.041198693 -0.5936679 0.018875489
000220 a0 86 33 3e db 24 01 be 1b be c0 bd 72 a7 1c bd
       0.17531824 -0.12611715 -0.0941126 -0.038245626
000230 a7 3c 99 be 99 44 d0 3d 3d 8a 1f 3e 3b f1 9c bd
       -0.29929087 0.10169334 0.15580077 -0.076631986
000240 47 3d 35 3e 21 e4 9a 3e 64 75 04 3e c6 9c a0 3e
       0.17699157 0.30252174 0.12935406 0.3136961
000250 e5 3d 1e 3d 28 f6 c6 3d 8e 53 8c be aa dc 01 3c
       0.038633246 0.09714919 -0.27407497 0.007926146
000260 53 38 94 3d 1c d2 67 bd 26 7e 03 be 8e ab 5c be
       0.072373055 -0.05659686 -0.1284109 -0.21549818
000270 5f 10 da 3c e4 82 3f 3d 6f 96 a1 3d 0f dd 8e 3d
       0.026619134 0.046755686 0.07890021 0.06975757
000280 05 54 e3 3d 1f 4e 99 be c1 ff 3e 3c b1 6f 0f 3e
       0.1110001 -0.29942414 0.011657656 0.1400745
000290 03 a8 eb be d6 a8 ae 3d 2b dc 8f bd a4 e0 12 3e
       -0.4602662 0.08528297 -0.070244156 0.14343506
0002a0 32 ba ec be a7 b7 49 3e 71 95 1c bd cd 3c 50 bd
       -0.46235806 0.19698964 -0.038228456 -0.050839234
0002b0 25 4c 16 3e 18 cf ce be d3 e3 5e 3e 3b 0b 22 bf
       0.14677484 -0.40392375 0.21766596 -0.63298386
0002c0 ff 10 42 be e5 22 2a 3e 73 32 bf 3e 29 4c a2 be
       -0.18951796 0.16614874 0.37343177 -0.3169873
0002d0 ee 96 0e be b2 7d 15 bf 5f 4d 35 be 8f 83 11 bf
       -0.13924763 -0.5839492 -0.17705296 -0.5684137
0002e0 2f 8c b0 3d 6d c0 ad 3d 77 48 12 3e 2f af 44 3d
       0.08620488 0.08483968 0.14285456 0.04801863
0002f0 9d 14 0a bf 95 db 34 3d ed 29 96 bb a7 b7 e7 3d
       -0.53937703 0.044154722 -0.0045826347 0.11314326
000300 a9 d6 3a be 72 59 b1 be 8a ce 20 3c 56 79 02 be
       -0.18245949 -0.34638554 0.009814868 -0.12741598
000310 ca e3 34 be a0 0c f7 3c 6b 2a 7f bd 06 a2 f8 bd
       -0.1766502 0.030157387 -0.062296312 -0.121402785
000320 93 b3 01 3b f7 36 5e 3d 7c 5b cf 3e b6 f1 28 3e
       0.0019790872 0.054251637 0.40499485 0.16498455
000330 b0 44 f1 bd 6a 6c 61 be c2 9e 29 be 71 62 dc bd
       -0.11780679 -0.22014013 -0.16564468 -0.10760964
000340 8e 86 9b be 10 72 ac be b2 07 20 3e 7c 35 84 3d
       -0.30376095 -0.33680773 0.15627936 0.06455514
000350 9a d2 da 3a 1a 5d e5 3c 12 f6 f6 3d 5f e6 5d bd
       0.0016694844 0.027998496 0.12058653 -0.054174777
000360 18 36 84 be 4d 4d 5c be 24 98 5e bd 75 b5 64 3d
       -0.2582252 -0.21513863 -0.05434431 0.055837113
000370 9a 00 c7 bd 0b cb 65 3e dd 1d 84 3e c2 33 d4 bd
       -0.097169116 0.22440736 0.25804034 -0.103614345
000380 30 5b 24 be c4 b6 f2 bd db 93 29 bf 92 82 23 be
       -0.1605041 -0.11851266 -0.66241235 -0.15967777
000390 8a e3 ce bd 74 bd a7 be e0 ac 87 3d 39 f2 95 3e
       -0.101019934 -0.3276173 0.0662477 0.29286364
0003a0 86 9e 1c be 8e 74 d5 bd 22 d6 ff 3d 95 73 21 bd
       -0.15294847 -0.10422622 0.124920145 -0.03941687
0003b0 79 55 49 be c2 87 98 3d 48 11 ac 3d 24 a7 3d be
       -0.19661511 0.07447769 0.08401734 -0.1852079
0003c0 4c 03 9c 3d 27 a5 ed 3a a1 cb 3f be cb bd be be
       0.07617816 0.0018130884 -0.18730022 -0.37254176
0003d0 07 9f 1c bc 39 01 a4 bc d1 f6 02 bf f2 c3 3b 3d
       -0.009559399 -0.020020114 -0.5115786 0.045841165
0003e0 f8 7e cc 3c 6a 69 29 be c1 d9 93 3d f7 59 96 3e
       0.024962887 -0.16544119 0.07219268 0.29365513
0003f0 9f 09 44 3d 3e b6 ab 3d 83 26 3b be a0 b8 35 be
       0.047860738 0.08384369 -0.1827641 -0.1774621

conv2.nn.2.bias f4 [256]
000000 f1 0d 9c be f4 1a f0 bd b0 c6 3d 3d 09 9c 40 3d
       -0.30479386 -0.11723891 0.04633206 0.047023807
000010 20 64 ea bc 0a 19 9d be b0 18 d4 be e2 af f9 3d
       -0.028612196 -0.30683166 -0.41425085 0.1219175
000020 7f 59 12 3e 9f 70 43 3d 52 ff 78 bd 41 c8 40 3d
       0.14291953 0.047714826 -0.060790367 0.047065977
000030 40 3c 29 be 43 03 93 3d d4 3f 3b be 13 46 97 bd
       -0.1652689 0.071783565 -0.18286067 -0.073864125
000040 d8 cb 50 be 42 21 64 be 44 19 a0 be de 59 5f be
       -0.2039026 -0.22278312 -0.31269276 -0.21811625
000050 a9 9a 94 be 48 52 0d 3e 65 1c 13 bd 36 7f d7 bd
       -0.29024246 0.13800919 -0.03591575 -0.105223104
000060 39 86 63 bd 59 34 84 be 51 e5 3f 3e 9f 22 08 3e
       -0.055547927 -0.25821188 0.18739821 0.13294457
000070 a5 f9 70 be 0b 1a 7c be 72 59 0c 3d 73 0f 52 bd
       -0.23532732 -0.2461931 0.03426499 -0.051284265
000080 22 23 35 be d8 03 c0 3d 63 e1 ad bd 9a 40 fb bd
       -0.17689183 0.09375733 -0.08490255 -0.12268181
000090 82 15 29 3d b2 6a 71 3e a8 bd 73 be 50 f9 31 3e
       0.041280277 0.23575857 -0.23802817 0.17380261
0000a0 52 1d 8f bd 11 09 93 be 61 24 9e 3d 88 c8 46 be
       -0.06988014 -0.28717855 0.077217825 -0.19412434
0000b0 cb 8f 6a be 72 b1 f8 bd 7a 9f 74 3d be 5e 7f be
       -0.22906415 -0.1214322 0.0597224 -0.24938485
0000c0 51 40 74 be 06 9e 82 3d 16 2a 54 be 93 72 96 bb
       -0.2385266 0.06377797 -0.2071918 -0.004591295
0000d0 22 16 46 be 23 88 ee bd 8a ce 83 ba 8c fe 86 be
       -0.1934438 -0.1164706 -0.001005606 -0.2636608
0000e0 11 2b b6 3d 57 91 d2 bd 78 2b e2 bd 49 b1 8a be
       0.08894933 -0.102816276 -0.11043447 -0.27088383
0000f0 ad 92 84 be 5e f1 2d be 18 8d 12 be e4 41 26 3e
       -0.25893155 -0.16986606 -0.14311635 0.16236073
000100 45 9a 92 be 33 fc 28 3e a2 03 ae b9 16 5b 7f be
       -0.28633323 0.16502456 -0.00033190573 -0.2493709
000110 5d 96 ff 3c d2 3b bb be a3 ac 88 bd 73 99 03 3e
       0.031199628 -0.36569077 -0.06673553 0.12851505
000120 d0 1a 45 3d 3c 17 8c be f9 c7 a0 bb 0b 43 4b bd
       0.048121274 -0.27361476 -0.004906651 -0.049624484
000130 11 f7 62 3e da 62 04 3e 36 68 86 bd 60 a8 33 3c
       0.22164561 0.12928334 -0.065628454 0.010965437
000140 f7 59 59 be 3b 44 b8 bd b7 04 a5 be d8 18 81 3d
       -0.21225725 -0.08997389 -0.3223016 0.06303567
000150 3d 9f b3 be a7 5b d7 bd a0 e8 af be 2c 72 67 be
       -0.35082427 -0.10515528 -0.34357166 -0.22602147
000160 ad 1a 6e be ca d6 d3 bd a7 96 84 be e4 ff 18 be
       -0.23252364 -0.10343702 -0.2589619 -0.14941365
000170 4d e9 ed bc 5f 3a 7e bd c1 04 d3 3d 2f 67 a1 be
       -0.02904191 -0.062067386 0.10303641 -0.31524035
000180 a7 b2 63 bd ff 6e a0 bd ee 41 22 be 51 42 63 be
       -0.055590298 -0.07833671 -0.15845463 -0.22193266
000190 c5 03 78 bd 16 03 5f 3e b8 67 61 be 2e 66 04 be
       -0.06055047 0.21778521 -0.22012222 -0.12929603
0001a0 b4 5b aa be 4e 99 d7 bd d6 09 48 be 7b ad 3f 3c
       -0.3327309 -0.105272874 -0.19535002 0.011699076
0001b0 f1 fd e2 bc 07 da ed bd 47 bb 55 be 77 08 9f be
       -0.02770898 -0.11613851 -0.20872222 -0.31061146
0001c0 b3 73 23 be ac 52 af 3c 8c 6b 09 3d cb d1 be be
       -0.15962104 0.021401726 0.03354983 -0.37269434
0001d0 f9 4a 9c bd d6 84 9f bd f4 14 0d be bf bc 20 be
       -0.076314874 -0.07789008 -0.13777524 -0.15697001
0001e0 de 8a 09 3d 68 6e 38 bc a4 8f 42 3d a1 ad 55 3e
       0.0335797 -0.011256792 0.047500268 0.20867015
0001f0 27 fa dd 3d 0e 7e 0f be 60 fd b8 bd cd eb 58 3b
       0.108387284 -0.1401293 -0.090327024 0.0033099533
000200 85 76 6e be 0b 66 a7 bd 9b ba 09 3d fb ff a3 3c
       -0.23287399 -0.0817376 0.033625226 0.020019522
000210 6f 38 3c 3e 60 16 1f 3e 33 6c e5 bd 93 95 45 be
       0.18380903 0.15535879 -0.11202278 -0.1929534
000220 18 a3 61 be 6b 13 37 3c 4e 72 37 bd 89 ba 05 3e
       -0.22034872 0.011174063 -0.044786744 0.13059439
000230 b1 af c3 bd b8 29 04 3d c3 4d c4 3c 96 87 08 3e
       -0.09554995 0.03226635 0.02396286 0.13332972
000240 64 ee ac be 4f 41 dc bd 15 5d b6 3d 27 6c 28 be
       -0.33775628 -0.10754644 0.08904473 -0.16447507
000250 a3 d9 46 be 30 85 10 3b c6 1e 71 3d d2 7e 2e be
       -0.1941896 0.0022052042 0.05886724 -0.17040566
000260 8b b9 c0 be 03 59 45 bd 7a 78 cc bd 06 f1 79 be
       -0.37641558 -0.04818059 -0.099839166 -0.2440835
000270 3a 5b 89 be 3c 7e 36 be 00 44 5f be c1 48 7d 3d
       -0.26827413 -0.17821592 -0.21803284 0.06183696
000280 8f de 5f be cb fd 61 be 3a ca 8c bc fb f0 6a 3d
       -0.21862243 -0.2206947 -0.017186273 0.057358723
000290 f2 6e 8f bc 9e b4 1f 3e 18 d2 26 be bf 6d 20 be
       -0.017508958 0.15596244 -0.16291082 -0.15666865
0002a0 ec 3b 3f 3e 7c 52 25 bd 55 2c 2d bd dc 92 3c bd
       0.18675202 -0.040361866 -0.042278606 -0.046038494
0002b0 f1 cd 95 be e7 99 94 3a e6 c7 b2 3d af c5 c3 bd
       -0.29258683 0.001133737 0.08729534 -0.095591895
0002c0 2e 85 f7 3c 76 d9 8f 3d 54 43 23 bd 16 09 5d bd
       0.030214872 0.07023899 -0.03985913 -0.053963743
0002d0 6b 07 57 be 08 7e 3b 3d 5d c8 3c be f1 d7 1d 3e
       -0.20998923 0.04577449 -0.18435808 0.15414406
0002e0 f6 6c fb bd 8f a7 02 be 9d e8 90 be 3f 5f 8d 3e
       -0.12276642 -0.12759231 -0.2830247 0.2761173
0002f0 6f 4c 3e 3e 6d 5f c7 bd 2b c8 87 be 43 f3 b0 be
       0.18583845 -0.09734998 -0.26519904 -0.34560594
000300 c7 73 bf be d5 a3 c7 bd 18 48 b3 be ff 0e 54 be
       -0.3739302 -0.09748045 -0.3501594 -0.20708846
000310 08 cd ca bb 76 ce 97 3d 80 20 2a be 57 6c 84 be
       -0.0061889924 0.07412426 -0.1661396 -0.25863907
000320 85 f5 b0 3c 69 04 59 3e d6 ee 13 be 04 6e 82 3e
       0.021601448 0.21193089 -0.14446577 0.2547456
000330 b3 15 19 bc 0e 21 14 be 51 2f d7 bd 5b 41 d4 bd
       -0.009343552 -0.14465734 -0.10507072 -0.10364028
000340 a3 d2 49 be bd 53 b4 bc 90 ae a3 bb 21 06 ad bc
       -0.19709258 -0.022012586 -0.0049951747 -0.021121087
000350 99 27 6f be 92 70 5b 3e 32 3c 5e 3d 2f d8 91 bd
       -0.23354949 0.21429661 0.054256625 -0.07121312
000360 13 66 eb bd f8 07 75 bd b5 d6 00 be 7d 0c 0e 3d
       -0.114940785 -0.059822053 -0.12581904 0.03467988
000370 a3 41 25 3b 9e 1d 53 be af a6 66 3e dc 95 9b 3c
       0.0025216124 -0.20616767 0.22524522 0.018992357
000380 4c 2e 07 be 92 bd 75 be 24 17 f3 bd 91 5f 68 be
       -0.13201255 -0.23998097 -0.11869648 -0.22692706
000390 53 13 cd bb a7 25 80 3d 76 f0 a5 3d 79 3d 34 bd
       -0.006258407 0.062571816 0.08102505 -0.044003937
0003a0 19 df 5b bd c0 2d 4b bd 37 e9 b3 be 47 b3 46 be
       -0.05367956 -0.049604177 -0.35138866 -0.19404326
0003b0 ae 3d 7d 3d 66 37 e7 3d 4f c6 6e be c8 fe 55 bd
       0.0618264 0.11289863 -0.23317836 -0.05224493
0003c0 30 45 ed be 6f 79 32 3d 6d eb 16 3e 15 90 a9 3d
       -0.46341848 0.04357284 0.14738245 0.082794346
0003d0 08 a5 18 bd d1 50 08 be e5 d6 84 be cc 3b d2 be
       -0.03726676 -0.13312079 -0.25945202 -0.41061246
0003e0 69 76 5a be ad ae ff 3d 3a ed 89 be af ad c1 3d
       -0.21334232 0.12484489 -0.26938802 0.09456956
0003f0 76 a8 a1 bd 1c 08 66 3c b2 bc fa be fe b4 21 be
       -0.078934595 0.014040019 -0.48972088 -0.157917

conv2.lin.weight f4 [64, 3]
000000 1b fe 56 be ef 0a 09 bf 1e ab 04 3e af 8e 61 be
       -0.20995371 -0.5353231 0.12955901 -0.22027086
000010 46 50 ec be cf 0d 22 3f 88 ef 0a bf 44 b8 84 3f
       -0.46154994 0.6330232 -0.54271746 1.0368733
000020 1b 37 39 3f 78 38 85 3d ae 4a e4 be a4 55 30 3a
       0.7234971 0.06504911 -0.44588226 0.00067266286
000030 88 be e0 be 4d 46 b1 be 5c 4b b7 be 2c 8a 88 be
       -0.43895364 -0.34623948 -0.35799682 -0.26667917
000040 ad 7b f9 be e3 7e 01 bf 40 b0 9d bc 1c c3 e0 3f
       -0.4872717 -0.5058424 -0.019249082 1.7559543
000050 d7 4d a3 bc 2b 5c 15 bf a7 3f a3 be 36 41 35 be
       -0.019934578 -0.5834376 -0.318845 -0.17700657
000060 3b 66 94 bf d4 25 61 be f2 80 e7 3e d0 50 80 be
       -1.1593698 -0.21987087 0.45215565 -0.25061655
000070 14 7c 4e bd 5e 4f d6 be 44 ee a3 3d 98 83 aa be
       -0.0504113 -0.41857427 0.0800443 -0.33303523
000080 0a df c0 be 76 7a 9a 3d 17 7e 31 bd 8f a6 35 be
       -0.37670165 0.07542889 -0.04333314 -0.17739318
000090 a4 4d 82 3e df ac 33 3f b5 d3 f0 3c a1 d1 ed be
       0.2544986 0.70185655 0.029397825 -0.46448997
0000a0 20 9b c6 be 03 ce 0e be ed 6a 02 bd 24 17 d6 bd
       -0.38790226 -0.13945775 -0.031840254 -0.104536325
0000b0 65 ff 0c 3c 29 dd 92 3a d0 22 13 3f 80 72 56 be
       0.008605813 0.0011204827 0.57474995 -0.20942116
0000c0 d4 f0 14 3d c3 59 48 3e cd 06 6a be 5a 15 16 bf
       0.036362484 0.19565491 -0.22854157 -0.5862633
0000d0 ee e6 c8 be 44 c4 fc bd 46 a5 fa be aa 8d 6a bf
       -0.39238685 -0.12342122 -0.4895422 -0.9162241
0000e0 8f 61 1f be 1f 2f 26 3e 99 6f 36 3e 9b 2d 03 bf
       -0.1556456 0.16228913 0.17816009 -0.51241463
0000f0 58 8a 7a bc 33 8d 63 3f 61 15 cc be c3 31 a7 bf
       -0.015291773 0.8888733 -0.3986006 -1.3062061
000100 b7 e5 60 be 26 3d 10 bf 5c 12 9e bf 2d 7d 2a bf
       -0.2196263 -0.56343305 -1.2349353 -0.66597253
000110 5c 98 02 bf a9 97 c6 3e 23 b3 d9 3e 50 91 9d 3e
       -0.5101373 0.38787583 0.42519483 0.30774927
000120 4d 44 73 3e 98 de b3 3f a6 af 52 bd 0d 32 ad be
       0.23756523 1.4052305 -0.051437043 -0.33827248
000130 89 19 c4 be d8 a1 af be f4 be 4f bf 9b 94 6b 3c
       -0.38300732 -0.34303164 -0.81150746 0.014378692
000140 40 b2 a6 3e de d3 f7 3c 11 10 f1 be 69 49 04 bf
       0.3255787 0.030252393 -0.4708257 -0.51674515
000150 be 5d 0d bf 89 b6 1d 3f 2f b4 e5 be 2f 80 00 be
       -0.55221164 0.6160665 -0.44864032 -0.12548898
000160 86 6b 38 be 3b 54 ec 3d 4c 47 1e bf 95 ea 2b bf
       -0.18009767 0.11539503 -0.6182754 -0.6715482
000170 14 49 5a bf aa 66 24 bf 64 38 71 be 38 99 1b 3f
       -0.8526776 -0.6421915 -0.23556668 0.6078067
000180 9e 70 79 3e 18 41 c9 bd cf 32 eb bd a6 08 ad 3e
       0.24359366 -0.09826869 -0.114843 0.3379566
000190 1c dd 47 3e 46 62 2a bc 4c 16 a0 bf 02 a7 6b 3f
       0.1951794 -0.010399407 -1.2506804 0.9205171
0001a0 f2 d9 b5 bd 4c 9b e5 3c d9 8a 01 bf ce 99 dc bd
       -0.088794604 0.028028153 -0.5060249 -0.107715234
0001b0 58 58 92 3e 2e 98 0a bf ff 2e a7 bd fb 0c 09 bf
       0.28583026 -0.5413846 -0.08163261 -0.5353543
0001c0 9e ef 0e bd 71 c3 e7 bc 2e 04 a8 bc d2 33 3a bf
       -0.034896486 -0.028291436 -0.020509806 -0.7273532
0001d0 a8 70 24 bc 6f 35 e1 3e 62 7b d1 3d 8f 55 00 bf
       -0.010036625 0.4398608 0.102286115 -0.5013055
0001e0 57 34 0d 3e dc 57 1e be 81 5f 88 3e cc 0e 1b 3e
       0.13789497 -0.15463203 0.26635364 0.15142363
0001f0 e9 74 2c 3f e4 bc c6 3e 0c 73 3a bc 4b f5 4e 3f
       0.6736589 0.38815987 -0.011379968 0.8084304
000200 74 d4 99 3e c0 73 c1 bf 79 4a c8 be a2 f4 6d bf
       0.300449 -1.5113449 -0.39119318 -0.92951405
000210 b2 f8 5a bf 2d 5b df be 99 bc 4e 3f c4 45 ea be
       -0.8553573 -0.4362425 0.8075653 -0.45756352
000220 56 be d5 be b2 31 25 be d7 5e 81 be 01 43 30 bf
       -0.41746777 -0.16132239 -0.2526767 -0.6885224
000230 cd 32 d7 be e9 06 ef be 0e cb 3d bf 23 08 03 3e
       -0.42030945 -0.4668496 -0.7413796 0.12796073
000240 08 54 76 bf 2a 9e 92 3e ad 2b b0 be 3e 92 bd 3e
       -0.9622197 0.28636295 -0.34408322 0.37025636
000250 66 24 f5 be fe 2f d3 be 8c 13 d7 be 40 f4 8f 3f
       -0.47879332 -0.41247553 -0.420071 1.1246414
000260 30 b7 d7 be 77 29 67 be 32 a0 3d 3e 9f a0 61 3b
       -0.42131948 -0.22574411 0.18518141 0.0034428013
000270 ca c7 0c bd 39 d5 81 be 5e df 28 3d ff 9c 01 3d
       -0.03437022 -0.25357988 0.041228645 0.031643864
000280 f2 b4 03 be 49 6d 56 be 49 a4 2c be 7d 64 a8 be
       -0.12861994 -0.20940126 -0.16859545 -0.32889166
000290 6a 50 c6 3e 93 e3 a5 3e 55 40 85 be 52 a0 d4 3c
       0.38733226 0.32400188 -0.26025644 0.025955353
0002a0 2a 16 45 be c6 f7 2a 3e d2 fc 1e bd 69 ac bd bb
       -0.19246736 0.1669608 -0.038815327 -0.005788375
0002b0 c9 59 14 be 28 86 53 bd 91 41 aa 3e 5b d6 d5 3e
       -0.14487375 -0.051641613 0.33253148 0.41765103
0002c0 a0 63 2f bf f1 29 29 be 7d fa 50 3f 4a 28 c1 3c
       -0.6851139 -0.16519906 0.81632215 0.023578782
0002d0 3c a5 4a 3a aa bd d9 be cc e9 5e 3e 37 8c 83 be
       0.00077303103 -0.42527515 0.21768874 -0.25692913
0002e0 33 fd 86 3e b6 47 11 be 67 e9 d4 be ef c0 3b 3c
       0.2636505 -0.14187512 -0.41584322 0.011459573
0002f0 0b a5 49 3e e3 6d 3f be 61 5e fb 3d 9c 52 d3 be
       0.19691865 -0.18694262 0.12273861 -0.41273963

conv2.lin.bias f4 [64]
000000 f3 4a 94 3e aa 40 36 3d 4e e7 54 be ce 07 1b 3c
       0.28963432 0.044495262 -0.2079136 0.00946231
000010 98 4e a4 3e 97 06 01 bf c3 ba 0f bd 85 5c d8 bf
       0.32091212 -0.5040068 -0.03509022 -1.6903235
000020 54 a9 f3 be 68 4b af be 5a 99 32 3e af 50 0d be
       -0.47590125 -0.34237218 0.17441311 -0.1380031
000030 53 cb 17 bf 81 cf 84 3e f5 2e 86 bc ca 82 46 3e
       -0.59294623 0.25939563 -0.016379813 0.1938583
000040 47 01 67 be ca 22 a9 3e e6 42 c3 3d 5e fc 9e bd
       -0.22559081 0.33034354 0.09534244 -0.07762979
000050 4a 7c 50 3e 5e 78 ab 3e bd 54 a1 be 11 33 97 be
       0.20359913 0.3349027 -0.31509963 -0.29531148
000060 cd c4 dc be 20 cb a7 3e d8 09 0a bd 2d a3 a2 3e
       -0.43118897 0.3277216 -0.033700794 0.31765118
000070 a8 43 e5 3e 33 78 4e bc cb 36 ad 3b aa 27 0c 3b
       0.4477818 -0.0126019 0.005286073 0.0021385946
000080 c5 2e 00 3d f2 6b be 3c 7e 53 0f 3d 44 70 11 3e
       0.031294603 0.023244832 0.034991734 0.14202982
000090 7e dd cd be b9 d3 37 bf 32 28 d4 bb 78 64 06 3c
       -0.40208048 -0.7180744 -0.006474518 0.008202665
0000a0 3d 4b e5 be 81 71 c3 be 1d d8 bf be 7d 89 97 be
       -0.44783965 -0.38172534 -0.3746957 -0.29597083
0000b0 06 0a f6 3b da 79 44 bf 0c ee b7 3a 8c 9d 08 be
       0.007508519 -0.7674843 0.0014032735 -0.1334135
0000c0 99 db 9e bc 9d 13 a5 bd bc 6a c0 3d 9e 35 a7 3b
       -0.019391822 -0.080603816 0.09395358 0.005102827
0000d0 20 97 67 be 08 d4 01 3e ef 10 9a be ca aa 8f bc
       -0.22616243 0.1267854 -0.30091044 -0.017537493
0000e0 9c 90 17 be 81 42 3f 3e 24 ba cd bd 8a b4 8f bd
       -0.14801258 0.18677713 -0.10045269 -0.07016857
0000f0 1f 62 78 be 25 ea 13 bb b1 74 58 be ef 16 95 3e
       -0.2425618 -0.002256998 -0.21138264 0.2911906
