A3/regression/custom.pth (torch, 356051 bytes, 19 tensors)

conv1.nn.0.weight f4 [32, 9]
000000 00 0e b9 be 4a 3d a5 3e e1 ac e1 3e b7 95 40 3d
       -0.36143494 0.32273322 0.4407721 0.04701778
000010 ba 4c c4 3e 4f 91 e2 be 7d 13 74 be fe e1 f4 3e
       0.38339788 -0.44251487 -0.23835559 0.47828668
000020 c3 31 83 bd 4a 71 9c be 36 e2 2f 3e a9 b9 bd 3e
       -0.06405976 -0.30555183 0.17176136 0.3705571
000030 66 b0 21 3e b4 7e 0b be fa 34 e8 3d af a6 82 3e
       0.15789947 -0.13622552 0.113382295 0.25517794
000040 c5 37 89 3f 18 6d ca be 24 7e b6 3e 3e 2a 2f 3f
       1.0720145 -0.39536357 0.35643113 0.6842383
000050 4f f5 2e be 57 65 7f be 3c 0d cd bc e5 11 40 3e
       -0.17085765 -0.24941002 -0.025030725 0.18756826
000060 e6 b1 25 3c b7 b2 09 3e fa 4f 40 be 1b 2e d0 bd
       0.010113215 0.1344708 -0.18780509 -0.10165044
000070 59 53 14 bf 1d 55 ac bc 8b 8a 0b 3d d6 e3 91 bd
       -0.5793968 -0.021036679 0.03406767 -0.071235344
000080 72 0b 8d bd 35 e4 0c 3d 55 84 93 be f2 6f ca 3d
       -0.06886949 0.034397323 -0.288119 0.09884633
000090 b7 56 48 3d 0e 3c c7 be 9c 4a 02 bf 02 6d 85 3e
       0.048910823 -0.38913006 -0.50895095 0.2605973
0000a0 8b c7 d2 3e 5e 19 83 be e9 c7 b5 bd b7 8c 47 3e
       0.41167864 -0.2560529 -0.088760205 0.19487272
0000b0 80 e0 02 3e 5c 55 25 be 58 0a 3b bd 19 49 c0 3d
       0.12780952 -0.16145843 -0.04566416 0.09388942
0000c0 ec e7 0d 3e c0 cd 2a be 16 6b 8c be cf cb 6c be
       0.13858002 -0.1668005 -0.2742545 -0.23124622
0000d0 6a 64 bb be e1 d4 9a 3d 0d 9e 52 3e fb 41 30 bd
       -0.36600047 0.07560135 0.20568104 -0.043031674
0000e0 e8 27 32 be f8 2f ac 3d 75 6e 06 3f be 81 b7 be
       -0.17398036 0.08407587 0.52512294 -0.35841173
0000f0 d2 10 05 bf f5 ea d6 be 1a 6e 8d be a9 bd a8 3d
       -0.5197879 -0.41976133 -0.27623063 0.082393
000100 87 f2 e9 bc e0 25 c9 be 47 f3 14 3e c0 ae c6 3e
       -0.028558029 -0.3928671 0.14545928 0.388052
000110 6f d8 cb be e9 12 d8 3e 7e 2b a6 be 63 fe ae be
       -0.39813563 0.42201927 -0.32455057 -0.34178457
000120 f9 f7 39 3e eb 9c 0a be 49 bb 78 bd 2c 92 d0 bd
       0.18161 -0.13536422 -0.060725484 -0.1018413
000130 21 09 8b 3e 9b 49 9d 3d 97 5a 06 bf 7e 96 bc 3e
       0.27155402 0.07680055 -0.5248198 0.36833566
000140 69 2c a9 be 59 4d 6d 3e fb 34 e8 3e c4 0e b0 be
       -0.33041695 0.23174037 0.4535292 -0.34386265
000150 5e 9c 1f 3e 34 22 a2 be 24 9d 5f be 79 fe 34 3e
       0.15586993 -0.3166672 -0.21837288 0.17675199
000160 c8 6d 89 3d a9 78 6c be 1a 3e 58 3d a2 a9 03 bf
       0.06710392 -0.23092903 0.0527936 -0.51430714
000170 7c 94 28 3e 7b 88 f2 3c a4 57 98 be 79 27 e2 3d
       0.16462892 0.029606095 -0.29754364 0.11042685
000180 7c 60 92 be 26 e3 48 3e bc 6a c0 3e 9b 7a b5 be
       -0.28589237 0.196179 0.37581432 -0.35445103
000190 06 30 1f bf f6 af 19 3d 45 e0 c1 3e a1 d9 2b 3e
       -0.6218265 0.037521325 0.37866417 0.16782238
0001a0 bb ff 9c bd 74 38 42 3e 32 0e 08 be 8c 6b 94 3e
       -0.07665964 0.18966848 -0.13286665 0.28988302
0001b0 37 67 59 3e ed 95 d0 bd 1b 87 04 3e 64 b6 38 be
       0.2123078 -0.10184846 0.12942164 -0.18038327
0001c0 06 ab b1 3e b0 67 86 3e d6 09 05 bf 09 f3 0e be
       0.34700793 0.26250982 -0.51968133 -0.13959898
0001d0 18 0c bd be bd ed a1 bd d9 42 50 bd 2c 8a 56 3e
       -0.3692329 -0.07906673 -0.050845 0.20951146
0001e0 cc a1 0b 3e a0 0d 87 be c2 66 a7 bd ce 30 a6 3c
       0.1363594 -0.26377583 -0.08173896 0.020286944
0001f0 d4 16 8b bd de 05 4d be 25 75 83 3d 4c 76 45 be
       -0.067914635 -0.2002177 0.06418828 -0.19283408
000200 58 94 37 be a7 d5 aa 3d 8f e1 c9 be cb bf 86 bc
       -0.17927682 0.08341532 -0.394299 -0.016448876
000210 97 29 7d 3e 20 06 f4 be f4 1f d0 3c e5 5b 31 be
       0.24722897 -0.47660923 0.025405861 -0.17320211
000220 4b 25 26 3e 16 d5 9d bd e5 8d 8b 3c 91 b8 07 3e
       0.16225164 -0.077066585 0.017035434 0.13254
000230 cf 10 be bd 7e 11 ef 3d 46 29 32 be df 7f 87 3e
       -0.0928055 0.11673258 -0.17398557 0.26464745
000240 ee e5 38 bd ca 08 20 3f c6 25 b6 be a3 49 43 3e
       -0.045141153 0.6251341 -0.35575694 0.19071059
000250 50 55 18 bf 5a b5 26 3e da 58 32 3c 9c 12 02 be
       -0.59505177 0.16280118 0.010885442 -0.12702411
000260 a8 70 85 3e ed 7c 43 3e 93 59 d7 3d 85 1d 06 bd
       0.26062512 0.19090624 0.10515132 -0.032742996
000270 77 fc 85 bd eb de 89 bd 3c 44 34 be 56 02 08 3e
       -0.065422945 -0.06731971 -0.17604154 0.13282141
000280 20 cb 03 bf 28 0f d8 be e6 bf 80 be cc 72 9c be
       -0.5148182 -0.42199063 -0.25146407 -0.30556333
000290 ee 5e 51 3e e5 d7 7e bd da 58 9f be 95 18 16 3f
       0.20446369 -0.06221761 -0.31122476 0.5863126
0002a0 8b 4f 9f 3e ef 9c a2 3d 03 0f d6 3d a6 5a b1 be
       0.31115374 0.07940089 0.10452082 -0.34639472
0002b0 22 55 b7 3e 69 14 04 3e 8e 4b 9d 3e 8c 89 bb 3b
       0.3580714 0.12898411 0.30721706 0.005723184
0002c0 f7 3f 8c be be 47 3e 3e f5 59 bb 3e 65 db 65 3e
       -0.2739255 0.18582055 0.3659207 0.22446974
0002d0 75 e8 59 3e b2 46 ab be 3c 93 a9 be b8 4e 92 3d
       0.21280082 -0.33452374 -0.33120143 0.07143921
0002e0 a0 c4 1a bf 5b d9 ab bc ba c2 41 be b7 e2 de 3e
       -0.60456276 -0.020977667 -0.18921939 0.43532345
0002f0 21 35 82 3d 06 18 66 bd 53 e2 15 3e 23 42 7e be
       0.0635779 -0.056175254 0.14637117 -0.24829917
000300 11 64 b2 3e da cf af be 99 89 81 3e 73 5d 4f 3e
       0.3484197 -0.34338266 0.2530029 0.20250492
000310 41 9d 5e be 61 92 27 be 28 6e 3e 3c 43 55 6a be
       -0.21739675 -0.16364433 0.011622943 -0.22884087
000320 7c 33 33 bd 0d 22 ef bd e6 1a 3e 3e 4b 28 da 3e
       -0.04375027 -0.116764165 0.18564948 0.42608866
000330 11 9c 31 bc 4d ab 04 3d 8a d0 c8 bd a5 0a 67 3e
       -0.010840432 0.032389928 -0.09805401 0.22562654
000340 ee 0c 02 3e f2 8b 7e be b0 ad 3c be e3 b2 cc be
       0.12700245 -0.24858072 -0.18425632 -0.3998023
000350 95 d4 ca 3e a1 97 25 be 82 33 01 3c 26 2a bc 3e
       0.39615312 -0.16171123 0.007885816 0.36750907
000360 88 15 0c bc 9d 29 3a 3f c0 61 32 be 23 e1 3b 3d
       -0.008550055 0.72719747 -0.17420101 0.045869004
000370 27 6e 89 3e e8 67 df be 1d c2 3a be 06 40 61 3e
       0.26841852 -0.43633962 -0.18238111 0.21997079
000380 33 83 83 3d 70 46 1d be 4b da df be e7 cc 26 3e
       0.06421509 -0.15358901 -0.43721232 0.16289102
000390 e2 fa 1e be 1d a9 4b 3e 73 ca a4 3e 03 bf ab 3d
       -0.15525392 0.1988873 0.32185706 0.08386042
0003a0 66 23 a5 3e e0 2b bb bd 14 ae a6 bd 77 40 ad 3c
       0.3225357 -0.09139228 -0.081386715 0.021148903
0003b0 81 74 b1 be f9 b8 0c 3e 99 5d 99 3e 97 de 4c be
       -0.34659198 0.13742436 0.29954222 -0.20006786
0003c0 26 e1 99 3e f8 cd 28 3f 4a 4e 27 3e 10 9d 1f 3e
       0.30054587 0.65939283 0.16338459 0.15587258
0003d0 ab f9 c3 bd 7e 40 83 3e 20 c7 9e be 8b ca b1 3e
       -0.09569105 0.2563514 -0.31011295 0.3472484
0003e0 70 3f 6e be 96 4e a3 be f8 78 d1 3e a5 39 d2 be
       -0.23266387 -0.31895894 0.40912604 -0.41059604
0003f0 d2 49 63 3d 9b d1 3b 3e be 51 d3 be 03 f2 30 3d
       0.055490322 0.18341677 -0.41273302 0.04319955

conv1.nn.0.bias f4 [32]
000000 21 b8 ab 3d 5f e1 36 be 16 a8 e2 bd 8f de 88 3d
       0.08384729 -0.1785941 -0.11067216 0.06683075
000010 7a f8 98 3c 7a ad 71 3e d8 42 bf be 76 10 b8 be
       0.01867317 0.23601332 -0.37355685 -0.3595006
000020 b9 2b 64 3e 09 59 90 be 1a 95 0a 3e 50 7d 9e bd
       0.22282304 -0.28192928 0.1353344 -0.07738745
000030 54 df 82 be a2 44 8d 3c 48 3d 1e bc e8 67 40 3e
       -0.2556101 0.01724464 -0.009658165 0.18789637
000040 e3 4c b6 bd 88 93 e9 be 7b 38 a5 3e d9 52 a3 3e
       -0.08901384 -0.4562037 0.32269654 0.31899145
000050 fb db ed bd dc 38 56 be af fc 87 3e f4 d7 39 be
       -0.116142236 -0.20920128 0.2655997 -0.18148786
000060 b4 6e 45 3e 59 56 93 3e 7a cf ab 3e 16 4a c3 3e
       0.19280511 0.28776816 0.3355673 0.3814246
000070 6b ff 41 bd 3b 25 de be 49 2e cb 3c a2 cf ab be
       -0.047362726 -0.4338778 0.024802344 -0.3355685

conv1.nn.2.weight f4 [64, 32]
000000 36 1e 4c bf 10 f7 84 be b3 bf ad be c5 5e 8c 3e
       -0.797336 -0.25969744 -0.33935317 0.27416053
000010 1b 72 0d be 32 36 b7 3e 43 78 73 be 76 fe 59 be
       -0.13813059 0.35783535 -0.23776345 -0.21288475
000020 73 d3 b5 bd 95 5f 92 be b7 ba 27 be 0d 60 10 bf
       -0.08878221 -0.28588548 -0.1637982 -0.5639656
000030 7f 59 a0 bd fe f9 f2 be 07 06 64 be 17 d1 5f 3d
       -0.0782957 -0.47456354 -0.22267924 0.054642763
000040 b5 e7 3f 3e b4 db c3 bd 9d 41 c8 3d a0 a5 bc be
       0.18740733 -0.095633894 0.0977814 -0.36845112
000050 d7 a2 34 be 47 a0 8f bd 30 79 fd 3e 98 08 eb bd
       -0.17640243 -0.07012992 0.4950652 -0.114762485
000060 b8 16 80 be fe a2 fe 3e 74 75 9b be 05 fd da 3c
       -0.25017333 0.49733728 -0.30363047 0.026731977
000070 d2 ed 85 be 20 2f f4 be e3 ca eb be 49 d2 9a 3d
       -0.26158005 -0.47692204 -0.46053228 0.0755964
000080 52 3f f9 3b 83 91 8a be 7d b1 ab be 5d be be 3e
       0.0076064253 -0.27064142 -0.3353385 0.3725461
000090 6a c3 8e bd 89 d2 83 3e 54 ca bd bb ef ee ac be
       -0.06970866 0.25746563 -0.0057919417 -0.33776042
0000a0 cd 23 a8 3b 26 e6 b5 be cd 4b 8b be c4 a7 cf be
       0.005131221 -0.35527152 -0.2720627 -0.40557683
0000b0 ef 59 85 bd a9 cb 8d be 23 b9 81 be fc 75 1f 3d
       -0.06511294 -0.27694443 -0.2533656 0.038930878
0000c0 13 41 29 3e 39 7f 4e be ab 5a ce 3e b7 0a bd be
       0.1652873 -0.20165719 0.4030355 -0.36922237
0000d0 22 43 73 be 55 4e 62 be f4 04 d0 3e 8b 4d 64 be
       -0.23756078 -0.22100194 0.4062878 -0.22295205
0000e0 b7 0e 97 be 0f 17 f9 3d dd 24 da be 12 75 35 be
       -0.29503414 0.12162601 -0.4260625 -0.1772044
0000f0 f8 03 c2 be 19 e3 0d bc a6 71 a6 be a5 86 4a 3e
       -0.37893653 -0.008660101 -0.32508582 0.19777925
000100 04 b0 e9 be 1b 5f e1 bd 3f 59 03 be 04 54 ae bd
       -0.45642102 -0.11004468 -0.12827013 -0.085121185
000110 d8 08 2c 3e 55 34 01 3e cf a4 ed 3d 97 c6 47 be
       0.16800249 0.1261762 0.116037 -0.1950935
000120 7b 4f 5d be a2 26 92 be 1d d0 ef 3d 18 9b fc 3d
       -0.2161235 -0.285451 0.11709616 0.12334269
000130 80 9b 36 3e 65 f8 9f 3d c9 9a ed be 03 f8 13 3d
       0.17832756 0.07811049 -0.46407154 0.036125194
000140 de de 2d be ef 9e c7 3c a2 1b 1b 3c a5 47 0c 3e
       -0.16979548 0.024367778 0.009467037 0.13699205
000150 83 ea 2c bf a4 56 d2 bc 7e b1 38 bd ee 94 1b be
       -0.67545336 -0.02567608 -0.045091145 -0.15193531
000160 45 74 77 3c 14 41 24 3d 9a 7f 36 3d ce 5d 86 bc
       0.015103404 0.040101126 0.044555284 -0.016402151
000170 3c e3 68 be 5d b0 4d be 1a d9 7c 3e 90 9d 62 be
       -0.22742933 -0.20086809 0.24692193 -0.22130418
000180 16 37 fd 3e 19 9b 1e be 25 08 9d bc ad 11 ff 3d
       0.4945609 -0.15488853 -0.019168923 0.12454543
000190 53 76 81 be 85 1c 40 3e b8 bb 56 3c 6b f9 08 3e
       -0.25285587 0.1876088 0.013106279 0.13376395
0001a0 a4 36 de 3d f5 a7 c8 bd 3a 46 88 bd 5d 71 24 be
       0.108502656 -0.0979766 -0.0665402 -0.1605887
0001b0 ea 07 9f 3d e0 96 8a bd a1 37 ab 3d d1 e4 4a 3e
       0.07765181 -0.06767058 0.0836022 0.19813849
0001c0 08 5f bd bc 45 a0 50 be 8c c5 49 3e ab 40 97 be
       -0.023116603 -0.20373638 0.19704264 -0.29541525
0001d0 9e fa 91 3d 63 7e 7e be 03 68 92 3e b6 44 cc be
       0.071278796 -0.248529 0.2859498 -0.39896172
0001e0 f4 73 73 bd af 0c c9 3c f2 6f ac bd b4 40 7d 3c
       -0.059436753 0.02454218 -0.084197894 0.015457321
0001f0 33 0e 77 bd 08 ab 88 be 5c 20 0c be b0 fa 5b 3e
       -0.060316276 -0.26692986 -0.13684219 0.21482348
000200 44 e9 30 3d ba 22 41 bf 59 d5 27 3d 05 92 ad bc
       0.04319121 -0.75443614 0.04097495 -0.021187792
000210 7d 48 88 be 8d 0f f2 bc c0 00 fc bd 73 be 2d bd
       -0.26617804 -0.02954843 -0.123048306 -0.042417955
000220 90 28 0c bd 81 a0 e6 3d 13 06 a3 3d 57 2e 8e 3d
       -0.03421837 0.112610824 0.07960143 0.069424324
000230 f3 e7 04 be 52 8c 2a be 92 a9 88 3d 47 24 a6 3d
       -0.12979107 -0.1665509 0.06672968 0.08112388
000240 4a c9 d1 3e a3 4e 07 bd f3 e2 37 bd e3 e9 26 3e
       0.40973884 -0.03303398 -0.04489417 0.16300158
000250 f1 27 61 3d 6f 31 f9 b9 b6 b1 95 bd 13 bf ad 3e
       0.05496973 -0.00047529812 -0.07309286 0.3393484
000260 48 a9 ec bd 58 40 8e 3d 6b da b4 be ad 3f d2 be
       -0.11555725 0.06945866 -0.3532289 -0.41064206
000270 22 bc 1c 3f 74 f0 39 3e f1 3d 00 bf b4 d6 35 3e
       0.6122457 0.18158132 -0.50094515 0.17757684
000280 bf 35 8b be 8b 6c 11 3e 17 16 c7 be 9b d6 f4 38
       -0.27189443 0.14201562 -0.3888404 0.000116748
000290 53 dc 33 be 80 b4 fc bd 80 83 32 3e 8a a2 9b bd
       -0.17564516 -0.12339115 0.17432976 -0.07599361
0002a0 eb 2a 5e 3e 86 20 84 be d1 11 e9 3d 27 d4 89 3e
       0.2169606 -0.25806063 0.11380351 0.26919672
0002b0 f2 37 81 3e b5 a7 04 3e 86 16 b5 bd e0 97 17 3c
       0.25237995 0.129546 -0.08842187 0.009252518
0002c0 ed 31 cb 3d 79 5c 52 3e dd a2 08 be b5 e5 58 3e
       0.09921632 0.20543088 -0.13343377 0.21181376
0002d0 64 3c c0 be 25 52 53 bd 15 22 8a bd 25 1c 37 be
       -0.37546074 -0.05159201 -0.06744782 -0.1788183
0002e0 31 b7 9c 3d 81 90 e0 3c fb a6 ea 3c 0b 2e 71 3d
       0.076521285 0.027412655 0.028644076 0.0588818
0002f0 54 b7 03 3d bd 9e a2 bd d8 09 7e be 88 18 a5 3b
       0.032157257 -0.07940433 -0.24808443 0.0050383247
000300 b9 be 1f be b3 05 b7 be 40 08 4c bd 0b d6 61 3e
       -0.15600099 -0.35746536 -0.049812555 0.22054307
000310 92 ae b8 3e ab fa a2 3d 48 0e 7d 3d 18 2d fd bd
       0.36070687 0.07957967 0.061781198 -0.123621166
000320 cf 39 e9 bd 53 ee b8 bd 9b 58 fd 3c 17 34 8b be
       -0.11387979 -0.09029832 0.03092604 -0.2718818
000330 55 16 75 be 59 96 d5 be 9d c3 3d bd 31 07 ac 3d
       -0.239343 -0.4171627 -0.04632913 0.08399809
000340 95 be 5f 3d b3 d6 88 be db bc 9f bd 1f 55 2b be
       0.054625113 -0.26726303 -0.07799693 -0.1673169
000350 86 4c 5c 3e 58 f9 35 be 65 14 0f 3e 87 9b 02 3e
       0.21513566 -0.17770898 0.13972624 0.12754641
000360 3e de 43 3e 04 ad 0a 3e cf 87 33 3b c1 86 a8 be
       0.19127747 0.13542563 0.002739418 -0.3291531
000370 25 9a e4 3d 80 91 27 3e 30 5d b9 3e b4 05 35 3e
       0.11162213 0.16364098 0.3620391 0.17677957
000380 70 d2 20 be 28 a5 36 bf bd b1 71 3e 6e 78 7d bd
       -0.15705276 -0.7134576 0.23602958 -0.06188243
000390 1a fc a9 3d 1a 5e 19 bd 52 db 7b 3e fa 7e d2 bd
       0.08300038 -0.037443258 0.24595383 -0.10278125
0003a0 12 f2 83 bd 54 ab 12 bc e5 75 32 bc 22 82 83 be
       -0.064426556 -0.008951981 -0.010892366 -0.2568522
0003b0 ca 0f 34 3e 2a c2 95 3d 69 d1 46 3c 9e 78 33 be
       0.17584148 0.073124245 0.012134888 -0.1752648
0003c0 bb b9 26 3d b8 93 31 3d 1c 10 6d be 79 54 64 be
       0.04070447 0.043353766 -0.23150676 -0.22297849
0003d0 63 61 e7 be f2 57 0a bd b9 fa b4 3d 92 83 ef be
       -0.45191488 -0.033775277 0.08836884 -0.46780068
0003e0 de 9a 24 3b 29 8d 23 be d6 05 95 3c ce a7 ec bd
       0.0025116722 -0.15971817 0.01819126 -0.11555444
0003f0 9b a3 4f be 31 54 2e 3d 9f 16 8e 3e b0 f1 d0 bd
       -0.20277254 0.04256076 0.27751634 -0.10202348

conv1.nn.2.bias f4 [64]
000000 17 da b6 be 56 37 c3 be 0a 9b ee bd 1b fd 2e bc
       -0.35713264 -0.38128155 -0.11650665 -0.010680462
000010 c3 da 7a be 08 35 9e bd e1 11 71 bd 61 00 b4 3d
       -0.24497513 -0.07724959 -0.05885494 0.08789135
000020 65 3f 49 be e3 5f f2 bd 4b eb e1 3d b9 77 ca 3d
       -0.1965309 -0.11834695 0.11031207 0.098861165
000030 dc 93 29 be 38 92 8f be 29 50 e5 3d c5 53 e9 bd
       -0.1656031 -0.28041244 0.1119693 -0.11392931
000040 40 69 9b be d1 48 50 be 86 83 79 bd b1 03 9d 3d
       -0.30353737 -0.20340277 -0.060916446 0.0766672
000050 95 c4 6f be 6c 04 a4 bd ab 5a ca bd 83 f2 9e 3d
       -0.23414834 -0.08008656 -0.09880575 0.07761099
000060 b4 f4 c5 bc fd ef a4 be b5 eb 11 bd 7f 57 9c 3d
       -0.024164535 -0.32214347 -0.03562518 0.07633876
000070 9f ab ea bd 9f 30 81 be 83 5c 7c be e7 e3 37 be
       -0.114585154 -0.25232407 -0.24644665 -0.17958032
000080 69 3d bb be 11 75 ac be b1 56 83 bd c3 4d 62 bd
       -0.3657029 -0.33683065 -0.064130194 -0.05524994
000090 79 94 45 bd 1e aa 37 3e 84 ec 11 3d 87 83 0a be
       -0.048237298 0.17935988 0.03562595 -0.13526736
0000a0 21 5d 92 be ce 96 06 3e 20 60 90 3e b2 16 1b be
       -0.28586677 0.13143465 0.28198338 -0.15145376
0000b0 61 43 2e bd bf 20 8c 3e 88 39 10 3e 5a 4a c1 be
       -0.042544726 0.27368733 0.14084446 -0.37752038
0000c0 3e d5 ec bd 4a 29 7d 3e ae 66 14 be 87 d3 15 be
       -0.1156411 0.24722782 -0.14492294 -0.14631473
0000d0 e4 b1 70 bd 3d bb e6 bd 9a 77 07 be 3c 37 56 3b
       -0.0587634 -0.112661816 -0.13229218 0.003268673
0000e0 cf 57 08 3d 04 b5 8a 3d 5b 5d 01 be 5f 54 e4 be
       0.033286866 0.06772807 -0.12633269 -0.4459562
0000f0 80 51 11 3d 9c ca 03 bf 12 1b 3e 3d 9f 18 15 3c
       0.035478115 -0.5148103 0.046412535 0.009100108

conv1.lin.weight f4 [9, 3]
000000 c1 2e 08 bf 85 dc 8b bf b1 40 87 be a2 33 42 be
       -0.5319634 -1.0926672 -0.26416543 -0.18965009
000010 a6 60 c2 3e 75 3b 84 be df cb 20 bf ea 53 c4 3e
       0.37964362 -0.25826612 -0.6281108 0.3834527
000020 54 0f fa 3e 66 35 28 bf 5a da 73 bd 8f a6 b0 be
       0.4883982 -0.6570648 -0.05953441 -0.34502074
000030 e6 48 88 bd 80 95 74 bd 1f ac 92 3e 6d 6a 6d 3e
       -0.06654529 -0.059712887 0.28646943 0.2318513
000040 59 df ea be ed 37 cf 3e 99 5e 38 bf 01 41 2a 3f
       -0.45873526 0.40472355 -0.72019345 0.6650544
000050 3e fe 58 be 76 b5 86 bf 4c 15 e2 be 2c 97 6c 3d
       -0.21190736 -1.0524127 -0.44156873 0.057761356
000060 7d 30 50 3e d2 9d 2e 3f e2 8c 07 3e
       0.20330997 0.68209565 0.13237336

conv1.lin.bias f4 [9]
000000 a6 66 30 be 3e dc 79 3e 9d 03 fb 3d ed 80 4a bf
       -0.17226657 0.24400422 0.122565486 -0.79102975
000010 18 79 77 3b 26 f0 ff be 30 3d 80 3e c9 5e 5f bd
       0.0037761386 -0.49987906 0.25046682 -0.054533754
000020 4b dc 96 3e
       0.29464945

conv2.nn.0.weight f4 [128, 64]
000000 c9 20 31 3e 35 ef 0a 3e a5 15 6e bd cb 80 dd 3d
       0.17297663 0.13567813 -0.05812611 0.10815581
000010 97 30 7b 3d 8d 76 23 be 6d c0 99 bd f6 61 2c bc
       0.061325636 -0.15963192 -0.075074054 -0.010521403
000020 d0 f3 17 bd ca 72 43 3d a0 9c 3f bd e6 0d 06 bf
       -0.037097752 0.047716893 -0.04678023 -0.5236496
000030 39 d4 0c be 5b b3 f8 be 32 17 84 be cf ba 05 3e
       -0.13752832 -0.48574337 -0.25798947 0.13059543
000040 23 42 52 3d 8a 1d 16 be 60 ca 45 3e 9f f8 92 bd
       0.051332604 -0.14659706 0.19315481 -0.07176327
000050 56 5c 6a be fe 37 b0 3c ca b4 5a 3d d4 1b b0 be
       -0.22886786 0.021511074 0.05339507 -0.3439623
000060 a1 13 60 3e 50 29 1b 3e 47 89 2e be 21 c4 8f bd
       0.21882488 0.15152478 -0.17044555 -0.070198305
000070 9e d1 2e 3d f3 d0 c1 bd 6b 11 d3 3d cf 98 cc 3d
       0.042680375 -0.09463682 0.103060566 0.099900834
000080 ed cc 0c 3e f4 4a f9 3d b9 5b 04 3e c0 95 2f bc
       0.13750048 0.12172499 0.12925614 -0.0107168555
000090 7e cb 5c bc 90 52 10 3e c7 b3 86 be 12 07 af bf
       -0.013476251 0.14093995 -0.26309034 -1.3674033
0000a0 65 1f 9b be d4 1e 09 3e 94 63 02 3e 23 e8 e8 bb
       -0.3029739 0.13390666 0.12733299 -0.007107751
0000b0 bc 85 0d be 33 7a 2f 3e 1a 8c 69 3d d2 de 67 3d
       -0.13820547 0.17136459 0.057018377 0.056608982
0000c0 21 b5 31 3c 4a 86 f6 bd 24 29 0a 3e d6 d5 81 be
       0.010846407 -0.12037332 0.13492256 -0.25358456
0000d0 37 cb c2 bd ff 5b 62 be 0f 56 4e 3e 56 ac ba 3e
       -0.095114164 -0.22105406 0.20150016 0.36459607
0000e0 2e 86 b2 3e f1 21 45 bf e1 1a 8a 3d 3e 1b 62 3d
       0.34867996 -0.77004915 0.06743408 0.05520176
0000f0 20 e5 3c 3c 8a be dd 3d 67 db df bd 9d 75 39 3e
       0.011529237 0.10827358 -0.109305196 0.18111272
000100 96 49 c5 bd 53 ed 5a bd f6 c6 12 3e 2d 2e 09 be
       -0.09633176 -0.053448986 0.1433371 -0.13396521
000110 e0 b8 5b 3d eb 5f 36 3e c8 95 d7 be 78 9d d4 be
       0.053643107 0.17810027 -0.42106462 -0.4152639
000120 c4 96 22 be ac d9 12 3e 52 2a 1f 3e 73 6b 2e be
       -0.15877825 0.14340848 0.15543488 -0.17033176
000130 28 28 94 be 7d 7c 25 bd 21 e3 b9 3d dc b3 34 3e
       -0.28936887 -0.040401924 0.090765245 0.17646736
000140 86 ae 54 3e 4b b1 7a 3d 7e 59 b8 3d fa 8d 2d bd
       0.207697 0.061204236 0.09001444 -0.042371728
000150 56 87 9c 3e 8d b5 84 bd 42 5c 35 be d4 db 7f 3e
       0.30572003 -0.064799406 -0.17710975 0.24986202
000160 1d 30 63 bd c9 94 f6 bd b6 86 95 3e 2b 54 d8 bd
       -0.055465806 -0.12040097 0.2920434 -0.10562929
000170 e5 c4 e6 bc 8c b8 a6 3b 3d 82 95 3b b8 ca 64 be
       -0.028170059 0.0050879177 0.0045626448 -0.22342956
000180 67 bb 2c be 8c af f9 bd 3b d5 4b bc 67 21 4f be
       -0.16868363 -0.12191686 -0.012440975 -0.20227586
000190 5d f2 b9 3d df 92 01 3e 39 d9 e3 bd 3e 96 0f 3d
       0.0907943 0.12653683 -0.11125416 0.03505539
0001a0 95 79 34 be 9f 88 dc bc e9 93 8d 3d 67 b4 d6 bd
       -0.17624505 -0.026920615 0.06912977 -0.10483628
0001b0 99 87 06 be 75 c4 21 3d 96 9a 2e 3e 33 53 23 be
       -0.13137664 0.039493997 0.17051157 -0.15949707
0001c0 c5 c0 3c be 4c f3 ff 3d 8b 5c 20 be a7 d2 38 3e
       -0.1843291 0.12497577 -0.15660302 0.18049107
0001d0 ad 22 1a be 90 08 4d 3e 47 04 13 be 0c 3b 4c be
       -0.1505229 0.20022798 -0.143571 -0.199444
0001e0 a5 4a 8d be e0 7d 6c 3d 3e 50 73 3c 74 35 32 be
       -0.27596012 0.05773723 0.014850674 -0.17403203
0001f0 45 04 46 bd 39 50 41 3e b5 7a 9b 3e a9 bf 86 3d
       -0.048343915 0.18878259 0.30367056 0.06579525
000200 ff 90 d8 bd c5 93 4d bd d9 34 98 bd 0b 11 c5 bd
       -0.10574531 -0.050189752 -0.07431955 -0.09622391
000210 e6 7b eb 3c 92 ac 53 bd 6a b8 0b 3b ea be 43 3b
       0.028745603 -0.051678248 0.0021319636 0.0029868432
000220 88 25 5a be 9c e1 0d be d3 6f ac bd 0d 02 1f bd
       -0.2130338 -0.13855594 -0.08419766 -0.038820315
000230 6d 92 15 bd 5b 59 92 3c e4 dc d5 3a a4 f2 dc bd
       -0.036516596 0.017864874 0.0016316441 -0.107884675
000240 4c b4 5c bd de ad a8 3d 95 d1 31 be 5c 83 d1 bd
       -0.053882882 0.082362875 -0.17365105 -0.10230133
000250 96 12 db bc 1f d8 cd 3d 3f ad b3 bd c2 c8 8e 3c
       -0.02674226 0.100509875 -0.087732784 0.017429713
000260 08 ac 90 3d 61 ad c7 3d 14 8a 3a 3d e7 09 a1 bd
       0.07064062 0.09749866 0.045541838 -0.07863217
000270 4c fc 16 3d fa f3 d4 bd 11 59 41 3b 53 8f 3d be
       0.036861703 -0.10398097 0.002950255 -0.18511705
000280 f2 6f 7e bd 39 42 86 bd 86 b6 6e 3d 6f b5 34 bd
       -0.062118478 -0.065556 0.058279537 -0.04411834
000290 a2 53 7b 3d 61 25 6e 3d a0 8e 09 3e 8c 93 ab bc
       0.061359055 0.058141116 0.13433313 -0.02094438
0002a0 99 57 f2 3a 46 9a 04 be ab 88 94 bd 46 eb b2 3d
       0.0018489241 -0.12949476 -0.0725263 0.08736281
0002b0 61 79 f9 bd c6 03 be 3d 13 60 41 3d f6 84 fb 3d
       -0.12181354 0.092780635 0.047210764 0.1228122
0002c0 75 ca 3f be 1e c2 e4 3c e3 5d b6 3d 3e c5 69 3d
       -0.18729575 0.027924594 0.08904626 0.05707287
0002d0 74 f4 02 be 66 11 a8 bd 80 40 01 bd 64 b3 9d bd
       -0.12788564 -0.082064435 -0.031555653 -0.07700232
0002e0 f3 0c 92 bd d4 84 f1 bb b8 d3 49 3c 5e 12 1d be
       -0.07131376 -0.0073705707 0.012318544 -0.15339038
0002f0 cf a7 17 3d 65 da d7 bd 0d 57 31 bb 37 3c db bc
       0.03702527 -0.10539702 -0.0027059943 -0.026762111
000300 70 a3 c7 3d c1 75 2e bd ae e1 a3 bd 40 31 d4 3d
       0.0974797 -0.042592768 -0.08002029 0.10360956
000310 e7 54 fb bd f8 7f cd bc 17 c5 6b bd 48 a1 c8 bc
       -0.12272053 -0.025085434 -0.057561006 -0.024490967
000320 04 69 1e bd 5b dd 29 be 3b c4 59 3d c2 68 66 bc
       -0.03867437 -0.16588347 0.053165656 -0.014063062
000330 29 2a 69 bd 56 5f e5 3d 77 33 1b 3d 47 d2 df bc
       -0.056924973 0.111998245 0.037890878 -0.027321948
000340 b0 69 46 3d 8d 39 0b bb 1b ba b3 3c 5f 87 3c bd
       0.048440635 -0.002124402 0.021939328 -0.046027537
000350 c6 50 1f bd d8 7e 98 3d a3 ac 8e 3d 3e 8b 16 3d
       -0.03889539 0.074460685 0.069665216 0.036753885
000360 c3 3e 57 3e 0f 36 30 bd d3 83 c3 3d 1a c4 86 be
       0.21020035 -0.043020304 0.09546628 -0.2632149
000370 02 2f 17 bd 2f a3 fb bd 79 ff 93 3d 75 64 1e be
       -0.036910065 -0.12286984 0.07226462 -0.15468009
000380 35 47 21 3e bb de d7 bc 30 91 d3 bc df 13 4e bd
       0.1574982 -0.026351323 -0.025826067 -0.05031192
000390 a4 ee 1b 3c 52 94 6d bd 40 00 06 be 88 cc 0a bd
       0.009517346 -0.058002777 -0.13086033 -0.033886462
0003a0 b5 e3 00 be 18 d2 54 be 12 77 37 3c f2 2f aa bd
       -0.12586863 -0.2078327 0.011197822 -0.08309926
0003b0 a6 8f 2c bd 62 d8 48 bd 7b 9e a1 bd d2 7a ee bc
       -0.04212918 -0.049034484 -0.07891556 -0.0291113
0003c0 6b 66 46 bc 77 05 08 be 97 b7 d3 bc 67 8c 8f be
       -0.012109379 -0.13283335 -0.025844378 -0.28036806
0003d0 b7 db da bd 84 65 08 be ec f6 5d 3e c4 c1 19 3d
       -0.106864385 -0.13319975 0.21676224 0.037538305
0003e0 ee 54 81 be e3 c1 c7 3d ca 26 e5 bd 9d dd fb bc
       -0.2526011 0.09753778 -0.11189039 -0.030745322
0003f0 5c f9 4f 3d eb 5b ae 3d a1 0f d3 3d b2 93 b5 3d
       0.050774917 0.08513626 0.10305715 0.08866061

conv2.nn.0.bias f4 [128]
000000 7f c5 98 bd 8d b5 02 be db 5d 27 3d 0e 7e 0b be
       -0.074595444 -0.12764569 0.040860992 -0.13622305
000010 43 eb b8 3d 99 c2 a0 bd eb 15 5b be 27 1b 67 3e
       0.090292476 -0.078496166 -0.2139508 0.22568952
000020 67 26 d1 39 04 96 95 be 0f d9 86 3e be e2 59 3d
       0.00039892198 -0.29216015 0.26337478 0.053194754
000030 86 f6 cd bc 1b 01 de bd de 5a 5e be c4 1e d8 3d
       -0.025141966 -0.108400546 -0.2171435 0.10552743
000040 52 56 e1 be e6 45 87 be d9 0c 73 be 79 44 34 be
       -0.4401117 -0.26420516 -0.2373537 -0.17604245
000050 f0 9a 07 be 9c c5 08 be 1e f4 70 be 12 bc 2b 3e
       -0.13242698 -0.13356632 -0.23530623 0.16770962
000060 bb 14 31 be b6 a3 c6 be 16 b0 19 be 0f ad 04 bf
       -0.17293064 -0.38796777 -0.15008578 -0.51826566
000070 d9 71 1c bd 0e 3e 0a 3c f8 f4 22 3d db f1 6f be
       -0.03819451 0.008437647 0.0397844 -0.23432104
000080 55 f4 0b be 6e 7d a0 3d dd 20 3a 3e a3 22 a1 bd
       -0.13667424 0.07836424 0.18176599 -0.078679346
000090 f9 96 8a be 58 b2 1f be a5 20 54 3d 52 2d ff bc
       -0.27068308 -0.15595376 0.051788945 -0.03114954
0000a0 88 20 cd 3d ac 16 af 3d a0 0a 8c 3e cb f8 c2 bd
       0.100159705 0.08549246 0.27351856 -0.0952011
0000b0 4a 86 a8 bd cf a4 4e be 2f 52 23 3e 3a 83 97 be
       -0.082287386 -0.20180057 0.1594932 -0.29592305
0000c0 44 f7 87 be b6 7a 69 be 35 6a 0c be 4b 4b 87 be
       -0.26555836 -0.22800717 -0.1371239 -0.2642463
0000d0 ae 92 bb 3d d6 98 bc be 8a 41 93 3e 7b d0 09 be
       0.09158836 -0.36835355 0.2876094 -0.13458435
0000e0 3e 1b 07 be e5 f7 0d be af 0c ee be 08 cc 8d bd
       -0.13193986 -0.13864096 -0.46494052 -0.069236815
0000f0 6f 0a 6b bd 3d a6 dc bc 59 59 fc be 21 61 aa bd
       -0.057382997 -0.026934737 -0.49286917 -0.08319307
000100 6d 3a aa 3e 9b d9 60 be 8e f4 15 be 8e d3 54 be
       0.332477 -0.2195801 -0.14644071 -0.20783827
000110 67 0b 86 be a4 09 04 3e 4c b3 4e be 6f 72 11 3e
       -0.26180574 0.12894303 -0.20185584 0.14203809
000120 ff e4 9e 3e 22 07 27 bd 77 0b 53 3e b0 43 73 3e
       0.31034085 -0.040778287 0.20609842 0.2375629
000130 88 6e a0 b9 d4 69 8c be ec 26 bc bd f6 47 23 bd
       -0.0003059993 -0.2742449 -0.09187111 -0.03986355
000140 6c 1b a3 be 83 34 57 3e fb 74 fc 3e 29 9f 48 bc
       -0.3185686 0.21016125 0.49308 -0.012244978
000150 30 94 55 bd b9 03 ab 3b 1b f8 c8 bd 5c 4c f6 bd
       -0.052143276 0.0052189496 -0.09812947 -0.12026283
000160 91 60 92 be f3 10 83 3e 59 c0 b2 3e 0a 6b a3 bd
       -0.285893 0.2559887 0.34912375 -0.079794005
000170 ef 9c 7c 3e 8f 9c 97 3d f6 59 89 bd 9f ee 4f bc
       0.2466924 0.07402908 -0.06706612 -0.012691169
000180 d5 ab 5c bd fd 49 87 3e 20 fa 77 be e4 61 f3 3d
       -0.05387481 0.26423636 -0.24216509 0.118839055
000190 8b a5 a1 be 4d 10 e2 bd 5d 5b 3a 3e 85 4f bf bd
       -0.31571612 -0.110382654 0.18198915 -0.09341339
0001a0 cc 55 42 3d a2 0e ae 3c 3b ea be 3d 83 a4 d4 3d
       0.047445104 0.021247212 0.0932202 0.103829406
0001b0 6f 57 5f be 03 16 07 3c 3f 49 b9 3d fc 71 b7 be
       -0.21810697 0.008244994 0.09047174 -0.3582915
0001c0 16 a8 93 be 83 a7 a7 be 7d 51 c2 be 84 e8 41 3e
       -0.28839177 -0.3274499 -0.37952796 0.18936354
0001d0 cc 48 1c 3c 7b 22 2f be b5 5b 8c bd 6a 5f eb bd
       0.0095388405 -0.17102997 -0.06853429 -0.11492808
0001e0 1b b9 e8 bc ec 5f 66 be 41 2d 38 3e ae 21 ee be
       -0.028408578 -0.22497529 0.17986013 -0.4651007
0001f0 f2 92 54 bd 5a 3d df 3d fd 94 0b be 6f 55 22 3e
       -0.05189795 0.10900374 -0.13631053 0.15852903

conv2.nn.2.weight f4 [256, 128]
000000 33 0b 1f 3f 04 7e b5 bc 34 40 78 3d 70 00 04 3e
       0.62126464 -0.022154815 0.060608104 0.12890792
000010 68 9e 46 3e fb c4 2a bd 38 a7 69 bc 6d 8a 84 be
       0.19396365 -0.04169176 -0.014261059 -0.2588686
000020 b3 58 5a 3e 7e 0f bf 3c 18 e7 b4 bc e9 c7 9a 3e
       0.21322899 0.023322817 -0.02208285 0.30230644
000030 d0 a7 02 be 88 8e 98 be 8f 40 1f 3e 93 70 53 be
       -0.12759328 -0.29796243 0.15551971 -0.20648412
000040 b1 f2 c8 3c ae 5e cc be 5b 6e 6f 3c 14 fd 24 3e
       0.024529787 -0.39915985 0.014613713 0.16112167
000050 fc ef 77 bd 59 04 4c 3e 94 7c 3d 3e 48 8f 5a bd
       -0.0605316 0.19923533 0.18504554 -0.0533593
000060 19 65 02 3e 0b 31 9f bd 58 22 f4 bd 50 e1 86 3d
       0.12733878 -0.07773026 -0.11920613 0.06585944
000070 43 50 56 3b ef 55 28 3d ab 60 33 be c3 0a b6 3d
       0.0032701648 0.041097578 -0.17517345 0.088887714
000080 0b 12 19 3e 08 f8 f1 3d 89 d7 15 3e 43 f9 f0 3d
       0.14948289 0.11814886 0.14633001 0.11766293
000090 72 24 d5 be df 1a 3d 3e e6 f0 4a be 79 e3 81 3e
       -0.41629368 0.18467282 -0.19818458 0.2536886
0000a0 eb 7b 89 3e 04 57 3a bd a6 49 ae bb 77 09 0d 3e
       0.26852354 -0.04549314 -0.005318838 0.13773142
0000b0 f2 f4 4e 3e 39 55 9d 3d 97 7f 32 be fb 0e 88 3d
       0.20210627 0.076822706 -0.17431484 0.06643482
0000c0 82 4e a1 3e 5e 80 aa bc c5 c1 22 3c 27 68 08 be
       0.3150521 -0.020813163 0.009933894 -0.13320981
0000d0 f7 96 c5 3e 68 ed 76 be bc 0e 36 3e 63 ba 82 bd
       0.3859174 -0.24114001 0.17779058 -0.06383207
0000e0 c5 a3 9b 3e 8f 44 0d be 16 cf d7 bb 33 8d 52 3d
       0.30398384 -0.13795684 -0.006585966 0.05140419
0000f0 1c c5 d9 3c d5 37 71 3e 87 a1 07 be 09 ee ce bd
       0.026583247 0.23556454 -0.13245212 -0.10103995
000100 37 cd 4e 3e cb 70 95 3d 30 81 3a 3e 53 9a 1c 3e
       0.20195471 0.07296904 0.18213344 0.15293245
000110 fc 5e 09 3e dd 84 eb 3d 06 e2 e9 3e 38 73 11 3e
       0.1341514 0.11499951 0.45680255 0.14204109
000120 39 20 54 be 91 08 91 bb 42 69 95 bd 2e b2 47 3e
       -0.20715417 -0.00442607 -0.07295467 0.19501564
000130 9b c3 d1 bc dc 3f b8 3d 65 c5 16 3e a2 1e 57 3e
       -0.025605967 0.08996555 0.14723738 0.21007779
000140 fc 8d 94 be 9d 5b 50 be 68 e9 5f 3d 9c 32 d7 3d
       -0.29014575 -0.20347448 0.054665953 0.105077
000150 16 73 df 3d 47 b5 d3 3d bf 52 f7 3c f2 48 08 3d
       0.10910623 0.1033731 0.030190824 0.03327269
000160 dc 9c f2 bd 15 c6 8c bc f6 88 76 3d 7c d8 53 3e
       -0.11846325 -0.017184297 0.06018921 0.20688051
000170 00 7e 52 be f6 ec b6 3d 9b 8a 0f be 9c f2 07 3d
       -0.20555878 0.089319155 -0.14017718 0.033190355
000180 e0 bd e2 bb 4e 8b bc bd e6 a2 01 bc 80 96 7e 3d
       -0.0069196075 -0.09206258 -0.007912373 0.062155247
000190 25 7e 84 bd 65 09 81 3c 76 3f 93 bc c2 f7 0e 3e
       -0.06469373 0.01575155 -0.017974596 0.139617
0001a0 73 31 0d bd 9d 82 cb 3e a9 10 5d be 3d 9c 92 3d
       -0.034470987 0.39748088 -0.21588387 0.07158706
0001b0 d6 a0 2f 3e da c4 f0 3c 50 79 1f bf 1a 1e 2f 3d
       0.17151198 0.029390741 -0.62294483 0.042753316
0001c0 d0 e6 4f be 13 bb 40 bd f5 65 f0 bd ef 18 cc 3c
       -0.20302892 -0.047053408 -0.11738197 0.024914233
0001d0 f9 ca 8a 3c a1 0d 84 bd fd 0a a2 3e 48 af a5 3d
       0.016942488 -0.06447912 0.31649008 0.08090073
0001e0 f1 0a db bb 7f a8 d4 bd 87 6d e6 3e 31 15 5e bc
       -0.006684654 -0.103837006 0.45005438 -0.013554857
0001f0 fd 8e 6f 3d 41 d1 e4 bd 3b b1 84 3e 4a 8c 42 3e
       0.058485974 -0.111727245 0.25916466 0.18998829
000200 77 ce 3c 3d ba b5 96 3c 97 43 3a 3d 3d f9 61 3e
       0.046095338 0.0183972 0.045474615 0.22067733
000210 02 c7 96 bc d5 5a 69 3e f8 e4 80 bd 25 ee c1 3d
       -0.018405441 0.22788556 -0.06293672 0.094692506
000220 29 06 cc bd 66 76 b7 3e cc 41 df 3d f5 76 28 3e
       -0.099621125 0.35832518 0.10901222 0.16451629
000230 ed e9 61 bd e8 1e 93 bd 1c 9b 4f 3c cf 58 67 be
       -0.05515473 -0.07183629 0.012671258 -0.22592472
000240 61 b5 38 bb 75 ba 25 3e 32 2d 5d be 48 fa d7 3c
       -0.0028184282 0.16184409 -0.21599272 0.02636446
000250 7b 19 1b be ec 6c 28 3e 94 48 d5 3c df 34 67 bd
       -0.15146439 0.164478 0.026035585 -0.056446906
000260 a4 3e 8b 3c 79 74 a1 be ad c8 67 bd 25 07 eb 3d
       0.016997643 -0.31534174 -0.056587864 0.11475972
000270 63 9d b4 3e 33 2a 93 bd 91 cc 14 3d 34 6b bb 3d
       0.35276327 -0.07185783 0.036327902 0.09151307
000280 ea 15 a1 3d ee 20 ab 3d 02 0b 11 3e 5b b0 d7 3d
       0.07865508 0.0835589 0.14164355 0.10531684
000290 8a 5a c3 bb b8 a7 37 3c cc a0 3f bd 3d 41 04 3d
       -0.005961721 0.011209421 -0.046784207 0.03228878
0002a0 ad d4 29 bf 3b c4 76 3d 38 d0 85 3e ac 99 20 3d
       -0.6634014 0.060245734 0.2613542 0.039209053
0002b0 d1 a5 51 bc 64 55 ef 3d c6 1b 9c be 3a 7a 43 3e
       -0.012795881 0.11686209 -0.3048994 0.19089594
0002c0 54 73 a6 bc 34 b0 f1 bd 1f d7 40 be 4f 59 f3 3d
       -0.020318665 -0.11801186 -0.18832062 0.11882269
0002d0 bb ec c3 3d 43 03 d7 3c 73 52 3c be 33 66 ac bd
       0.09566637 0.026246672 -0.18390827 -0.084179305
0002e0 28 c0 b3 3b d9 4d 9d bb 2c 8f f0 3d 76 7c 04 bd
       0.0054855533 -0.00480054 0.11746058 -0.032345258
0002f0 b2 a8 0a be 61 30 9a 3d c3 e3 f9 3b c1 ba 8a 3d
       -0.13540915 0.07528759 0.0076260283 0.06773902
000300 e7 af 80 be 30 5b c0 3d 60 0d 17 bd 71 ce 34 be
       -0.25134203 0.09392393 -0.03687799 -0.17656876
000310 97 ba 4f be 55 e6 35 bd 53 fa 47 3e a9 65 42 bd
       -0.20286022 -0.044409115 0.19529085 -0.047460232
000320 76 bc 4c 3d 6f 3b 39 3e ff 20 04 3d 79 19 d1 bd
       0.049984418 0.18089078 0.03225803 -0.10209937
000330 f1 4c e2 bd af 9a 95 3c 4e 44 45 3e 5d cd 92 bd
       -0.11049832 0.018262235 0.19264337 -0.07168076
000340 6f fb 0b bd e1 0b c0 3d b7 1d e7 3c 32 fd e2 3e
       -0.034175333 0.09377266 0.028212411 0.44333798
000350 20 1e 8a bd d3 21 e1 3c 38 99 3b 3c 12 5d 84 3d
       -0.06744027 0.027481949 0.011450104 0.06463064
000360 4b 9b 42 be 63 ed 62 be fb a2 eb 3e 84 fe 9c 3e
       -0.19004552 -0.22160868 0.46022782 0.3066293
000370 0d 27 36 be a8 97 9c 3c b2 41 2f bd 22 f0 a9 bc
       -0.17788334 0.019115284 -0.04278726 -0.020744387
000380 09 14 3a 3d 16 2f 13 be 50 3f 96 3d 82 eb e3 bd
       0.045429263 -0.1437343 0.07336295 -0.11128904
000390 a4 54 65 3e 12 a1 ce bc b4 c6 82 bd fc a1 80 bc
       0.22395569 -0.025223289 -0.06385556 -0.01570224
0003a0 1a 79 66 bf 36 9d 25 3d c5 be 55 3e 1e 05 9b be
       -0.90028536 0.04043313 0.20873554 -0.30277342
0003b0 cc c7 a6 3d ea 91 10 be cf 26 0a bf 36 83 18 3e
       0.08143577 -0.14118162 -0.5396547 0.14893803
0003c0 13 42 72 3e 30 fb 7b 3c 0c a2 f3 3a 4d b5 45 bf
       0.23658018 0.015379712 0.0018587722 -0.7722977
0003d0 8c fc af be 6d e3 06 3e d7 73 d7 3d c5 d7 52 bd
       -0.34372365 0.13172694 0.105201416 -0.051475305
0003e0 be 26 62 bd 62 e8 b7 be 4d 7a 9a 3d a3 b1 4e be
       -0.05521273 -0.35919482 0.07542858 -0.2018495
0003f0 56 2b 24 3e d5 d2 55 3b 38 63 bc 3c de 19 38 3c
       0.16032156 0.0032626886 0.02299653 0.011236636

conv2.nn.2.bias f4 [256]
000000 9c 8f 79 bd 3d 53 ed bd ba 41 16 be a5 b2 1c be
       -0.060927972 -0.11588142 -0.1467351 -0.15302522
000010 b8 d8 09 be 5a 35 1b bb e3 00 75 bd 57 8d 04 be
       -0.13461578 -0.0023682923 -0.0598153 -0.12944542
000020 3a 77 7c 3e 76 49 49 3e 2a f1 be 3d 54 5f 67 3e
       0.24654856 0.1965693 0.09323342 0.22594959
000030 98 36 93 be 77 44 04 be 53 5f a0 3b c3 f4 15 be
       -0.2875259 -0.12916742 0.004894176 -0.1464415
000040 2a fb 88 bd 6f 46 5f 3e af 3b a7 bd 54 6e af bd
       -0.06688531 0.21804212 -0.081656806 -0.08565965
000050 b2 9c 12 3e 82 5a ca bd 09 4a c1 3d 7e 5f d2 bd
       0.14317587 -0.09880544 0.09437949 -0.1027212
000060 f2 ea ce bd 04 58 70 3d eb c6 e7 bd 09 b8 bf 3d
       -0.10103406 0.05867769 -0.113172375 0.09361274
000070 74 f5 20 be ba 63 42 bd 78 06 9a 3d fd 55 17 bd
       -0.15718633 -0.047458388 0.07520765 -0.03694724
000080 f6 4f 86 bc 8d d4 09 3e 91 ca 91 3d 5d 08 98 be
       -0.01639555 0.13459988 0.071187146 -0.2969388
000090 3e 7e 30 3e 6a d4 4c be ac 46 9f be 06 c9 34 bd
       0.17235658 -0.20002905 -0.31108606 -0.044137023
0000a0 b7 c2 da 3d b4 cb 45 3d ee e2 d8 bd 8d 0a 60 be
       0.1068167 0.04828997 -0.105901584 -0.21879025
0000b0 01 fc 10 bd db 00 07 be 4b 05 26 3b 4f 69 22 3e
       -0.03539658 -0.1318392 0.0025332745 0.15860485
0000c0 77 03 3c bc 30 78 fa 3d 5f 58 56 3d 9e de 0a be
       -0.011475435 0.12229955 0.05233037 -0.13561484
0000d0 f8 7b cf 3d 93 95 63 3e 13 e4 6f be c0 d9 33 3e
       0.10131067 0.22225027 -0.23426847 0.17563534
0000e0 19 60 5f be 8d df e6 bd 8b 8c 96 be a4 76 09 3e
       -0.21814002 -0.11273108 -0.294041 0.13424164
0000f0 d5 f7 0e be 5f 53 32 3e 4a 1f 00 3e 31 6e be bd
       -0.13961728 0.17414616 0.12511936 -0.09298361
000100 cf 49 96 3c 59 aa 48 3e 88 32 b9 3d cd 43 55 bd
       0.018345742 0.19596232 0.09042841 -0.052066613
000110 dc 7c 33 be 3f d2 ba bd 47 ec 46 be 27 57 90 3e
       -0.17528099 -0.091221325 -0.1942607 0.28191492
000120 f4 2f 38 be 44 69 76 be 2d 54 16 be 9c 4d 0a be
       -0.17987043 -0.24063593 -0.14680548 -0.13506168
000130 04 a4 89 be 2a 92 0c 3e a5 f4 4e be 85 46 25 be
       -0.26882946 0.13727632 -0.20210512 -0.16140182
000140 da a7 44 bc 49 d4 3f bd da 9a d9 3b 2e 73 a2 bd
       -0.01200291 -0.04683331 0.006640774 -0.07932125
000150 f0 7d 1a be f1 3c 98 3e dd 60 b4 be 09 d9 a7 3c
       -0.15087104 0.29733995 -0.3523015 0.020489233
000160 4e 5c 2a 3e 94 f4 7d be c8 dd 23 3e 3e 4e f2 bd
       0.16636774 -0.2480033 0.16002572 -0.1183133
000170 cb 73 aa 3d 6c 74 d2 bc 1a 7d ed bd 75 a0 16 be
       0.08322867 -0.02569028 -0.11596127 -0.14709647
000180 06 93 ed 3d 15 96 62 be 41 ba 35 bc 5e a9 01 bd
       0.11600308 -0.22127564 -0.01109177 -0.03165566
000190 30 59 41 3e 89 4e f3 3c a4 da 74 be 7e 18 8b bd
       0.18881679 0.029700534 -0.2391153 -0.06791781
0001a0 90 af 3a 3d 13 84 32 3d d1 6a 1d 3b 15 0a 97 be
       0.045577586 0.043582987 0.0024019966 -0.2949988
0001b0 7f 04 91 be b2 60 32 3d 56 47 86 be 49 b5 0c be
       -0.28323743 0.043549247 -0.262263 -0.1374103
0001c0 f5 54 20 be 73 e7 a7 bd 62 9c 50 3b cc 0c 8b 3e
       -0.15657409 -0.08198442 0.0031831493 0.271582
0001d0 0e 18 e9 3d 70 ea 34 bd 09 67 20 be 3f c9 37 3e
       0.11381541 -0.04416889 -0.15664305 0.17947863
0001e0 29 0d 1e 3e 4d 4a a2 bb 19 e7 f7 bd c8 8e 29 be
       0.15434708 -0.004952705 -0.12104625 -0.16558373
0001f0 f6 84 51 3e 23 e6 04 3e 32 22 ea bd f1 d5 d1 bd
       0.20460877 0.12978415 -0.114323035 -0.10245884
000200 7a 36 15 be 7f 3a 9f bd de 55 75 3c 2c 70 9b bd
       -0.14571562 -0.07774829 0.014974086 -0.075897545
000210 54 b9 69 3d 4e 9d d7 3d 23 7a cf bd da e0 29 be
       0.05706151 0.1052805 -0.101307176 -0.1658968
000220 94 a9 60 3e 00 b2 c5 3d f6 76 e7 bd ab 79 8f be
       0.21939689 0.096530914 -0.11301987 -0.28022513
000230 5c dc c6 3d 19 08 27 bc 97 0d 9e bd f4 3c ba be
       0.09709999 -0.010194802 -0.07717436 -0.3637463
000240 38 a5 e5 3d ee 5f 5c bd 14 7d 5a 3d df cc b1 be
       0.112131536 -0.053802423 0.05334194 -0.34726617
000250 04 32 cc bd e9 ca 60 bd 69 90 f9 bd 6b 84 48 bc
       -0.09970477 -0.05488101 -0.12185747 -0.012238602
000260 94 f0 41 be 80 98 76 be 83 d6 ee bd 95 98 83 3d
       -0.1893943 -0.24081612 -0.116620086 0.06425587
000270 2b 6f 81 bd dd 2d 8a bd 5e 6f f7 bd 57 a8 99 bd
       -0.06320032 -0.06747029 -0.120817885 -0.075028114
000280 e6 48 bc 3d 10 03 96 3c 3c c9 28 bd ca 95 11 be
       0.09193592 0.018312007 -0.041207537 -0.14217296
000290 b7 13 5e 3d 40 dd 57 3e b2 90 c1 bc 03 53 24 3d
       0.05421802 0.21080494 -0.023628566 0.04011823
0002a0 44 5b 31 3c af d6 a6 bd f2 0e 63 be e4 0f 61 be
       0.010824982 -0.081464164 -0.2217367 -0.21978718
0002b0 eb 6c 5e be f3 41 1e be 1b 7a 6f be 66 21 22 be
       -0.21721236 -0.15454845 -0.23386423 -0.15833053
0002c0 47 86 af bd 51 3a 02 be ad 28 ce 3d 97 15 09 be
       -0.08570533 -0.12717558 0.10066352 -0.13387142
0002d0 2e 30 d1 bd 7d d6 52 3e 6e a1 ac bd 83 d7 7d be
       -0.10214268 0.20589633 -0.08429228 -0.24789242
0002e0 39 02 3d be 8e 3f 06 be 0e 59 97 bd 35 49 07 3e
       -0.18457879 -0.13110182 -0.07390033 0.1321152
0002f0 5d 13 05 be 07 56 b8 3b 7a f5 5c 3e 39 ff af 3d
       -0.12995668 0.0056254896 0.21578017 0.08593602
000300 e2 35 89 be 7f 74 89 be de b6 2d 3d a5 7a 84 bd
       -0.26798922 -0.26846692 0.042410724 -0.06468705
000310 7a 6c 63 3e 49 1b 7e be 76 9d e5 3d 55 89 15 be
       0.2220935 -0.24815096 0.11211674 -0.1460317
000320 79 1b 50 bc 69 41 c4 3d 86 63 88 bd 53 d8 84 bd
       -0.0127018625 0.095827885 -0.066596076 -0.06486573
000330 e7 36 85 bd cf fe cf bd c0 a7 f6 3d ac ce ae b9
       -0.065046124 -0.10156023 0.120437145 -0.0003334185
000340 69 82 46 be 9f dd 33 3d 04 e4 86 bd aa 97 9d bd
       -0.19385685 0.043912526 -0.06586459 -0.07694943
000350 10 4e 17 be a2 68 21 be 9a c2 02 be 15 0b 2e be
       -0.14775872 -0.1576257 -0.12769547 -0.16996415
000360 8f 40 12 be 16 10 6d bd 5f 6c ad bd c8 86 3a bd
       -0.1428244 -0.05787667 -0.08467936 -0.045538694
000370 9d 88 d2 bd 7b 2c 3d bb 30 d9 0d be fe c3 15 be
       -0.10279963 -0.0028865624 -0.13852382 -0.14625546
000380 50 72 04 3d fb 58 de 3d 3d ae 0e 3d 4f 4b b4 bd
       0.03233558 0.108568154 0.034834135 -0.088034265
000390 14 98 fc 3d 3d f1 a6 bb e1 b8 3b be 9e 1a 23 be
       0.12333694 -0.005094676 -0.18332244 -0.15928122
0003a0 44 a9 8b bd 3f 6e 75 3d 6d df 42 3e b1 ff cd 3b
       -0.06819394 0.059919592 0.19030543 0.0062865843
0003b0 0b 4f 22 be da eb 4b be b7 24 05 bd 61 b0 89 bd
       -0.15850465 -0.19914189 -0.032505717 -0.06723095
0003c0 bc 13 51 b9 96 27 73 3d f5 e1 23 bd a1 3f 2c 3e
       -0.00019939145 0.059363924 -0.04001041 0.16821148
0003d0 b6 54 6c be 62 0e 12 be 1e 3a a2 bd 6d eb dc 3d
       -0.2307919 -0.14263299 -0.07921241 0.107870914
0003e0 69 31 03 3e 59 3a 2a 3c 5d 62 01 be 63 4a 4f be
       0.12811817 0.010389888 -0.12635179 -0.2024322
0003f0 70 04 d3 3d 6c c1 4b be 1d e1 06 bd e9 2f 5f be
       0.10303581 -0.19898003 -0.03292953 -0.2179562

conv2.lin.weight f4 [64, 3]
000000 6c d5 c5 3c 03 16 28 be 50 16 be be 96 7c 08 bd
       0.024149619 -0.16414647 -0.37126398 -0.03332194
000010 bb a7 90 bd 8d 1e dd 3c 79 52 d9 bd f1 97 c7 3e
       -0.07063242 0.026992107 -0.106114335 0.3898311
000020 7b 9a 01 3e f5 e4 d4 3e 3e c6 91 3e ca 9c ea bd
       0.12656586 0.4158093 0.2847156 -0.114556864
000030 4b 3e 47 bf 03 37 8e be 12 f6 f9 3b 80 79 a5 3d
       -0.77829427 -0.27776346 0.007628211 0.08079815
000040 1a 84 47 be a5 e7 a6 be 41 da 67 bd 3c 71 09 be
       -0.19483986 -0.32598606 -0.056604628 -0.13422102
000050 2b c6 07 3d 04 d0 9d 3e 0b d0 81 bf 43 44 ce 3e
       0.033147972 0.30822766 -1.0141615 0.40286455
000060 a8 a6 58 bf 51 f1 8a 3e 94 79 c2 be 3f a5 8d be
       -0.846293 0.27137235 -0.37983382 -0.27665135
000070 8b 7c 32 bf ec 44 73 3e e6 60 da be a7 75 10 bf
       -0.6972129 0.2375676 -0.42652053 -0.56429523
000080 1a 64 03 be 4f 56 35 be 44 0a 23 3f 00 0f 35 3e
       -0.12831154 -0.17708705 0.6368754 0.17681503
000090 0d dd 5b be 50 a9 67 bd dd 1d 3e 3e 10 17 06 3c
       -0.21471043 -0.056557953 0.1856608 0.0081842095
0000a0 a8 39 e4 3f 05 79 a6 bc af 6b ec bd e7 93 61 bd
       1.7830095 -0.020321378 -0.115439765 -0.05507269
0000b0 5e b6 0d 3f 1b 38 36 be ab 96 8d 3f 57 b0 f4 be
       0.55356395 -0.1779484 1.1061605 -0.47790787
0000c0 4a b4 94 3d 33 2d f6 3d 95 ba f2 be d1 73 a6 3e
       0.0726095 0.1202034 -0.47407976 0.32510236
0000d0 88 20 fd be 68 4b 10 bf 61 2e b1 be f0 ce 3a 3f
       -0.49438882 -0.5636506 -0.34605697 0.7297201
0000e0 f3 6b d0 be d3 bc bf 3d 96 bb 48 3e 34 c6 54 3e
       -0.4070736 0.09362187 0.19602808 0.20778733
0000f0 37 dc 15 bf c8 32 84 be e1 7e 29 bf ab 00 9d 3e
       -0.58539146 -0.25819993 -0.66209227 0.30664572
000100 c7 a3 9d 3f 28 04 e8 bd 62 93 b4 3d 33 cc d4 3e
       1.2315606 -0.11328918 0.088171735 0.41562042
000110 41 51 40 be 0f 84 dd bc cb c3 a9 be 41 e8 8c 3e
       -0.18780996 -0.02704051 -0.3315719 0.27520946
000120 63 f4 46 bf eb 28 c5 bd 2c f7 65 3f 86 5e 10 bf
       -0.77716655 -0.09626945 0.8983028 -0.5639423
000130 78 64 36 be a6 b5 a6 be b8 36 11 bd 02 e4 41 be
       -0.17811763 -0.32560462 -0.035452574 -0.18934634
000140 49 68 ad be dd d6 99 3d a3 e9 0f bf 9c 7a 00 bf
       -0.33868626 0.07511685 -0.56215876 -0.5018709
000150 ab 00 bf 3e 0b 66 79 be 8f 76 0d bf fd 58 8e 3e
       0.37305197 -0.24355333 -0.5525903 0.27802268
000160 ba f4 94 be 84 26 49 bf ff 07 56 bc f1 6f 96 3f
       -0.29092962 -0.78574395 -0.01306343 1.1752912
000170 3e 2f e1 be 91 16 93 bc 8e a7 83 3c 4b fb 45 3e
       -0.43981355 -0.017955096 0.016071107 0.19334142
000180 34 63 88 3e 7b bd e1 be a2 40 cb bb 64 96 1b bf
       0.26638186 -0.44089875 -0.006202773 -0.6077635
000190 b4 09 ba 3c f8 52 06 bf 65 9a cb 3e 86 60 8b be
       0.022709705 -0.5247035 0.3976623 -0.2722208
0001a0 f6 0f 66 bd d5 7d aa 3b 27 de 7a be 58 72 fb 3e
       -0.056167565 0.0052029886 -0.24498807 0.49110675
0001b0 cf 6b 06 3d e2 b1 8a 3e 19 1c de bd e5 fd 8a 3d
       0.032817658 0.2708884 -0.10845203 0.06786708
0001c0 7e 51 0e bf 5d 92 2d be e2 4c c4 bd 4a 2b 73 3f
       -0.555931 -0.16950364 -0.09584977 0.9498793
0001d0 36 3f 00 3f cf 88 3c 3e b4 ee 27 bd 04 57 0e bf
       0.5009645 0.18411563 -0.04099913 -0.55601525
0001e0 d2 93 f1 be 78 95 d8 3e 31 02 7f be 93 e7 bf be
       -0.4718309 0.42301536 -0.2490318 -0.37481365
0001f0 7e 50 09 bf ed 5b 99 be aa 0a 24 be 5c 74 8e 3f
       -0.53638446 -0.29952946 -0.16019693 1.112926
000200 24 31 72 bf d4 22 50 3e 59 d9 70 3e a4 24 e6 be
       -0.9460623 0.20325786 0.23520412 -0.4494983
000210 ad 9a ab 3c 67 f4 7d bd 80 6f bb be a0 c7 92 3e
       0.020947779 -0.06200066 -0.36608505 0.28667927
000220 49 b1 67 3f 33 3d 20 bf 8d af ac 3d bc 5b c9 be
       0.9050489 -0.6259338 0.08431921 -0.393278
000230 d1 7d 46 3e 7e d8 cb be c4 dc 1a 3f cb 41 de be
       0.19383933 -0.39813608 0.6049311 -0.4340957
000240 f4 48 8d 3e 0c 56 0d bf 9f b1 25 bf b0 8e 63 be
       0.2759472 -0.5520942 -0.64724153 -0.222224
000250 27 c8 cf be a4 c7 1e 3e c3 04 ba be 12 d2 f2 3d
       -0.40582392 0.15505844 -0.36331758 0.11856474
000260 c9 e6 bf be b5 71 92 bf 33 be 2e be 3b 4c 30 bd
       -0.37480763 -1.1440951 -0.17064743 -0.04304145
000270 d2 57 8f bd 5a d6 39 be 04 4a b3 bd 87 ea 97 3e
       -0.06999172 -0.18148175 -0.08754352 0.29671118
000280 e3 7b 88 3e 73 a0 12 bf d9 e7 42 bf 86 26 ac be
       0.26657018 -0.57276076 -0.7613502 -0.3362314
000290 0d fb 39 3f 89 05 67 3b 83 23 b7 3b bb a9 9e 3e
       0.726487 0.0035251102 0.00558895 0.3098887
0002a0 87 09 04 bf 29 2b 4d bf 83 5c eb be 77 67 9d bf
       -0.5157704 -0.8014398 -0.45969018 -1.22972
0002b0 69 35 4e be 12 11 8a 3d 75 15 da 3d 3a ca d7 bd
       -0.20137562 0.06741537 0.10648624 -0.105366185
0002c0 3f 4a fd 3d da 6e f9 3e 97 e8 0b bf 4e 00 06 be
       0.12367677 0.48717386 -0.5465178 -0.13086054
0002d0 55 6c 7c 3e 67 37 97 3e 77 fa 1b bf 0c 2e a8 3d
       0.246507 0.29534456 -0.60929054 0.08211908
0002e0 3d 38 02 be e9 11 04 bf 24 35 25 bc bd 9d 9c be
       -0.12716766 -0.5158983 -0.0100834705 -0.30589095
0002f0 c5 40 71 3e d2 57 52 bf 2c 4d 73 be a4 a6 47 3f
       0.23559864 -0.82165253 -0.23759907 0.7798865

conv2.lin.bias f4 [64]
000000 ac 92 6f 3e 36 07 a9 3d 64 9b cd 3d a0 bd 98 be
       0.23395795 0.082533285 0.10039404 -0.29832172
000010 72 f2 8f 3d 2d 0a 62 bd 08 a0 b6 3d fa fa 01 bf
       0.07028665 -0.055185486 0.08917242 -0.50773585
000020 b1 06 a5 3e b2 a7 a7 bc c2 19 04 bf 5f cb d8 be
       0.32231668 -0.020465706 -0.51601803 -0.4234266
000030 ad df 0e 3e 25 fa d7 bc a7 00 0e bf b4 6c 52 3b
       0.13952513 -0.026364395 -0.55469745 0.003210825
000040 6e 7e 43 3e d0 cd 26 bf 25 a8 50 3e 63 b8 07 bf
       0.19091198 -0.65157795 0.20376642 -0.53015727
000050 02 10 9c be 24 78 95 be e3 f9 55 3d ae 7b 95 be
       -0.30480963 -0.29193223 0.052240264 -0.29195923
000060 5d e7 ec bd 1e 99 a4 3e a3 12 c6 be be 62 b1 3b
       -0.115675665 0.3214807 -0.38686094 0.0054133823
000070 d0 26 c6 3a cc 60 be 3d 62 7e d1 3e 3f d9 3e be
       0.0015117768 0.09295806 0.40916735 -0.1863756
000080 66 3f f0 3b 43 09 05 3f 9b 00 b2 be b4 be 0a bf
       0.0073317764 0.5196726 -0.34766087 -0.5419724
000090 22 a8 8d be 7e ce a7 be 6f 94 c0 be f2 eb 88 bc
       -0.27667338 -0.3277473 -0.37613246 -0.01671407
0000a0 d9 9c df bc da 60 09 be 6a 8b 2c bc 58 bf fc bb
       -0.02729647 -0.13415852 -0.010531286 -0.0077132396
0000b0 45 68 89 3e 96 16 8d be 24 3f b0 be 82 ef 63 3e
       0.26837364 -0.27556294 -0.34423172 0.22259334
0000c0 1a 27 c0 bc ba a8 88 be 20 53 37 ba e4 63 39 be
       -0.023456145 -0.26691228 -0.00069932826 -0.18104511
0000d0 0b 5b ae 3d 9f b4 b7 be 07 d7 0f bb 87 89 bf be
       0.08513459 -0.3587999 -0.0021948235 -0.37409613
0000e0 94 ac 15 3e 3f 69 f4 be a8 52 59 be fe ba 21 3e
       0.14616615 -0.47736546 -0.21222937 0.15793988
0000f0 88 a3 44 bd c7 23 62 3e fe a9 7d be e2 92 e9 bb
       -0.048007518 0.2208396 -0.24771878 -0.0071281055
