A3/classification/baseline.pth (torch, 14543 bytes, 13 tensors)

conv1.att_src f4 [1, 1, 32]
000000 0c 6b a0 be f0 6e 6d 3c 2e 49 34 be 7a e2 6a 3e
       -0.3133167 0.014491782 -0.17606041 0.22937956
000010 16 bf 63 ba 00 90 ca 3d 5c f6 4a bd 58 e3 8a be
       -0.0008687837 0.09890747 -0.049551353 -0.27126575
000020 ed 01 ed be 09 64 cf 3d 1e f7 7a bc a1 e1 3b be
       -0.46290532 0.10126502 -0.015317706 -0.1834779
000030 94 df 5e b9 34 a3 91 be 6f 79 a8 be b7 57 dd be
       -0.00021254859 -0.28444827 -0.32905146 -0.43230984
000040 e8 1a da 3a 1a f8 c3 bd ff b8 91 3e 94 c8 11 3e
       0.0016640099 -0.09568806 0.28461453 0.1423667
000050 81 95 ac 3e fc a6 3a be f5 bd d9 be 47 ea 92 be
       0.33707812 -0.18227762 -0.42527738 -0.28694364
000060 93 48 07 3e 0d 4f 5a 3e 35 69 2d 3e 03 c7 80 3e
       0.13211279 0.21319218 0.16934665 0.25151834
000070 c3 c4 a2 3e a5 5f d1 3d 71 ad 44 bf 04 6b 67 bc
       0.31790742 0.10223321 -0.7682715 -0.014124636

conv1.att_dst f4 [1, 1, 32]
000000 03 94 8a 3e f5 24 fc be 98 95 c3 3e 33 c4 c2 3e
       0.2706605 -0.49246946 0.38200068 0.38040313
000010 8e 0b 0a bf 71 42 ae 3d 33 e2 3c be bc 5a a2 3e
       -0.5392388 0.085087664 -0.18445663 0.3170985
000020 d2 1b 88 be 22 e3 02 bf 7a 98 46 3d fe 6a 01 be
       -0.26583725 -0.5112783 0.048485257 -0.1263847
000030 3d 87 16 bf fd 12 8b be 90 83 4e 3d 44 80 23 3f
       -0.5880011 -0.27162924 0.050418437 0.6386759
000040 6a 75 ac 3e 14 f2 c2 bd af 3c 97 be b7 6e b6 be
       0.3368333 -0.09518829 -0.29538485 -0.35631344
000050 40 68 b3 be 44 e9 d8 be aa 4d 96 be ea f4 90 3e
       -0.35040474 -0.42365468 -0.29356128 0.28311855
000060 92 87 11 be 37 41 38 3c bc 78 e2 3e 61 bf d3 3e
       -0.14211872 0.011246017 0.44232738 0.41356948
000070 24 8e 01 3f 09 f1 11 bf 4d 3f db 3d ff 92 83 bd
       0.50607514 -0.57008415 0.10705433 -0.06424522

conv1.bias f4 [32]
000000 a6 60 b8 3e 5d 53 08 3e 99 d3 c6 bd 2e cb 2b 3e
       0.36011237 0.1331305 -0.09708328 0.16776726
000010 b3 b4 68 3d ea c1 81 bd a1 53 dc bd 27 a4 e0 bc
       0.056812953 -0.06335814 -0.107581384 -0.027422024
000020 77 f1 49 3e 74 f1 26 3e 67 24 86 be b8 cc 50 be
       0.19721018 0.16303045 -0.26199648 -0.20390594
000030 19 cc 0d 3e 1d 8d 9d 3c e1 51 d4 bd 39 43 ea bd
       0.13847388 0.019232327 -0.1036718 -0.11438603
000040 9b ca af be e9 5e c6 bd df 7b 11 3e d8 8f 13 be
       -0.34334263 -0.096860714 0.1420741 -0.14410341
000050 fa 9d f8 bc 00 00 00 00 f1 ef 84 bd eb 29 af bd
       -0.030348767 0.0 -0.06491078 -0.08552917
000060 4d f3 c1 be be 05 46 bd a5 8d bd bd 53 df 17 3c
       -0.37880936 -0.04834532 -0.09255532 0.009269553
000070 30 38 5f 3d e8 52 38 bc 00 00 00 00 4e 45 69 3f
       0.054496944 -0.011250235 0.0 0.91121376

conv1.lin_src.weight f4 [32, 9]
000000 32 9b 15 3e d1 f9 64 be 29 c2 fa 3d 6c 06 63 be
       0.14609984 -0.22360922 0.12244064 -0.22170419
000010 5f 3c 2c 3e 49 16 23 c0 5b a0 5f bf 12 de 84 3d
       0.16819905 -2.5482352 -0.8735406 0.06487669
000020 94 ea 80 3e 7c 9d 91 be 4b 07 83 bb c0 b9 72 be
       0.2517897 -0.28440464 -0.003998672 -0.2370367
000030 b9 c0 e1 3d 9c c1 4a be ca cc d0 3f 71 d8 9d 3e
       0.11023087 -0.19800419 1.6312497 0.30829194
000040 27 4d 3a be 96 68 f6 3d f2 93 2b 3e 15 8f 94 be
       -0.18193494 0.12031667 0.16755655 -0.29015413
000050 19 40 05 3e ac 00 fb bd a1 3d 7c be be b5 80 3c
       0.13012733 -0.122559875 -0.24632885 0.015711661
000060 0e 58 7d be 0e 67 5d bf a1 b3 e3 3e 70 0c 0a 3d
       -0.24740621 -0.86485374 0.44472983 0.033703268
000070 af 5b 34 3e e8 52 89 bf 3d aa 0b 3e 38 05 fb be
       0.176131 -1.0728426 0.1363916 -0.4902742
000080 4c 7f df bf 44 b8 34 3e ea 37 6a 3d ae ee c2 bd
       -1.7460723 0.17648417 0.05718223 -0.09518181
000090 3b dd ce bd b3 2e 9c bd 55 e5 af bd 0b 6c 1e 3b
       -0.1010079 -0.07626095 -0.085886635 0.0024173285
0000a0 2f 37 13 3c 98 84 69 be 5d b3 a6 bd 31 5d 9c bc
       0.008985325 -0.22804487 -0.081396796 -0.019087406
0000b0 e5 83 d7 3b 51 15 ab bd cc e9 81 3e b3 66 42 3e
       0.0065770024 -0.08353675 0.25373685 0.18984489
0000c0 80 ad 5f 3e 84 26 f8 bd 85 89 8a 3f b3 92 24 3e
       0.21843529 -0.12116721 1.0823218 0.16071586
0000d0 d1 5e c8 3d 9f 28 21 be ba 67 d4 bd fb 81 94 3d
       0.0978371 -0.15738152 -0.10371347 0.07251354
0000e0 93 19 9f 3e 62 32 56 bc 35 33 60 ba 15 80 04 bf
       0.310742 -0.013073536 -0.00085525523 -0.5175794
0000f0 eb 4d e1 3d f0 e3 89 be 23 c1 1d bf 44 b2 19 bd
       0.1100119 -0.26931715 -0.6162283 -0.037523523
000100 8b 6f 45 bc 77 dd c5 3e 42 83 9e 3e f2 48 0e bf
       -0.01205052 0.38645527 0.30959517 -0.55580056
000110 02 91 8a 3f c3 53 e4 be 12 2e a0 be aa 6b a7 3d
       1.0825503 -0.44595155 -0.3128515 0.08174832
000120 b3 42 a8 3d 6b d4 26 be 1a 17 90 3d cc 70 e4 be
       0.08215847 -0.16291969 0.07035656 -0.44617307
000130 6c d0 5f 3d 59 3b e6 3e fb ef 1b 3f 8c d9 e1 be
       0.054642126 0.44967154 0.60913056 -0.44111288
000140 7c bc 93 be 98 7a f2 3d f8 e0 84 3e 87 47 5f be
       -0.2885474 0.11839789 0.25952888 -0.2180463
000150 de 39 88 3d fa ba 67 3e 39 ab 6f be e8 e7 40 bf
       0.06651662 0.2262992 -0.2340516 -0.7535386
000160 c8 9c 4a 3e e7 bf 84 be 30 62 08 3d c3 35 be 3e
       0.1978637 -0.2592766 0.033296764 0.37150392
000170 be 88 b5 3c 59 71 af bc c8 2b ee bc 6a 07 67 3f
       0.02215993 -0.021416353 -0.02907361 0.9024569
000180 f8 db 2f be cd e2 92 3e 56 6d 93 be 6e 8d d0 3c
       -0.17173755 0.2868866 -0.28794354 0.025458064
000190 c5 fb 71 3f bc 56 03 bd b5 4e 73 3d 23 1c 37 3f
       0.94524795 -0.03206514 0.059401233 0.7152731
0001a0 f5 c7 81 bf db b7 31 be f6 62 d4 3d 73 c2 81 be
       -1.0139147 -0.17355292 0.10370438 -0.25343665
0001b0 66 4d fd bd 6a a8 af bd dc a1 e6 bd 52 11 50 3d
       -0.12368278 -0.08577044 -0.11261341 0.050797768
0001c0 47 02 4c bc 4a 45 dc 3e 67 1a 0d 3d 2e d6 1f bd
       -0.012451715 0.43021613 0.034449007 -0.039022617
0001d0 88 a0 e4 3c 12 d3 7d be 9f ac ea bd 40 51 06 3f
       0.027908579 -0.24787548 -0.11458706 0.5246773
0001e0 ae 0f a3 3d 59 47 05 bf 72 f3 fd bf 7f c2 87 3e
       0.07961975 -0.5206199 -1.9839919 0.26515576
0001f0 2d 9a 80 be e8 87 4e be 62 38 5a 3e e6 91 60 bd
       -0.25117627 -0.20169032 0.21310571 -0.05482664
000200 28 34 7f 3e f9 4f e8 be a4 78 42 bf 3a 8b c8 3f
       0.2492224 -0.45373514 -0.75965333 1.5667489
000210 5c 7d 07 3f 32 2d 82 be 9f 72 34 be 9e 23 cb 3e
       0.5292566 -0.25425106 -0.1762185 0.3967561
000220 4d be 36 3e 03 5d a3 be 0f 68 a7 be a2 ef 1f 3e
       0.17846031 -0.319069 -0.32696578 0.15618756
000230 c2 bc 7a 3f 28 05 45 3d ed fd 3e be 99 1e 15 3f
       0.9794427 0.04810062 -0.18651552 0.58249813
000240 80 fb 1e 3b 58 e3 fc bd 6e ca e5 3c 30 af 90 bd
       0.0024258792 -0.1234805 0.028050628 -0.07064664
000250 03 8e c0 bb 06 0d 1e 3e a7 aa 10 3e 3c 67 30 3d
       -0.005876304 0.15434656 0.14127599 0.043067202
000260 2b 52 ab bc 7a 62 8e 3e c1 30 40 be ff 7f 9f be
       -0.020913204 0.27809507 -0.18768598 -0.3115234
000270 5c 31 eb bd 11 be 0e 3f cc 7c a3 bf 2d 48 96 3e
       -0.11484024 0.5575877 -1.277246 0.2935194
000280 89 e2 a8 3e 17 38 e4 bd e3 7b 9b be 61 49 69 be
       0.32985333 -0.11143511 -0.30367956 -0.22781898
000290 25 ea 7f be 2e f9 00 3f 48 a5 b1 be 7f 5e 97 3f
       -0.24991663 0.5038022 -0.34696412 1.1825713
0002a0 8f e7 81 bf 4a 55 0b bd 59 a7 94 3e 74 0b b6 3d
       -1.0148791 -0.034016885 0.29033926 0.08888903
0002b0 f7 d0 2c bf 7c 60 27 be 09 df 56 be 11 64 db 3e
       -0.67506355 -0.163454 -0.20983519 0.42849782
0002c0 da 3e 48 3f 76 24 77 3d 23 da 68 be 98 39 26 3f
       0.78220904 0.060337506 -0.22739463 0.6493163
0002d0 2b 10 c4 be 59 8c 34 3f 4e 35 1b 3e 9f 72 93 3e
       -0.38293585 0.70526654 0.15157053 0.28798386
0002e0 d6 ae e1 3e 9e 36 d4 3f 04 d6 56 3e 08 45 2c 3f
       0.44078702 1.6579168 0.20980078 0.67292833
0002f0 33 55 b6 be 73 70 c2 bd 0d e9 54 be 88 29 78 bd
       -0.35611877 -0.09494104 -0.20792027 -0.060586482
000300 3c 14 29 bf 2c f0 a7 3d d7 5b a5 bf 0a f6 2f be
       -0.660465 0.08200106 -1.2918652 -0.171837
000310 68 d2 9d be 17 4b 67 3e eb 9b 98 bc 0b 6b dd bd
       -0.3082459 0.22587238 -0.018629035 -0.108114325
000320 03 f9 c6 3e d5 b4 48 be 18 01 7c 3d ab d7 be bf
       0.38861856 -0.19600232 0.06152448 -1.4909567
000330 2d 13 fb be 23 75 5e bc 53 1c 9e 3d 8b 11 17 3e
       -0.49038067 -0.013577732 0.07720246 0.14752786
000340 57 fe fd be 85 d9 e5 3e e9 94 db be ae a6 1a bf
       -0.49608108 0.44892517 -0.42887047 -0.60410583
000350 bf e6 a1 3f f7 4a c7 3e e3 bd e0 be b1 63 0a 3c
       1.2648543 0.3892438 -0.43894872 0.00844662
000360 1a cb a0 3d 8e e3 31 be 1b e5 5d bd 75 c7 17 bd
       0.078512385 -0.17371961 -0.05417357 -0.03705545
000370 47 9d 2e bd 80 d6 7d be e3 40 0f bd 0b bd b2 3d
       -0.04263046 -0.24788857 -0.03497399 0.08727463
000380 a6 d6 9e be ff 34 b3 3e 0b a8 43 3f d9 14 16 bf
       -0.3102314 0.3500137 0.7642829 -0.5862556
000390 bb 2d ee bd 3c 2b 60 bd 38 29 24 3e f0 5a 17 3d
       -0.11629816 -0.05472873 0.16031349 0.03695196
0003a0 d8 61 d3 be 6b fc 1f 3f fd 5c 8f 3e 64 9d ed be
       -0.41285586 0.62494534 0.28000632 -0.46409142
0003b0 ef 35 8f be 87 86 c9 3c 99 6e f0 3e 3c ad 48 bf
       -0.27970836 0.02460028 0.4695938 -0.78389335
0003c0 79 2f 4e be 19 4d 14 bf af f0 ce be 9e e9 51 be
       -0.20135297 -0.5793014 -0.40418002 -0.20499274
0003d0 44 f5 77 3d 72 32 a0 3e f9 dc a2 3e 61 87 1f be
       0.060536638 0.31288487 0.31809214 -0.15578987
0003e0 c0 35 0d 3f 82 58 9f be 5f f6 c4 3c 13 c1 d2 be
       0.5516014 -0.31122214 0.02404326 -0.4116293
0003f0 f9 02 ad bd 45 3b dc be 9c a8 76 3e fc ab 6c 3d
       -0.084478326 -0.4301397 0.24087757 0.057781205

conv1.lin_dst.weight f4 [32, 9]
000000 32 9b 15 3e d1 f9 64 be 29 c2 fa 3d 6c 06 63 be
       0.14609984 -0.22360922 0.12244064 -0.22170419
000010 5f 3c 2c 3e 49 16 23 c0 5b a0 5f bf 12 de 84 3d
       0.16819905 -2.5482352 -0.8735406 0.06487669
000020 94 ea 80 3e 7c 9d 91 be 4b 07 83 bb c0 b9 72 be
       0.2517897 -0.28440464 -0.003998672 -0.2370367
000030 b9 c0 e1 3d 9c c1 4a be ca cc d0 3f 71 d8 9d 3e
       0.11023087 -0.19800419 1.6312497 0.30829194
000040 27 4d 3a be 96 68 f6 3d f2 93 2b 3e 15 8f 94 be
       -0.18193494 0.12031667 0.16755655 -0.29015413
000050 19 40 05 3e ac 00 fb bd a1 3d 7c be be b5 80 3c
       0.13012733 -0.122559875 -0.24632885 0.015711661
000060 0e 58 7d be 0e 67 5d bf a1 b3 e3 3e 70 0c 0a 3d
       -0.24740621 -0.86485374 0.44472983 0.033703268
000070 af 5b 34 3e e8 52 89 bf 3d aa 0b 3e 38 05 fb be
       0.176131 -1.0728426 0.1363916 -0.4902742
000080 4c 7f df bf 44 b8 34 3e ea 37 6a 3d ae ee c2 bd
       -1.7460723 0.17648417 0.05718223 -0.09518181
000090 3b dd ce bd b3 2e 9c bd 55 e5 af bd 0b 6c 1e 3b
       -0.1010079 -0.07626095 -0.085886635 0.0024173285
0000a0 2f 37 13 3c 98 84 69 be 5d b3 a6 bd 31 5d 9c bc
       0.008985325 -0.22804487 -0.081396796 -0.019087406
0000b0 e5 83 d7 3b 51 15 ab bd cc e9 81 3e b3 66 42 3e
       0.0065770024 -0.08353675 0.25373685 0.18984489
0000c0 80 ad 5f 3e 84 26 f8 bd 85 89 8a 3f b3 92 24 3e
       0.21843529 -0.12116721 1.0823218 0.16071586
0000d0 d1 5e c8 3d 9f 28 21 be ba 67 d4 bd fb 81 94 3d
       0.0978371 -0.15738152 -0.10371347 0.07251354
0000e0 93 19 9f 3e 62 32 56 bc 35 33 60 ba 15 80 04 bf
       0.310742 -0.013073536 -0.00085525523 -0.5175794
0000f0 eb 4d e1 3d f0 e3 89 be 23 c1 1d bf 44 b2 19 bd
       0.1100119 -0.26931715 -0.6162283 -0.037523523
000100 8b 6f 45 bc 77 dd c5 3e 42 83 9e 3e f2 48 0e bf
       -0.01205052 0.38645527 0.30959517 -0.55580056
000110 02 91 8a 3f c3 53 e4 be 12 2e a0 be aa 6b a7 3d
       1.0825503 -0.44595155 -0.3128515 0.08174832
000120 b3 42 a8 3d 6b d4 26 be 1a 17 90 3d cc 70 e4 be
       0.08215847 -0.16291969 0.07035656 -0.44617307
000130 6c d0 5f 3d 59 3b e6 3e fb ef 1b 3f 8c d9 e1 be
       0.054642126 0.44967154 0.60913056 -0.44111288
000140 7c bc 93 be 98 7a f2 3d f8 e0 84 3e 87 47 5f be
       -0.2885474 0.11839789 0.25952888 -0.2180463
000150 de 39 88 3d fa ba 67 3e 39 ab 6f be e8 e7 40 bf
       0.06651662 0.2262992 -0.2340516 -0.7535386
000160 c8 9c 4a 3e e7 bf 84 be 30 62 08 3d c3 35 be 3e
       0.1978637 -0.2592766 0.033296764 0.37150392
000170 be 88 b5 3c 59 71 af bc c8 2b ee bc 6a 07 67 3f
       0.02215993 -0.021416353 -0.02907361 0.9024569
000180 f8 db 2f be cd e2 92 3e 56 6d 93 be 6e 8d d0 3c
       -0.17173755 0.2868866 -0.28794354 0.025458064
000190 c5 fb 71 3f bc 56 03 bd b5 4e 73 3d 23 1c 37 3f
       0.94524795 -0.03206514 0.059401233 0.7152731
0001a0 f5 c7 81 bf db b7 31 be f6 62 d4 3d 73 c2 81 be
       -1.0139147 -0.17355292 0.10370438 -0.25343665
0001b0 66 4d fd bd 6a a8 af bd dc a1 e6 bd 52 11 50 3d
       -0.12368278 -0.08577044 -0.11261341 0.050797768
0001c0 47 02 4c bc 4a 45 dc 3e 67 1a 0d 3d 2e d6 1f bd
       -0.012451715 0.43021613 0.034449007 -0.039022617
0001d0 88 a0 e4 3c 12 d3 7d be 9f ac ea bd 40 51 06 3f
       0.027908579 -0.24787548 -0.11458706 0.5246773
0001e0 ae 0f a3 3d 59 47 05 bf 72 f3 fd bf 7f c2 87 3e
       0.07961975 -0.5206199 -1.9839919 0.26515576
0001f0 2d 9a 80 be e8 87 4e be 62 38 5a 3e e6 91 60 bd
       -0.25117627 -0.20169032 0.21310571 -0.05482664
000200 28 34 7f 3e f9 4f e8 be a4 78 42 bf 3a 8b c8 3f
       0.2492224 -0.45373514 -0.75965333 1.5667489
000210 5c 7d 07 3f 32 2d 82 be 9f 72 34 be 9e 23 cb 3e
       0.5292566 -0.25425106 -0.1762185 0.3967561
000220 4d be 36 3e 03 5d a3 be 0f 68 a7 be a2 ef 1f 3e
       0.17846031 -0.319069 -0.32696578 0.15618756
000230 c2 bc 7a 3f 28 05 45 3d ed fd 3e be 99 1e 15 3f
       0.9794427 0.04810062 -0.18651552 0.58249813
000240 80 fb 1e 3b 58 e3 fc bd 6e ca e5 3c 30 af 90 bd
       0.0024258792 -0.1234805 0.028050628 -0.07064664
000250 03 8e c0 bb 06 0d 1e 3e a7 aa 10 3e 3c 67 30 3d
       -0.005876304 0.15434656 0.14127599 0.043067202
000260 2b 52 ab bc 7a 62 8e 3e c1 30 40 be ff 7f 9f be
       -0.020913204 0.27809507 -0.18768598 -0.3115234
000270 5c 31 eb bd 11 be 0e 3f cc 7c a3 bf 2d 48 96 3e
       -0.11484024 0.5575877 -1.277246 0.2935194
000280 89 e2 a8 3e 17 38 e4 bd e3 7b 9b be 61 49 69 be
       0.32985333 -0.11143511 -0.30367956 -0.22781898
000290 25 ea 7f be 2e f9 00 3f 48 a5 b1 be 7f 5e 97 3f
       -0.24991663 0.5038022 -0.34696412 1.1825713
0002a0 8f e7 81 bf 4a 55 0b bd 59 a7 94 3e 74 0b b6 3d
       -1.0148791 -0.034016885 0.29033926 0.08888903
0002b0 f7 d0 2c bf 7c 60 27 be 09 df 56 be 11 64 db 3e
       -0.67506355 -0.163454 -0.20983519 0.42849782
0002c0 da 3e 48 3f 76 24 77 3d 23 da 68 be 98 39 26 3f
       0.78220904 0.060337506 -0.22739463 0.6493163
0002d0 2b 10 c4 be 59 8c 34 3f 4e 35 1b 3e 9f 72 93 3e
       -0.38293585 0.70526654 0.15157053 0.28798386
0002e0 d6 ae e1 3e 9e 36 d4 3f 04 d6 56 3e 08 45 2c 3f
       0.44078702 1.6579168 0.20980078 0.67292833
0002f0 33 55 b6 be 73 70 c2 bd 0d e9 54 be 88 29 78 bd
       -0.35611877 -0.09494104 -0.20792027 -0.060586482
000300 3c 14 29 bf 2c f0 a7 3d d7 5b a5 bf 0a f6 2f be
       -0.660465 0.08200106 -1.2918652 -0.171837
000310 68 d2 9d be 17 4b 67 3e eb 9b 98 bc 0b 6b dd bd
       -0.3082459 0.22587238 -0.018629035 -0.108114325
000320 03 f9 c6 3e d5 b4 48 be 18 01 7c 3d ab d7 be bf
       0.38861856 -0.19600232 0.06152448 -1.4909567
000330 2d 13 fb be 23 75 5e bc 53 1c 9e 3d 8b 11 17 3e
       -0.49038067 -0.013577732 0.07720246 0.14752786
000340 57 fe fd be 85 d9 e5 3e e9 94 db be ae a6 1a bf
       -0.49608108 0.44892517 -0.42887047 -0.60410583
000350 bf e6 a1 3f f7 4a c7 3e e3 bd e0 be b1 63 0a 3c
       1.2648543 0.3892438 -0.43894872 0.00844662
000360 1a cb a0 3d 8e e3 31 be 1b e5 5d bd 75 c7 17 bd
       0.078512385 -0.17371961 -0.05417357 -0.03705545
000370 47 9d 2e bd 80 d6 7d be e3 40 0f bd 0b bd b2 3d
       -0.04263046 -0.24788857 -0.03497399 0.08727463
000380 a6 d6 9e be ff 34 b3 3e 0b a8 43 3f d9 14 16 bf
       -0.3102314 0.3500137 0.7642829 -0.5862556
000390 bb 2d ee bd 3c 2b 60 bd 38 29 24 3e f0 5a 17 3d
       -0.11629816 -0.05472873 0.16031349 0.03695196
0003a0 d8 61 d3 be 6b fc 1f 3f fd 5c 8f 3e 64 9d ed be
       -0.41285586 0.62494534 0.28000632 -0.46409142
0003b0 ef 35 8f be 87 86 c9 3c 99 6e f0 3e 3c ad 48 bf
       -0.27970836 0.02460028 0.4695938 -0.78389335
0003c0 79 2f 4e be 19 4d 14 bf af f0 ce be 9e e9 51 be
       -0.20135297 -0.5793014 -0.40418002 -0.20499274
0003d0 44 f5 77 3d 72 32 a0 3e f9 dc a2 3e 61 87 1f be
       0.060536638 0.31288487 0.31809214 -0.15578987
0003e0 c0 35 0d 3f 82 58 9f be 5f f6 c4 3c 13 c1 d2 be
       0.5516014 -0.31122214 0.02404326 -0.4116293
0003f0 f9 02 ad bd 45 3b dc be 9c a8 76 3e fc ab 6c 3d
       -0.084478326 -0.4301397 0.24087757 0.057781205

conv2.att_src f4 [1, 1, 32]
000000 b0 00 28 40 93 51 97 bf 38 bd c9 bf 4b 6d e1 3f
       2.625042 -1.182177 -1.576087 1.7611479
000010 d7 42 67 40 f0 1a 3f 40 fa 4b 89 bf ba 3d 46 40
       3.6134546 2.9860191 -1.0726311 3.0975175
000020 52 28 6e 40 b8 a5 c5 3f 19 1b 57 40 49 f2 e6 be
       3.721211 1.5441198 3.361029 -0.45106724
000030 d6 af a1 bf 1c 3c 61 3f 8e 77 81 be a9 78 30 bf
       -1.2631786 0.87982345 -0.25286525 -0.6893411
000040 55 e4 b5 3f 97 7f 86 bf 0f f9 e6 bf 76 86 96 bf
       1.4210306 -1.0507687 -1.8044757 -1.1759784
000050 fb 44 21 40 58 9a 6b 40 fc d6 2e 40 d7 9d 73 bf
       2.5198352 3.6812954 2.7318716 -0.9516272
000060 8b 5a 00 3f d8 bd 85 bf fc f0 66 3f 85 1f 9c bf
       0.5013816 -1.0448561 0.9021146 -1.2197119
000070 2c c1 92 bf 92 ac 58 40 01 13 17 c0 69 c6 57 40
       -1.1465201 3.3855329 -2.360535 3.371485

conv2.att_dst f4 [1, 1, 32]
000000 bb b3 28 3f c5 e7 a6 3d a2 af f9 3e d6 0b 60 3e
       0.65899247 0.08149675 0.4876681 0.21879515
000010 f7 8c 5a 3c 10 95 18 3f e4 f7 1b 3f 96 c0 b3 3e
       0.013339273 0.5960245 0.60925126 0.3510787
000020 3f 8e ba 3e f0 c5 ae 3e 5e 32 dc 3d ff 71 14 3d
       0.3643665 0.3413539 0.10751794 0.036241528
000030 c3 ff dd 3c c1 bd f1 be 0d 03 09 3f 14 56 6e 3e
       0.027099496 -0.47215083 0.5352028 0.23275024
000040 4c 25 fd 3e 5a 77 bf 3c 11 15 e3 3e b1 ac 14 3f
       0.49442518 0.023372341 0.4435201 0.58076006
000050 9a a7 e6 3d e7 75 75 3e a8 dc d7 3e ac 8d 36 3f
       0.11262436 0.23970757 0.42160535 0.71309924
000060 71 fa 4a be 3c 92 0c 3f 83 0d 29 be 87 f2 09 3f
       -0.19822098 0.54910636 -0.1650906 0.5388569
000070 c0 8f f4 3e c9 69 e8 bd aa 7b 20 3e c3 93 25 3f
       0.47765923 -0.11348302 0.15672174 0.6467859

conv2.bias f4 [32]
000000 b1 2b 86 bd d2 25 d8 bd 90 aa 93 be 7b c7 20 be
       -0.06551302 -0.10554089 -0.28841066 -0.15701096
000010 40 b3 31 be 8d d5 86 be 19 d6 00 3e 5e 75 c6 bb
       -0.17353535 -0.263348 0.12581672 -0.0060564717
000020 c6 c6 14 3e ef f0 d6 3e ba 33 46 bd 87 2f ae 3d
       0.14528951 0.41980693 -0.048389174 0.08505159
000030 d8 2b 24 bf 78 9c 36 bd 92 13 62 be ac b8 19 be
       -0.641294 -0.044582814 -0.22077778 -0.15011853
000040 05 3f ff bc b5 e0 d7 be 61 84 d2 be 1f 7d 7b 3d
       -0.03115798 -0.42163625 -0.41116622 0.06139862
000050 3c 20 92 bd e4 d6 9b bd d9 58 eb 3d 28 0b 0a bf
       -0.071350545 -0.076093465 0.11491556 -0.53923273
000060 f9 f0 81 bd 98 bb 69 be 9b 89 0b 3e 91 97 db be
       -0.0634479 -0.22825468 0.13626711 -0.42889073
000070 df e1 8f be d6 2d 93 bd 7c b6 f4 be d7 c5 38 be
       -0.28102013 -0.07186477 -0.47795475 -0.1804422

conv2.lin_src.weight f4 [32, 32]
000000 3e 5c 70 3e 32 ec fd 3f 4f 50 32 be 99 4d 00 c0
       0.23472688 1.9837706 -0.17413448 -2.0047362
000010 e6 05 b9 3e bb 5f 5c be 97 18 51 bf a8 50 f8 be
       0.36137313 -0.21520893 -0.81678146 -0.48499036
000020 46 57 64 bf 77 7e f8 be 7b 1f e7 3e 9b b2 b2 be
       -0.8919567 -0.48533985 0.45141205 -0.3490189
000030 15 20 d4 3e b8 08 f7 bf b6 11 28 be 5e 9f 40 3e
       0.41430727 -1.9299536 -0.16413006 0.18810794
000040 1c ac 52 3e 1c c5 58 bd e3 28 7e 3e 0c 1f d3 3e
       0.20573467 -0.052922353 0.24820285 0.41234624
000050 6f 43 19 bf d0 33 74 3e e9 61 f5 be 09 7e 04 bf
       -0.5986852 0.2384789 -0.47926262 -0.51754814
000060 92 09 44 bc 2d 1c b7 3e b6 37 1c be 52 3d 00 c0
       -0.011965172 0.35763684 -0.15255627 -2.0037427
000070 bb 6e 21 bf 0d 72 dc 3f a9 ef b4 bd 6c 4c 2e 3f
       -0.63059586 1.7222306 -0.08834774 0.6808536
000080 4d 7e de bd c5 9d aa be 93 b5 de 3d 10 28 59 3f
       -0.10863934 -0.33323494 0.10874476 0.84826756
000090 d0 6f 75 3e 76 c4 09 3e e9 ef 7e bc fe 5f e8 be
       0.23968434 0.1345385 -0.015560129 -0.45385736
0000a0 37 f5 f6 3e 03 ac 38 3c 7b 14 ea be 06 14 fc 3d
       0.4823396 0.01127148 -0.4571875 0.12308507
0000b0 5c e5 55 be ab 35 06 3f b1 13 a1 3e 38 23 6c be
       -0.20888275 0.5242564 0.31460336 -0.2306031
0000c0 c2 2f 1d be 33 56 2c be 48 97 b1 be 8e ef 90 bf
       -0.1535025 -0.16829757 -0.3468573 -1.1323106
0000d0 aa 3b 20 be 76 df 91 be c2 a4 c8 be fd 6c 87 3e
       -0.1564776 -0.284908 -0.391882 0.2645034
0000e0 7d cd 52 bf 05 33 67 3d 66 83 20 bf e2 f2 18 3e
       -0.823448 0.05644514 -0.627005 0.14936402
0000f0 ea ed 15 3f 4a a5 57 be 9e 4e 34 3e 09 8f 49 be
       0.58566153 -0.21059147 0.17608115 -0.1968347
000100 5e 61 42 bf 2a 40 2d bf 4e bc 76 be 52 51 a3 3f
       -0.7592982 -0.6767603 -0.2409527 1.2759192
000110 ad e2 b3 bd ab d1 46 bf b0 06 80 3e a7 38 65 bd
       -0.08783469 -0.7766368 0.25005102 -0.05596223
000120 87 e9 2b 3f 31 8b 44 3f bb 08 40 bf 90 5e d6 3e
       0.6715321 0.7677489 -0.7501332 0.4186902
000130 70 f0 f9 be 3f 0c 6b 3e ca 8e 99 3c e7 8e ca bc
       -0.48816252 0.2295389 0.018744845 -0.024726344
000140 2d e7 0f 3d 1b 5e d7 be 26 b3 0b bf 4d a7 9a be
       0.035132576 -0.42063984 -0.54570234 -0.30205765
000150 5a ea a8 3e f5 09 80 3e e5 09 33 3e 97 32 a1 3e
       0.32991296 0.25007597 0.17484243 0.3148391
000160 9a a7 6b be 3e 3e cc be 90 2c 0b bf 42 db 4d 3f
       -0.23013154 -0.39891237 -0.5436487 0.80412686
000170 68 24 36 3e 29 65 82 bf b3 86 08 be e0 a1 6b bf
       0.17787325 -1.0187122 -0.13332634 -0.92043877
000180 14 b9 a8 3e 25 f3 b5 3f 39 32 60 bc 3c 59 12 c0
       0.32953703 1.4214827 -0.013683849 -2.2866964
000190 f4 71 90 3c 7e 0d 00 3d 6c fe 3f be 1d 3b 12 3e
       0.017632462 0.031262867 -0.18749398 0.14280362
0001a0 d5 3a 8e bf 11 37 27 bf c0 33 88 3d 7d ea 8e bd
       -1.1111704 -0.653184 0.066504955 -0.06978319
0001b0 61 86 c1 3e 39 f8 30 bf 9d 83 12 bf c4 8f 92 bc
       0.37797835 -0.6912876 -0.57232076 -0.017890818
0001c0 67 67 11 3e 8d 90 d9 bd ce 9d d2 3e 78 4b 1c 3e
       0.14199601 -0.10623274 0.4113602 0.15263164
0001d0 70 10 e2 be a9 92 92 3e db a5 c3 be 47 c0 52 bf
       -0.44153166 0.28627518 -0.38212475 -0.8232464
0001e0 e9 b4 7b be fb 7d bd 3e 38 c7 f9 bd b3 3a a3 bf
       -0.2458073 0.37010178 -0.12196201 -1.2752289
0001f0 60 7b d6 be 93 b1 92 3f 58 52 83 be 1f 65 08 3f
       -0.41891003 1.1460441 -0.2564876 0.532793
000200 d1 e0 37 3e 44 6b f9 3f b6 4e a8 be 45 02 28 c0
       0.17956854 1.948586 -0.32872552 -2.6251385
000210 44 fe 0e 3e 51 41 83 bf cb a3 82 bf 22 d7 e7 be
       0.13964182 -1.0254308 -1.0206236 -0.4528132
000220 c9 74 b3 bf ff 66 51 bf a8 b2 d3 3d 45 66 87 bf
       -1.4020015 -0.81797785 0.1033681 -1.0578085
000230 8e 26 08 3f 41 26 c8 bf 70 9b b4 be 5a 85 44 3e
       0.5318383 -1.5636674 -0.3527484 0.19191495
000240 36 1e fb 3e 16 19 58 bc da 9b a2 3d 3d c4 87 3e
       0.49046487 -0.013189575 0.079398826 0.26516905
000250 b4 05 2d bf d8 d7 f8 bd dc 61 ba be 42 94 9f bf
       -0.6758683 -0.12150544 -0.36402786 -1.246712
000260 45 47 1f 3e a3 3c 04 3f 00 e4 4d 3e 28 db 0f c0
       0.15554531 0.51655024 0.20106506 -2.2477512
000270 da f0 ab be a8 8e b8 3f 31 13 9b 3e 00 66 0e 3f
       -0.33582193 1.4418535 0.3028808 0.5562439
000280 d0 83 2e 3f 72 20 ad 3f 45 11 43 be bb 0b f6 bf
       0.6816988 1.3525527 -0.19049557 -1.922233
000290 69 83 2e 3f f3 98 05 3e f4 e3 a8 be d9 71 9c bd
       0.68169266 0.13046627 -0.32986414 -0.07638902
0002a0 b3 1b 7f bf c1 6c 28 bf 20 c6 2d 3f 26 ac be bd
       -0.9965164 -0.65790945 0.6788044 -0.093101785
0002b0 5d 5a 12 3f 5b 6c 23 bf eb 95 a5 3c 4b f7 00 3e
       0.57169133 -0.6383721 0.020213088 0.12594335
0002c0 68 99 ca bc 36 42 50 3e 2b b1 8a 3e 75 2d 19 3e
       -0.024731353 0.20337757 0.27088293 0.14958747
0002d0 46 76 2c bf ad 84 14 3c c2 ed 64 be 15 33 54 bf
       -0.6736797 0.0090648355 -0.22356322 -0.82890445
0002e0 23 c3 7b 3d 82 5a 57 3e a5 f7 cd be fc bc a3 bf
       0.061465394 0.2103062 -0.40228 -1.2792048
0002f0 b8 a5 ae bd 78 4a 8a 3f a0 91 7d bc f8 43 76 3f
       -0.08527702 1.0803976 -0.015476614 0.9619746
000300 27 42 e7 bd ff ce 28 bf e2 a4 8a 3e 1a 91 dd 3f
       -0.112919144 -0.6594085 0.2707892 1.7309906
000310 3f 39 f3 bd e4 db 59 bd 4b 0b bc bd 8b 4c 3c 3e
       -0.11876153 -0.05318822 -0.091818415 0.18388574
000320 91 2e 07 3f 4b 12 cf 3d 08 1b 73 3e d6 fa a5 be
       0.5280543 0.10110911 0.2374078 -0.32417935
000330 83 68 11 3e 07 6f 8b 3d 59 e3 03 3f aa f9 87 bf
       0.14200024 0.06808286 0.5151878 -1.0623066
000340 4b 6a 1d 3e 23 2d 49 3e 80 84 d1 3e 1c b4 68 3e
       0.15372579 0.19646125 0.40921402 0.22724956
000350 e9 5e dd be 8e de 84 bd 2a 8b 8b 3e b0 05 9b bd
       -0.43236473 -0.064877614 0.2725461 -0.07569444
000360 19 0f 8b be b0 6e f9 bf 57 dd bd bd 70 fa 36 3d
       -0.27159956 -1.9486904 -0.09270733 0.04467243
000370 33 01 c6 3e ab 0f 81 be 92 fe 7f 3d bb 2c 23 bf
       0.3867279 -0.25207266 0.062498637 -0.6374013
000380 f0 30 a9 3e f9 9d d2 3f 4b d0 74 be 39 ec 01 c0
       0.3304515 1.645446 -0.23907582 -2.030043
000390 c4 f1 b5 3d 21 e9 07 be 1c c6 4e bf c1 85 6c 3e
       0.08884004 -0.13272525 -0.8077104 0.23097898
0003a0 e5 3d b5 bf 4b 99 3e bf 83 bf 90 3e 3c 69 b1 be
       -1.4159514 -0.74452657 0.28271112 -0.346506
0003b0 f1 84 b0 3e 21 8c d0 bf f9 51 69 be da 0f 70 3d
       0.34476426 -1.6292764 -0.22785176 0.058608867
0003c0 5f 8e 80 3e e9 12 1c 3e a7 61 9d 3e f9 85 2b 3e
       0.2510862 0.15241589 0.30738565 0.16750325
0003d0 35 e5 26 bf 9e f7 6e 3e d5 39 20 bf e1 da 4c bf
       -0.6519349 0.23336646 -0.62588245 -0.8002148
0003e0 00 22 98 be fb 8b 01 3e 24 d6 03 3e 16 61 d3 bf
       -0.2971344 0.12651055 0.12874657 -1.6514003
0003f0 dd bd b1 bd 7f 8e b1 3f 80 88 db bd fe b9 e2 3e
       -0.08678792 1.3871611 -0.10719395 0.44282526

conv2.lin_dst.weight f4 [32, 32]
000000 3e 5c 70 3e 32 ec fd 3f 4f 50 32 be 99 4d 00 c0
       0.23472688 1.9837706 -0.17413448 -2.0047362
000010 e6 05 b9 3e bb 5f 5c be 97 18 51 bf a8 50 f8 be
       0.36137313 -0.21520893 -0.81678146 -0.48499036
000020 46 57 64 bf 77 7e f8 be 7b 1f e7 3e 9b b2 b2 be
       -0.8919567 -0.48533985 0.45141205 -0.3490189
000030 15 20 d4 3e b8 08 f7 bf b6 11 28 be 5e 9f 40 3e
       0.41430727 -1.9299536 -0.16413006 0.18810794
000040 1c ac 52 3e 1c c5 58 bd e3 28 7e 3e 0c 1f d3 3e
       0.20573467 -0.052922353 0.24820285 0.41234624
000050 6f 43 19 bf d0 33 74 3e e9 61 f5 be 09 7e 04 bf
       -0.5986852 0.2384789 -0.47926262 -0.51754814
000060 92 09 44 bc 2d 1c b7 3e b6 37 1c be 52 3d 00 c0
       -0.011965172 0.35763684 -0.15255627 -2.0037427
000070 bb 6e 21 bf 0d 72 dc 3f a9 ef b4 bd 6c 4c 2e 3f
       -0.63059586 1.7222306 -0.08834774 0.6808536
000080 4d 7e de bd c5 9d aa be 93 b5 de 3d 10 28 59 3f
       -0.10863934 -0.33323494 0.10874476 0.84826756
000090 d0 6f 75 3e 76 c4 09 3e e9 ef 7e bc fe 5f e8 be
       0.23968434 0.1345385 -0.015560129 -0.45385736
0000a0 37 f5 f6 3e 03 ac 38 3c 7b 14 ea be 06 14 fc 3d
       0.4823396 0.01127148 -0.4571875 0.12308507
0000b0 5c e5 55 be ab 35 06 3f b1 13 a1 3e 38 23 6c be
       -0.20888275 0.5242564 0.31460336 -0.2306031
0000c0 c2 2f 1d be 33 56 2c be 48 97 b1 be 8e ef 90 bf
       -0.1535025 -0.16829757 -0.3468573 -1.1323106
0000d0 aa 3b 20 be 76 df 91 be c2 a4 c8 be fd 6c 87 3e
       -0.1564776 -0.284908 -0.391882 0.2645034
0000e0 7d cd 52 bf 05 33 67 3d 66 83 20 bf e2 f2 18 3e
       -0.823448 0.05644514 -0.627005 0.14936402
0000f0 ea ed 15 3f 4a a5 57 be 9e 4e 34 3e 09 8f 49 be
       0.58566153 -0.21059147 0.17608115 -0.1968347
000100 5e 61 42 bf 2a 40 2d bf 4e bc 76 be 52 51 a3 3f
       -0.7592982 -0.6767603 -0.2409527 1.2759192
000110 ad e2 b3 bd ab d1 46 bf b0 06 80 3e a7 38 65 bd
       -0.08783469 -0.7766368 0.25005102 -0.05596223
000120 87 e9 2b 3f 31 8b 44 3f bb 08 40 bf 90 5e d6 3e
       0.6715321 0.7677489 -0.7501332 0.4186902
000130 70 f0 f9 be 3f 0c 6b 3e ca 8e 99 3c e7 8e ca bc
       -0.48816252 0.2295389 0.018744845 -0.024726344
000140 2d e7 0f 3d 1b 5e d7 be 26 b3 0b bf 4d a7 9a be
       0.035132576 -0.42063984 -0.54570234 -0.30205765
000150 5a ea a8 3e f5 09 80 3e e5 09 33 3e 97 32 a1 3e
       0.32991296 0.25007597 0.17484243 0.3148391
000160 9a a7 6b be 3e 3e cc be 90 2c 0b bf 42 db 4d 3f
       -0.23013154 -0.39891237 -0.5436487 0.80412686
000170 68 24 36 3e 29 65 82 bf b3 86 08 be e0 a1 6b bf
       0.17787325 -1.0187122 -0.13332634 -0.92043877
000180 14 b9 a8 3e 25 f3 b5 3f 39 32 60 bc 3c 59 12 c0
       0.32953703 1.4214827 -0.013683849 -2.2866964
000190 f4 71 90 3c 7e 0d 00 3d 6c fe 3f be 1d 3b 12 3e
       0.017632462 0.031262867 -0.18749398 0.14280362
0001a0 d5 3a 8e bf 11 37 27 bf c0 33 88 3d 7d ea 8e bd
       -1.1111704 -0.653184 0.066504955 -0.06978319
0001b0 61 86 c1 3e 39 f8 30 bf 9d 83 12 bf c4 8f 92 bc
       0.37797835 -0.6912876 -0.57232076 -0.017890818
0001c0 67 67 11 3e 8d 90 d9 bd ce 9d d2 3e 78 4b 1c 3e
       0.14199601 -0.10623274 0.4113602 0.15263164
0001d0 70 10 e2 be a9 92 92 3e db a5 c3 be 47 c0 52 bf
       -0.44153166 0.28627518 -0.38212475 -0.8232464
0001e0 e9 b4 7b be fb 7d bd 3e 38 c7 f9 bd b3 3a a3 bf
       -0.2458073 0.37010178 -0.12196201 -1.2752289
0001f0 60 7b d6 be 93 b1 92 3f 58 52 83 be 1f 65 08 3f
       -0.41891003 1.1460441 -0.2564876 0.532793
000200 d1 e0 37 3e 44 6b f9 3f b6 4e a8 be 45 02 28 c0
       0.17956854 1.948586 -0.32872552 -2.6251385
000210 44 fe 0e 3e 51 41 83 bf cb a3 82 bf 22 d7 e7 be
       0.13964182 -1.0254308 -1.0206236 -0.4528132
000220 c9 74 b3 bf ff 66 51 bf a8 b2 d3 3d 45 66 87 bf
       -1.4020015 -0.81797785 0.1033681 -1.0578085
000230 8e 26 08 3f 41 26 c8 bf 70 9b b4 be 5a 85 44 3e
       0.5318383 -1.5636674 -0.3527484 0.19191495
000240 36 1e fb 3e 16 19 58 bc da 9b a2 3d 3d c4 87 3e
       0.49046487 -0.013189575 0.079398826 0.26516905
000250 b4 05 2d bf d8 d7 f8 bd dc 61 ba be 42 94 9f bf
       -0.6758683 -0.12150544 -0.36402786 -1.246712
000260 45 47 1f 3e a3 3c 04 3f 00 e4 4d 3e 28 db 0f c0
       0.15554531 0.51655024 0.20106506 -2.2477512
000270 da f0 ab be a8 8e b8 3f 31 13 9b 3e 00 66 0e 3f
       -0.33582193 1.4418535 0.3028808 0.5562439
000280 d0 83 2e 3f 72 20 ad 3f 45 11 43 be bb 0b f6 bf
       0.6816988 1.3525527 -0.19049557 -1.922233
000290 69 83 2e 3f f3 98 05 3e f4 e3 a8 be d9 71 9c bd
       0.68169266 0.13046627 -0.32986414 -0.07638902
0002a0 b3 1b 7f bf c1 6c 28 bf 20 c6 2d 3f 26 ac be bd
       -0.9965164 -0.65790945 0.6788044 -0.093101785
0002b0 5d 5a 12 3f 5b 6c 23 bf eb 95 a5 3c 4b f7 00 3e
       0.57169133 -0.6383721 0.020213088 0.12594335
0002c0 68 99 ca bc 36 42 50 3e 2b b1 8a 3e 75 2d 19 3e
       -0.024731353 0.20337757 0.27088293 0.14958747
0002d0 46 76 2c bf ad 84 14 3c c2 ed 64 be 15 33 54 bf
       -0.6736797 0.0090648355 -0.22356322 -0.82890445
0002e0 23 c3 7b 3d 82 5a 57 3e a5 f7 cd be fc bc a3 bf
       0.061465394 0.2103062 -0.40228 -1.2792048
0002f0 b8 a5 ae bd 78 4a 8a 3f a0 91 7d bc f8 43 76 3f
       -0.08527702 1.0803976 -0.015476614 0.9619746
000300 27 42 e7 bd ff ce 28 bf e2 a4 8a 3e 1a 91 dd 3f
       -0.112919144 -0.6594085 0.2707892 1.7309906
000310 3f 39 f3 bd e4 db 59 bd 4b 0b bc bd 8b 4c 3c 3e
       -0.11876153 -0.05318822 -0.091818415 0.18388574
000320 91 2e 07 3f 4b 12 cf 3d 08 1b 73 3e d6 fa a5 be
       0.5280543 0.10110911 0.2374078 -0.32417935
000330 83 68 11 3e 07 6f 8b 3d 59 e3 03 3f aa f9 87 bf
       0.14200024 0.06808286 0.5151878 -1.0623066
000340 4b 6a 1d 3e 23 2d 49 3e 80 84 d1 3e 1c b4 68 3e
       0.15372579 0.19646125 0.40921402 0.22724956
000350 e9 5e dd be 8e de 84 bd 2a 8b 8b 3e b0 05 9b bd
       -0.43236473 -0.064877614 0.2725461 -0.07569444
000360 19 0f 8b be b0 6e f9 bf 57 dd bd bd 70 fa 36 3d
       -0.27159956 -1.9486904 -0.09270733 0.04467243
000370 33 01 c6 3e ab 0f 81 be 92 fe 7f 3d bb 2c 23 bf
       0.3867279 -0.25207266 0.062498637 -0.6374013
000380 f0 30 a9 3e f9 9d d2 3f 4b d0 74 be 39 ec 01 c0
       0.3304515 1.645446 -0.23907582 -2.030043
000390 c4 f1 b5 3d 21 e9 07 be 1c c6 4e bf c1 85 6c 3e
       0.08884004 -0.13272525 -0.8077104 0.23097898
0003a0 e5 3d b5 bf 4b 99 3e bf 83 bf 90 3e 3c 69 b1 be
       -1.4159514 -0.74452657 0.28271112 -0.346506
0003b0 f1 84 b0 3e 21 8c d0 bf f9 51 69 be da 0f 70 3d
       0.34476426 -1.6292764 -0.22785176 0.058608867
0003c0 5f 8e 80 3e e9 12 1c 3e a7 61 9d 3e f9 85 2b 3e
       0.2510862 0.15241589 0.30738565 0.16750325
0003d0 35 e5 26 bf 9e f7 6e 3e d5 39 20 bf e1 da 4c bf
       -0.6519349 0.23336646 -0.62588245 -0.8002148
0003e0 00 22 98 be fb 8b 01 3e 24 d6 03 3e 16 61 d3 bf
       -0.2971344 0.12651055 0.12874657 -1.6514003
0003f0 dd bd b1 bd 7f 8e b1 3f 80 88 db bd fe b9 e2 3e
       -0.08678792 1.3871611 -0.10719395 0.44282526

classifier.weight f4 [32, 32]
000000 d2 fa 9e 34 28 ee e9 b7 05 cf c9 b9 1f b4 80 b5
       2.961229e-07 -2.7886665e-05 -0.0003849195 -9.589165e-07
000010 2c f5 20 00 c0 88 97 b5 2e 6b cb ba 02 0c fb 3a
       3.026687e-39 -1.1290176e-06 -0.0015519613 0.0019153359
000020 9a 2a 1d 3a ba 5c 5b 3a b9 30 00 00 03 d2 a3 ba
       0.0005995423 0.00083680043 1.7478e-41 -0.0012498501
000030 5e 28 9c b7 9c a6 1d ba 06 22 aa ba 61 28 14 80
       -1.8615447e-05 -0.00060139014 -0.001298011 -1.851195e-39
000040 d1 fc 03 80 1e 00 c4 37 d9 7c 0a b8 04 5e df b9
       -3.662e-40 2.3365075e-05 -3.3018037e-05 -0.00042603922
000050 7e 47 83 3a 20 62 53 00 b0 b2 fc a1 42 49 6f 38
       0.0010015813 7.657547e-39 -1.7123482e-18 5.7050267e-05
000060 e1 6c 5d ba 9a 83 f2 39 5f 28 16 3a a8 72 09 38
       -0.0008446705 0.00046255888 0.00057280617 3.2770127e-05
000070 e4 a9 6c 37 8c 11 59 b6 ae ae d5 34 af 35 00 00
       1.4106252e-05 -3.2345733e-06 3.9801438e-07 1.9258e-41
000080 5f c9 59 b2 44 25 24 38 30 23 23 b6 0c 96 9b 34
       -1.2676849e-08 3.9135353e-05 -2.4309375e-06 2.8980173e-07
000090 3a a1 05 80 c0 20 04 b7 cf 53 89 39 bc 41 7c b9
       -5.17015e-40 -7.875438e-06 0.00026193119 -0.00024057081
0000a0 a2 2e fe 37 ad f9 11 b9 91 46 00 00 6a 24 af 39
       3.0300875e-05 -0.00013921289 2.5314e-41 0.00033405732
0000b0 e5 b1 62 b6 b1 5a 94 38 a7 38 03 3a f3 8e 07 00
       -3.3780173e-06 7.0740825e-05 0.0005005695 6.94129e-40
0000c0 81 39 03 80 60 91 ec 38 30 7d 57 34 fa 1f 52 39
       -2.96135e-40 0.00011280435 2.0068978e-07 0.00020039073
0000d0 83 3c b5 b8 ba 85 01 80 94 9d 05 35 38 11 18 b8
       -8.642024e-05 -1.39808e-40 4.977567e-07 -3.625566e-05
0000e0 f4 7e 01 39 20 80 8d 38 68 49 3c b9 5d 22 9e 38
       0.00012349692 6.747269e-05 -0.00017956423 7.540428e-05
0000f0 5f fe d4 b7 be 75 09 37 c9 b3 d2 33 3b aa 09 80
       -2.539082e-05 8.19325e-06 9.81159e-08 -8.87587e-40
000100 94 62 5c 34 88 7f 7e 38 02 24 0e 39 f2 f8 78 b6
       2.0524959e-07 6.0677092e-05 0.00013555589 -3.7099785e-06
000110 2f 0b 01 80 b0 75 b3 35 82 f6 1b bb 06 84 92 3a
       -9.5847e-41 1.3370791e-06 -0.0023798053 0.0011178262
000120 30 1a 6d 38 44 c6 f9 3a c2 55 00 00 e6 65 68 39
       5.6529592e-05 0.001905628 3.0764e-41 0.00022163204
000130 ba 50 61 b8 2e 58 9e b9 27 96 bc bb fd ff 07 80
       -5.3719363e-05 -0.00030201807 -0.0057552042 -7.3468e-40
000140 a4 5a 05 80 c8 a1 88 ba 70 dc b5 b7 38 df f8 ba
       -4.91693e-40 -0.0010424191 -2.167953e-05 -0.0018987423
000150 04 93 da b9 d4 65 03 80 22 1f 00 80 b7 83 a2 39
       -0.00041689735 -3.12036e-40 -1.1168e-41 0.00030997183
000160 15 f2 3d 39 c7 03 81 3a fa 68 bb 3a 59 97 b3 b9
       0.00018114627 0.0009843045 0.0014298253 -0.00034254303
000170 9a e3 ef 38 3c b7 57 38 e6 01 22 35 e0 df 01 00
       0.00011438802 5.1430645e-05 6.0352465e-07 1.72147e-40
000180 cd 38 1f 37 ec 0f 41 bc 79 08 63 3b 7b 7b f0 37
       9.4903635e-06 -0.011783581 0.0034642501 2.866773e-05
000190 7c 02 00 80 b7 95 d5 38 b2 de 00 3d c9 9d 92 bc
       -8.91e-43 0.00010184518 0.03146238 -0.017897503
0001a0 9b 88 0b bc b2 e2 c1 ba f3 58 00 80 0a d7 3d 3d
       -0.008516456 -0.0014792292 -3.1909e-41 0.046347655
0001b0 9a 38 cc 39 3d c4 6c bc 32 f8 bd 3c 90 41 00 80
       0.00038952084 -0.014451084 0.023189638 -2.352e-41
0001c0 15 29 00 80 cc 9f da bb 8f a4 9a b9 c9 86 c7 3c
       -1.4737e-41 -0.0066718813 -0.00029495775 0.024356263
0001d0 60 cf 85 b9 90 95 08 00 4d 29 00 80 25 a4 6b bb
       -0.00025522243 7.88337e-40 -1.4816e-41 -0.0035955992
0001e0 fb 9c a3 3c fc 4d a3 bb 07 eb bf bc 25 66 31 bc
       0.019972315 -0.0049836617 -0.0234275 -0.010827576
0001f0 7d a2 2c bb 37 af 11 39 8e 85 1e b7 72 62 00 80
       -0.0026341968 0.0001389355 -9.4486295e-06 -3.5316e-41
000200 c9 fc c7 33 08 76 96 ba 9c 04 f3 b9 c8 de 34 b5
       9.312641e-08 -0.0011479268 -0.00046352006 -6.7379415e-07
000210 78 2c 02 00 07 a3 8c b7 00 14 4b 3b d8 e3 77 ba
       1.99623e-40 -1.6765216e-05 0.0030987263 -0.00094562536
000220 ca d9 dc 39 97 0b 11 bb 16 0e 00 00 28 24 6e 3b
       0.00042123935 -0.0022132152 5.053e-42 0.0036337469
000230 b7 3e 28 38 4a a8 c8 3a b2 f1 d7 3b 2c f5 00 80
       4.011273e-05 0.0015308943 0.0065900916 -8.7951e-41
000240 83 4e 08 00 02 c1 ce 39 73 1e ab b7 c9 1c 0e 3a
       7.62849e-40 0.00039435184 -2.0398968e-05 0.00054211594
000250 be 1a f4 39 9d 04 37 00 50 6e e9 af c0 44 a2 b6
       0.0004655923 5.052607e-39 -4.2460835e-10 -4.83598e-06
000260 90 36 be b8 17 a6 d4 ba e6 54 e0 ba b0 90 3b b9
       -9.070069e-05 -0.0016223815 -0.0017115145 -0.0001788761
000270 c5 34 5d 39 4a 99 80 b8 51 02 47 b5 0b c5 02 80
       0.0002109586 -6.132068e-05 -7.413665e-07 -2.54357e-40
000280 a0 f8 49 b2 1c 1f 0d 38 c5 2d 89 b9 76 49 16 b5
       -1.1756271e-08 3.3645993e-05 -0.00026164777 -5.5986254e-07
000290 cc 72 04 80 04 e8 71 37 03 6f 61 ba 90 fb 06 3b
       -4.08523e-40 1.441874e-05 -0.0008599611 0.002059672
0002a0 fa 28 f2 39 aa 80 ba 39 89 26 00 80 18 f7 55 ba
       0.00046188367 0.00035572547 -1.3824e-41 -0.0008162125
0002b0 88 7f 00 35 40 3d 1f b6 46 87 11 ba a1 79 04 00
       4.78693e-07 -2.3728498e-06 -0.00055514683 4.10974e-40
0002c0 b1 3e 0d 80 e2 95 c7 38 da 0c 04 b7 f8 b3 86 b9
       -1.216351e-39 9.516977e-05 -7.870805e-06 -0.0002569256
0002d0 11 65 38 3a 40 26 15 80 89 d2 1d ac c9 ef 05 38
       0.0007034103 -1.942267e-39 -2.2427912e-12 3.193299e-05
0002e0 6f da 02 ba ed 23 41 39 f6 cc 86 38 a8 42 85 38
       -0.00049916556 0.00018419298 6.427795e-05 6.35435e-05
0002f0 33 e6 41 b8 0e c9 a2 b6 f4 13 22 33 6d 05 02 80
       -4.6229175e-05 -4.851382e-06 3.773671e-08 -1.85617e-40
000300 96 b4 7f b7 44 68 10 3d 5b 64 30 bc c7 36 92 36
       -1.524123e-05 0.035255685 -0.010766114 4.357516e-06
000310 54 4c 00 80 0c 56 21 b9 b3 a8 64 bd 44 e5 d1 3c
       -2.7381e-41 -0.00015386211 -0.055824947 0.025622018
000320 56 bd 55 3c 7a 0e 20 3c 15 07 00 00 0e c9 7b bd
       0.0130456295 0.0097690765 2.54e-42 -0.061471038
000330 08 52 e4 3a b9 10 ce 3c c0 af 3c bd a0 1d 00 00
       0.0017419467 0.025154458 -0.046066046 1.0627e-41
000340 f8 20 00 00 54 c9 c0 3c fc 0a 7c 3a ee 84 40 bd
       1.1827e-41 0.0235335 0.0009614674 -0.04700177
000350 05 70 2d 3b 87 52 0c 80 75 44 00 80 05 52 74 3c
       0.0026464474 -1.131631e-39 -2.4558e-41 0.014912133
000360 d3 4f 26 bd 64 61 6a 3c f1 3b 59 3d 7c 8d 04 3d
       -0.04060347 0.014305446 0.05303568 0.032361493
000370 e3 29 4b 3c de cc 92 39 15 83 c8 37 9e 10 00 80
       0.012400123 0.00027999928 2.3902898e-05 -5.961e-42
000380 80 35 46 b3 da 6e 38 b9 62 81 4b b8 05 bc 00 35
       -4.6149125e-08 -0.00017588903 -4.851947e-05 4.795732e-07
000390 aa 67 02 80 7b 1c 66 b6 11 b5 3f b9 b0 2a 34 39
       -2.20859e-40 -3.4289249e-06 -0.00018282632 0.0001718204
0003a0 d0 2a 25 36 5a 66 17 39 c3 3c 00 00 67 30 79 38
       2.4611836e-06 0.00014438611 2.1797e-41 5.9411304e-05
0003b0 c9 d4 db 36 fa 4f 93 38 80 4d d5 b9 a9 7a 16 80
       6.55148e-06 7.024403e-05 -0.00040684268 -2.064383e-39
0003c0 9d d8 09 00 e1 46 3f b9 d0 5b 85 b4 9e b5 84 b9
       9.04226e-40 -0.00018241584 -2.4839983e-07 -0.00025312317
0003d0 dd b4 40 38 8d bf 22 80 f8 9b ce a7 94 8b 67 37
       4.594481e-05 -3.191122e-39 -5.7345587e-15 1.3801171e-05
0003e0 56 e1 31 b8 24 55 d5 b8 02 c5 0e 39 a9 1c fd b8
       -4.240995e-05 -0.0001017249 0.00013615566 -0.000120693185
0003f0 ba 8d 2d 36 2a 7d 34 b6 c4 31 e7 32 b9 7f 05 00
       2.5861505e-06 -2.6894945e-06 2.691457e-08 5.04996e-40

classifier.bias f4 [32]
000000 79 9f 99 bc 99 6e 86 3b 78 5b 68 be dc 5d a1 bf
       -0.0187528 0.0041025397 -0.22691143 -1.2606769
000010 51 f3 9f 3d b6 01 47 bc 1f d6 5f 3f e7 04 2f bc
       0.07810081 -0.012146404 0.874361 -0.010682321
000020 a5 23 9f bc bf 27 88 bc 56 0c 91 3c 86 20 c5 3b
       -0.019426176 -0.016620515 0.017706078 0.00601584
000030 77 e1 4b bf 28 a2 63 3c 9a a5 12 be 44 59 4e bf
       -0.7964091 0.0138936415 -0.14320984 -0.8060496
000040 35 70 b3 3b c7 15 4c bc d2 8b 54 3f 31 4a 39 bc
       0.0054760226 -0.012456364 0.8302585 -0.0113091925
000050 e8 c2 81 3c 27 e8 b9 bc 53 06 13 3c a6 49 0b bd
       0.015840009 -0.022693707 0.008973676 -0.034005783
000060 a4 28 09 bb 89 c5 8d 3c 91 b6 d0 be 49 52 82 bc
       -0.0020928765 0.017306106 -0.40764287 -0.015908377
000070 e0 10 49 bf a1 ff 57 3b 7b 6e ae bf 51 92 ab bc
       -0.78541374 0.0032958763 -1.3627466 -0.020943793

classifier2.weight f4 [1, 32]
000000 aa d7 fa 3a 54 78 0e b9 28 84 cb b9 db d4 5a 3e
       0.0019137759 -0.00013587001 -0.0003881764 0.2137026
000010 1c 47 9d 38 1f 06 ac 3a 00 06 f7 be 30 da 47 38
       7.4995885e-05 0.0013124383 -0.48246765 4.76485e-05
000020 84 f8 0c 3b 97 3f 9d 3a c0 59 dd ba 1e ad a3 b9
       0.0021510432 0.0011997101 -0.001688771 -0.00031218765
000030 a4 26 0f 3f 1b 76 c7 ba 2b 70 be b9 7b a2 61 3d
       0.55918336 -0.0015217693 -0.00036323196 0.055086594
000040 16 97 5e b9 21 80 32 3a 97 c1 e7 bd 1e 3d 72 38
       -0.00021227854 0.0006809254 -0.11316221 5.7754216e-05
000050 6d 9f 13 bb 91 eb 33 3b f2 d4 50 b9 a4 1c 6a 3a
       -0.0022525445 0.002745364 -0.00019915754 0.00089306594
000060 07 7d 80 38 34 57 c9 ba ba fe 8a ba c8 38 c1 38
       6.126804e-05 -0.0015361072 -0.0010604479 9.2135335e-05
000070 74 31 35 3f f9 03 1b 39 0e 1e 2d 3f 61 19 52 39
       0.70778584 0.00014783432 0.67623985 0.00020036615
