A3/classification/custom.pth (torch, 349033 bytes, 17 tensors)

conv1.nn.0.weight f4 [64, 9]
0	0x3d1e058e	0.038579516
1	0xbe06a385	-0.13148315
2	0xbcad2daf	-0.021139948
3	0x3e1f80a8	0.15576422
4	0xbf1a7538	-0.6033511
5	0xbe768267	-0.24073182
6	0x3c88550f	0.016642122
7	0xbe4443bb	-0.19166462
8	0x3e700ea0	0.23443079
9	0xbeb82e31	-0.3597274
10	0x3e3b2032	0.18274
11	0x3ecea374	0.4035908
12	0x3d6a66bc	0.05722688
13	0x3d185003	0.03718568
14	0xbe723386	-0.23652467
15	0x3e324521	0.17409183
16	0x3ec9463f	0.39311406
17	0x3d3b98c5	0.04579999
18	0x3c77e7cd	0.015130949
19	0x3e44926c	0.1919648
20	0x3e6cc386	0.23121461
21	0xbe22fc4f	-0.1591656
22	0x3e67c386	0.2263318
23	0x3e65d3d5	0.22444089
24	0x3ece1bf8	0.40255713
25	0x3ebce66d	0.3689455
26	0xbf0696dc	-0.52573943
27	0x3b72633f	0.0036985425
28	0xbf5805e6	-0.84384
29	0xbe6afa3e	-0.22947022
30	0x3e0affb8	0.13574111
31	0x3e182b4c	0.14860266
32	0xbeaf2d9d	-0.34214488
33	0xbe018778	-0.12649333
34	0xbef60cae	-0.4805655
35	0x3efb52d2	0.49086624
36	0xbd296b98	-0.041362375
37	0xbe5b6075	-0.21423514
38	0x3e4d5dd1	0.2005532
39	0xbdb57203	-0.08859637
40	0xbe216893	-0.15762548
41	0x3e0278f5	0.12741454
42	0xbe29501e	-0.16534469
43	0x3c6de403	0.014519694
44	0xbe041b58	-0.12901056
45	0x3d9dd2f5	0.077062525
46	0x3e123828	0.14279234
47	0xbeb77972	-0.35834843
48	0x3e88bf0f	0.26708266
49	0xbe26f682	-0.16304973
50	0x3e9a2957	0.30109665
51	0xbe3f0439	-0.18653955
52	0xbf148cb0	-0.5802717
53	0xbe805657	-0.25065872
54	0xbe8f6758	-0.28008533
55	0xbf0b1115	-0.5432294
56	0xbc46e9de	-0.012140719
57	0x3ea6418f	0.32471892
58	0xbd8cf76f	-0.06883132
59	0xbbe5f354	-0.0070175324
60	0xbe05175f	-0.12997197
61	0xbe55f62f	-0.20894693
62	0x3e506e0c	0.2035448
63	0xbdce7220	-0.10080361
64	0xbeef90e6	-0.46790236
65	0xbdf69d27	-0.12041693
66	0x3e9ef9fa	0.31050092
67	0xbf10c388	-0.56548357
68	0x3e8d1bf5	0.27560392
69	0xbc2c1176	-0.01050221
70	0xbea3af5c	-0.31969726
71	0xbe91e17f	-0.28492352
72	0xbe8558af	-0.26044223
73	0xbdfb63ea	-0.122749165
74	0xbe8edb03	-0.27901468
75	0x3e48fb20	0.19627047
76	0xbd9a5b6d	-0.07536969
77	0xbdbd2c88	-0.09237009
78	0xbe957c63	-0.29196462
79	0x3e97f66c	0.29680192
80	0xbe919bd5	-0.28439203
81	0xbe94f8e2	-0.29096133
82	0xbe08f575	-0.13374884
83	0x3e82c32a	0.25539523
84	0x3e54a9cf	0.20767902
85	0x3e78f837	0.24313436
86	0xbeb14556	-0.34623212
87	0xbdc01213	-0.093784474
88	0xbdb47adc	-0.08812496
89	0xbf011af0	-0.5043173
90	0x3e4e6279	0.20154752
91	0x3e9171b4	0.2840706
92	0xbecdd460	-0.40201092
93	0xbdc6af46	-0.097013995
94	0x3e7587ba	0.23977557
95	0x3d96fd9f	0.07372593
96	0xbde05acc	-0.10954818
97	0xbebb3e6d	-0.36571065
98	0xbf2df6c8	-0.67954683
99	0x3dd72f52	0.105070725
100	0x3e9b28f4	0.30304682
101	0xbeefafa9	-0.46813706
102	0x3e1b6053	0.15173464
103	0x3e0ec16e	0.13940975
104	0x3f054f66	0.5207428
105	0xbeb18948	-0.3467505
106	0x3e3f3453	0.18672304
107	0xbf0a9ecf	-0.5414857
108	0xbdbc57bd	-0.09196422
109	0xbdd602b0	-0.10449731
110	0x3e0f8f9d	0.14019628
111	0xbe81beb4	-0.25340807
112	0xbe86e605	-0.26347366
113	0x3e97cc69	0.2964814
114	0xbbc068b0	-0.0058718547
115	0xbdf5b67a	-0.11997695
116	0x3e054a50	0.13016629
117	0xbe481740	-0.19540119
118	0x3e269a93	0.16269903
119	0xbea6ac75	-0.3255345
120	0xbe9cf911	-0.30658773
121	0xbde53a6a	-0.11192782
122	0xbcffcd1a	-0.03122573
123	0x3e972ea7	0.2952778
124	0x3dd50dd0	0.10403025
125	0xbdcc2a3a	-0.099689916
126	0x3dc2492b	0.09486612
127	0xbf8924a2	-1.0714304
128	0xbfb1b317	-1.3882779
129	0xbe9a01a2	-0.3007937
130	0xbf688552	-0.9082843
131	0x3f2cfec5	0.6757625
132	0x3e81c2f2	0.25344044
133	0xbf829142	-1.0200579
134	0xbf4711cf	-0.7776155
135	0xbe350c9f	-0.17680596
136	0xbd7d436c	-0.061831877
137	0x3e04c2c4	0.12964922
138	0x3dca601e	0.09881614
139	0xbe0d2560	-0.13783789
140	0xbee10904	-0.4395219
141	0xbedd606c	-0.43237627
142	0x3df99a71	0.121876605
143	0xbd95e8ad	-0.0731977
144	0xbe07aa2e	-0.13248512
145	0xbec00524	-0.37503922
146	0xbd61e8a2	-0.055153497
147	0x3e113f3a	0.14184275
148	0xbdf0b7ca	-0.11753805
149	0x3e94ccfd	0.29062644
150	0x3ebd3fc0	0.369627
151	0xbf223247	-0.6335797
152	0x3eb88a1d	0.36042872
153	0x3e654422	0.22389272
154	0xbea629a7	-0.32453653
155	0xbb11f612	-0.0022271913
156	0x3c32974b	0.010900329
157	0xbe5a917c	-0.2134456
158	0x3f2c67fb	0.6734616
159	0xbe63c4c7	-0.22243033
160	0xbea94a42	-0.33064467
161	0xbc72ff1f	-0.014831333
162	0xbe82f010	-0.25573778
163	0x3b9baed8	0.0047510676
164	0xbd8beb03	-0.06831934
165	0xbe6c4762	-0.23074105
166	0x3e3a22b0	0.18177295
167	0xbe948288	-0.29005837
168	0x3e2200c0	0.15820599
169	0xbe27f758	-0.16402948
170	0x3e1b0935	0.15140231
171	0x3db518b0	0.088425994
172	0xbd8d7fa7	-0.069091134
173	0x3d46fc20	0.04858029
174	0x3d267036	0.040634356
175	0xbe0329e5	-0.1280895
176	0x3eb4fa93	0.35347423
177	0xbe3d5ec2	-0.18493178
178	0xbecb1ca3	-0.39670286
179	0xbf25dc4c	-0.6478927
180	0x3de89120	0.113558054
181	0x3ef166a8	0.47148633
182	0xbda1e8e7	-0.07905751
183	0x3d50995c	0.050927505
184	0xbf63c55c	-0.8897302
185	0x3f55838b	0.83403844
186	0xbe96b9ad	-0.29438534
187	0xbed9cb2a	-0.42537814
188	0x3e8cb366	0.2748062
189	0xbed6193a	-0.4181612
190	0xbe70c58f	-0.23512863
191	0x3ec2c961	0.38044265
192	0x3e73487c	0.2375812
193	0xbdff4dd4	-0.124660164
194	0x3d887921	0.066637285
195	0xbe9be6e0	-0.3044958
196	0xbe17016b	-0.14746635
197	0x3e4d15d9	0.20027865
198	0xbd75f400	-0.06004715
199	0xbf24e73f	-0.64415354
200	0x3d5faa34	0.054605678
201	0x3e53d474	0.20686513
202	0x3d90ca5c	0.07069847
203	0xbefa6c09	-0.4891055
204	0xbe567819	-0.20944251
205	0xbf4e0333	-0.8047363
206	0xbecbe203	-0.3982087
207	0x3cdaee87	0.026725067
208	0xbea23bf2	-0.3168636
209	0xbefeb3b7	-0.49746487
210	0x3ead30d6	0.3382632
211	0x3e54e9ac	0.20792264
212	0x3e8ba3f4	0.27273524
213	0x3c3fe703	0.011712792
214	0xbdde132a	-0.10843499
215	0xbead22f1	-0.3381572
216	0xbea76fde	-0.32702535
217	0xbd24dd58	-0.040250152
218	0x3ee381ec	0.4443506
219	0x3dc4bbff	0.0960617
220	0x3c054e1a	0.008136297
221	0xbea4b8c0	-0.32172203
222	0xbccae9d7	-0.024769707
223	0x3e407c31	0.18797375
224	0x3d1dcf0c	0.038527533
225	0xbe8e0d5d	-0.2774457
226	0xbf1fa2a7	-0.6235756
227	0x3ec12ddf	0.3773031
228	0x3e5b049a	0.21388474
229	0x3ea01175	0.3126332
230	0xbed89626	-0.42302054
231	0xbed599a2	-0.41718775
232	0x3e6e8c57	0.23295723
233	0x3de52b28	0.11189872
234	0x3dc112bf	0.09427404
235	0xbfa1c8aa	-1.2639363
236	0xbfbf5962	-1.4949152
237	0xbeb5680d	-0.35430947
238	0xbfb8e065	-1.444348
239	0xbef3aa44	-0.4759084
240	0x3e897807	0.26849386
241	0xbf181d92	-0.5942012
242	0xbf55a150	-0.8344927
243	0xbcfe5e1f	-0.03105074
244	0x3e0f7bf1	0.14012124
245	0x3e784ee6	0.24248847
246	0xbe8c66c5	-0.27422157
247	0x3d8c2583	0.06843092
248	0xbe824cb9	-0.2544916
249	0xbe6dcf47	-0.23223601
250	0x3e8dada2	0.27671534
251	0xbe90635a	-0.282008
252	0xbd3860ca	-0.04501418
253	0xbe8d562b	-0.27604803
254	0xbeddec85	-0.43344513
255	0x3e047fec	0.12939423

conv1.nn.0.bias f4 [64]
0	0xbf294be4	-0.66131425
1	0xbe57d89b	-0.21078722
2	0x3e8e7b38	0.27828383
3	0xbebe0a2e	-0.3711714
4	0xbe3534ab	-0.17695872
5	0xbeb1dab3	-0.34737167
6	0xbe551c07	-0.20811473
7	0xbf0a9ef4	-0.54148793
8	0x3e355df3	0.1771162
9	0x3e84a1bd	0.25904647
10	0x3eae07e6	0.339904
11	0x3f07c388	0.5303273
12	0x3d70c45a	0.058781005
13	0x3d4f8f85	0.05067398
14	0xbf198ec7	-0.59983486
15	0xbe544e00	-0.2073288
16	0x3e693ce8	0.2277714
17	0xbf3a6399	-0.72808224
18	0xbdb4e763	-0.08833196
19	0xbf3d9a84	-0.740639
20	0xbe90ae26	-0.28257865
21	0xbe8f35c3	-0.27970704
22	0xbe893ac2	-0.2680264
23	0x3e943e56	0.2895381
24	0xbd916832	-0.07099952
25	0xbcc79fb7	-0.02436815
26	0xbe8bc304	-0.27297223
27	0xbe899c46	-0.2687704
28	0xbdd60c25	-0.10451535
29	0x3f029dee	0.5102223
30	0xbe450790	-0.19241166
31	0xbe93b9f9	-0.28852823
32	0xbeaa3b22	-0.3324824
33	0x3f1a0fb8	0.60180235
34	0xbe47ee78	-0.19524562
35	0xbd739cfa	-0.059475876
36	0x3eb8d3fc	0.3609923
37	0xbef85e60	-0.48509502
38	0x3e39ecf4	0.18156797
39	0x3e380479	0.17970456
40	0x3dcbbe2a	0.0994838
41	0x3d722561	0.05911768
42	0xbee6b4a0	-0.4505968
43	0xbd6eb8d4	-0.058281735
44	0xbeab2ebb	-0.3343409
45	0x3c181182	0.009281518
46	0x3d283458	0.041065544
47	0x3e053315	0.13007767
48	0x3e68d866	0.227388
49	0xbe89b134	-0.26893008
50	0x3ea5d358	0.32387805
51	0xbf1c6ab2	-0.61100304
52	0xbecbbf30	-0.39794302
53	0xbeb09e49	-0.34495762
54	0xbe491755	-0.19637807
55	0xbecb1f96	-0.39672536
56	0xbd7818ff	-0.060570713
57	0xbe6e1aca	-0.23252407
58	0x3e0c039b	0.1367325
59	0xbf23fbe4	-0.6405623
60	0xbf145205	-0.5793765
61	0x3e7f088c	0.24905604
62	0xbccae1d9	-0.024765896
63	0x3e5f886d	0.21829386

conv1.nn.2.weight f4 [128, 64]
0	0x3db5b919	0.08873195
1	0xbdba1b24	-0.09087208
2	0x3d8fefd3	0.07028165
3	0xbda4bcf3	-0.08043852
4	0xbd9f6cbc	-0.07784411
5	0xbcc186c0	-0.023623824
6	0xbe0c8fef	-0.13726781
7	0x3c860210	0.016358405
8	0xbca09f25	-0.019607136
9	0xbda93c92	-0.08263506
10	0xbe4aabd1	-0.19792105
11	0x3dabc8d7	0.083879165
12	0xbd65f67a	-0.05614326
13	0xbd527606	-0.051382087
14	0x3d1b18b7	0.037865367
15	0xbe03ec4e	-0.12883112
16	0xbd885b1b	-0.06658002
17	0xbd3e0b46	-0.04639747
18	0x3df1e094	0.11810413
19	0xbe3ec0ed	-0.18628283
20	0x3c73ad3b	0.014872844
21	0x3da1d4ad	0.07901893
22	0xbe8745bc	-0.2642039
23	0xbd76120b	-0.0600758
24	0xbda6f039	-0.081512876
25	0xbea16f63	-0.31530294
26	0x3e3bd3d1	0.1834252
27	0x3d4876ee	0.048941545
28	0xbe2219f8	-0.15830219
29	0xbe43c4ae	-0.19117996
30	0x3d3a80ed	0.04553311
31	0xbea3057a	-0.31840116
32	0x3e28d936	0.1648911
33	0x3e80aab3	0.25130233
34	0xbe985526	-0.29752463
35	0x3d24bb25	0.040217537
36	0xbdd7f137	-0.10544055
37	0xbd9a3228	-0.07529098
38	0xbdbbd121	-0.091707475
39	0x3db4a0bd	0.08819721
40	0xbdf4dcac	-0.11956152
41	0x3d2df7f9	0.042472813
42	0xbe4e83d4	-0.20167476
43	0xbe520cba	-0.20512667
44	0x3e28b998	0.16477048
45	0xbe70ce65	-0.23516233
46	0x3dd8dfd4	0.10589567
47	0x3db2ad9f	0.08724522
48	0x3cf99872	0.0304682
49	0xbdf9b831	-0.12193335
50	0xbcc25502	-0.023722176
51	0x3e37532d	0.17902823
52	0xbe47a5f7	-0.19496904
53	0xbe241e93	-0.16027288
54	0x3e2e3729	0.1701323
55	0xbeee942e	-0.46597427
56	0x3d52d7a0	0.051475167
57	0x3c7d69fa	0.015467161
58	0x3d52391d	0.051324
59	0xbce88da3	-0.02838785
60	0xbdcb0ce1	-0.09914566
61	0x3d247452	0.040149994
62	0x3e8dfe01	0.27732852
63	0xbcad60e5	-0.021164367
64	0xbe0716eb	-0.13192336
65	0xbc02f7b7	-0.00799363
66	0xbe38fe9e	-0.18065879
67	0xbeca1fec	-0.3947748
68	0xbd445ccc	-0.04794006
69	0x3b8c7488	0.0042863525
70	0x3d06828b	0.03283934
71	0x3e909a90	0.28242922
72	0xbd6d2072	-0.05789227
73	0x3ca04af5	0.019566992
74	0x3dbf4d79	0.093409486
75	0x3d1c8597	0.03821334
76	0xbdc234bc	-0.094827145
77	0xbde129e2	-0.10994317
78	0x3edfb763	0.436946
79	0x3c873ee1	0.016509475
80	0xbedb7b6a	-0.42867595
81	0xbdcc25df	-0.09968161
82	0x3c179f5d	0.009254304
83	0xbd078352	-0.03308422
84	0xbe336f14	-0.17522842
85	0xbdfab13f	-0.12240838
86	0xbcbcfaf8	-0.02306889
87	0xbdf8f9e9	-0.121570416
88	0x3d5a1ba4	0.053249016
89	0xbc97a3fa	-0.018510807
90	0x3ef47acf	0.47749946
91	0x3dc057ec	0.0939177
92	0xbeaa22ed	-0.3322977
93	0xbcaee1f6	-0.021347981
94	0x3c623e63	0.013808819
95	0xbdc98871	-0.09840477
96	0x3de4da26	0.11174421
97	0x3d34278e	0.043983035
98	0xbd1eca12	-0.038766928
99	0x3b5c82da	0.003364733
100	0xbdb52d6e	-0.08846556
101	0xbe9453c8	-0.2897017
102	0xbd53baa9	-0.051691685
103	0x3ef93f23	0.48680982
104	0xbcda7f72	-0.026672099
105	0xbd0963c1	-0.0335424
106	0xbe16bbc4	-0.14720064
107	0xbcef8f68	-0.029243186
108	0x3c80c50a	0.015718956
109	0xbd0e974c	-0.034812257
110	0xbd13df69	-0.036101732
111	0xbe175ae7	-0.1478077
112	0xbd6f4c42	-0.058422334
113	0x3de67008	0.11251837
114	0xbd8531e1	-0.06503654
115	0xbda4ea0e	-0.08052455
116	0xbdad03a0	-0.08447957
117	0x3ea8fbd7	0.3300464
118	0xbd1c2677	-0.03812262
119	0x3d06cb3f	0.032908674
120	0xbdcd2c44	-0.100182086
121	0xbce8da0a	-0.028424282
122	0x3df764b6	0.12079756
123	0xbe4e4016	-0.20141634
124	0x3d825fd1	0.06365932
125	0x3f81b99a	1.0134766
126	0xbef5c8b2	-0.4800468
127	0x3ca1a1b5	0.019730428
128	0xbeeff8bd	-0.4686946
129	0x3e58dd4d	0.2117817
130	0xbd358bf0	-0.044322908
131	0xbee4ce7b	-0.44688782
132	0x3c26c692	0.010179179
133	0x3ea7b365	0.32754055
134	0xbe7e1c58	-0.248155
135	0x3e07cc42	0.13261512
136	0x3dcc29f6	0.09968941
137	0x3d522e0c	0.051313445
138	0xbe247e45	-0.16063793
139	0xbe3843ee	-0.17994663
140	0x3d72ed2e	0.059308223
141	0xbd63922e	-0.05555933
142	0x3de12f9e	0.109954104
143	0x3cc7795d	0.024349863
144	0xbdade096	-0.08490102
145	0xbee4dbc8	-0.4469893
146	0x3d3b29f9	0.045694325
147	0xbe0a15a1	-0.13484813
148	0xbeff88a6	-0.49908942
149	0xbe28b5df	-0.16475628
150	0xbe1f4225	-0.15552576
151	0xbf0cb98c	-0.5497062
152	0x3e1d8575	0.15382941
153	0xbd32a68b	-0.04361586
154	0x3c59be64	0.013290022
155	0xbc8e0e54	-0.017340817
156	0xbccba2a1	-0.024857821
157	0x3e04636c	0.12928551
158	0xbe27a2a1	-0.16370632
159	0x3d290963	0.041268717
160	0x3e2ec637	0.170678
161	0xbe408d95	-0.1880401
162	0x3d6c45f5	0.057683904
163	0x3cf16fba	0.02947222
164	0xbd2536f5	-0.040335614
165	0xbd19df60	-0.037566543
166	0x3e9a9a46	0.30195826
167	0xbda97cce	-0.08275758
168	0xbdc96eb4	-0.09835568
169	0xbda41361	-0.08011509
170	0xbe25b69a	-0.16182938
171	0xbe0c2d2b	-0.13689105
172	0xbed7a9db	-0.42121777
173	0x3c60babb	0.013716395
174	0x3dfef52c	0.124491066
175	0x3d2c6724	0.04209055
176	0x3e453922	0.19260076
177	0x3eb9d4e3	0.36295232
178	0xbdeca436	-0.11554758
179	0x3d72a87e	0.059242718
180	0x3d087732	0.0333168
181	0x3d11b292	0.03557069
182	0x3e2aa91c	0.16666073
183	0x3e3a6470	0.18202376
184	0x3dcec9d8	0.100970924
185	0xbc3b4b5d	-0.011431542
186	0x3d8b9bca	0.06816824
187	0x3d9195a9	0.071086235
188	0xbc541b9e	-0.012946038
189	0x3da2fba5	0.07958154
190	0xbda03835	-0.07823221
191	0x3d8d978d	0.06913672
192	0xbe22ed53	-0.15910845
193	0xbd00d9dd	-0.03145777
194	0xbc013deb	-0.007888298
195	0xbe115730	-0.14193416
196	0x3d156fef	0.0364837
197	0xbe0cc3a0	-0.137465
198	0xbe2c41b8	-0.16821945
199	0xbde7fe1b	-0.11327764
200	0xbc8637bd	-0.016384
201	0x3c30a506	0.010781532
202	0x3db03887	0.08604532
203	0x3d1625b0	0.036657035
204	0xbdb8c3b5	-0.09021703
205	0xbda1c38f	-0.07898628
206	0x3e4f12f7	0.20222078
207	0xbcc46c39	-0.023977386
208	0xbe05ed45	-0.13078792
209	0xbe19581a	-0.14975014
210	0xbdf13d92	-0.11779322
211	0xbdf12f44	-0.11776593
212	0xbe229dea	-0.15880552
213	0x3bf92e47	0.0076043936
214	0xbd864782	-0.06556608
215	0xbdad381a	-0.08457966
216	0xbda3a271	-0.079899676
217	0xbdd83e8d	-0.105588056
218	0x3e15f4c5	0.14644153
219	0xbd7d28c6	-0.061806463
220	0xbcb3c595	-0.0219448
221	0xbd932245	-0.07184271
222	0xbd37b3c2	-0.044849165
223	0xbdb1d51c	-0.086832255
224	0xbd876ed0	-0.06612933
225	0xbd3420cf	-0.0439766
226	0x3d67dcd5	0.056607086
227	0xbd4ac2c6	-0.049502157
228	0xbdf443a6	-0.119269654
229	0xbdc29b35	-0.0950226
230	0xbda9d207	-0.08292013
231	0xbd6de948	-0.058083802
232	0xbda76d39	-0.081751294
233	0xbd83142b	-0.06400331
234	0xbc2ba96b	-0.010477404
235	0x3d3f1918	0.04665479
236	0xbe1264f1	-0.14296319
237	0x3cf699d0	0.03010264
238	0xbd315ca9	-0.04330126
239	0xbde42657	-0.11140125
240	0xbd654b3b	-0.05597995
241	0xbe264048	-0.16235459
242	0x3d825b7f	0.06365108
243	0xbcfa3e7c	-0.030547373
244	0xbd3bfce1	-0.04589546
245	0xbcb6ecb1	-0.02232966
246	0x3d48b37a	0.048999287
247	0x3c372f31	0.011180685
248	0x3dc44e17	0.09585207
249	0x3d45ef3a	0.048323847
250	0x3da675dd	0.081279494
251	0x3c3f72da	0.011685098
252	0x3dc552c7	0.09634929
253	0xbdb26776	-0.0871114
254	0x3cdf0108	0.027222171
255	0x3d133e3d	0.035948027

conv1.nn.2.bias f4 [128]
0	0x3e719f0c	0.23595828
1	0xbe8b723a	-0.27235585
2	0xbe189e56	-0.1490415
3	0xbd509fdd	-0.050933708
4	0x3e66fda6	0.22557697
5	0x3c60ef7e	0.013728974
6	0xbde825fc	-0.1133537
7	0xbd260d70	-0.04054016
8	0xbee660c3	-0.44995698
9	0x3cd9ea18	0.026600882
10	0x3d30fe7a	0.043211438
11	0xbbd74482	-0.006569446
12	0xbc086963	-0.008325907
13	0xbd839123	-0.06424167
14	0xbcef1c34	-0.029188253
15	0xbdb473d3	-0.08811154
16	0xbd8f4388	-0.069953024
17	0x3d451f57	0.04812559
18	0x3c98d158	0.01865451
19	0x3d8f6b93	0.0700294
20	0xbe4be2e3	-0.19910769
21	0x3d058862	0.032600768
22	0xbe0deba0	-0.13859415
23	0x3d404a2e	0.046945743
24	0xbcbc2359	-0.022966074
25	0xbdcb1825	-0.099167146
26	0x3dd1057a	0.10206123
27	0xbd10193e	-0.035180323
28	0xbd23c6aa	-0.039984383
29	0xba4f30ba	-0.0007903684
30	0xbc9d74ab	-0.01922067
31	0xbca25091	-0.019813808
32	0xbd85b42b	-0.06528505
33	0x3c9ae0d6	0.018906038
34	0xbd3ff092	-0.046860285
35	0xbd6dedbe	-0.058088057
36	0xbd2e4505	-0.04254629
37	0xbe359947	-0.17734252
38	0x3cd6cc3f	0.026220439
39	0xbd6d0128	-0.05786243
40	0x3d16c27f	0.03680658
41	0xbd942194	-0.07232967
42	0xbe183a6f	-0.1486604
43	0xbc03bd1e	-0.0080406945
44	0xbd052052	-0.032501526
45	0xbe38e29c	-0.18055195
46	0xbe1a7dfa	-0.15087119
47	0xbe29908a	-0.16559044
48	0xbe007dc5	-0.12547977
49	0xbd2b317c	-0.04179524
50	0xbda2a908	-0.079423964
51	0xbc86ff0c	-0.016479038
52	0xbe4f9f84	-0.20275694
53	0xbe0b787c	-0.1362018
54	0xbe033b29	-0.12815537
55	0x3ec66d40	0.38755226
56	0xbeaeec49	-0.34164646
57	0xbc4251f6	-0.011860361
58	0xbca1d506	-0.019754898
59	0xbe0f3c6f	-0.13987897
60	0xbd5a8ac8	-0.05335501
61	0xbe1d6a72	-0.15372637
62	0x3c6b61c9	0.0143665755
63	0xbd97eb08	-0.074178755
64	0xbd9baeed	-0.07601724
65	0xbd90ff6c	-0.07079968
66	0x3cd0efb0	0.025504917
67	0x3e11e25d	0.14246507
68	0xbd031f0b	-0.032012027
69	0xbe3cb708	-0.18429196
70	0xbd93ac2e	-0.07210575
71	0x3c927f01	0.017882826
72	0x3c87556c	0.016520225
73	0xbc8526fb	-0.016253939
74	0x3d3ec577	0.046575036
75	0x3d0cf049	0.03440884
76	0xbdac6089	-0.0841685
77	0x3d99558c	0.0748702
78	0x3d01e75f	0.031714793
79	0xbe43cb8f	-0.1912062
80	0xbe56a4a8	-0.20961249
81	0xbd183ba7	-0.037166264
82	0x3bdf857f	0.006821334
83	0xbd12e108	-0.035859138
84	0xbcda39d4	-0.026638903
85	0xbdc5f2cc	-0.096654505
86	0x3d4f29c3	0.050576936
87	0xbe325117	-0.17413746
88	0xbd5d7c9a	-0.054073907
89	0xbe089198	-0.1333679
90	0xbea00e87	-0.31261083
91	0xbab0afe8	-0.0013480159
92	0x3efbd65a	0.49186975
93	0xbb920784	-0.0044564623
94	0xbd6d5866	-0.05794563
95	0x3cf43c5e	0.029813942
96	0xbd200488	-0.03906682
97	0xbe2e841f	-0.17042588
98	0xbe099d67	-0.1343895
99	0x3c2e03ac	0.010620993
100	0xbe0bbe7e	-0.13646886
101	0x3ca99092	0.02069882
102	0x3d0bbf80	0.034118176
103	0xbe06d59a	-0.1316742
104	0xbd596bf1	-0.053081457
105	0xbd42fdda	-0.047605373
106	0xbdccb614	-0.09995666
107	0x3d9803a7	0.07422572
108	0xbc12aa3c	-0.00895172
109	0xbdb686cf	-0.089124314
110	0xbd695682	-0.056967266
111	0x3d6e88b6	0.058235846
112	0xbe047f2f	-0.12939142
113	0xbe268abd	-0.16263862
114	0xbe071f06	-0.13195428
115	0xbe1ac4f9	-0.15114202
116	0x3a08d575	0.0005219796
117	0xbd36a539	-0.044591162
118	0xbe109327	-0.14118634
119	0xbe14daab	-0.1453654
120	0xbcc4f26f	-0.024041383
121	0xbc80e5ed	-0.015734637
122	0xbdd6b16e	-0.10483061
123	0xbd00198e	-0.03127437
124	0xbe1da3c4	-0.15394503
125	0xbe7a518d	-0.24445172
126	0xbaa30f34	-0.0012440444
127	0xbe704ed6	-0.23467574

conv1.lin.weight f4 [9, 3]
0	0xbf209ee8	-0.6274247
1	0xbf02b2a5	-0.5105384
2	0xbf39cce8	-0.7257829
3	0x3e1d7889	0.15378012
4	0x3f34cd0b	0.7062537
5	0xbf153622	-0.58285725
6	0xbe93615a	-0.2878521
7	0xbefb17a6	-0.4904148
8	0xbf36aba9	-0.7135568
9	0xbc14e08b	-0.009086738
10	0xbd8ddefb	-0.06927296
11	0xbea78aee	-0.32723182
12	0x3c80da6d	0.015729154
13	0xbe818bec	-0.25302064
14	0x3d8ff038	0.0702824
15	0xbd87f4dc	-0.066385
16	0x3f84a100	1.0361633
17	0xbe4689c4	-0.19388491
18	0x3eb980cb	0.36231074
19	0xbe9dafcd	-0.30798188
20	0xbdf3da18	-0.119068325
21	0xbeadd784	-0.33953488
22	0xbe50ba40	-0.20383549
23	0xbe8cd635	-0.27507177
24	0x3f14147b	0.5784375
25	0x3ecf430e	0.40480846
26	0xbd2ba2dd	-0.041903365

conv1.lin.bias f4 [9]
0	0xbed88e07	-0.42295858
1	0x3ed4ffe7	0.41601488
2	0x3e9192ce	0.28432316
3	0x3deb808b	0.11499127
4	0xbddeb4c4	-0.10874322
5	0x3d6288bd	0.055306185
6	0xbf29e1a2	-0.66359913
7	0x3e898318	0.2685783
8	0x3d0c3344	0.03422858

conv2.nn.0.weight f4 [256, 128]
0	0x3dc9e8c1	0.098588474
1	0x3e0b5cab	0.13609569
2	0xbe9da8e3	-0.30792913
3	0xbca5b546	-0.02022804
4	0x3d94d669	0.07267458
5	0x3dc1e4fd	0.09467504
6	0x3dd48cbb	0.10378405
7	0xbcc6de16	-0.02427582
8	0x3d47c4de	0.04877173
9	0x3d19ea95	0.03757723
10	0x3da8156c	0.08207211
11	0xbf671bee	-0.9027699
12	0xbde93dfa	-0.11388774
13	0x3d8f6c05	0.07003025
14	0x3d4ebda1	0.050473813
15	0xbdf2e821	-0.11860681
16	0x3e0c5f8d	0.13708325
17	0x3d0c002b	0.034179848
18	0x3d678249	0.056520734
19	0x3c724a89	0.014788278
20	0x3dcb33fa	0.09922023
21	0x37bf1e10	2.2782973e-05
22	0xbe6ddf38	-0.23229682
23	0xbf467626	-0.7752403
24	0x3e1824bd	0.14857765
25	0xbd9f2691	-0.07771028
26	0x3d7e9094	0.0621496
27	0xbcf46964	-0.02983541
28	0xbe3de094	-0.18542701
29	0xbdc0da0d	-0.0941659
30	0x3dc9ead8	0.09859246
31	0xbf36cc0f	-0.7140512
32	0x3ca42c9e	0.020040806
33	0x3c995646	0.018717896
34	0xbd80cd29	-0.06289131
35	0xbde7b41d	-0.11313651
36	0xbe62d94a	-0.22153202
37	0xbf66b29a	-0.90116274
38	0xbe12ce06	-0.14336404
39	0xbd5e5305	-0.054278392
40	0x3e41045a	0.18849316
41	0x3dbf488a	0.093400076
42	0xbd1ce27e	-0.038301937
43	0x3d81e257	0.06341999
44	0xbdfc2884	-0.12312415
45	0x3d0c05c7	0.034185197
46	0x3d524c1b	0.05134211
47	0xbea0e7ba	-0.31426793
48	0x3e9bfb50	0.30465174
49	0x3d4662a9	0.048433933
50	0xbf22e492	-0.6363002
51	0xbcbca2d9	-0.02302687
52	0xbe7dccf9	-0.24785222
53	0x3da7a592	0.08185877
54	0xbe532587	-0.20619784
55	0x3bf1d797	0.0073804366
56	0x3e8ab53a	0.2709139
57	0x3d78f24b	0.060777944
58	0x3cd2ece1	0.025747718
59	0x3e2f3843	0.17111306
60	0x3dae44a7	0.08509188
61	0x3cbce646	0.023059022
62	0x3d32b494	0.043629244
63	0x3e5a5fa8	0.21325552
64	0x3d3a8d4a	0.0455449
65	0xbcafd2a8	-0.021462753
66	0xbd228bf5	-0.039684255
67	0xbe8280a8	-0.25488782
68	0x3da3b9b4	0.079944044
69	0xbc42760d	-0.011868966
70	0x3dae50e6	0.08511524
71	0x3d78eaaa	0.060770668
72	0xbe5b7506	-0.2143136
73	0xbe44a1f8	-0.19202411
74	0x3c731e5a	0.014838779
75	0xbecbcde4	-0.3980552
76	0xbed9f4ce	-0.42569584
77	0x3d8b9773	0.06815996
78	0xbd926428	-0.071480095
79	0xbdd306b5	-0.10304014
80	0xbcd982d1	-0.026551636
81	0x3d3eca31	0.046579544
82	0xbc2f7bb0	-0.010710642
83	0xbf1405fa	-0.5782162
84	0xbe039b5e	-0.12852237
85	0x3c9c6bd0	0.019094378
86	0x3d1417f5	0.03615566
87	0xbc56819a	-0.013092423
88	0xbeb7cbb6	-0.35897607
89	0x3e0cd96e	0.13754818
90	0x3d51d399	0.051227186
91	0xbd7043ee	-0.058658533
92	0xbeadacf1	-0.33921006
93	0x3d95329b	0.07285043
94	0x3c2fc13f	0.010727226
95	0xbe95732e	-0.29189438
96	0xbe74fa6d	-0.23923655
97	0xbe9dd219	-0.30824354
98	0xbe386a6e	-0.1800935
99	0x3d4e21a0	0.050325036
100	0xbe79c22c	-0.24390477
101	0x3d88d8af	0.06681954
102	0xbaa2d002	-0.001242161
103	0x3d2d2443	0.04227091
104	0x3d611b53	0.0549577
105	0x3cc87fb8	0.024474964
106	0x3d631e2f	0.055448707
107	0x3d926442	0.07148029
108	0x3db732a8	0.08945209
109	0xbc846258	-0.016160175
110	0x3e2b0015	0.1669925
111	0x3e2eef84	0.17083555
112	0x3db8dce3	0.09026506
113	0x3dea3230	0.11435354
114	0x3e09d9b5	0.13461955
115	0xbe41a5ba	-0.18910876
116	0xbd628bdd	-0.055309165
117	0x3e13075a	0.14358273
118	0x3e17333a	0.14765635
119	0x3cb38f63	0.021918958
120	0xbd981086	-0.074250266
121	0xbf1ae4e2	-0.605055
122	0x3e03b19b	0.1286072
123	0xbf6f8aee	-0.93571365
124	0x3d427931	0.04747886
125	0xbe26eb8b	-0.1630079
126	0x3d09efbb	0.03367589
127	0xbda3087a	-0.07960601
128	0xbdbcd325	-0.0921996
129	0x3d675d16	0.056485258
130	0xbe0a22b7	-0.13489805
131	0xbcb7f208	-0.022454277
132	0xbe59a06e	-0.21252605
133	0x3ccc3da6	0.02493174
134	0xbe38f45c	-0.18061966
135	0xbd4bb04c	-0.049728677
136	0x3e153008	0.14569104
137	0xbc153d67	-0.009108878
138	0x3c0c9545	0.0085805105
139	0x3c1e4f46	0.009662455
140	0xbd3fa23e	-0.046785586
141	0xbde0ef0c	-0.109830946
142	0xbe28f95b	-0.16501372
143	0x3d4f26c1	0.050574068
144	0xbe07d971	-0.13266541
145	0xbe241063	-0.16021876
146	0x3d4e717c	0.050401196
147	0xbddb7e40	-0.1071744
148	0xbda70320	-0.08154893
149	0xbe5bc994	-0.21463615
150	0xbd262473	-0.040562104
151	0xbdb34f29	-0.08755333
152	0x3ea1d939	0.3161104
153	0xbd47b7fc	-0.048759446
154	0xbdc9ca0b	-0.0985299
155	0xbda6f188	-0.08151537
156	0xbd6c324d	-0.057665158
157	0xbe432be1	-0.19059707
158	0xbd9d43ae	-0.076789245
159	0xbd11a8a9	-0.035561237
160	0xbdf58aec	-0.11989388
161	0xbc3909d9	-0.011293852
162	0x3caf6e6a	0.021414954
163	0xbde54d8c	-0.111964315
164	0xbe0cc15b	-0.13745634
165	0xbd73318a	-0.059373416
166	0xbe243603	-0.16036229
167	0xbded4494	-0.11585346
168	0x3c20cbe3	0.009814235
169	0x3d304468	0.043033987
170	0xbd11271a	-0.03543768
171	0xbdbe1da0	-0.09282994
172	0x3d64e91a	0.055886365
173	0xbde79970	-0.11308563
174	0x3c451bdf	0.012030571
175	0xbe100308	-0.14063656
176	0xbdc8dda1	-0.09807897
177	0xbda8a7a3	-0.08235099
178	0xbcb36d87	-0.021902813
179	0xbd79227f	-0.060823914
180	0xbce7fec4	-0.028319724
181	0x3d150f4c	0.03639154
182	0xbd9899a9	-0.07451183
183	0xbe668f42	-0.22515586
184	0xbd8a7c6d	-0.067620136
185	0x3df06244	0.11737493
186	0xbc1bf56c	-0.009518962
187	0xbd6cee51	-0.057844464
188	0x3d8ca906	0.06868176
189	0xbe3edd2b	-0.18639056
190	0xbed19c1d	-0.40939417
191	0x3cd10829	0.025516586
192	0x3d95a7d8	0.07307404
193	0x3c44614a	0.011986086
194	0xbc4b9550	-0.012425736
195	0x3e3a05db	0.18166296
196	0xbce7b872	-0.028286193
197	0xbe19e227	-0.15027677
198	0xbd338d09	-0.043835673
199	0x3d90edbe	0.07076596
200	0xbe61498a	-0.22000709
201	0xbde95a68	-0.11394197
202	0x3db71f7f	0.08941554
203	0xbc2566d1	-0.010095314
204	0x3d07553f	0.03304028
205	0x3d3885ae	0.045049362
206	0x3d3bfe4c	0.045896813
207	0x3e2e0df5	0.16997512
208	0x3c28fbc1	0.010313929
209	0xbd753763	-0.059867274
210	0xbe1297ef	-0.1431577
211	0xbd922b7d	-0.07137201
212	0xbd899d81	-0.067194946
213	0xbc48161c	-0.012212303
214	0xbd5ca71c	-0.053870305
215	0x3c6328ba	0.01386469
216	0xbe084f8d	-0.13311596
217	0x3d7170bf	0.058945414
218	0xbbd5fbb8	-0.0065302514
219	0xbda89d01	-0.08233071
220	0xbdc7b436	-0.097511694
221	0x3cce67ae	0.025195923
222	0x3dd4517d	0.10367105
223	0x3d587875	0.05284925
224	0x3cb7cfaf	0.022437898
225	0xbe221fdf	-0.1583247
226	0x3dd9abd1	0.106284745
227	0xbde8d784	-0.11369231
228	0xbcce9ec8	-0.025222197
229	0x3d61f190	0.055162013
230	0x3cfb1803	0.030651098
231	0xbdc0cc8e	-0.09414016
232	0xbc997fc8	-0.018737689
233	0xbddaa8a8	-0.106767
234	0xbda908b9	-0.08253617
235	0x3d2835b2	0.041066833
236	0xbd3c7372	-0.046008535
237	0xbe35aafd	-0.17741008
238	0xbd4ac44e	-0.049503617
239	0xbd3f2501	-0.04666615
240	0x3cebe54d	0.028795863
241	0xbe160ce3	-0.14653353
242	0x3caff2a8	0.021478012
243	0xbdcdc201	-0.10046769
244	0x3c86f40c	0.016473792
245	0xbdd5a1db	-0.10431262
246	0xbdd4078d	-0.10353003
247	0xbb3c078d	-0.0028691024
248	0xbe14d180	-0.14533043
249	0xbdf4a489	-0.11945445
250	0xbd8f30eb	-0.06991752
251	0xbdb7d287	-0.08975702
252	0xbdd01b17	-0.10161417
253	0xbe0eb22a	-0.13935152
254	0xbd1f2e61	-0.03886259
255	0xbcf134ba	-0.029444087

conv2.nn.0.bias f4 [256]
0	0x3dd0fbac	0.102042526
1	0xbdcd3c14	-0.100212246
2	0xbe0474c4	-0.12935168
3	0xbd3b53f3	-0.045734357
4	0xbe3ce001	-0.18444826
5	0xbe442021	-0.19152881
6	0xbc95a2c8	-0.018266097
7	0xbd5905d3	-0.05298407
8	0xbdd2183d	-0.10258529
9	0xbd263464	-0.040577307
10	0xbe192f55	-0.14959462
11	0xbd89b88b	-0.06724652
12	0xbd051d2a	-0.032498516
13	0xbdf37ad8	-0.11888665
14	0xbda0df21	-0.078550585
15	0xbdc85c0e	-0.09783183
16	0xbe0ec882	-0.13943675
17	0xbd9a42b1	-0.075322516
18	0xbcb832c3	-0.022485143
19	0xbe65ff06	-0.22460565
20	0xbd942e48	-0.0723539
21	0xbe47f118	-0.19525564
22	0xbe0a0454	-0.13478214
23	0xbd8e13ea	-0.06937392
24	0xbcd4001b	-0.025878957
25	0x3dc53f38	0.09631199
26	0x3cfcc3f8	0.030855164
27	0x3e5c2b4c	0.21500891
28	0xbdd34f92	-0.10317911
29	0xbdbc3de0	-0.09191489
30	0xbe31f10a	-0.17377105
31	0xbe0f49a4	-0.13992935
32	0xbd788b32	-0.060679622
33	0xbea01ac1	-0.31270412
34	0xbdc50a78	-0.096211374
35	0x3df6f4a1	0.12058378
36	0x3cb7dbc9	0.022443669
37	0x3cb3935f	0.021920858
38	0x39650094	0.00021839357
39	0xbd6b5246	-0.05745151
40	0x3e46a57b	0.19399063
41	0x3e8f193b	0.27948937
42	0xbd9427fe	-0.072341904
43	0xbda448de	-0.08021711
44	0xbd5e8fef	-0.054336485
45	0xbc6cc3fd	-0.014451024
46	0x3e2aa9a0	0.1666627
47	0x3dbab8f7	0.091173105
48	0x3e0afeea	0.13573804
49	0xbe66c752	-0.22536972
50	0xbdcc5ea4	-0.09978989
51	0xbda4d0df	-0.080476515
52	0xbda48111	-0.0803243
53	0xbe24025c	-0.16016525
54	0xbd683953	-0.056695294
55	0xbe108c0c	-0.14115924
56	0x3e109d8b	0.14122598
57	0xbe0ccda9	-0.13750328
58	0xbb1caa53	-0.0023905232
59	0xbdc43dc0	-0.095820904
60	0xbdd5a150	-0.104311585
61	0xbd2bba54	-0.041925743
62	0xbd342842	-0.043983705
63	0xbdcaacce	-0.09896241
64	0xbd93b1f7	-0.072116785
65	0xbe182ac6	-0.14860067
66	0xbd5f6037	-0.054535117
67	0xbd48190f	-0.048852023
68	0x3ea3a398	0.3196075
69	0xbda3a230	-0.07989919
70	0xbec15e3d	-0.3776721
71	0x3dbb792a	0.091539696
72	0xbdeeef88	-0.11666781
73	0xbe409396	-0.188063
74	0xbda8f3a8	-0.08249599
75	0xbdbeb54b	-0.09311923
76	0x3d5fec2a	0.054668583
77	0xbce4cc2c	-0.027929388
78	0xbe87c521	-0.26517585
79	0x3e122608	0.1427232
80	0xbdf50753	-0.119642876
81	0xbe58b33b	-0.21162121
82	0x3d57db2f	0.052699264
83	0xbe31828c	-0.17334956
84	0xbcd6c6d2	-0.026217852
85	0xbea8972b	-0.32927832
86	0xbdd0d27d	-0.101963975
87	0xbdcb11db	-0.09915515
88	0xbdecbc92	-0.115594044
89	0x3e74928e	0.23884031
90	0xbdb04649	-0.08607156
91	0xbd43691e	-0.04770767
92	0xbdcaa082	-0.09893896
93	0xbef7f86e	-0.48431724
94	0xbd40503f	-0.04695153
95	0x3e2c4ec4	0.16826922
96	0xbe0c1049	-0.13678087
97	0xbe699166	-0.22809371
98	0xbe0a7853	-0.13522463
99	0xbd92b0d0	-0.071626306
100	0x3efe5051	0.49670652
101	0xbdea7585	-0.11448196
102	0xbdb40e0f	-0.08791744
103	0x3c3f60b4	0.011680771
104	0x3e290573	0.16505985
105	0x3edbaadf	0.42903802
106	0x3d7980f2	0.060913987
107	0x3e583ee3	0.2111774
108	0x3d39ad68	0.04533139
109	0x3d138f1f	0.036025163
110	0x3bbe367f	0.0058048363
111	0xbd438c3a	-0.047741152
112	0xbd12ed29	-0.035870705
113	0xbd9d98a5	-0.0769513
114	0xbceed07b	-0.029152146
115	0xbe085826	-0.13314876
116	0x3e17aca2	0.14811948
117	0xbdb08d16	-0.0862066
118	0xbd960fc2	-0.07327224
119	0xbd946bee	-0.072471485
120	0xbc78f455	-0.015194972
121	0xbd8080cd	-0.06274567
122	0xbe55b055	-0.20868047
123	0xbdc27a74	-0.09496012
124	0xbe64a36f	-0.2232797
125	0xbdc28d44	-0.094996005
126	0xbdc32652	-0.095287934
127	0xbd8aeae8	-0.06783086
128	0xbda6689b	-0.08125421
129	0xbda96daa	-0.0827287
130	0xbdee437e	-0.11633967
131	0xbe56f83b	-0.2099313
132	0xbdce11ba	-0.10061975
133	0xbd89321f	-0.06699013
134	0xbeb449cb	-0.3521255
135	0x3f0304a1	0.5117894
136	0xbba29bfc	-0.0049624424
137	0xbd932fc5	-0.07186846
138	0x3e14449f	0.14479302
139	0xbe0eb581	-0.13936426
140	0xbdd60b1e	-0.10451339
141	0xbd943992	-0.07237543
142	0xbd7167fc	-0.058937058
143	0xbe17dde4	-0.14830738
144	0xbdd1dea5	-0.10247544
145	0xbdfe8bf5	-0.124290384
146	0xbcc31ec0	-0.023818374
147	0xbe2219af	-0.1583011
148	0xbe032914	-0.12808639
149	0x3d253765	0.04033603
150	0xbe37e660	-0.17958975
151	0xbd672e50	-0.05644065
152	0xbc69b290	-0.014263764
153	0xbe45fc48	-0.19334519
154	0xbe98f06b	-0.29870924
155	0xbd015de0	-0.031583667
156	0xbd8f3e28	-0.06994277
157	0xbdeee97a	-0.11665626
158	0xbe128d22	-0.1431165
159	0xbe33b5f8	-0.17549884
160	0xbd827d10	-0.0637151
161	0xbe72173a	-0.23641673
162	0xbef15205	-0.47132888
163	0xbdbd09c2	-0.09230377
164	0xbe1d2ed0	-0.15349889
165	0xbe87e8a4	-0.26544678
166	0xbd3043be	-0.043033354
167	0xbcef8dda	-0.029242445
168	0xbdb69cf3	-0.089166544
169	0xbdf3bb5c	-0.1190097
170	0xbd871733	-0.06596222
171	0xbd85efe7	-0.06539898
172	0xbd9aed18	-0.07564753
173	0xbe09ad05	-0.13444908
174	0xbe404071	-0.18774582
175	0x3e2dd8c7	0.16977225
176	0xbe032e6e	-0.1281068
177	0x3e5e0291	0.21680667
178	0xbe54afd0	-0.20770192
179	0xbc526d76	-0.01284348
180	0xbd472803	-0.048622143
181	0xbdf940aa	-0.12170537
182	0xbe7f805d	-0.2495131
183	0xbe10590d	-0.1409647
184	0xbd5721c9	-0.052522454
185	0xbe151edd	-0.14562555
186	0xbc885bc8	-0.016645327
187	0xbdd35ca6	-0.10320406
188	0x3ba8d70d	0.005152589
189	0xbdb8bfdc	-0.09020969
190	0xbcf29196	-0.029610436
191	0xbdc63f4a	-0.0968004
192	0xbc90898d	-0.017643714
193	0x3d71fac0	0.059077024
194	0xbd5c5832	-0.053795047
195	0xbdaa3ec4	-0.08312753
196	0xbea53a5c	-0.32271087
197	0x3cfae7c4	0.030628093
198	0xbdeb6b61	-0.1149509
199	0xbe3ac186	-0.18237886
200	0xbd9bf639	-0.076153226
201	0xbda441c4	-0.08020356
202	0xbe5ff796	-0.2187179
203	0xbe305f5f	-0.17223881
204	0xbe0a270c	-0.13491458
205	0xbdd177dc	-0.102279395
206	0xbe141dfa	-0.1446456
207	0xbe1092b5	-0.14118464
208	0xbdcd8d16	-0.10036676
209	0xbdad1aab	-0.08452352
210	0xbe4c709c	-0.19964832
211	0x3ebe24fd	0.37137595
212	0x3e8c6784	0.27422726
213	0x3f03dc8b	0.51508397
214	0xbe19cd8d	-0.15019818
215	0x3c81f552	0.015864048
216	0xbde6cccf	-0.11269533
217	0xbdfe2605	-0.124095954
218	0xbedad5ca	-0.42741233
219	0xbe22bf25	-0.15893228
220	0xbd8e2166	-0.06939964
221	0xbdc75f68	-0.09734994
222	0x3c352488	0.011056073
223	0xbeab6825	-0.33477893
224	0xbe8dda8f	-0.2770581
225	0xbe1d80ca	-0.1538116
226	0xbde20634	-0.110363394
227	0x3da25926	0.0792716
228	0xbe26b9d9	-0.16281833
229	0xbde8271e	-0.11335586
230	0xbdf65dd8	-0.12029618
231	0xbdba70a0	-0.09103513
232	0x3d468418	0.04846582
233	0xbd838132	-0.064211264
234	0xbd7fbc96	-0.06243571
235	0x3df5af2c	0.11996302
236	0xbdde45a8	-0.108531296
237	0xbd9ea6eb	-0.07746681
238	0xbe2d56ed	-0.16927691
239	0x3d90d01f	0.07070946
240	0x3c21044f	0.009827687
241	0xbe2d461e	-0.16921279
242	0xbe24511c	-0.16046566
243	0x3d67962a	0.056539692
244	0xbe38ef80	-0.18060112
245	0x3e0b6251	0.13611723
246	0xbe11a814	-0.14224273
247	0xbe019329	-0.12653793
248	0xbe86293c	-0.26203334
249	0xbd05346b	-0.032520693
250	0xbe137fd5	-0.14404233
251	0xbe2baf60	-0.16766119
252	0xbdb3f66b	-0.08787235
253	0xbe3be7f5	-0.18350203
254	0xbdedbaae	-0.11607872
255	0xbcb8d32b	-0.02256163

conv2.nn.2.weight f4 [128, 256]
0	0x3e46bd4c	0.19408149
1	0x3e1c5b29	0.1526915
2	0x3d794c51	0.060863797
3	0x3d45f195	0.048326094
4	0x3d7ea6eb	0.062170904
5	0x3d44f091	0.048080985
6	0x3de76a89	0.11299617
7	0xbb295d0d	-0.0025842816
8	0x3a2d471d	0.0006610023
9	0x3d260e47	0.04054096
10	0x3ca07f21	0.01959187
11	0xbcb5210a	-0.02211048
12	0x3cfcbac7	0.030850781
13	0x3cba77fd	0.022762293
14	0xbc77eb67	-0.015131808
15	0x3c6f9f38	0.014625363
16	0x3d3c1f8a	0.045928515
17	0xbcbdba6b	-0.02316018
18	0x3e0fa324	0.14027077
19	0x3d1b8630	0.037969768
20	0x3d5bdea1	0.053679112
21	0x3ea13092	0.3148237
22	0x3d1367e9	0.03598777
23	0xbd589342	-0.05287481
24	0xbce2a340	-0.027665734
25	0x3e5e43a6	0.21705493
26	0x3de130e3	0.109956525
27	0xbccbb5b4	-0.024866916
28	0x3d1fc3b6	0.039005004
29	0x3d225bef	0.039638456
30	0xbe817fad	-0.2529272
31	0x3d251571	0.04030365
32	0xbcbc0eb0	-0.022956222
33	0x3cae7d80	0.021300077
34	0x3d736d8f	0.059430655
35	0xbd32111a	-0.04347334
36	0xbdc417e5	-0.0957487
37	0xbd9275ef	-0.071514
38	0xbd74e3f7	-0.059787717
39	0x3b44f946	0.0030055805
40	0x3ef42570	0.47684813
41	0x3def8ff8	0.11697382
42	0x3d52b036	0.05143758
43	0x3ca1d6bb	0.019755712
44	0x3d052c3a	0.03251288
45	0x3c559c90	0.013037816
46	0xbe2e0763	-0.16995005
47	0xbd78b865	-0.060722727
48	0xbe004936	-0.12527928
49	0xbdcaac2e	-0.09896122
50	0x3dd88790	0.105727315
51	0xbca42050	-0.020034939
52	0x3c85ea21	0.016346993
53	0x3d813278	0.06308454
54	0xbd3123fe	-0.043247215
55	0xbea619ef	-0.3244166
56	0x3ccd1142	0.025032643
57	0xbe181483	-0.14851575
58	0xbe86d3d6	-0.26333493
59	0xbd21d262	-0.039507277
60	0x3da9c375	0.082892336
61	0x3d3a728e	0.045519404
62	0xbd514d2d	-0.05109899
63	0x3c9383bc	0.018007152
64	0x3d2a3a66	0.0415596
65	0x3ce96560	0.028490722
66	0xbceec19a	-0.02914505
67	0x3cba2944	0.022724755
68	0xbb74f6e1	-0.0037378597
69	0x3cccf371	0.025018426
70	0x3d8ce79b	0.06880113
71	0x3ef320b5	0.4748589
72	0xbd4ed461	-0.05049551
73	0xbd3b8203	-0.045778286
74	0xbe73478f	-0.23757766
75	0xbd854747	-0.06507736
76	0xbde37166	-0.111056134
77	0xbd5f05fc	-0.054449067
78	0xbe242adc	-0.16031975
79	0xbdb16ae9	-0.086629696
80	0xbbaeafdd	-0.005331023
81	0x3d8b15bc	0.06791255
82	0xbdf00c09	-0.117210455
83	0xbcff0f11	-0.031135114
84	0x3d25e90b	0.04050545
85	0xbd439438	-0.047748774
86	0x3c28aee1	0.010295601
87	0xbbb899a2	-0.005633549
88	0xbd2d75cb	-0.042348664
89	0x3d587717	0.052847948
90	0xbc5b5228	-0.013386287
91	0xbdfa766b	-0.12229618
92	0xbd5baf30	-0.05363387
93	0xbbcaba92	-0.0061867917
94	0xbc9d6083	-0.01921106
95	0xbd564e9c	-0.05232106
96	0x3be3e33a	0.0069545778
97	0xbd8cc743	-0.06873944
98	0xbd86a635	-0.0657467
99	0xbd76ab21	-0.060221795
100	0xbcf670b8	-0.030083045
101	0x3ccddeb8	0.025130615
102	0x3b9df5f0	0.004820578
103	0x3d3511ee	0.044206552
104	0xbebb090f	-0.3653035
105	0x3d1c4fc5	0.03816201
106	0xbe384744	-0.17995936
107	0xbe17004d	-0.14746208
108	0xbcb78074	-0.022400118
109	0xbc778a0a	-0.015108595
110	0xbd5d7114	-0.054062918
111	0x3d8274bb	0.06369921
112	0xbe38123e	-0.17975709
113	0x3d43b592	0.04778058
114	0xbd3627b5	-0.04447146
115	0xbb1f9dad	-0.0024355457
116	0xbbc7828f	-0.006088562
117	0x3d3a17cf	0.045432862
118	0x3d7c42e8	0.061587244
119	0xbcca5326	-0.024697851
120	0x3da010ed	0.07815728
121	0x3d581bdb	0.05276094
122	0xbdb6c895	-0.08924977
123	0x3de557ce	0.11198388
124	0x3d935f9a	0.07195969
125	0x3d478bf5	0.048717458
126	0x3d036b41	0.032084707
127	0xbd64a4f7	-0.055821385
128	0x3d43b2a0	0.047777772
129	0xbd8228eb	-0.06355461
130	0x3e8060ca	0.25073844
131	0x3d47bc2e	0.048763447
132	0x3cebab2a	0.02876814
133	0x3d24c3a2	0.040225632
134	0xbedc8957	-0.43073532
135	0xbc8c9421	-0.017160477
136	0x3d10fe00	0.035398483
137	0xbbad7edc	-0.005294664
138	0x3d9b8bfb	0.075950585
139	0xbc5b8fea	-0.013401011
140	0x3d087ce9	0.03332225
141	0xbd249af8	-0.040186852
142	0xbd024662	-0.031805404
143	0xbcc9820a	-0.02459814
144	0xbcac3e0a	-0.021025676
145	0x3bee763b	0.0072772778
146	0xbe32e8f0	-0.17471671
147	0x3db2ca96	0.087300465
148	0xbcd8fcca	-0.026487727
149	0x3df41c16	0.119194195
150	0xbc022844	-0.00794417
151	0xbd8afcac	-0.067864746
152	0x3da26d46	0.079309985
153	0xbcafac03	-0.021444326
154	0xbd1f86fe	-0.038947098
155	0x3c20f863	0.009824845
156	0xbe1dc6cc	-0.15407866
157	0x3db5468c	0.088513464
158	0x3c944862	0.018100921
159	0x3dc9a701	0.098463066
160	0x3d796ac2	0.060892828
161	0xbeb4f574	-0.35343516
162	0xbe7ce249	-0.24695696
163	0x3df911a9	0.121615715
164	0x3c715f76	0.014732232
165	0xbe0c2b7a	-0.1368846
166	0x3c972570	0.018450469
167	0x3b49d744	0.0030798474
168	0xbd54f5b5	-0.051992137
169	0xbd2f22e7	-0.042757895
170	0xbd2ec053	-0.042663883
171	0xbc995c84	-0.018720873
172	0x3d396254	0.04525979
173	0x3da233a5	0.07920007
174	0x3c9ba4eb	0.018999537
175	0xbdc76670	-0.09736335
176	0x3d5e02fc	0.054202065
177	0xbdd0c832	-0.10194434
178	0xbdc8027a	-0.09766097
179	0xbd4e0802	-0.050300606
180	0xbc15f6f1	-0.009153114
181	0x3d472e1e	0.048627965
182	0x3e8bf001	0.27331546
183	0xbdc8014e	-0.09765874
184	0xbd0cbb1b	-0.034358125
185	0x3c14be5d	0.009078589
186	0x3d304a6c	0.043039724
187	0xbbc2e7f0	-0.0059480593
188	0xbd8b2821	-0.06794763
189	0xbd6babec	-0.057537004
190	0x3cfa4ae0	0.030553281
191	0x3d111e47	0.035429265
192	0xbd27c943	-0.040963423
193	0xbdf8b6e3	-0.12144258
194	0x39f6b932	0.00047058758
195	0xbcd08be9	-0.02545734
196	0x3ba3a82e	0.004994414
197	0x3e8b5492	0.2721296
198	0xba3cd19e	-0.0007202866
199	0x3cd52032	0.026016328
200	0xbd3165cc	-0.04330997
201	0xbd26e0d3	-0.040741753
202	0xbd6a07db	-0.057136398
203	0xbec381c2	-0.38184935
204	0xb9971f76	-0.00028824405
205	0x3c011241	0.007877887
206	0xbd09e4d8	-0.033665508
207	0xbcf39a0a	-0.029736537
208	0xbd0b93d2	-0.03407652
209	0xbd531001	-0.051528934
210	0x3bd1ea4a	0.0064061033
211	0x3e62987f	0.22128485
212	0xbdde324e	-0.108494386
213	0xbd26b239	-0.04069731
214	0x3c9ffff3	0.019531226
215	0x3d2a8dfd	0.041639317
216	0xbd718b32	-0.058970638
217	0x3d01f655	0.03172906
218	0x3e3f1557	0.18660484
219	0x3c133cf9	0.008986705
220	0xbdb130d4	-0.08651891
221	0x3b5458d9	0.003240159
222	0xbc97c921	-0.018528523
223	0x3df65cc7	0.120294146
224	0x3d6b3c9e	0.057430856
225	0x3bfc6f45	0.007703694
226	0xbd5d65ce	-0.054052167
227	0x3e96e59f	0.29472062
228	0x3ccc4ffc	0.024940483
229	0xbb830362	-0.003998206
230	0x3dde1696	0.10844152
231	0x3db46463	0.0880821
232	0x3d49834d	0.049197484
233	0x3d3f624c	0.046724603
234	0xbce1f701	-0.027583601
235	0xbe4d67ce	-0.2005913
236	0xbd4d7969	-0.050164614
237	0x3d0dcc95	0.034618933
238	0xbca3510d	-0.019936109
239	0x3d1727f5	0.03690334
240	0xbb8f9fdc	-0.0043830704
241	0x3d3092ae	0.043108635
242	0x3d1841f2	0.037172265
243	0xbee0352f	-0.43790576
244	0x3c40c156	0.011764845
245	0xbe0d26ee	-0.13784382
246	0x3b0590fc	0.0020380607
247	0xbc4f8b0a	-0.012667427
248	0xbdd1ba94	-0.10240665
249	0x3c8b0b56	0.016973179
250	0xbca7f874	-0.020504214
251	0xbefa9bd2	-0.48947006
252	0x3d46a5fb	0.048498135
253	0x3d8c3e54	0.06847826
254	0xbdbd267b	-0.09235855
255	0x3d39595d	0.04525124

conv2.nn.2.bias f4 [128]
0	0xbcbc357f	-0.022974728
1	0x3ce970b6	0.028496128
2	0xbe17effb	-0.14837639
3	0xbe1ab2a1	-0.15107204
4	0xbdce389e	-0.100693926
5	0xbd8a1970	-0.06743133
6	0xbe3c0cb1	-0.18364216
7	0xbe900541	-0.28129008
8	0xbe8fbf09	-0.28075436
9	0x3e4d5c5b	0.20054762
10	0x3db07b3d	0.08617256
11	0xbe094a5f	-0.13407277
12	0xbd9a6e0e	-0.075405225
13	0xbe96c222	-0.29444987
14	0xbe017798	-0.12643278
15	0xbe24db6b	-0.16099326
16	0xbda2cd05	-0.079492606
17	0xbd1b5007	-0.037918117
18	0x3e5bc588	0.21462071
19	0xbe753bd7	-0.23948608
20	0xbda2a509	-0.07941634
21	0xbd6f90b3	-0.058487605
22	0xbe331074	-0.17486745
23	0xbd61543c	-0.055011973
24	0xbdeb997c	-0.11503884
25	0xbe8049d7	-0.25056335
26	0xbbd0a3e6	-0.0063671945
27	0x3e0d91d2	0.13825157
28	0xbda5b090	-0.08090317
29	0xbe05fb26	-0.13084087
30	0x3e012f52	0.12615708
31	0x3cfb1ff3	0.030654883
32	0xbdbea6de	-0.09309171
33	0xbdf0f8df	-0.117662184
34	0xbd852aca	-0.06502302
35	0xbdd197c5	-0.10234026
36	0xbdadffbd	-0.08496044
37	0x3e0ee188	0.13953221
38	0xbe032e51	-0.12810637
39	0xbd9bc946	-0.07606749
40	0x3c20d84a	0.009817192
41	0xbd05e227	-0.03268638
42	0x3e95c5db	0.29252514
43	0xbdca974e	-0.0989214
44	0xbe21be81	-0.15795328
45	0x3e00f53e	0.12593552
46	0x3dcbd227	0.09952193
47	0xbdd52392	-0.10407175
48	0xbe107495	-0.14106973
49	0xbd5a82ca	-0.053347386
50	0xbdcdb2c5	-0.10043863
51	0xbdbe5b1f	-0.09294724
52	0xbdc23920	-0.09483552
53	0xbe0c069e	-0.136744
54	0xbe09ae4c	-0.13445395
55	0xbe108cae	-0.14116165
56	0xbe08a6ce	-0.13344881
57	0xbe199431	-0.14997937
58	0x3d375779	0.044761155
59	0xbe10efd5	-0.14153989
60	0xbda0ba1a	-0.07847996
61	0xbd34fdd8	-0.044187397
62	0xbe3d8ed0	-0.1851151
63	0xbd93fad2	-0.072255746
64	0xbdef57a8	-0.11686641
65	0x3e390751	0.18069197
66	0xbe9edcfa	-0.31027967
67	0xbda93085	-0.082612075
68	0xbe05a148	-0.13049805
69	0xbe0264f6	-0.12733826
70	0xbd8c309d	-0.0684521
71	0x3e577c89	0.210436
72	0xbe05ca02	-0.13065341
73	0xbe75cef6	-0.2400473
74	0xbc02a69e	-0.007974295
75	0xbd265c1a	-0.04061518
76	0xbe83b918	-0.25727153
77	0xbe938acc	-0.2881683
78	0xbe20fafb	-0.15720741
79	0xbea96948	-0.33088136
80	0xbdfaf269	-0.12253267
81	0xbe2d5963	-0.1692863
82	0xbe6879ec	-0.2270276
83	0xbd2e5724	-0.042563573
84	0xbe6578c7	-0.22409354
85	0x3de4fd15	0.11181084
86	0xbe0186ff	-0.12649153
87	0xbd0ff505	-0.03514578
88	0x3b4b95e0	0.0031064674
89	0x3cc35500	0.023844242
90	0x3e81817f	0.2529411
91	0xbe9a23c9	-0.30105427
92	0xbd7487d3	-0.059699845
93	0xbdc9633d	-0.09833381
94	0xbe0a3218	-0.13495672
95	0xbdb0ff21	-0.08642412
96	0xbe78d6a0	-0.24300623
97	0xbdc434c4	-0.09580377
98	0xbe58a1cf	-0.21155475
99	0x3e5c48b7	0.21512114
100	0x3db5768f	0.08860504
101	0xbe85d31d	-0.2613763
102	0x3e03f776	0.12887368
103	0xbc36c6be	-0.011155782
104	0xbe0afec1	-0.13573743
105	0xbdbc9338	-0.09207767
106	0xbdb20bce	-0.08693658
107	0xbebd638e	-0.36990017
108	0xbdc21e0e	-0.09478389
109	0xbdc5055c	-0.09620163
110	0xbe03a969	-0.12857594
111	0xbe178804	-0.1479798
112	0xbdf8b26d	-0.12143407
113	0xbd17f164	-0.037095442
114	0x3e36fed0	0.17870641
115	0xbe1e988d	-0.15487881
116	0x3ca90a82	0.020634893
117	0xbdf28687	-0.11842065
118	0xbddfba11	-0.10924161
119	0xbe8c1ef3	-0.27367362
120	0xbdc042f6	-0.09387772
121	0xbdf3d9f2	-0.11906804
122	0xbe569cf3	-0.20958309
123	0xbb2d5184	-0.0026446292
124	0x3da7d11a	0.0819418
125	0x3d9662fa	0.07343097
126	0xbe010449	-0.12599291
127	0xbe7c6b99	-0.2465042

conv2.lin.weight f4 [128, 3]
0	0xbe8f138c	-0.279446
1	0xbe83556e	-0.25651115
2	0x3e97b235	0.2962815
3	0x3e260e0c	0.16216296
4	0x3f0a8fdb	0.54125756
5	0x3be74a2f	0.007058404
6	0xbd4d432b	-0.050112884
7	0xbe2b7db5	-0.16747172
8	0x3e435d59	0.19078578
9	0x3f0c61a3	0.5483648
10	0x3f1d7e5d	0.6152094
11	0xbd1a91e4	-0.03773679
12	0xbea5da56	-0.3239314
13	0x3f40ba34	0.75284123
14	0xbe539f43	-0.20666222
15	0x3e742232	0.2384117
16	0xbe8b916e	-0.27259392
17	0x3e4d60c2	0.20056441
18	0xbf29f521	-0.6638966
19	0x3eccfaf7	0.4003522
20	0x3e8721b6	0.26392907
21	0xbe44bb58	-0.19212091
22	0xbf30e273	-0.69095534
23	0x3c4ed5b9	0.012624198
24	0xbed39f14	-0.41332304
25	0xbe6b85cb	-0.23000257
26	0xbf425a42	-0.7591897
27	0xbd856ab6	-0.06514494
28	0xbd9f822d	-0.07788501
29	0x3eb484dd	0.35257617
30	0xbda7c4ce	-0.081918344
31	0x3d83db4b	0.06438311
32	0xbe04a0a9	-0.12951912
33	0xbeaec8cb	-0.34137568
34	0x3e006813	0.12539701
35	0xbe04fa6f	-0.12986158
36	0x3f20972e	0.6273068
37	0x3f15a1fd	0.584503
38	0xbf2daeeb	-0.6784503
39	0xbeeca4cf	-0.4621949
40	0xbeb2a220	-0.34889317
41	0xbe9e36f5	-0.30901304
42	0x3e421ca3	0.18956237
43	0xbdfb02e4	-0.12256411
44	0x3ddcd28b	0.107823454
45	0x3ed0d625	0.4078838
46	0xbec58a12	-0.38581902
47	0xbf285a8c	-0.65763164
48	0xbee21fd3	-0.44164905
49	0x3e9e1c74	0.30881083
50	0x3e805248	0.25062776
51	0xbedc3b85	-0.4301416
52	0xbd953d0d	-0.07287035
53	0xbf25cf53	-0.64769477
54	0xbdb421af	-0.08795487
55	0xbce98b64	-0.02850885
56	0x3e074a94	0.13212043
57	0xbe63b9cd	-0.22238846
58	0x3dc92e32	0.09823264
59	0x3d0398bb	0.032128077
60	0xbdb2a2df	-0.087224714
61	0xbd739f64	-0.05947818
62	0x3e95226b	0.2912782
63	0xbebd12b1	-0.36928323
64	0xbeaf8b6a	-0.34286052
65	0x3c9cea26	0.01915462
66	0x3ead5e46	0.33860987
67	0xbe066090	-0.13122773
68	0xbf118a33	-0.568515
69	0x3eea4063	0.45752248
70	0xbe0c861b	-0.13723032
71	0xbe4c1c2d	-0.19932623
72	0xbf140908	-0.5782628
73	0x3cc1ca91	0.023656162
74	0xbd825027	-0.06362944
75	0xbbc09702	-0.0058773765
76	0xbe09df9c	-0.13464206
77	0xbf029a5c	-0.51016784
78	0xbed1d889	-0.40985516
79	0x3f4320c8	0.76221895
80	0xbec80490	-0.3906598
81	0xbebc0dfc	-0.3672942
82	0x3e237f96	0.15966639
83	0x3d8c0b99	0.068381496
84	0x3e969ea4	0.29417908
85	0x3eb248f2	0.34821278
86	0xbee0ebe3	-0.43929967
87	0x3e463711	0.19356944
88	0x3c822691	0.01588753
89	0x3e1e3bd4	0.1545251
90	0xbf059b22	-0.5218984
91	0x3f3ff508	0.74983263
92	0x3f08242c	0.53180194
93	0x3f0d2066	0.5512756
94	0xbed5363a	-0.41642934
95	0xbd42bc7f	-0.047543045
96	0x3ed04be1	0.4068289
97	0xbeda7e9c	-0.4267472
98	0xbcac005f	-0.02099627
99	0x3eaae13c	0.33374965
100	0xbd0f6c69	-0.035015497
101	0xb9442bfc	-0.00018708402
102	0x3c2cb56b	0.0105413
103	0x3d60dc25	0.054897446
104	0x3edb29bf	0.42805287
105	0xbf263c60	-0.64935875
106	0xbef628ec	-0.48078096
107	0x3dc6561e	0.09684394
108	0xbe9a1b34	-0.3009888
109	0x3e516ffe	0.20452878
110	0xbe960de0	-0.2930746
111	0x3ef838be	0.4848079
112	0xbe656b9a	-0.22404328
113	0x3daacc23	0.08339717
114	0xbec43b65	-0.38326564
115	0xbcb5aef5	-0.022178153
116	0xbea2a077	-0.3176305
117	0xbe0de23b	-0.13855831
118	0xbe298bf9	-0.16557302
119	0xbdb701bd	-0.089358784
120	0x3df68352	0.12036766
121	0x3f28a0c1	0.6587029
122	0x3e35028d	0.17676754
123	0x3dc9fbd5	0.09862486
124	0x3f1a9a39	0.60391575
125	0xbe9998bd	-0.29999343
126	0xbe384c91	-0.17997958
127	0xbe998e9b	-0.29991612
128	0x3da2eb9d	0.07955096
129	0x3e622d64	0.22087628
130	0x3e4f17fd	0.20223995
131	0xbeced49e	-0.4039659
132	0x3e0de05f	0.13855122
133	0xbf04a346	-0.51811635
134	0xbedd0e59	-0.4317501
135	0xbd423456	-0.047413193
136	0xbd070b08	-0.032969505
137	0xbca04b0e	-0.019567039
138	0xbe3ef501	-0.18648149
139	0x3e9b4889	0.30328777
140	0xbe8dc037	-0.2768571
141	0x3d36fac3	0.04467274
142	0xbe3f7cd8	-0.18699968
143	0xbeefcbf8	-0.46835303
144	0xbebd2a54	-0.36946356
145	0x3ea6ac81	0.32553485
146	0x3efa340a	0.48867828
147	0xbf1301ed	-0.57424814
148	0x3e7e62e2	0.24842408
149	0x3efe87bb	0.4971293
150	0x3f02c5b5	0.51082927
151	0xbe7d97ad	-0.24764891
152	0xbeb3c05b	-0.35107693
153	0x3efc6359	0.49294546
154	0x3f002c83	0.5006792
155	0xbeb52a12	-0.3538366
156	0xbf096eea	-0.53684866
157	0x3db71d53	0.0894114
158	0xbea3aa74	-0.31965983
159	0x3ee778b2	0.4520927
160	0xbf03db50	-0.5150652
161	0x3ee41be4	0.4455253
162	0x3dc8976e	0.09794508
163	0xbe02b484	-0.12764174
164	0xbef0dc89	-0.47043255
165	0xbe691a63	-0.22763972
166	0xbc51c3f1	-0.012803064
167	0x3d19d409	0.037555728
168	0xbe87f012	-0.26550347
169	0x3e3a86f0	0.18215537
170	0x3f1ac63b	0.60458726
171	0xbd68d9f0	-0.056848466
172	0xbedd07c7	-0.43169996
173	0xbebeea02	-0.3728791
174	0xbe4da80f	-0.2008364
175	0x3e81896d	0.2530016
176	0xbf10e88a	-0.56604826
177	0x3e1866d8	0.14882982
178	0x3f03f747	0.5154919
179	0x3e855a90	0.26045656
180	0x3dd4d0c0	0.103913784
181	0x3c4246e9	0.011857727
182	0xbe9c3e16	-0.30516118
183	0xbe90dafe	-0.28292078
184	0x3e69adf4	0.22820264
185	0xbd875a2a	-0.06608994
186	0x3eb65d1d	0.35617915
187	0xbedd593c	-0.43232143
188	0x3d12a188	0.03579858
189	0xbd9a4cf9	-0.075342126
190	0x3db3e946	0.08784728
191	0xbead5b92	-0.33858925
192	0xbe8d3805	-0.27581802
193	0xbeb00266	-0.3437683
194	0x3eb3231a	0.34987718
195	0xbe2a606f	-0.16638349
196	0x3e6eb10c	0.23309726
197	0xbeef9d17	-0.46799538
198	0xbdcf5294	-0.101231724
199	0xbed6a074	-0.4191929
200	0x3c59198d	0.013250721
201	0xbf252696	-0.64512
202	0xbdf31f4e	-0.11871205
203	0xbeaee600	-0.3415985
204	0x3c30ec77	0.010798565
205	0x3e33a8c5	0.17544849
206	0x3ea771c8	0.32703996
207	0xbeff7b9a	-0.49898988
208	0xbec7b8b5	-0.39008108
209	0x3e0e7b62	0.13914254
210	0xbf788ddc	-0.9709146
211	0x3f07604b	0.52881306
212	0xbe5d6e14	-0.21624023
213	0x3c9b1af2	0.018933747
214	0xbccb66d1	-0.0248293
215	0x3d8e1202	0.069370285
216	0x3ea86b6e	0.32894462
217	0xbe27db89	-0.1639234
218	0xbe3e7f13	-0.18603162
219	0xbe79fcf3	-0.24412899
220	0xbec37631	-0.3817611
221	0xbe09c36a	-0.13453451
222	0xbf35334f	-0.70781416
223	0xbedaf214	-0.42762816
224	0xbf718e70	-0.9435797
225	0x3ec457c9	0.38348225
226	0x3e9f3ebe	0.31102556
227	0xbf31b247	-0.69412655
228	0xbf06c5ab	-0.5264537
229	0xbf1731ee	-0.5906056
230	0xbc475313	-0.0121658025
231	0xbe9205bd	-0.28520003
232	0x3e6b817e	0.22998616
233	0x3e70931b	0.23493616
234	0xbeb3fcae	-0.35153717
235	0x3e150262	0.1455169
236	0xbe9a6038	-0.30151534
237	0xbeb5c51f	-0.35501954
238	0x3e15bdc6	0.14623174
239	0xbe8be2b4	-0.27321398
240	0xbdfe485f	-0.124161474
241	0xbd1b4e8d	-0.03791671
242	0xbe3eb7e8	-0.18624842
243	0xbf0bac84	-0.5456011
244	0x3e8d65a4	0.27616608
245	0xbdeaf8b2	-0.11473216
246	0xbdbdc581	-0.092661865
247	0x3f0d8337	0.5527834
248	0xbeeef1ab	-0.46668753
249	0x3e86eefe	0.26354212
250	0xbd99b02f	-0.075043075
251	0xbd461e04	-0.04836847
252	0xbf1efe43	-0.6210672
253	0xbf0a55ea	-0.54037344
254	0x3e276893	0.16348486
255	0xbd63adb5	-0.05558558
