A3/classification/custom.pth (torch, 349033 bytes, 17 tensors)

conv1.nn.0.weight f4 [64, 9]
000000 52 37 99 bc 44 64 db 3d 81 0e 0e bd 35 60 0f 3e
       -0.018703137 0.107124835 -0.0346818 0.14001544
000010 be 71 6f bf be a2 5c be e5 b9 6a 3d 8f 2d 87 bd
       -0.9353293 -0.21546456 0.05730619 -0.066004865
000020 79 4c 35 3e 65 ca a4 be c0 f3 cb 3e 3b 66 c7 3e
       0.17704953 -0.32185665 0.39834404 0.38945183
000030 d5 bb 3e 3d 4d 2a 00 3d 17 6d 21 be 0b 79 18 3e
       0.04656585 0.03129034 -0.1576427 0.14889924
000040 26 42 96 3e df bd 50 3c e5 ac d4 bb 8c db 92 3d
       0.29347342 0.012740581 -0.006490337 0.071707815
000050 6b 5d 82 3e dc e2 43 be 1e 26 37 3e e4 0d cb 3e
       0.25461897 -0.19129509 0.17885634 0.39659035
000060 01 af 9c 3e 96 55 ec 3d 8d 92 36 bf 30 76 c2 bd
       0.30602267 0.11539762 -0.7131737 -0.09495199
000070 f5 82 3b be 67 50 48 be 35 26 84 3d 7e 24 b7 3d
       -0.18311675 -0.19561921 0.064526 0.08942507
000080 86 cb b7 be c7 59 67 bd 85 d5 21 be eb 36 8d 3e
       -0.35897464 -0.056482103 -0.15804107 0.27580962
000090 af 0c a1 bc 03 87 7a be 92 a7 58 3e d2 e7 9b bd
       -0.019659368 -0.24465565 0.21157673 -0.076125756
0000a0 55 81 fb bd fd b1 ea 3d 9b 40 24 be db b2 de 3c
       -0.122805275 0.1145973 -0.1604027 0.027184894
0000b0 b6 fb 04 be d7 68 93 3d 8c 4b 39 3e e5 98 ae be
       -0.12986645 0.07197731 0.18095225 -0.34101024
0000c0 4d 19 8c 3e ab 3d af bd 89 d7 12 3f 42 a0 b8 be
       0.27363053 -0.08556684 0.5736013 -0.36059767
0000d0 ba 44 b2 be 92 54 0d be 06 d2 0b be 36 04 4d bf
       -0.3481806 -0.13801792 -0.13654336 -0.8008455
0000e0 2d 59 26 be f9 85 aa 3e d5 0e bd be 30 24 6b be
       -0.16244955 0.33305338 -0.36925378 -0.22963023
0000f0 8f b2 2f be 79 eb 77 3e 3e d6 5b 3e 78 07 62 bd
       -0.17157958 0.2421092 0.21468446 -0.055182904
000100 3f 52 0c bf b9 4e 11 be bb 20 8a 3e 8c 63 8b be
       -0.54813 -0.14190187 0.26978096 -0.27224386
000110 b6 3b 44 3f d4 da 1f be 72 e7 8a be 4c b9 25 bf
       0.7665361 -0.1561082 -0.27129704 -0.64735866
000120 82 cc 85 be 90 4b fc bd d6 4e 8f be c6 e2 49 3e
       -0.2613259 -0.123191 -0.27989835 0.19715413
000130 40 cf 9a bd 5b a0 bd bd 36 f0 95 be 3f 6a 98 3e
       -0.07559061 -0.09259101 -0.2928483 0.2976856
000140 a8 0f 92 be d8 40 a8 be cd 1f 9e 3d 5b 49 8d 3e
       -0.2852757 -0.32861972 0.07720909 0.27595028
000150 23 5d 83 3e 97 5c 26 be 35 a5 91 be e8 a5 fd bd
       0.25656995 -0.16246258 -0.28446355 -0.1238516
000160 ca 55 1d 3e dd e9 b9 be 9b 66 7d 3e f1 e3 ea 3d
       0.15364757 -0.36311236 0.24746172 0.114692576
000170 ab 39 e8 be db ec e6 bd ff 90 d7 bd 23 71 1e 3e
       -0.45356497 -0.11275645 -0.10525703 0.15472846
000180 75 43 2c 3e 12 aa e0 be 95 be 1a bf 62 2b 60 3d
       0.16822608 -0.43879753 -0.60447055 0.054728873
000190 be 04 88 3e 9c d4 d9 be e4 41 48 3e f3 42 8a 3e
       0.26566118 -0.4254502 0.19556385 0.27004203
0001a0 b9 10 50 3f 25 25 b7 be 0c 3d 8c 3e 4b 82 c8 be
       0.81275517 -0.35770527 0.27390325 -0.39161906
0001b0 90 cb bc bd 56 ea d6 bd 70 03 10 3e 87 32 82 be
       -0.09218514 -0.10493915 0.14063811 -0.25429174
0001c0 d8 59 87 be 3c 40 98 3e 56 50 c1 bb 20 9e f6 bd
       -0.26435733 0.29736507 -0.0058994694 -0.12041879
0001d0 23 be 05 3e e6 fe 48 be 66 0e 27 3e 48 20 a7 be
       0.13060813 -0.19628486 0.16314086 -0.32641816
0001e0 e4 6c 9d be 10 22 e6 bd 60 5a 00 bd 7a a2 97 3e
       -0.3074714 -0.11236966 -0.03133619 0.29616147
0001f0 76 f5 d5 3d e0 11 cd bd 1e 3f ca 3d 08 5d 65 bf
       0.104472086 -0.10013175 0.0987532 -0.8959508
000200 3f b5 8e bf 7d 25 b0 be c5 a4 3b bf 21 c3 4a 3f
       -1.1149062 -0.344036 -0.73298293 0.79203993
000210 58 77 7e bd 42 51 4b bf 9b 66 5f bf 5f 72 42 be
       -0.062125534 -0.79420865 -0.8726594 -0.18988942
000220 ad 92 c5 bd d2 d4 7e 3e cb 61 38 3e 6c 54 47 be
       -0.09647117 0.24885872 0.18006055 -0.19465798
000230 ed 8c 4d bf 1a d2 03 bf 4b 73 00 3d e5 ee 10 be
       -0.8029316 -0.51492465 0.031359952 -0.14153631
000240 38 dc 49 be e3 68 a7 be d9 f8 ae bc 65 d1 04 3e
       -0.19712913 -0.3269721 -0.021358894 0.12970503
000250 fb 33 3b bd 4f 13 a3 be e1 ad 90 3e 71 28 1f bf
       -0.04570387 -0.3185067 0.2825766 -0.62171084
000260 d1 36 b8 3e 9d ea 3f 3e 2c 9e dd be 32 e7 13 3d
       0.35979322 0.18741842 -0.43284738 0.036109157
000270 67 ff f8 39 a9 b1 ad bd 58 f3 f9 3e d7 4f ae be
       0.00047492536 -0.084811516 0.4881847 -0.34045288
000280 6a 86 b2 be 73 7a e5 3d e3 63 83 be ab 22 9c 3b
       -0.34868175 0.11204996 -0.25662145 0.004764875
000290 d6 5e 8c bd 08 2f 6d be 83 96 3a 3e 5b f6 94 be
       -0.06854026 -0.23162472 0.18221478 -0.29094204
0002a0 93 74 22 3e 2b 6b 28 be 08 7d 1b 3e b4 15 b9 3d
       0.15864782 -0.16447131 0.15184414 0.09037343
0002b0 46 76 4d be 05 e3 ae 3d 46 87 4b 3d 97 80 2c be
       -0.20064649 0.08539394 0.049689554 -0.16845928
0002c0 60 73 33 3f 44 b8 99 be 95 15 1a bf 1c e0 1b bf
       0.70097923 -0.30023396 -0.6018918 -0.6088884
0002d0 2c 51 c3 3d 34 1d 93 3e 65 18 f4 bc 6d 67 b6 3d
       0.09536967 0.28733218 -0.029796788 0.08906446
0002e0 dd 7e 3f bf 4d f4 20 3f 89 24 f1 be ed 64 b0 be
       -0.74802953 0.62872773 -0.47098187 -0.34452
0002f0 eb ff 3e 3e d7 90 a9 be a7 dc 54 be d1 d5 bb 3e
       0.18652312 -0.33118317 -0.20787297 0.36686566
000300 bc bf 63 3e 06 e0 03 bf a4 d1 21 bc cb cb a1 be
       0.2224111 -0.5151371 -0.009876642 -0.31600794
000310 f5 53 19 3e 44 fd 91 3e 81 b3 92 bd 7d 7d 13 bf
       0.14973433 0.2851354 -0.07163144 -0.57613355
000320 33 cb ab 3d b8 e1 1a 3e 2b 52 86 3e 81 38 67 bf
       0.083883666 0.15125167 0.26234564 -0.90320593
000330 ef fd a9 be bd de d3 be 45 d3 e0 be f0 df 80 bc
       -0.33201548 -0.41380873 -0.43911186 -0.015731782
000340 9a 07 ac bd 1d 32 01 bf cd b0 98 3e 4b 5f dc 3e
       -0.083998874 -0.5046709 0.29822388 0.43041453
000350 05 30 2b 3f 93 d3 67 bc e3 7b bf 3e bb 6c ba be
       0.66870147 -0.014149564 0.37399206 -0.3641108
000360 6a 5f 92 be 36 ef c2 bd cc bc df 3e e4 d2 01 3e
       -0.2858842 -0.09518282 0.43698728 0.12678105
000370 62 7c 95 bd 49 9e ae be ff e0 16 be 31 b6 41 3e
       -0.07299115 -0.34105137 -0.14734267 0.18917157
000380 2c cb db bd 66 82 84 be 92 c3 3b bf 8c c4 9b 3e
       -0.10732111 -0.25880736 -0.7334529 0.3042339
000390 4a c7 3e 3e f7 12 81 3e ca 1f 00 bf 3e ca c9 be
       0.1863071 0.25209782 -0.50048506 -0.3941211
0003a0 d7 cb 0b 3e 3b ab 6b 3e 3e b1 cd 3d 8e 38 b0 bf
       0.13651977 0.23014538 0.10043572 -1.3767259
0003b0 f8 24 c6 bf fd c4 ae be bc 9e aa bf d1 f9 6f bb
       -1.5480032 -0.34134665 -1.3329692 -0.0036617408
0003c0 bd 78 2e bc 92 f0 37 bf a0 72 38 bf 2a 30 34 3a
       -0.010648903 -0.71851456 -0.72049904 0.0006873632
0003d0 fb 67 30 3e 8c dc 8c 3e d9 31 79 be 11 f6 cd 3d
       0.17227165 0.27512014 -0.24335422 0.10056699
0003e0 b8 55 67 be a3 3c 4e be 03 38 9e 3e bb a3 81 be
       -0.22591293 -0.20140319 0.3090211 -0.2532023
0003f0 08 66 24 bd 30 28 69 be 1f 0b b9 be a8 5d f7 3d
       -0.040136367 -0.22769237 -0.36141297 0.120784104

conv1.nn.0.bias f4 [64]
000000 d8 7b f7 be 7c 6d 21 be ad 16 5c 3e 7c 3d b2 be
       -0.48336673 -0.15764421 0.21493025 -0.34812534
000010 d3 d9 24 be 97 71 a3 be b8 81 b4 bd 81 4b d0 be
       -0.16098718 -0.319226 -0.088138044 -0.40682605
000020 c6 d1 35 3e 0b 90 22 3e b5 d0 a7 3e c0 41 dc 3e
       0.17755803 0.1587526 0.32776418 0.43018913
000030 00 ac 71 3d 2b 77 50 3d 71 67 c2 be 90 ec 57 be
       0.059001923 0.050894897 -0.37969545 -0.21086335
000040 6f f3 d0 3d 0b 45 00 bf 36 5b b5 bd c2 25 15 bf
       0.10202681 -0.5010535 -0.08855288 -0.5826074
000050 77 19 4c be c9 63 da be 79 e8 88 be 25 0b 9b 3e
       -0.19931589 -0.42654255 -0.26739863 0.3028194
000060 52 b0 ae 3c c7 47 a6 3d 42 37 52 bb 0d e7 73 be
       0.02132431 0.08119159 -0.0032076393 -0.23818608
000070 59 da ab bd 4e dd 6e 3e 85 5e 96 bc b7 87 b7 bc
       -0.08391256 0.23326609 -0.018355617 -0.022403581
000080 75 81 4e be 06 e3 a3 3e 04 b4 89 be a0 84 74 bd
       -0.20166571 0.32009143 -0.26895154 -0.059696794
000090 58 b1 7c 3e 78 0d e7 be 0e 94 86 3e d6 ae 8b 3e
       0.24677026 -0.45127463 0.26284832 0.27281827
0000a0 d0 a5 cc 3d d8 96 8d 3d 90 39 0a bf 0f 00 1d bd
       0.09992564 0.06913537 -0.53994083 -0.038330134
0000b0 f7 19 af be a2 d5 23 3e 2b a8 28 3d e1 70 e7 ba
       -0.34199497 0.15999463 0.041176002 -0.0017657542
0000c0 b9 d0 81 3e 72 db 7c bd 2b 47 a6 3e b1 91 e7 be
       0.25354555 -0.061732717 0.32476172 -0.4522834
0000d0 9d ab f3 be 46 5f de bd 07 0d 7d be c4 a0 9c be
       -0.47591868 -0.10858016 -0.24712001 -0.30591404
0000e0 11 23 32 be 70 02 6f be b5 19 91 3e c5 d9 15 bf
       -0.1739619 -0.23340774 0.28339925 -0.58535415
0000f0 7c 68 e4 be ae b4 e8 3d b0 fd 24 bd 13 70 60 3e
       -0.44610965 0.11362587 -0.040280998 0.21917753

conv1.nn.2.weight f4 [128, 64]
000000 49 d7 98 3c 8d 7c fc bd ae ef 9d bd 05 90 1a bc
       0.018657343 -0.12328444 -0.07711731 -0.009433751
000010 9f 1a 9e bd 16 e5 85 bd 19 1d c0 bd b1 75 61 3c
       -0.07719921 -0.06537835 -0.0938055 0.01376097
000020 f8 12 a1 bc 28 cf f4 bd c8 2f 2c bd b1 cd a8 bb
       -0.019662365 -0.119535744 -0.042037755 -0.0051514735
000030 20 de 66 bd ac 5d 53 bd 96 7a c9 bc 0f bf 10 be
       -0.05636418 -0.051603004 -0.024594586 -0.14135383
000040 95 91 a8 bd 3e 83 79 bd 3a c8 f2 3d 8c 8a da bb
       -0.082308926 -0.060916178 0.118545964 -0.006669348
000050 78 fc 11 be dc a8 3e bd 03 42 ce bb c0 a6 a5 bc
       -0.14256465 -0.046547756 -0.0062944903 -0.020221114
000060 75 21 8f 3d ea ff 05 be 50 f1 22 bd 94 5e 49 3d
       0.06988803 -0.13085905 -0.039780915 0.049162462
000070 30 88 f7 bd e9 78 2a be c4 1c e8 bd af cd dd bd
       -0.120865226 -0.16647686 -0.113336116 -0.10830247
000080 bc 37 90 3d d2 b0 89 3e 90 e0 28 be f8 2e 25 3d
       0.070418805 0.26892716 -0.16491914 0.040327996
000090 b8 e7 e8 bb 2d ff 9a bd 21 30 b9 bd 1f 7a 56 3d
       -0.007107701 -0.07568202 -0.09042383 0.052362558
0000a0 52 c4 f5 bd 77 aa 18 bd db 16 77 bd 49 b0 5f bb
       -0.12000336 -0.037271943 -0.06032453 -0.0034132174
0000b0 69 16 82 3d 52 2a 23 3d 7a c7 d9 3d d0 65 9d 3d
       0.06351931 0.03983528 0.1063375 0.07685435
0000c0 00 1f b4 bd 84 61 0e be a8 3c c3 bc e3 06 a3 3c
       -0.08794975 -0.13904387 -0.023832634 0.019900745
0000d0 c8 82 91 3a c3 29 7d bd 38 69 f8 3d 03 74 07 be
       0.0011101598 -0.061807405 0.12129444 -0.13227849
0000e0 43 b4 11 3d a0 51 7e 3c 0d 41 96 bc 6e a3 96 bd
       0.0355723 0.015522391 -0.018341566 -0.073553905
0000f0 47 2d 87 bd 2e 38 5a 3c df 57 3c 3d b8 d4 ad bc
       -0.06600433 0.013319058 0.045982238 -0.021219596
000100 35 b0 27 be 8a dc 5c 3c ef e6 5b be af f4 08 bd
       -0.16375811 0.013480315 -0.21474813 -0.033436473
000110 51 bf 40 bd 55 b6 a8 3c 4d 2c 3f 3d 3c 31 5d 3e
       -0.047057454 0.020594755 0.046673108 0.21600813
000120 18 08 6e bd c4 05 99 3d d1 b8 37 3d d4 40 33 bd
       -0.058113188 0.07471803 0.04485399 -0.043762997
000130 62 1c c3 bd 88 11 e2 bd 7f 97 10 3f d8 ad 20 3d
       -0.09526898 -0.110385 0.56481165 0.03922829
000140 57 3d 16 be e8 7b bb bd 30 13 18 3c 1b 41 14 3d
       -0.14671837 -0.091544926 0.009281918 0.036194902
000150 26 03 e9 bd eb 16 d7 bd b6 6a d2 bc 0b 3d 46 be
       -0.11377554 -0.10502418 -0.02568565 -0.19359224
000160 7e ff ad 3d 60 75 ab 3d b8 e9 0b 3f 92 3f c1 3d
       0.08495997 0.08371997 0.546535 0.09435953
000170 83 c7 0d bf bf 46 30 bd b6 a6 29 3d 15 1c f1 bd
       -0.55382556 -0.04303622 0.041418754 -0.11772934
000180 07 95 f4 3d a3 b0 86 be 29 95 5b bd 80 6a 5d 3b
       0.11942487 -0.26306638 -0.053609047 0.0033785403
000190 f9 3d 63 3d 76 79 8c be 03 f6 6e 3c 95 79 54 3e
       0.055479024 -0.27436417 0.014585021 0.20749505
0001a0 18 67 db bc 94 d7 09 bd 0a 73 00 3d f5 cf 6c 3a
       -0.026782557 -0.033652857 0.03135971 0.00090336736
0001b0 4b 2e 11 3d 16 86 7c bd 3c 53 14 bd 03 bc 12 be
       0.03544454 -0.06165131 -0.03621219 -0.14329533
0001c0 11 8c 82 bd 17 33 31 3d b4 a5 85 bd cf 20 5f 3c
       -0.06374372 0.043261614 -0.06525746 0.013618662
0001d0 ba b3 3d 3d 80 68 9a 3e be 16 9c 3c 39 2d 1d 3c
       0.04631398 0.30157852 0.019053813 0.009593301
0001e0 ea 13 ce bd b0 c1 e9 bc 5c 4c f8 3d 27 63 2b be
       -0.10062392 -0.02853474 0.121239394 -0.16737042
0001f0 3f 9c 88 3d 4e 29 db 3e b1 ff 80 be 88 15 a2 3c
       0.066704266 0.4280495 -0.25195077 0.019785658
000200 7f ef ef bd 22 99 5a 3d 04 9f 48 be 28 67 1e be
       -0.11715602 0.053368695 -0.1959191 -0.15469038
000210 39 27 f3 3b 96 46 0e 3d 3d 3c 5e 3c 72 05 99 3d
       0.007420447 0.034735285 0.013564167 0.07471742
000220 9c 11 cd 3d 07 9f 76 bd 3f 32 a4 bc 25 46 81 bd
       0.10013124 -0.060210254 -0.02004349 -0.06312207
000230 d4 d4 73 3d d4 79 64 bd 15 14 60 3e f3 db ee 3c
       0.05952914 -0.055780247 0.2188266 0.029157614
000240 e8 93 30 3d ae 76 10 be cc 9d 3b 3d 1c 04 ed 3c
       0.043109804 -0.14107773 0.045804784 0.028932624
000250 68 0f 6d bd 46 79 86 bd 73 1e 27 3d eb 37 fc bd
       -0.05787602 -0.065661 0.040800523 -0.12315353
000260 96 d7 cd 3c e7 33 ad bd 3a 37 20 3e e3 5e 24 3c
       0.025127213 -0.08457165 0.15646067 0.010032388
000270 e5 9c af bd d0 92 19 be 83 da 27 be b6 8d 0a bd
       -0.08574847 -0.14997411 -0.1639195 -0.033826552
000280 4a 2a 4f 3d c7 c4 15 be 07 ba b8 3d 60 57 f2 3c
       0.05057744 -0.14625846 0.09019857 0.02958268
000290 3b 24 a1 3a f1 32 4e be 4a f5 54 3d cc d6 03 be
       0.0012294123 -0.2013662 0.05199174 -0.12874907
0002a0 5a 56 ca bd 61 9f 3c bd 6d 48 82 3d c8 ab ae bd
       -0.098797515 -0.046050433 0.0636147 -0.085288584
0002b0 6f 04 4d be 4a 1a 33 3d d2 dc ff 3d 98 93 e7 bd
       -0.20021223 0.043726243 0.1249329 -0.11307448
0002c0 6b 01 b2 3d d6 8c 20 bd dc 8b ed bd 8f 2a a8 3c
       0.08691677 -0.03919681 -0.11598942 0.020528106
0002d0 7c b3 f7 3d 7f bb 01 3e ce 42 bb bd 0e 9f 3f 3d
       0.12094781 0.1266918 -0.09143601 0.046782546
0002e0 ab 2d 3b b9 30 bf 3b bc 4a b0 68 3d 56 16 69 bd
       -0.00017850722 -0.011459157 0.056808747 -0.056906067
0002f0 2b 69 8b bd ec ca 39 3e ac 20 e1 bd 60 0b 8e 3d
       -0.068071686 0.18143815 -0.1099256 0.06935763
000300 4c b6 6d bd d0 6c ff 3a e7 85 e6 3b 0a b3 da bd
       -0.05803518 0.0019487385 0.0070350054 -0.1067868
000310 34 5e d1 3d 6a 2d 12 be b2 bf de bd 98 2b 61 bd
       0.10223046 -0.14275137 -0.10876407 -0.054973215
000320 90 ab 86 bc e8 a4 da 3c 44 1c 38 3d db 4d 90 3d
       -0.01643923 0.026689962 0.04494883 0.070461
000330 88 37 b9 bd 62 37 a2 bd 40 0c 91 3d 54 75 06 bd
       -0.09043795 -0.0792072 0.070824146 -0.032826737
000340 4c 38 b7 bd 8b c4 06 be 38 25 f2 bd 42 07 18 be
       -0.08946285 -0.13160913 -0.11823505 -0.14846519
000350 56 d7 f0 bd 15 08 86 3c d7 f3 f3 bd a1 18 ae bd
       -0.11759822 0.016361276 -0.11911743 -0.08500791
000360 41 36 a7 bd 5c c2 12 be ac 8c 2e 3d 6c 10 7e bd
       -0.08164645 -0.14331955 0.042614624 -0.06202738
000370 15 64 4f bd b9 38 17 be 43 fc 82 bd f7 39 a1 bd
       -0.050632555 -0.14767732 -0.06395771 -0.07872384
000380 12 db 85 bd cc 1a 5e 3d 80 a2 e9 3b 6c aa 4b bd
       -0.06535925 0.054224774 0.007129967 -0.049723074
000390 5a 8c ce bd 4c a5 d9 bd 0a cc d6 bd 86 73 a2 bd
       -0.10085364 -0.10627231 -0.10488136 -0.079321906
0003a0 0c e1 a7 bd fe 87 83 bd 58 7d c0 3c 0c ac 47 3d
       -0.08197221 -0.06422423 0.023497269 0.04874806
0003b0 10 97 fc bd c0 b3 58 3b 7c d0 31 bd 14 a4 0e be
       -0.123335004 0.0033066124 -0.043411717 -0.13929778
0003c0 6a 88 ae bd 1e 85 27 be 52 cf 82 3d 4a b7 3f bc
       -0.08522113 -0.16359374 0.063871995 -0.011701414
0003d0 28 6e cf bc 90 aa 95 bc 95 4e fa 3c f0 aa ca bc
       -0.025321081 -0.018269807 0.030555049 -0.024739712
0003e0 5a 04 86 3d e0 d6 46 3d e4 24 79 3d e1 28 ce bc
       0.06543799 0.048544765 0.060826197 -0.025165977
0003f0 60 3d 59 3d 32 13 95 bd a7 11 64 3c 10 b2 13 3d
       0.053037047 -0.07279052 0.013920224 0.036058486

conv1.nn.2.bias f4 [128]
000000 3c 0e 1b bc 11 a2 f2 be 88 4c 05 be 0a 90 1d bd
       -0.009463843 -0.47389272 -0.13017476 -0.038467444
000010 af 3f 23 3c 58 96 a3 3e de c6 78 bd 4e 5d 91 bd
       0.009963914 0.3195064 -0.06073653 -0.070978746
000020 20 7f 0f be 36 ec 01 bd 73 6c 86 3e 44 63 44 3d
       -0.14013338 -0.03171941 0.26254615 0.04794623
000030 4b 62 2e 3c 8c 17 77 bd 22 19 0c be e1 3a bb bd
       0.010643552 -0.06032519 -0.13681462 -0.0914209
000040 35 f7 89 bd 77 26 56 3e 0f 30 d6 bc ac 9b f4 bb
       -0.06736604 0.2091311 -0.026145963 -0.0074648466
000050 42 e7 63 be e1 a5 ee 3c 46 ea 44 be b2 65 cf 3c
       -0.22256187 0.029131832 -0.19229993 0.025317047
000060 08 2d bb bc 32 74 96 3e 0b e9 1a 3d b3 a9 2d 3c
       -0.022848621 0.29385525 0.037819903 0.0105995415
000070 5c a1 36 bd a6 52 01 be d2 53 26 bc 32 13 25 bd
       -0.044587478 -0.12629184 -0.01015182 -0.04030151
000080 16 8e 6a 3c 2e c6 82 bb 0f f0 a1 bd f6 0e 17 be
       0.0143161025 -0.00399091 -0.07907116 -0.14751801
000090 f1 de 0e bd a7 f9 62 be d7 cd 15 3d 06 84 9d bc
       -0.034880582 -0.22165547 0.036573257 -0.019227993
0000a0 40 a0 2b 3d 7e 88 df bd 4c 12 3e be 6c ad 4c bc
       0.041900873 -0.10914706 -0.18561667 -0.012492519
0000b0 66 21 a9 bd 62 1e e7 be 4e f9 e5 bd b3 79 36 bd
       -0.08258323 -0.45140368 -0.11229192 -0.044549655
0000c0 45 3c 31 be 3e d4 27 bd a6 cc c2 bd 96 24 19 bd
       -0.17308147 -0.040973894 -0.0951169 -0.037388407
0000d0 14 97 2e be e2 85 0e be 10 f4 19 be a9 03 a1 3e
       -0.17049819 -0.1391826 -0.15034509 0.31448105
0000e0 a0 c6 95 be 01 4c 48 bd 06 5b dd bc 6b b1 f6 bd
       -0.292531 -0.048900608 -0.027020942 -0.120455585
0000f0 2a 41 6b bd 4a ba a1 bd 40 cd 5f be d6 d1 56 3d
       -0.057435192 -0.0789686 -0.2185564 0.05244621
000100 89 2b de bd e9 04 ae bd 4c 29 ab 3c bd c1 34 be
       -0.108481474 -0.0849703 0.020893715 -0.1765203
000110 47 97 c7 bd 99 dd 3b be 88 f7 21 3e 05 ea b6 3c
       -0.09745651 -0.18346252 0.15817082 0.022328386
000120 fb 4c 3d 3e 2f 73 0e bd a2 b2 35 3c fa 3b 0f be
       0.18486397 -0.034777816 0.011089953 -0.13987723
000130 97 68 9e 3d a4 3a 68 3c 38 b0 38 bd dd c4 29 be
       0.07734793 0.014174137 -0.04508993 -0.16579004
000140 ef b2 68 be 2a 3c 33 bd 3c fa 7c bc cc 90 54 be
       -0.22724508 -0.04375855 -0.01544052 -0.2075836
000150 45 f6 5a bd e1 41 49 be 2f d5 88 3c a0 50 1e be
       -0.053457517 -0.19654037 0.016703216 -0.15460443
000160 38 79 be bd 2b 3d 0c be 72 ed 17 be d4 28 1a 3d
       -0.093004644 -0.13695209 -0.14836672 0.037636593
000170 74 66 8d 3e 37 61 0c 3d 96 83 9a bd 5d fc 42 3e
       0.27617228 0.0342724 -0.07544629 0.19041581
000180 79 a0 cb bb e8 5c 24 be 5a 5b a4 bd 95 84 64 3b
       -0.006214198 -0.16051066 -0.080252364 0.0034869064
000190 74 9b 1a be 74 57 fd 3d 6f 4c 84 39 ed 7a 02 be
       -0.15098363 0.12370196 0.0002523395 -0.12742205
0001a0 65 18 0e bd b5 fe 14 bd 35 82 e1 bd fd 08 15 3d
       -0.034691233 -0.03637572 -0.11011163 0.036385525
0001b0 63 d6 45 bd 53 16 3b be 65 b6 31 bd f2 00 41 3e
       -0.04830016 -0.18270235 -0.043386836 0.18848017
0001c0 75 24 2a be c3 89 9f be 34 8b ce bd c3 83 0c be
       -0.1661547 -0.3115979 -0.10085145 -0.13722138
0001d0 79 1f 12 bd c0 f0 aa bd 97 20 ef bd ed 8f 09 be
       -0.035674546 -0.08346701 -0.11676138 -0.1343381
0001e0 93 ac 1d bd 24 fc ff 3d 60 99 fb bd 9b a2 5b bd
       -0.038494658 0.12499264 -0.12285113 -0.05362187
0001f0 79 87 c9 bd 03 81 29 be 1f bd 3b bd e9 67 27 3d
       -0.098402925 -0.1655312 -0.045834657 0.04087058

conv1.lin.weight f4 [9, 3]
000000 e3 14 e9 be f7 83 12 bf 83 bd 4b bf 2b 74 bd bd
       -0.45523748 -0.5723261 -0.79586047 -0.09250673
000010 48 0d 45 3f 62 5a 0e bf 58 91 c7 be c3 53 f6 be
       0.7697339 -0.55606663 -0.38978076 -0.4811078
000020 ca 1a 0c bf 01 35 b5 3d 64 aa 1a 3e dc 5a 3d be
       -0.54728377 0.08848 0.15104061 -0.18491691
000030 54 92 89 be 60 db a9 bc e2 7c b1 3d 0f 7f 55 bd
       -0.26869452 -0.020734489 0.08666398 -0.052123126
000040 25 9e 63 3f 2d ba 14 bf 4a d4 c3 3e e5 6b c0 be
       0.88913184 -0.5809658 0.382479 -0.37582317
000050 c8 00 f1 bd 09 f0 dc 3b 38 2a 9a be ce ec 6b be
       -0.11767727 0.0067424816 -0.30110335 -0.23039553
000060 a8 31 00 3f d1 40 aa 3c b9 27 d8 bd
       0.5007577 0.02078286 -0.105544515

conv1.lin.bias f4 [9]
000000 04 96 b8 be 84 32 0b 3f 32 ec 61 3e 12 66 d5 3d
       -0.36051953 0.54373956 0.22062758 0.10419859
000010 07 70 9f bd a3 51 c4 bd a8 e7 0e bf 4e 0f 48 3e
       -0.077850394 -0.095858835 -0.5582223 0.19537088
000020 45 31 bc 3d
       0.09189085

conv2.nn.0.weight f4 [256, 128]
000000 de 3c 42 3d 4c 67 30 3e 9f 9b 07 3e af a7 bc bb
       0.04742133 0.17226905 0.13242958 -0.005757294
000010 4f 6b 80 3e da 14 c6 bd 4a ed 48 3e f5 f2 04 3d
       0.2508187 -0.09671946 0.19621769 0.032458264
000020 bd 44 60 bd 11 6e f7 3d 90 4b 26 be 7f e0 a2 be
       -0.054753054 0.120815404 -0.16239762 -0.31811902
000030 2a 34 2a be b3 f6 b7 3c 92 a7 b6 3d 74 29 5f 3f
       -0.16621462 0.022456503 0.0891868 0.8717263
000040 4e 6b 29 3e 0b 49 a7 3d 64 e2 f9 3d c0 36 6c 3d
       0.1654484 0.08168229 0.12201384 0.0576694
000050 dd 5a f6 3d 75 47 91 3c 31 b5 46 be f5 88 d1 be
       0.120290495 0.017734269 -0.19405057 -0.40924802
000060 62 85 f3 3d a5 4c 3c be ba c8 e3 3d 61 a5 f1 bc
       0.11890675 -0.18388613 0.1112227 -0.029497804
000070 3d 44 53 be 5a 49 23 3d d9 26 3b 3e c6 fc 74 be
       -0.206315 0.039864875 0.18276538 -0.2392455
000080 e0 7d fc 3c 71 08 ba 3c 99 9a 5e bd b6 e3 90 bd
       0.03082174 0.022709103 -0.054346655 -0.070746824
000090 ed da 14 be dd 43 30 be 94 3c da bb f5 75 69 3d
       -0.14536639 -0.17213388 -0.0066600535 0.05699726
0000a0 11 6d 75 3e 3f c3 22 3e ef aa e8 bd 58 2d 3d 3d
       0.23967387 0.15894793 -0.11360728 0.04618582
0000b0 61 05 14 be 5d e8 dc 3d 4d 20 0f 3e af 84 6b be
       -0.14455177 0.10786507 0.13977166 -0.22999834
0000c0 f7 62 e4 3d d0 e0 8d 3d 6c b0 19 bf b5 f0 ef bc
       0.111516885 0.06927645 -0.60034823 -0.029289583
0000d0 51 b8 15 be be e4 6d 3d a0 61 42 be 13 34 e4 3d
       -0.14621092 0.058079474 -0.18982553 0.11142745
0000e0 45 d9 17 3e 30 cf 13 3d 70 69 a6 ba 04 91 63 3e
       0.14828975 0.03608626 -0.0012696218 0.22223288
0000f0 f9 72 01 3d de 6b f7 3d cc 7b c0 3d af 54 ec 3d
       0.031603787 0.12081121 0.093986124 0.115395896
000100 3f 54 bf 3c 06 1a 4d bd 7d d6 a3 bb 99 c4 39 be
       0.023355601 -0.050073646 -0.004999934 -0.18141402
000110 00 4e ba 3d ac 3c c4 bb c6 0d fa 3d c0 24 45 3d
       0.090969086 -0.005988678 0.12209658 0.04813075
000120 0f e7 ed be 11 73 61 bd 7e c7 80 bd 25 65 03 bf
       -0.46465346 -0.055041377 -0.0628805 -0.5132621
000130 e1 24 15 be d9 06 95 3d 12 88 e7 bd 0b 35 0a 3b
       -0.1456485 0.07276697 -0.1130525 0.0021088745
000140 96 c2 fa ba b0 f0 02 be 95 f0 0b be 62 d8 d7 3d
       -0.0019131477 -0.12787127 -0.13665994 0.105393186
000150 84 43 bf bd b1 ba c8 bd e3 69 38 3d c1 37 9b 3b
       -0.093390495 -0.098012336 0.045022856 0.004736871
000160 69 ce 92 be 6e e1 16 3e 77 6e 81 bd a4 12 d5 be
       -0.28673103 0.14734432 -0.063198976 -0.41615784
000170 af 61 2c be be a6 b2 3d e7 90 14 bd 3e 83 47 3c
       -0.16834138 0.0872321 -0.036271002 0.012177287
000180 4b 1e 29 be 3b e2 ae be 4b 66 24 be 4e fb 94 bd
       -0.16515462 -0.34156975 -0.16054647 -0.07274495
000190 97 62 5d be 1f 52 2f bd 20 10 bf 3d 61 af e8 3c
       -0.2161964 -0.042802926 0.093292475 0.02840394
0001a0 0b ba 43 3d c6 e1 8a 3c f4 a4 11 3e 31 f7 10 3e
       0.047784846 0.01695336 0.14223081 0.14156796
0001b0 71 99 6c 3e c0 f7 9a bb f0 9a 86 3e 3c 26 14 3e
       0.23105408 -0.004729241 0.26290083 0.1446771
0001c0 43 63 4a 3d 74 5c 1d 3e d3 43 68 3e 1c 24 1f be
       0.04941107 0.153673 0.22682123 -0.15541118
0001d0 c7 fd 01 be 3d b9 68 3e 56 96 2e 3e 28 8a b4 bc
       -0.12694465 0.22726913 0.17049536 -0.022038534
0001e0 f6 80 ce bd ff 06 ad be 8c 42 4a 3e 6c ed 4c be
       -0.10083191 -0.337944 0.19751948 -0.20012444
0001f0 db 69 3b 3e 5b 93 db bd 2b 4f 0a 3d 0d db 7e 3d
       0.183021 -0.10721465 0.033766907 0.06222062
000200 b1 cc 6d bd 31 55 08 3c 5c 5e 8c be 0b 5a 1c 3e
       -0.058056537 0.008321092 -0.2741574 0.15268724
000210 89 2e 97 3e 00 97 75 be 85 a2 6a 3d 86 65 9c bd
       0.2952769 -0.23983383 0.057283897 -0.076365516
000220 69 9b a6 3d 8b 7d 99 be 29 79 87 bc eb 99 8e 3d
       0.08135111 -0.29978594 -0.016537266 0.06962951
000230 60 72 02 3d 15 c6 65 bd ff 19 67 be f0 1d d0 3e
       0.031847358 -0.05609711 -0.2256851 0.4064784
000240 2a cb 18 3e 7e 98 aa be 2e 97 55 be 74 d9 e6 3c
       0.14921251 -0.33319467 -0.20858452 0.028179862
000250 a4 cf 89 be e7 39 33 bd ed ef a9 3d ec b6 8e bd
       -0.2691623 -0.04375639 0.08297715 -0.06968483
000260 1a 73 5c 3d db d0 80 be ac 24 71 3e c7 62 a8 3d
       0.053820707 -0.25159344 0.23549145 0.08221965
000270 22 fd 31 3e a2 da e4 be 35 28 06 3e 22 a9 11 3e
       0.17381719 -0.44698054 0.13101275 0.14224675
000280 0f 4c ad be f8 37 99 bd d3 a0 4b 3d 91 d9 c4 bc
       -0.3384709 -0.07481378 0.04971392 -0.024029525
000290 af 13 f7 3d 94 51 bd be 0e 65 70 3d c4 0d 86 bc
       0.12064301 -0.36976302 0.058690123 -0.016363986
0002a0 44 3b 40 3e f9 3a 06 3e 05 9e d9 bd 66 33 d9 3b
       0.18772608 0.13108434 -0.10625843 0.0066284416
0002b0 3c 3f a1 bd 48 1e d4 bd 1d 9f 83 3e 2a 0b 5d 3d
       -0.07873389 -0.10357338 0.2570733 0.053965725
0002c0 bf d7 8b be 97 b9 d3 bc 7f c5 9d bd b2 39 f8 3d
       -0.2731304 -0.025845332 -0.07703685 0.121203795
0002d0 25 67 87 3e f6 d1 98 3d 9b 52 df 3d 84 cd 97 3d
       0.2644588 0.07461922 0.109044276 0.07412246
0002e0 6d 86 05 3e 1e d6 d1 bc ae 23 73 bc 4c 23 76 bc
       0.1303956 -0.025614794 -0.01484005 -0.015023064
0002f0 82 32 a3 3d 24 8a 10 3e d0 db b4 bc ed ad 3c 3d
       0.07968618 0.14115196 -0.022077471 0.046064306
000300 74 04 ba 3d d8 8e d4 bb b1 b5 86 bd 1e 38 49 3e
       0.090828806 -0.006486755 -0.06577624 0.19650313
000310 48 25 28 bd 45 9c 9c bc 66 20 80 3c 60 a8 2b bd
       -0.04105118 -0.019117484 0.015640449 -0.04190862
000320 30 bb d9 3d 8a 48 12 3d 03 e6 a1 3d b5 79 ed bd
       0.10631406 0.03571371 0.079051994 -0.115954794
000330 fd 5b 23 be dc 88 bc 3c 65 b3 a8 3e eb 3b 41 3d
       -0.1595306 0.023014478 0.32949367 0.047176283
000340 df e1 45 3b 49 5c 7f bd 03 f3 54 3d 86 f6 88 be
       0.0030194444 -0.06234387 0.051989567 -0.26750582
000350 5e 5b 2c 3e c8 75 31 be bf bf 88 3e 34 08 5d 3c
       0.16831729 -0.17330086 0.2670879 0.013490725
000360 b7 de b9 3d a9 fe ce 3e 1a 6f fe 3d 7b 3b 95 be
       0.090756826 0.40428665 0.12423535 -0.29146942
000370 9a ca 5f bd fc 55 43 be 8b 91 83 bd c6 bb b9 3e
       -0.054636575 -0.19075769 -0.064242445 0.36276072
000380 39 f7 4d bd 3b d2 94 bd 73 36 d7 bb f5 7c 80 bd
       -0.050284598 -0.07266661 -0.00656777 -0.06273834
000390 cf 7d 75 be 73 3e 08 bd 7e 03 ee be 6f be 9d 3c
       -0.23973773 -0.03326268 -0.4648704 0.019255845
0003a0 6f 39 7d be fc 47 ac bd 8f d9 b2 bd 4b 29 0e be
       -0.2472894 -0.084121674 -0.08732902 -0.1388294
0003b0 2d 4f 56 be 7c ed 39 3d 88 b2 0c bd 98 da 59 3d
       -0.2092864 0.0453925 -0.03434995 0.053186983
0003c0 b3 10 d6 3c 06 9b 3a 3e f6 82 bd 3e 94 34 1a 3c
       0.02613101 0.18223199 0.37013978 0.00941195
0003d0 f5 0c 69 bd a4 fc af bd 99 2c 1a bd 54 c3 3b 3e
       -0.056897122 -0.08593109 -0.037640188 0.1833623
0003e0 81 5c a8 bd 6d c9 71 be 45 81 52 be 14 a3 20 bb
       -0.08220769 -0.23611994 -0.20557125 -0.0024511265
0003f0 13 e0 0b 3c b5 94 38 3d 37 6a c8 3d 39 6b 17 be
       0.00853731 0.045063693 0.09785884 -0.14786996

conv2.nn.0.bias f4 [256]
000000 bc b9 af 3c 97 1c 69 be e3 f8 68 be 41 b9 1a bd
       0.02145087 -0.22764812 -0.22751193 -0.03777433
000010 57 f1 14 be 3e b4 17 be 4d 7b 25 3d 37 8a c8 bc
       -0.14545189 -0.1481485 0.040400792 -0.024479968
000020 c2 19 9b bd 5c e5 73 be be ac de 3d 55 1b 3b bd
       -0.07573272 -0.23817962 0.10872792 -0.045680363
000030 b6 7b 29 be 89 3c 02 be 8b 02 89 3d 8a b8 e0 bd
       -0.16551098 -0.12718405 0.06689938 -0.10972698
000040 a0 3b ea bd 4c 58 c7 bd f5 08 7d bd 46 b9 06 be
       -0.11437154 -0.09733638 -0.06177612 -0.13156614
000050 0c 82 86 bd f2 c0 a0 3d fb d1 17 be 16 37 cd 3d
       -0.06567773 0.078493014 -0.14826195 0.100202724
000060 66 30 2d 3e bd 94 81 bd 3c 3d 0a 3e 63 ea 16 be
       0.16912994 -0.06327198 0.13499922 -0.14737849
000070 63 a2 3b be 80 bd b9 bd a3 42 b1 be 0e 64 ca bd
       -0.18323664 -0.090693474 -0.34621152 -0.09882365
000080 20 e2 da bd 93 cd ee bd 5e 24 62 bd af 89 da bd
       -0.10687661 -0.11660304 -0.055210464 -0.10670792
000090 d6 6e c9 ba 1e a3 cb 3c 0d 38 2f 3c 89 5c 4e bd
       -0.0015368115 0.024858054 0.010694516 -0.050381217
0000a0 7d 2b 02 bc 83 58 4c 3d 55 cb a4 bc da cf 1e bd
       -0.007944939 0.0498891 -0.020116488 -0.03877244
0000b0 85 5f af bd 02 44 bf 3a 66 de d4 bd 8c f0 36 3e
       -0.08563141 0.0014592411 -0.10393982 0.17865199
0000c0 89 5d bb 3c 49 ce 00 be c9 97 86 bd 4c 7b 07 be
       0.02287175 -0.12578692 -0.065719195 -0.13230628
0000d0 2e d5 b0 bd 5b d8 62 bd 7f 5c 35 be cd 40 6e bd
       -0.08634411 -0.055382114 -0.17711066 -0.058167268
0000e0 70 8c 59 be 95 ac eb bd 53 12 81 bc e5 bf e6 bd
       -0.21244979 -0.11507527 -0.015755808 -0.1126707
0000f0 0a d7 e7 bd 45 8d f7 bd 85 46 9d bd bc 48 cd bd
       -0.11320312 -0.12087492 -0.07679466 -0.100236386
000100 44 eb 96 bd b6 02 de be 9e 1d 2c be 43 48 64 bc
       -0.07369092 -0.43361443 -0.16808173 -0.013933244
000110 fe f7 41 3b c0 df d3 bd 96 40 29 be 5f cb 52 bd
       0.0029597278 -0.10345411 -0.16528544 -0.05146348
000120 12 22 ff bd 17 eb 20 be b7 fd fe bd c5 b4 8b bd
       -0.1245767 -0.1571468 -0.12450736 -0.068215884
000130 36 1c 1e 3d c6 c1 72 3d dd a9 aa be e1 e2 79 bd
       0.038601123 0.059266828 -0.3333272 -0.061007384
000140 83 3d 1a 3e f2 ad c0 bd f7 21 ce bd 59 e1 9d be
       0.15062527 -0.094081774 -0.10065072 -0.3083599
000150 e5 ee 9b 3c 64 1d d5 be 56 72 84 be 39 5e d9 bd
       0.019034812 -0.41623986 -0.2586848 -0.10613675
000160 07 79 aa bd 07 6f 89 bd 67 21 ea bd a5 57 de bd
       -0.083238654 -0.0671063 -0.11432152 -0.108565606
000170 b6 0f ff bd 4b 05 b9 be 1f 2e 12 bd af 4f 2f 3e
       -0.124541685 -0.3613685 -0.035688516 0.1712024
000180 93 0a 0f be 04 0b 9b be 9c a4 05 be 4f fb 0d 3e
       -0.13968877 -0.30281842 -0.13051075 0.13865398
000190 4a 55 68 bd dd 26 46 be fc 42 c7 bb f7 d4 7f bd
       -0.056721963 -0.19350763 -0.006080983 -0.06245896
0001a0 c1 e6 6f 3d dc 41 0d 3e 20 ee 4d bd c3 4b 3b bd
       0.058569673 0.13794655 -0.05027592 -0.04572655
0001b0 81 26 a6 bd a6 d6 bd 3c 66 e3 a0 bd b3 9e 84 bd
       -0.08112813 0.023173641 -0.07855873 -0.06475582
0001c0 70 7c c0 bd 93 27 a6 be 6c b2 32 be 58 50 b0 bd
       -0.093987346 -0.32452068 -0.17450875 -0.08609074
0001d0 19 f7 30 bd 01 be b3 bd a2 98 cd 3e ea c2 99 bd
       -0.0432044 -0.08776475 0.40155512 -0.0750788
0001e0 38 88 a9 3e 81 3c a4 bd 2c 4c e6 bd 18 dc 4b be
       0.3311174 -0.08019353 -0.112449974 -0.19908178
0001f0 7b a8 d7 bd 1a d4 ab bd 44 6d d8 bd 1d e1 9a bd
       -0.10530182 -0.083900645 -0.10567716 -0.07562468
000200 d6 d9 99 bc 52 bc b3 bc b6 d6 a1 bd 8c b6 96 be
       -0.01878063 -0.021940384 -0.07902281 -0.29436147
000210 52 01 09 bd ad 71 4e bd 9a 10 01 bd 95 56 21 bd
       -0.033448525 -0.05040138 -0.031509973 -0.03938921
000220 6d c3 25 bd 4c b8 99 3c c9 04 0e bd 25 e8 0d be
       -0.040469576 0.018764637 -0.034672532 -0.13858087
000230 e9 85 47 be 39 ed 06 be 4c bd ab bd 90 67 ee bd
       -0.19484676 -0.13176431 -0.08385715 -0.11640847
000240 48 37 01 be a8 9a 0d be a7 31 15 bd 84 48 8b ba
       -0.12618744 -0.13828528 -0.036424305 -0.001062647
000250 d0 d2 fb bd 34 a4 72 3e dd 69 a1 bd 16 0c 26 bf
       -0.12296069 0.23695451 -0.0788152 -0.6486219
000260 ec 2e 35 3d 3c 8a b4 bd 78 a4 1b be b7 a0 d6 bb
       0.0442342 -0.088154286 -0.15199459 -0.0065499204
000270 7f 67 59 bd 06 63 24 3e 31 26 13 be bc cf 07 be
       -0.053077217 0.160534 -0.14370038 -0.13262838
000280 a0 43 6f 3c 22 77 9d bd 0f 8c 00 3e 87 2f 1e be
       0.014603525 -0.076887384 0.12553428 -0.15447818
000290 7b 42 26 be cc 77 0f bc 3b 38 ba bd 51 10 2a 3e
       -0.16236298 -0.008756589 -0.09092756 0.16607787
0002a0 56 58 c5 bd 07 d6 a6 be 4b 39 f9 bd 84 6a e7 bd
       -0.09635989 -0.32585165 -0.12169131 -0.11299613
0002b0 58 e8 06 be 8e 1b b2 be 7f c0 1b be 33 01 d1 3e
       -0.1317457 -0.34786648 -0.1521015 0.40821227
0002c0 b0 95 00 be d2 46 0e 3f 64 4f ba be 6e 0c 22 be
       -0.12557101 0.55576813 -0.36388695 -0.15825054
0002d0 3b cd 9b 3c e9 cc e9 bd 59 24 91 3d 0c 4b 15 be
       0.01901876 -0.11416037 0.07087011 -0.1457941
0002e0 10 ec 22 bd af ff 38 be 8b fa f5 3b 7d 05 00 be
       -0.039775908 -0.18066286 0.0075066737 -0.12502094
0002f0 29 cb 1b be 6b 93 73 bd f7 04 a6 bc 00 c4 c4 bd
       -0.15214218 -0.05946676 -0.02026604 -0.096076965
000300 21 8a b3 3e 4d fd 35 be 5c a8 e2 3c d4 28 c2 3b
       0.35066321 -0.17772408 0.02766817 0.0059252772
000310 90 62 06 be ae f0 e6 bc fc 06 cb bd a1 32 10 be
       -0.13123536 -0.028190937 -0.099134415 -0.14081813
000320 0f cb 5e be aa 74 a3 bc 45 1f 77 be 05 0c 79 be
       -0.21757148 -0.01995309 -0.24133022 -0.24320991
000330 fe f5 45 bd 1c 54 53 bd bd 69 e0 bd d3 30 10 be
       -0.0483303 -0.051593885 -0.10957668 -0.14081125
000340 39 44 8e bd 22 cc c7 bd 0d 23 6a bd 32 3f 36 be
       -0.06946606 -0.09755732 -0.057162333 -0.17797545
000350 c8 e8 9a 3d a1 5d 55 3d 3e 6a 2d be 61 d8 a8 3d
       0.07563931 0.052091245 -0.1693506 0.08244396
000360 88 05 14 be 9e 78 b7 be 02 ab 0b be 21 94 cb be
       -0.14455235 -0.3583421 -0.13639453 -0.3976145
000370 d8 07 98 bd ed 9a 80 be f2 1d c1 3d b2 67 8d be
       -0.07423371 -0.251182 0.0942954 -0.27618176
000380 a1 75 27 be 96 e2 03 be 99 6f 15 be 87 60 53 bd
       -0.16353466 -0.12879404 -0.14593352 -0.051605728
000390 ce ef db bd ab fc 0b be b7 0a e1 bd 0d 6d 11 be
       -0.107390985 -0.13670604 -0.10988372 -0.14201756
0003a0 77 ae c4 bc 00 f4 8d bd cb bb 48 3e 72 62 e3 bd
       -0.024008973 -0.06931305 0.19602887 -0.11102761
0003b0 a7 b8 8e be 60 5d d2 bd 4d 6c 4b bd 73 af 2b 3e
       -0.27875254 -0.10271716 -0.04966383 0.16766147
0003c0 f9 9d 90 3d 27 f6 3f be d8 e0 30 be 66 3a 06 be
       0.07061381 -0.18746243 -0.17273271 -0.13108215
0003d0 b4 bc e6 bd a9 2c 96 bd d2 3c e3 bd 9f 45 96 bd
       -0.11266461 -0.07332737 -0.11095585 -0.07337498
0003e0 a3 31 03 be 81 a9 0d bd 4f 01 22 be dc 43 07 3e
       -0.12811904 -0.03458548 -0.15820812 0.1320948
0003f0 9d c2 cc 3d ac ae 53 be 86 61 06 bf 25 6f 63 bd
       0.09998057 -0.20672101 -0.5249256 -0.055525918

conv2.nn.2.weight f4 [128, 256]
000000 80 bf 38 3c 60 18 eb bc be b8 ee 3c d2 bb 4b bd
       0.011276126 -0.028698146 0.029140826 -0.049739666
000010 23 67 89 3d a4 40 95 3c 42 c0 4a 3b e0 d0 29 bb
       0.06709125 0.0182193 0.0030937348 -0.0025911853
000020 c8 cb 8b bc 57 77 38 3d 7b 9b a2 bc 26 0c 88 bc
       -0.017064944 0.045035686 -0.01984953 -0.016607355
000030 8f 8a 21 ba 6b 5c f1 3c 49 4f 95 bb 2f b7 4e 3d
       -0.00061623094 0.029463014 -0.0045565707 0.050467666
000040 84 67 db bc d9 65 e2 bc 8f 4b 86 3c 7d 24 21 bd
       -0.026782759 -0.027636455 0.016393451 -0.03934144
000050 39 ef 40 3d 4e 82 36 3d 47 b4 b3 3c 85 bf 5d bd
       0.04710314 0.044557862 0.021936549 -0.054137725
000060 37 c9 e8 bc 02 e9 90 3c a1 fc 90 bd e1 6c 89 3c
       -0.02841626 0.017689232 -0.07079435 0.01677555
000070 a6 8d 0c be 99 d0 0b 3d 68 bb d4 bd 44 89 25 3d
       -0.1372591 0.03413448 -0.103873074 0.04041411
000080 88 f3 99 3c 2a 1c a2 3c df d8 f4 3c 13 7d 26 bc
       0.018792883 0.01978882 0.029888568 -0.010161656
000090 2c 11 7e bd 55 78 48 bd b6 48 b3 bd 2e b6 c3 bc
       -0.062028095 -0.048942883 -0.08754103 -0.023890581
0000a0 d3 c2 82 bc d0 31 14 3c 65 79 32 3d a8 6d 5a bd
       -0.01596204 0.009045079 0.043572802 -0.053327233
0000b0 6c 05 a1 bc 47 bf 60 bd 4e 5b a4 3c 8b 58 d0 bc
       -0.019655906 -0.054869916 0.020063069 -0.025432846
0000c0 4e 50 d4 bc 94 eb 01 3d fa 27 33 3d 2f 94 a4 bc
       -0.025917199 0.031718805 0.043739296 -0.02009019
0000d0 e0 07 2f bc 86 04 13 3c c4 7a 32 bd 4d c0 e0 bc
       -0.01068303 0.008973246 -0.04357411 -0.027435446
0000e0 45 4f a6 bd 4b d0 9a bd 5b 56 97 bd 95 df 13 bd
       -0.08120588 -0.0755926 -0.07389518 -0.036101896
0000f0 d6 91 93 bd b2 f1 7b 3c f7 be bb 3c da 8e 93 3c
       -0.072055504 0.015377449 0.022918208 0.018012453
000100 92 44 37 3c 5f 95 f4 bb 86 c0 15 bd 71 61 af 3d
       0.011185782 -0.0074640955 -0.036560558 0.08563507
000110 76 55 08 bd 3d fc c9 3c 04 96 83 bc ad b0 8b bc
       -0.033284627 0.02465641 -0.016062744 -0.017052019
000120 c2 9d 9b bd 3f 22 88 bd 6e 26 d2 bc 1a bb 85 bd
       -0.07598449 -0.06647157 -0.02565309 -0.065298274
000130 30 c1 7a bd a2 ed 5f bd 24 7d 98 bd 7f ee 21 bd
       -0.061219394 -0.054669984 -0.07445744 -0.03953409
000140 8d 3e 85 bd 0c 58 be 3c 48 4c 55 bd 7a 89 05 be
       -0.06506071 0.023235343 -0.0520747 -0.13040724
000150 6d d8 06 3d 7d 2e f4 bd ac f2 b6 3c 23 a2 2c bc
       0.032921243 -0.119229294 0.022332512 -0.010536703
000160 f5 20 38 bd 30 39 76 bd ca 5c d1 bc b7 10 82 bd
       -0.044953305 -0.060113132 -0.02555694 -0.06350844
000170 02 75 c2 bd f0 1e 49 bc c1 af 01 bd ae 17 0d 3c
       -0.09494974 -0.0122754425 -0.031661753 0.008611603
000180 e0 ca e4 3b ad 32 e5 bd d5 b4 09 bd 42 30 7e bd
       0.0069821924 -0.11191306 -0.03361972 -0.06205774
000190 fa 63 4f bd fa 1e 3f 3d 2e 2a 1d be 9c fd 34 3d
       -0.050632454 0.0466604 -0.15348122 0.044187173
0001a0 61 3e 86 bd d7 c3 f1 3c 43 c4 99 bd 06 8d 99 bb
       -0.065548666 0.029512329 -0.07508137 -0.0046860008
0001b0 01 3b 25 bc 9f ae 11 bd 28 7f 7c 3d c0 80 6e 3d
       -0.010084868 -0.035566922 0.061644703 0.058228254
0001c0 9e 65 e2 bc 7e b4 e0 3b e0 30 0f be 80 11 20 bb
       -0.027636345 0.006857454 -0.13983488 -0.0024424493
0001d0 fc 5d 3f bc 10 33 e5 3c 62 95 42 3c 63 ab 6b bd
       -0.011680122 0.02797845 0.011876436 -0.057536494
0001e0 9c 91 84 3d 23 2a a2 3d 7c b4 5d bd 36 83 94 bd
       0.06473085 0.07918193 -0.0541272 -0.07251589
0001f0 48 a8 71 3d d1 6d 49 3c 14 df 03 3d a8 58 af 3d
       0.058998376 0.012294249 0.032195166 0.08561832
000200 18 1c b7 3c 7e 1a 93 bd 0d ad 21 3c 10 71 24 bb
       0.022352263 -0.07182787 0.009867919 -0.0025091805
000210 b1 5f 1b 3d 64 cf b8 3c 7e 81 2a bd f8 64 67 bd
       0.037933055 0.022559829 -0.0416274 -0.056492776
000220 a5 a2 75 b7 e2 55 3d bd 64 b2 43 bb 90 77 5c bc
       -1.4641007e-05 -0.046224482 -0.0029860968 -0.01345624
000230 cc f6 5f bd 76 d4 24 bd 4f 0a e6 bd 11 57 0c 3b
       -0.054678723 -0.04024168 -0.11232435 0.00214142
000240 c0 6a 15 3c 38 eb 2c 3c 4a a9 93 bd 87 37 e6 bc
       0.009119689 0.010554127 -0.07210024 -0.02810265
000250 43 ac f7 b8 59 3c 48 bc 78 85 63 3d 8f ed ac bd
       -0.00011809964 -0.012221419 0.055547208 -0.08443748
000260 fc 0d 6a bc 4a 4c 07 bd 82 90 22 3d 18 17 be bc
       -0.014285561 -0.03303174 0.039688595 -0.023204371
000270 04 09 0e 3c 5a c5 6b 3d e3 77 2e 3c c0 d5 6a 3c
       0.008669142 0.057561256 0.0106487 0.0143331885
000280 9d d1 20 3d 44 84 87 bb 05 16 3f bd 67 d9 12 3d
       0.039262403 -0.0041356403 -0.04665186 0.035851862
000290 24 e3 2a 3c 67 ff 96 3c a8 85 f7 ba 85 ca ca 3b
       0.010430131 0.018432332 -0.0018884437 0.006188693
0002a0 5c af f2 bc ff 18 13 3b b0 81 0e bd f0 07 e6 bd
       -0.029624633 0.0022445319 -0.03479165 -0.11231983
0002b0 64 10 9a bd aa 03 e5 3c b0 09 83 bb 2f 7c c3 3b
       -0.075226575 0.027955849 -0.0039989576 0.0059657316
0002c0 c5 e5 54 3d 49 6e 02 bd ac 07 82 bd ae cc 42 bd
       0.051976938 -0.031843457 -0.063491195 -0.04755848
0002d0 26 1b 29 bd 38 64 5c 3d a6 e5 0b bd 53 bd 5a bd
       -0.041285656 0.053806514 -0.034154557 -0.05340321
0002e0 ee 2e 0d bd 2d f7 91 3c 25 89 3d 3d 80 98 73 3c
       -0.034468584 0.017818058 0.04627337 0.014867902
0002f0 cf 7c 24 be 92 93 6c bd 21 db c6 3c 1a 92 11 3d
       -0.16063236 -0.05775792 0.02427441 0.035539724
000300 c7 3c 31 bd 6b 60 2f bd b1 36 4d bc c4 76 58 bd
       -0.043270852 -0.04281656 -0.0125252465 -0.05284764
000310 84 39 c3 bc e2 52 06 bd 32 1d 18 bb d6 89 d1 3c
       -0.023831137 -0.032793887 -0.002321076 0.02557842
000320 7b f4 34 bd a6 54 27 bd 06 62 82 bd 15 79 a6 bd
       -0.044178467 -0.04085221 -0.06366353 -0.08128563
000330 99 73 57 3d a3 d0 c3 3b d9 d6 75 bb a8 26 54 bd
       0.052600477 0.005975799 -0.0037512092 -0.051794678
000340 50 77 e9 3b 1f 24 59 bd c3 1d 70 bb 3a 6e d7 bc
       0.007124819 -0.053012963 -0.0036638833 -0.026297677
000350 0c 1b 94 3c 0d de 6d 3c 51 82 61 3c 95 19 5a bd
       0.018079303 0.014518273 0.01376398 -0.053247053
000360 47 d1 99 bd 1a d9 93 bc 5d fe 38 3c e1 d7 3a 3c
       -0.075106196 -0.018047858 0.011291114 0.011404009
000370 bc b7 9e bd 84 ae 71 bc cd e0 34 bd 93 f9 80 bd
       -0.07749888 -0.01475108 -0.0441597 -0.062976025
000380 1c bd cd bb 3b a4 bc bc 7f 00 87 bd d2 77 91 bd
       -0.006278647 -0.02302753 -0.065918915 -0.07102932
000390 38 f8 05 3d 9e 88 ee bb 92 91 1d 3d 6a 34 25 3d
       0.032707423 -0.0072794696 0.038468905 0.04033319
0003a0 ad 23 14 3c 63 fd 2b 3d c8 3c 80 bd 2c d7 a1 bd
       0.009041709 0.041989695 -0.06261593 -0.07902369
0003b0 df 27 84 bd ba f7 5b 3d 99 9b d7 bb 0f 61 fc bd
       -0.06452917 0.053703047 -0.006579828 -0.123232
0003c0 f8 51 16 3d c8 b9 13 3d db 26 29 3d 79 40 2b bd
       0.036699265 0.036065847 0.04129682 -0.041809533
0003d0 f3 92 a7 39 b7 e9 4b bd 16 3f 20 be 40 78 50 bc
       0.00031962208 -0.049783435 -0.15649065 -0.012723982
0003e0 b4 2a 36 bd 7d 5c 77 3c 3a bd 1a bd a7 05 ce bd
       -0.04447432 0.0150977345 -0.037778117 -0.10059672
0003f0 d8 a4 40 bc 43 7b 16 3d 44 ec d8 bd 30 cd 39 3d
       -0.011758052 0.036738645 -0.10591939 0.045361698

conv2.nn.2.bias f4 [128]
000000 62 5c 42 be f2 06 dc bc a0 56 c1 bd 52 76 6b be
       -0.18980554 -0.02685878 -0.094403505 -0.22994354
000010 01 a3 3b be 35 26 47 3e b6 67 bf bd 69 e5 01 be
       -0.183239 0.19448169 -0.09345953 -0.1268517
000020 d6 8c 3d 3e 83 46 c4 3d 4a ad d9 bd 17 3f 79 be
       0.18510756 0.095837615 -0.106287554 -0.24340473
000030 02 6a 86 be d4 48 6b be 3c 0d 81 be 90 22 ab 3d
       -0.26252753 -0.22977 -0.2520541 0.08356202
000040 3a fd 76 be 4b 5c 21 be 70 c3 37 be 41 4f 33 be
       -0.24120036 -0.15757863 -0.17945647 -0.17510702
000050 55 d0 a0 bd 46 d8 18 be da 03 0b be 68 bf 4b be
       -0.07852236 -0.14926252 -0.13575688 -0.19897234
000060 80 b1 d9 3d 21 9f 29 be 42 f8 97 3d 66 eb 53 bd
       0.106295586 -0.16564609 0.07420398 -0.051738165
000070 ef a1 2d be 4f 0e 01 be 78 c4 da 3d cc 9e 0e 3e
       -0.16956304 -0.12603115 0.10682005 0.13927764
000080 97 cf 0b be e7 6f c2 bd 47 66 82 be 8e 22 4c be
       -0.13653408 -0.09494 -0.25468656 -0.19935057
000090 f1 fa da 3d 4c eb dc 3c 82 bc 61 be 5d b6 0c be
       0.106923945 0.026967667 -0.22044566 -0.13741441
0000a0 a2 86 cf 3d bf 08 7f bd 2e e7 c5 3d 94 b4 b6 bd
       0.10133101 -0.0622642 0.09663235 -0.08921161
0000b0 51 40 d3 bd c7 1e 6a be a0 9e 6f bb da 3c bb bc
       -0.10315002 -0.22863303 -0.0036563054 -0.022856165
0000c0 35 ce 67 be a4 3e a8 be aa 28 da bd 2a ba 15 3d
       -0.22637255 -0.3286029 -0.10652287 0.036554493
0000d0 4c 60 ff bd 7e 65 51 3e 32 e2 66 be 85 36 bc 3d
       -0.12469539 0.20448872 -0.22547224 0.09190086
0000e0 18 b3 aa bd f3 7a 98 be e4 9e 0f 3e 8f c5 0c be
       -0.08334941 -0.29781303 0.14025456 -0.13747238
0000f0 b8 fe 3e be ed b2 1e be b4 ec 1d be 7a f4 b2 bd
       -0.18651855 -0.15497942 -0.15422326 -0.087380365
000100 be 4e d5 bd 37 db e7 3d bf 3a bf bd 2e 8a 89 be
       -0.104154095 0.11321109 -0.09337377 -0.26863235
000110 e2 c0 14 3e bd 69 d8 bd 17 a5 4a be 3a ef 10 3e
       0.14526704 -0.10567043 -0.1978954 0.14153758
000120 66 25 d6 bd 4d 51 74 bd 40 3f e3 bd 9a 1d 00 be
       -0.10456352 -0.059647847 -0.11096048 -0.12511292
000130 4c 05 a3 be 02 94 ee bd ad 89 e3 bd b7 96 ea bc
       -0.3183998 -0.11649324 -0.11110244 -0.02863632
000140 54 db 52 3c bb b1 56 be 96 58 d5 bd b5 16 9d 3d
       0.012869675 -0.20966236 -0.10417287 0.07670347
000150 62 e1 ee bd f3 37 9f 3d f1 75 e3 3d 14 ee db bd
       -0.11664082 0.07774343 0.1110648 -0.10738769
000160 a6 04 3f be bf 0f 6f be ca 83 58 bd f6 2a af bd
       -0.18654117 -0.2334585 -0.05286006 -0.08553116
000170 2c 12 a9 bd 99 ca f8 bd a0 59 e1 3d 51 0f 5c 3d
       -0.08255419 -0.121480174 0.11003423 0.053725544
000180 24 5e 3f be 5b 74 9c bd a5 00 8e be c2 69 c5 3d
       -0.18688256 -0.076393805 -0.27734867 0.09639312
000190 0c 51 05 be 14 d0 5f be 35 c3 29 3e b4 24 43 be
       -0.13019198 -0.2185672 0.16578372 -0.1905697
0001a0 b8 fd 46 be 62 63 0c 3e ec b6 e6 bd d2 be 0b bd
       -0.19432724 0.13709787 -0.11265358 -0.034117527
0001b0 34 86 73 bd 7c 8d e8 bd 9f de 87 be 76 68 13 be
       -0.059454158 -0.11355111 -0.26537034 -0.14395317
0001c0 85 d8 84 be 01 82 c9 bd b7 7a 95 3c 75 1b 53 3e
       -0.2594644 -0.098392494 0.018246992 0.20615943
0001d0 0a ed 54 be 80 8c b4 bd 56 00 48 be 50 e3 2d be
       -0.20793548 -0.08815861 -0.19531378 -0.16981244
0001e0 46 7e 47 be 34 e2 00 be 36 f5 55 be c4 be 8b bd
       -0.19481763 -0.1258629 -0.20894322 -0.06823495
0001f0 e5 2e d6 bd 47 73 90 bd f2 1b d1 bd 54 ef ec bd
       -0.10458163 -0.070532374 -0.10210408 -0.11569086
